slenet.pth (torch_old, 252400 bytes, 36 tensors)

c1.weight f4 [6, 3, 5, 5]
-0.0019027384 -0.054518275 -0.02993657 -0.0020274566 -0.018646866 -0.0038423003 -0.055641398 -0.00034938834
0.027453993 5.983279e-05 -0.00022853275 -0.04302322 0.0012578287 -0.0011786663 -0.04230438 0.0016581164
0.009382346 0.00025179656 0.008656849 -0.0025370163 0.042423364 -0.042565707 0.030453617 -0.06004277
-0.041955993 0.00080543524 -0.001100063 -0.010585723 -0.033209536 0.009703061 0.037453447 -0.049523745
-0.00044617744 -0.0010258845 -0.0008267814 0.022641413 -0.00065893214 -0.000113973365 0.017594201 0.0018895818
0.053988837 -0.050819237 0.0014470369 -0.014701705 -0.00025853232 0.032852132 -0.04892482 -0.017305184
0.000614544 0.0073582125 -0.0022357907 0.05018406 0.034163605 -0.041293517 0.03886908 0.0055564963
0.04659371 -0.0021997453 0.017396098 0.061812103 -0.03564906 -0.00094038906 0.028226305 -0.012409547
-0.03352777 0.036255438 -0.00045147017 0.000980454 -0.0022448078 0.020278899 -0.001771355 -0.044444066
-0.049665548 -0.037907556 0.021591295 -0.01898767 0.0121376915 -0.018607026 0.0038652213 -0.016076462
0.0020493818 0.0043852264 -0.056930583 -0.039059613 0.034884855 0.052197624 0.05190426 -0.0480905
-0.012979239 0.007823561 0.0030633197 -0.01902644 -0.04580722 0.008372253 -0.042849485 0.0014432559
0.0018132541 -0.0529205 0.0066179396 0.009819322 -0.04514801 0.008983668 0.005955001 0.006170111
-0.043622162 0.025550384 -0.028617328 0.0059995293 0.008447822 0.019088868 0.0034047393 0.008193036
-0.007783482 0.008400369 0.005588908 0.010678205 0.040001042 0.0054919287 0.009955765 0.02265753
0.007345559 0.0071175722 -0.016406314 0.039640747 0.05587188 0.06103741 -0.011652533 -0.0025686973
-0.014401152 0.021806957 -0.017829211 0.0051683267 -0.060025398 0.0008687771 -0.038831115 0.047024902
0.013781401 0.05856059 0.010005879 0.059042554 -0.023910603 -0.0030617712 0.003828696 0.004720231
0.04643679 -0.0006478764 0.011171511 0.05736146 -0.02539243 0.026235072 -0.05206391 -0.03643742
0.05878953 -0.025486225 -0.0038046932 -0.0358085 -0.051908206 0.0019523159 0.059274096 0.058111113
0.007681059 0.0024960903 0.03163631 -0.013961407 -0.0018566108 -0.0038586014 -0.0019453823 0.013636545
-0.0015182114 -0.0016086414 0.016145024 -0.04649562 0.00129268 -0.0069718673 -0.0034958692 0.010333368
0.0027181504 0.00530508 0.0004928116 -0.017693974 -0.014031325 0.037555564 0.0045826845 -0.00028544932
-0.03680999 -0.04063613 0.03437318 0.0013243248 0.0074886912 0.00071507256 0.003944431 0.00420144
0.019284924 0.0030511338 0.055691533 0.033081207 0.0015692688 0.0446627 0.05263671 -0.023057431
0.057171036 0.0037260416 0.028789392 -0.0298217 0.01569426 0.0020983308 0.018484533 0.0016825956
-0.009972659 -0.04875421 0.0026897183 0.038410507 0.058337312 0.01897393 0.004288561 0.022358062
-0.0024621277 -0.050785627 0.003336168 -0.0035632835 0.0020499444 0.0097658895 -0.03366316 0.03253594
-0.0016274276 -0.0006518467 0.03872284 0.0011262699 -0.00069483713 0.014230464 0.01786129 0.040748272
-0.0012134339 -0.0022097789 -0.00021905838 -0.0021488387 0.055485375 -0.00083932135 -0.0044208863 0.0025902884
-0.0014889557 -0.003021471 -0.026026454 -0.027935369 0.05916857 -0.032590706 -0.02260446 -0.0029328582
-0.0026206695 0.022205433 0.0026066606 0.0031555842 0.01580284 0.041680586 0.054785654 0.042504378
00000000: 4e65 f9ba 8e4e 5fbd 8a3d f5bc 14df 04bb
00000010: 50c1 98bc 1acf 7bbb 3ce8 63bd 1c2e b7b9
00000020: 32e7 e03c f8f4 7a38 4ba2 6fb9 1e39 30bd
00000030: badd a43a 7a7d 9aba 5c47 2dbd 2755 d93a
00000040: 69b8 193c 9003 8439 75d5 0d3c 1244 26bb
00000050: 1fc4 2d3d 6159 2ebd dd79 f93c 68ef 75bd
00000060: 0cda 2bbd d823 533a fd2f 90ba be6f 2dbc
00000070: b906 08bd 96f9 1e3c c968 193d 69d9 4abd
00000080: ecec e9b9 f976 86ba 5cbc 58ba 7c7a b93c
00000090: 30bc 2cba fc04 efb8 b721 903c d8ab f73a
000000a0: 6623 5d3d d527 50bd 80aa bd3a 6cdf 70bc
000000b0: 9f8b 87b9 f58f 063d 6465 48bd 9ac3 8dbc
000000c0: 5a19 213a 291d f13b 5886 12bb cd8d 4d3d
000000d0: 23ef 0b3d 6423 29bd 2f35 1f3d 4513 b63b
000000e0: 0cd9 3e3d 9a29 10bb 4382 8e3c b02e 7d3d
000000f0: c004 12bd 7184 76ba da3a e73c 6a51 4bbc
00000100: 6a54 09bd 9580 143d 4db3 ecb9 9482 803a
00000110: a01d 13bb ef1f a63c d02c e8ba fb0a 36bd
00000120: 1a6e 4bbd f444 1bbd 3ae0 b03c 088c 9bbc
00000130: 2bdd 463c c36d 98bc a74f 7d3b c9b2 83bc
00000140: ec4e 063b f2b1 8f3b 0b30 69bd f9fc 1fbd
00000150: 6ce3 0e3d 2dcd 553d 9099 543d 8bfa 44bd
00000160: e0a6 54bc 652e 003c fac1 483b 56dd 9bbc
00000170: 5aa0 3bbd c62b 093c f182 2fbd a22b bd3a
00000180: b6aa ed3a 2bc3 58bd 4ddb d83b 39e1 203c
00000190: 1fed 38bd 3c30 133c 2b22 c33b a42e ca3b
000001a0: 27ad 32bd 0a4f d13c e36e eabc b397 c43b
000001b0: bc68 0a3c 4260 9c3c 0c22 5f3b 153c 063c
000001c0: 940c ffbb b4a1 093c 2923 b73b a3f3 2e3c
000001d0: 22d8 233d a3f5 b33b 811d 233c 499c b93c
000001e0: 04b3 f03b 863a e93b 8966 86bc 565e 223d
000001f0: ead9 643d 5d02 7a3d 44ea 3ebc 9757 28bb
00000200: cff2 6bbc 81a4 b23c 910e 92bc 115b a93b
00000210: 31dd 75bd a5be 633a 600d 1fbd 2f9d 403d
00000220: 63cb 613c 3bdd 6f3d b3ef 233c 9bd6 713d
00000230: 2be0 c3bc ffa7 48bb dcea 7a3b 2bac 9a3b
00000240: 8134 3e3d 40d6 29ba b708 373c daf3 6a3d
00000250: c903 d0bc efea d63c f740 55bd 673f 15bd
00000260: 4acd 703d 7dc8 d0bc 2958 79bb efab 12bd
00000270: b39d 54bd dae4 ff3a 65c9 723d eb05 6e3d
00000280: 65b1 fb3b 7295 233b 1395 013d 63be 64bc
00000290: 8559 f3ba 97e0 7cbb 33fc feba d16b 5f3c
000002a0: b9fe c6ba 0cd9 d2ba 9242 843c 3172 3ebd
000002b0: 256f a93a 4374 e4bb f41a 65bb 494d 293c
000002c0: ff22 323b 3dd6 ad3b 0730 013a f4f2 90bc
000002d0: a4e3 65bc ddd3 193d 582a 963b 5ca8 95b9
000002e0: 12c6 16bd 1272 26bd e4ca 0c3d f794 ad3a
000002f0: b263 f53b b573 3b3a 4940 813b 3cac 893b
00000300: 6bfb 9d3c 88f5 473b ce1c 643d 2980 073d
00000310: ecaf cd3a 3cf0 363d 9799 573d f0e2 bcbc
00000320: 2d2c 6a3d 9b30 743b bbd7 eb3c a34c f4bc
00000330: 4091 803c 2684 093b e06c 973c 8a8a dc3a
00000340: 5d64 23bc 7fb2 47bd fc45 303b 5654 1d3d
00000350: 1bf3 6e3d 376f 9b3c 0f87 8c3b 4128 b73c
00000360: a65b 21bb 9704 50bd 9ca3 5a3b fa85 69bb
00000370: 5c58 063b 1c01 203c 62e2 09bd 6844 053d
00000380: 694f d5ba b1e0 2aba d79b 1e3d 599f 933a
00000390: bb25 36ba e426 693c d751 923c a9e7 263d
000003a0: 160c 9fba f0d1 10bb 09b3 65b9 88d3 0cbb
000003b0: a244 633d e705 5cba 15dd 90bb d4c1 293b
000003c0: 1029 c3ba df03 46bb 6e35 d5bc b7d8 e4bc
000003d0: be5a 723d d57d 05bd fd2c b9bc 3235 40bb
000003e0: 8abf 2bbb 2be8 b53c 82d4 2a3b ebcd 4e3b
000003f0: f574 813c 43b9 2a3d ec66 603d 1219 2e3d

c1.bias f4 [6]
0.03511706 -0.00011699916 -0.0013202633 -0.00048227547 -0.043478075 0.00027252812
00000000: e8d6 0f3d 725d f5b8 af0c adba ebd9 fcb9
00000010: 1116 32bd 1be2 8e39

bn1.weight f4 [6]
0.9443887 0.944398 0.94438803 0.9444184 0.9444554 0.94442195
00000000: 75c3 713f 11c4 713f 6ac3 713f 67c5 713f
00000010: d4c7 713f a3c5 713f

bn1.bias f4 [6]
0.00010560884 -0.002021447 -0.00040314056 0.0006591183 0.00036843395 0.0006517406
00000000: 507a dd38 417a 04bb 9c5c d3b9 aec8 2c3a
00000010: 5e2a c139 92d9 2a3a

bn1.running_mean f4 [6]
0.02797914 -0.027435197 -0.022281578 -0.03365271 -0.0440362 0.022686433
00000000: 8234 e53c c7bf e0bc db87 b6bc 6dd7 09bd
00000010: 4d5f 34bd e6d8 b93c

bn1.running_var f4 [6]
0.09469526 0.038645893 0.056939308 0.11023267 0.026668103 0.16663165
00000000: 97ef c13d 284b 1e3d 3139 693d abc1 e13d
00000010: 1177 da3c 7da1 2a3e

first_cons6_filterlist.0.weight f4 [1, 3, 5, 5]
-0.0018139671 -0.0019927053 -0.0016834604 -0.028180676 0.00095822685 -0.001722128 0.053924505 -0.0012271309
-0.015557019 0.044854846 -0.021484869 -0.05178402 0.015423017 -0.0035602977 -0.00015956056 0.06024616
-0.05131483 0.062459014 -0.008426736 0.020185854 -0.019645277 -0.006927705 -0.0048127 0.05546986
-0.00279253 -0.011376184 0.01830249 0.04814811 -0.00029523208 0.032255504 -0.0004464427 -0.022913639
-0.00011287867 0.052032977 0.059784986 0.036862634 -0.0059944573 0.062140107 0.023287328 0.001631823
-0.0014525731 -0.011230115 0.034057416 0.05456916 0.0003270207 -0.0017477783 -0.0037440576 -0.0018508277
-0.003727037 -0.051332317 -0.015277197 -0.0034579437 0.06143946 0.0018317646 -0.032965697 -0.021107106
0.060085468 -0.019841377 0.027160795 -0.015173893 0.00045843632 0.06127645 0.003101848 0.032603398
-0.010048061 0.00023052892 0.051123362 0.012536816 -0.0008529897 0.060576264 -0.049878273 0.0010716938
-0.042518567 -0.017613385 0.00022158163
00000000: a3c2 edba 0c98 02bb 8fa7 dcba 29db e6bc
00000010: 8431 7b3a 07b9 e1ba f1df 5c3d aed7 a0ba
00000020: dee2 7ebc b7b9 373d 0901 b0bc 7b1b 54bd
00000030: d2b0 7c3c e253 69bb b64f 27b9 adc4 763d
00000040: 802f 52bd 06d5 7f3d 4b10 0abc ce5c a53c
00000050: 22ef a0bc cd01 e3bb dbb3 9dbb 5d34 633d
00000060: e102 37bb 2d63 3abc 1aef 953c f436 453d
00000070: 61c9 9ab9 591e 043d 8610 eab9 62b5 bbbc
00000080: 46b9 ecb8 8820 553d 1ae1 743d 46fd 163d
00000090: 276d c4bb a086 7e3d 11c5 be3c e5e2 d53a
000000a0: 4464 beba 84fe 37bc ca7f 0b3d e983 5f3d
000000b0: fa73 ab39 b515 e5ba dd5e 75bb 7997 f2ba
000000c0: 4e41 74bb d641 52bd 354d 7abc ab9e 62bb
000000d0: f1a7 7b3d d217 f03a 0a07 07bd cfe8 acbc
000000e0: 2e1c 763d 628a a2bc 5180 de3c ec9b 78bc
000000f0: 485a f039 04fd 7a3d 6048 4b3b 248b 053d
00000100: 9fa0 24bc 23ba 7139 bb66 513d 3867 4d3c
00000110: 2b9b 5fba d11e 783d 294d 4cbd 1478 8c3a
00000120: f327 2ebd f249 90bc 5e58 6839

first_cons6_filterlist.1.weight f4 [1, 3, 5, 5]
-0.058848362 -0.04999719 0.021610472 0.021648189 -0.019201605 -0.021029623 0.026564805 0.0011245378
0.05549297 0.0045880494 -0.045962308 0.0028353631 -0.055286985 0.0120240925 0.00053270307 -0.04202389
-0.015531695 -0.049816858 0.051172197 -0.012105279 -0.0050190478 0.028565997 -0.00028332428 0.01458857
-0.03959025 0.00076584495 0.04137562 -0.016309498 -0.00015162138 0.034044836 0.002270079 0.015376064
0.0029124646 -0.05446107 0.060721923 -0.015844714 0.0030416637 -0.062591545 -0.056288455 0.0011622517
0.049357276 0.0072719427 0.039418362 -0.05774073 0.001284928 0.0026129186 0.036059707 -0.036317337
0.060424525 0.022827469 0.035977595 0.043562237 -0.0036685783 -0.0011802949 -0.0039512385 -0.0010363173
-0.00048212713 0.015728012 0.0010466306 0.00033057466 0.0076894676 -0.0243557 -0.00055147294 -0.0003229531
-0.020587312 -0.0063756253 0.020777624 0.028495055 -0.030916115 0.023667596 0.0018918801 0.032135952
-0.0081999665 -0.054214332 -0.00029800308
00000000: fb0a 71bd dac9 4cbd 7208 b13c 8b57 b13c
00000010: af4c 9dbc 5146 acbc 6f9e d93c 3a65 933a
00000020: 994c 633d 5957 963b f942 3cbd 80d1 393b
00000030: 9b74 62bd b300 453c 19a5 0b3a 3e21 2cbd
00000040: a778 7ebc c30c 4cbd f099 513d 3855 46bc
00000050: d376 a4bb 3d03 ea3c 248b 94b9 e604 6f3c
00000060: 6329 22bd fcc2 483a 7b79 293d 7f9b 85bc
00000070: 8efc 1eb9 9972 0b3d 9bc5 143b e3eb 7b3c
00000080: 0cdf 3e3b 9212 5fbd 8db7 783d c6cc 81bc
00000090: a656 473b ff2f 80bd b98e 66bd b256 983a
000000a0: db2a 4a3d 7a49 ee3b 2675 213d 8b81 6cbd
000000b0: 076b a83a 803d 2b3b 58b3 133d 7dc1 14bd
000000c0: b57f 773d ac00 bb3c 3e5d 133d 516e 323d
000000d0: 886c 70bb 20b4 9aba 6479 81bb 0ad5 87ba
000000e0: 02c6 fcb9 08d8 803c 182f 893a fb50 ad39
000000f0: eef7 fb3b 9b85 c7bc b990 10ba 0852 a9b9
00000100: b9a6 a8bc 9fea d0bb d635 aa3c 766e e93c
00000110: cb43 fdbc 8ce2 c13c f6f8 f73a fda0 033d
00000120: 2759 06bc d90f 5ebd 4c3d 9cb9

first_cons6_filterlist.2.weight f4 [1, 3, 5, 5]
-0.010001575 0.061970863 0.00012844558 0.05900135 -0.0050857477 1.9255538e-05 -0.0035628802 0.021908373
-0.062955245 0.0038820608 -0.0044789994 0.0038023998 -0.00056459976 -0.0003354918 -0.05280898 0.04116321
-0.0018500122 -0.00013539751 -0.04195324 -0.0011482604 -0.03700004 -0.056194182 0.04098028 0.0062104114
-0.058002394 0.00070435187 -0.0019521646 -0.0007236737 -0.045592178 0.02710402 -0.0019207087 0.047369454
-0.0014125985 -0.012931508 -0.0059971088 -0.042777635 -0.049576085 0.024844406 0.03000305 -0.0015918557
-0.03292846 -0.00015748205 0.06348353 -0.00053600676 0.00034363446 0.021377638 0.00043919066 0.055499814
0.01727356 -0.0005972502 0.00669213 0.061036512 -0.02216603 -0.0025127456 -0.0014712432 -0.012687278
0.030075448 0.021477845 -0.0443566 0.012803382 0.0022868826 0.001698683 -0.060177602 -0.0020804715
-0.035932045 0.0030135626 -0.00045023975 0.010276657 -0.00064854114 -0.0005842859 0.038289912 0.002578516
-0.0017426609 0.012176197 -0.014658664
00000000: a5dd 23bc 29d5 7d3d 59af 0639 66ab 713d
00000010: 58a6 a6bb f486 a137 367f 69bb 3079 b33c
00000020: aeee 80bd 2c6a 7e3b 92c4 92bb af31 793b
00000030: a601 14ba f2e4 afb9 3b4e 58bd c19a 283d
00000040: 1c7c f2ba 7ef9 0db9 29d7 2bbd 3a81 96ba
00000050: 5b8d 17bd df2b 66bd f0da 273d b580 cb3b
00000060: eb93 6dbd 41a4 383a c6df ffba ebb4 3dba
00000070: ddbe 3abd 4009 de3c 4ac0 fbba 7906 423d
00000080: f126 b9ba adde 53bc 6583 c4bb 9a37 2fbd
00000090: 4b10 4bbd 7f86 cb3c f5c8 f53c d0a5 d0ba
000000a0: fedf 06bd c421 25b9 a703 823d ce82 0cba
000000b0: d629 b439 2820 af3c 2c43 e639 c653 633d
000000c0: 4881 8d3c c890 1cba a849 db3b 6c01 7a3d
000000d0: 8995 b5bc e0ac 24bb bbd6 c0ba 4dde 4fbc
000000e0: c960 f63c 4ef2 af3c 44af 35bd 47c5 513c
000000f0: 86df 153b 58a6 de3a ca7c 76bd 8558 08bb
00000100: 7b2d 13bd 317f 453b 280e ecb9 6c5f 283c
00000110: dc02 2aba c32a 19ba e2d5 1c3d 52fc 283b
00000120: ff69 e4ba ac7e 473c e52a 70bc

first_cons6_filterlist.3.weight f4 [1, 3, 5, 5]
-0.05744169 -0.00052352465 0.000743125 -0.010906542 0.059761267 -0.00026456732 -0.028750354 -6.971184e-05
-0.041080616 0.00081167097 0.013404911 0.00012867757 -0.05943858 0.037784796 -0.0015453318 -0.00054631534
0.000581232 -0.02029076 0.001853921 0.04449026 -0.018918704 -0.018875606 -0.05195961 0.013501727
0.0012007088 0.00024414278 -0.044326853 -0.0010429457 -0.001968693 -4.426112e-05 0.0032548036 -0.0017058253
-0.015556501 -0.00060261565 -0.043391857 0.04454124 0.0030392744 -0.0016794469 -0.0034648268 0.00048447214
-0.046094455 0.048975747 -0.04665104 -0.0018011061 -0.027017735 -0.059679866 -0.034674663 0.015181907
-0.0035304497 -0.0016474662 -0.021071652 -0.00025352012 0.061371434 7.899836e-05 0.037474565 0.0010636211
0.041651502 0.00013586198 -0.0082682865 0.057350017 0.0005048505 0.063345335 0.00027856385 0.06284604
0.05970148 0.024090873 -0.0355983 0.0009907404 -0.0009688644 -0.027050097 0.0007100147 -0.0018388709
0.00064514176 -0.0005199907 0.0013415823
00000000: fa47 6bbd 253d 09ba 46ce 423a 5ab1 32bc
00000010: 3bc8 743d a0b5 8ab9 dd85 ebbc 4232 92b8
00000020: 2644 28bd 51c6 543a 46a0 5b3c 9fed 0639
00000030: de75 73bd 3bc4 1a3d bb8c caba 9a36 0fba
00000040: d25d 183a cf38 a6bc 44ff f23a 6b3b 363d
00000050: 66fb 9abc 04a1 9abc 9ad3 54bd 5936 5d3c
00000060: 1a61 9d3a 4a00 8039 1390 35bd 73b3 88ba
00000070: 3005 01bb 04a5 39b8 8b4e 553b 0096 dfba
00000080: b2e0 7ebc daf8 1dba a9bb 31bd e070 363d
00000090: 902e 473b e320 dcba 2612 63bb c000 fe39
000000a0: 8acd 3cbd cb9a 483d 2915 3fbd 1813 ecba
000000b0: 4c54 ddbc e072 74bd 0507 0ebd 89bd 783c
000000c0: 1e5f 67bb cbef d7ba 759e acbc e5ea 84b9
000000d0: 9d60 7b3d ecab a538 ee7e 193d 3469 8b3a
000000e0: c49a 2a3d 2c76 0e39 b577 07bc dae7 6a3d
000000f0: f257 043a 33bb 813d 350c 9239 6db5 803d
00000100: 8a89 743d 395a c53c 86cf 11bd bbdb 813a
00000110: 64fb 7dba 2a98 ddbc 4820 3a3a 4506 f1ba
00000120: bb1e 293a fc4f 08ba 08d8 af3a

first_cons6_filterlist.4.weight f4 [1, 3, 5, 5]
0.0006144741 -0.021778094 0.0007562039 0.0021160473 0.03166056 0.0009726017 -0.02809331 -0.037840888
-0.0017729076 -0.006880644 0.0001863102 0.0023862715 0.0009777142 -0.00086839264 -0.0025325674 0.00011251467
0.039232112 0.025654947 0.028455013 -0.013037579 -0.025725536 -0.0069226217 0.020473061 0.005906657
-0.00415886 -0.020020856 0.0076472424 0.0025521833 0.0007992552 0.04610577 -0.00126509 0.0016883458
0.03137754 0.002030079 0.0008467082 0.061272983 -0.032359328 0.0005258651 -0.00071728125 0.036062848
0.05415329 0.0019870447 0.031457506 -0.007365297 -0.048690747 0.05080936 0.0017545492 0.024605125
0.0011564491 -0.03370441 -0.04655495 -0.013516704 0.0013687019 -0.050974123 -0.061135795 -0.0036980584
-0.013997264 -0.0563981 -0.011645133 -1.754002e-05 0.00032252778 0.0017073174 0.022648536 0.00084828236
-0.052821644 -0.00063668395 0.007961054 -0.0011049369 0.010865293 -0.00011381457 -0.0037480164 0.0014277453
-0.041325465 0.05255125 -0.049398765
00000000: a914 213a f967 b2bc fc3b 463a 62ad 0a3b
00000010: 81ae 013d 32f6 7e3a f123 e6bc 0cff 1abd
00000020: e860 e8ba 0677 e1bb 435c 4339 fe62 1c3b
00000030: a526 803a d8a4 63ba 6ef9 25bb daf5 eb38
00000040: dab1 203d 532a d23c 7d1a e93c 929b 55bc
00000050: 5cbe d2bc 29d7 e2bb 1fb7 a73c a18c c13b
00000060: 0c47 88bb c702 a4bc b895 fa3b 8842 273b
00000070: 1c85 513a 67d9 3c3d 60d1 a5ba 7c4b dd3a
00000080: bc85 003d 130b 053b a0f5 5d3a 61f9 7a3d
00000090: 378b 04bd 36da 093a ee07 3cba a3b6 133d
000000a0: d7cf 5d3d 1439 023b 96d9 003d 9758 f1bb
000000b0: f36f 47bd 7a1d 503d e7f8 e53a b090 c93c
000000c0: fe93 973a a30d 0abd 67b0 3ebd 2a75 5dbc
000000d0: 0466 b33a 3eca 50bd 8769 7abd 205b 72bb
000000e0: c854 65bc b201 67bd 3acb 3ebc e822 93b7
000000f0: f218 a939 11c8 df3a 6c89 b93c 445f 5e3a
00000100: 825b 58bd 23e7 26ba 156f 023c 88d3 90ba
00000110: 5804 323c bbaf eeb8 48a1 75bb 2f23 bb3a
00000120: e444 29bd fb3f 573d 5c56 4abd

first_cons6_filterlist.5.weight f4 [1, 3, 5, 5]
0.0024904623 -0.055257857 -0.025309548 0.03456428 -0.049516667 0.010331667 0.05404304 -0.006937196
0.00037067782 0.021279331 0.0041168253 0.0012485599 -0.03632258 0.040005382 -0.0019375251 -0.0015622204
-0.04751755 0.03958023 0.034304816 0.007868518 -0.012068507 0.017667664 0.00032545146 -0.060890924
-0.0016819886 -0.0013291497 -0.0015753865 -0.05900093 0.04426351 0.00016353505 -0.0138946315 -0.0019105389
0.00037314303 0.04117253 -0.00052218727 0.0016494697 -0.0010899648 -0.026740797 0.020113526 0.040802244
0.0009951133 0.0022006782 -0.03980546 -0.044006255 0.002088276 -0.052929178 -0.055184532 -0.00051411614
-0.0046867114 0.00062150444 -0.004686507 -0.03827622 -0.06344914 0.010291937 -0.020857263 0.06299028
0.0008482303 0.03527178 -0.0007405067 -0.04682227 0.03158742 -0.0046486184 -0.0607314 0.042817455
0.00032053812 0.025290683 0.05868269 0.02322093 0.0024385233 -0.052444477 0.0017783777 0.0018739154
-0.0007486872 3.761091e-05 -0.0007199256
00000000: 0637 233b 1056 62bd f855 cfbc 4693 0d3d
00000010: fdd1 4abd 2746 293c 3c5c 5d3d 6b51 e3bb
00000020: 8957 c239 fe51 ae3c 6fe6 863b b8a6 a33a
00000030: fcc6 14bd afdc 233d 8ef4 fdba 6bc3 ccba
00000040: c3a1 42bd e11e 223d 3583 0c3d f5ea 003c
00000050: fdba 45bc c7bb 903c 5ba1 aa39 c368 79bd
00000060: 2c76 dcba dd36 aeba 337d ceba f6aa 71bd
00000070: a74d 353d 9b7a 2b39 4fa6 63bc 0c6b faba
00000080: 69a2 c339 87a4 283d 65e3 08ba 0533 d83a
00000090: 26dd 8eba 840f dbbc 1fc5 a43c 4120 273d
000000a0: 766e 823a 4139 103b 0d0b 23bd e73f 34bd
000000b0: 75db 083b 44cc 58bd 2d09 62bd c0c5 06ba
000000c0: fc92 99bb 75ec 223a 4591 99bb 87c7 1cbd
000000d0: 9ff1 81bd 839f 283c dadc aabc 0c01 813d
000000e0: c65b 5e3a 2479 103d 901e 42ba b5c8 3fbd
000000f0: cf61 013d 7053 98bb 7dc1 78bd 5b61 2f3d
00000100: e60d a839 682e cf3c 435d 703d d239 be3c
00000110: a2cf 1f3b 05d0 56bd 7418 e93a 2b9e f53a
00000120: 8c43 44ba 68c0 1d38 64b9 3cba

second_cons6_filterlist.0.weight f4 [1, 4, 5, 5]
0.036729895 -0.0003365629 -0.0010870353 0.03696721 0.003166465 0.009212 0.019831702 -0.0031182687
-0.010014614 -0.00033386017 0.00016011519 -0.0008736909 0.018714065 0.03525362 0.033596568 -0.0005510186
0.015479395 -0.037847903 0.033123445 -0.0006108338 0.019315928 0.03323983 0.01989645 -0.022797571
-0.014563634 0.04219636 -0.0003668143 0.01819087 -0.0014732033 0.009485383 0.0017721343 3.3202843e-05
0.03590886 0.012428662 0.026956365 0.001148963 0.00025213772 -0.001113093 0.020921446 -0.02899149
-0.03931043 -0.03360313 0.02618166 0.012269508 -4.411876e-05 -0.009712977 -0.00039594484 0.033356708
-0.013862417 -0.00590214 -0.00044677744 -0.040213622 -0.035021145 0.04669777 0.0010612924 -0.041772936
-0.00022583382 0.0108662145 -0.046301663 -0.020855509 -0.00816368 -0.040893566 -0.029147588 -0.0021413928
-0.017609589 -0.00045388797 0.010539012 0.00015928331 -0.032749183 0.006247394 -0.00014118268 -0.036178645
0.0005058693 -0.0036532045 -0.029364776 -0.0048220903 0.001163512 -0.032262865 -0.005696149 -0.0010944308
0.0011911603 0.010671159 -0.041994125 -0.01751225 -0.0006812203 0.011262183 -0.00011391114 -0.0002975062
-0.00085771637 -0.0005368815 0.0014681179 -9.812361e-05 -0.00030372114 0.030301295 -0.04123428 -0.00025783453
-0.0002240038 -0.03775517 -0.04813974 0.010907053
00000000: 1672 163d b574 b0b9 da7a 8eba ee6a 173d
00000010: 7884 4f3b eeed 163c 1876 a23c de5b 4cbb
00000020: 5614 24bc f409 afb9 98e4 2739 6708 65ba
00000030: 3d4e 993c 1a66 103d 8e9c 093d 3b72 10ba
00000040: 4a9d 7d3c 6706 1bbd 73ac 073d 5d20 20ba
00000050: 703c 9e3c 7d26 083d e1fd a23c f9c1 babc
00000060: 4f9c 6ebc 17d6 2c3d fb50 c0b9 0505 953c
00000070: 8018 c1ba 9468 1b3c f646 e83a 4843 0b38
00000080: 2b15 133d 96a1 4b3c 98d3 dc3c cd98 963a
00000090: 5a31 8439 34e5 91ba 7463 ab3c 907f edbc
000000a0: f903 21bd 70a3 09bd ec7a d63c 0c06 493c
000000b0: 280c 39b8 2e23 1fbc d196 cfb9 0ba1 083d
000000c0: 311f 63bc bd66 c1bb 743d eab9 0ab7 24bd
000000d0: 5572 0fbd 2946 3f3d 101b 8b3a 191a 2bbd
000000e0: cecd 6cb9 3508 323c d0a6 3dbd 2cd9 aabc
000000f0: f5c0 05bc 0380 27bd ecc6 eebc 9c56 0cbb
00000100: fc41 90bc d0f7 edb9 d2ab 2c3c 4a05 2739
00000110: 0224 06bd f0b6 cc3b 700a 14b9 0f30 14bd
00000120: 509c 043a 9a6a 6fbb 668e f0bc a002 9ebb
00000130: fc80 983a 1126 04bd c3a6 babb 0173 8fba
00000140: b520 9c3a 16d6 2e3c 0802 2cbd da75 8fbc
00000150: ec93 32ba 0585 383c 94e3 eeb8 9bfa 9bb9
00000160: 5fd8 60ba 82bd 0cba dd6d c03a b6c7 cdb8
00000170: c33c 9fb9 6c3a f83c 47e5 28bd f72d 87b9
00000180: 90e2 6ab9 2aa5 1abd 2d2e 45bd 7fb3 323c

second_cons6_filterlist.1.weight f4 [1, 4, 5, 5]
-0.00016662851 0.02207038 -0.0041255634 4.9715614e-05 7.268349e-05 -0.0007792407 -0.045609888 -0.0007190197
0.0022675616 -0.000862974 -0.037679914 7.1257426e-05 -0.001165039 6.646424e-05 0.0018858276 -0.033923104
0.0012061929 -0.025040247 0.0003930689 0.023653261 0.022158924 -0.010036009 -0.0026561324 -0.0007564854
0.00012158173 0.00064492866 -0.00022989132 -0.00085324154 0.0008884389 -0.0006893293 0.0005676303 -0.0007718737
-0.0007459034 -0.00012064216 0.035288613 0.0006820345 -0.0003830321 -0.034234393 -0.026679827 0.029113557
-0.006776085 -0.0004287024 -1.599788e-05 -0.0002046814 -0.0012019012 0.02193224 0.0019559017 -0.019171136
0.04472375 -0.008343062 0.001478606 0.0017196431 -0.023695005 -0.008919642 0.008044241 0.045521002
4.287166e-05 0.001945643 0.0020573763 0.01307854 0.00481192 0.0019982257 0.01264878 -0.016921215
-0.020999284 -0.02822738 0.03799563 -0.012915471 -0.0015378757 -0.0014477626 -0.0009336535 0.00023441607
-0.026276838 -0.035568044 0.048173197 -0.00049362035 0.0011765718 -0.00054829475 -0.0008432612 -0.002451154
0.018858215 0.0029447826 -0.008152635 0.0003933796 0.021758165 0.016058171 0.000111218666 0.019166205
-0.031293407 0.00036852475 0.047988396 0.0015776445 0.00028202322 -0.0017017747 -0.0007708405 0.046689387
-0.0015735505 0.041764785 -0.0014386802 0.04864907
00000000: 00b9 2eb9 f1cc b43c bc2f 87bb bc85 5038
00000010: a76d 9838 f545 4cba 6fd1 3abd 987c 3cba
00000020: 5f9b 143b 3439 62ba 4156 1abd 0a70 9538
00000030: 39b4 98ba b862 8b38 e02d f73a f4f2 0abd
00000040: 1e19 9e3a 3421 cdbc d114 ce39 7cc4 c13c
00000050: a286 b53c 136e 24bc 8212 2ebb e04e 46ba
00000060: b2f9 fe38 6e10 293a fb0e 71b9 12ac 5fba
00000070: 20e6 683a 1bb4 34ba 06cd 143a 9157 4aba
00000080: bb88 43ba 4401 fdb8 cb8a 103d 8fca 323a
00000090: b3d1 c8b9 5d39 0cbd a78f dabc 8e7f ee3c
000000a0: ec09 debb 76c3 e0b9 3033 86b7 bf9f 56b9
000000b0: 1d89 9dba 3eab b33c 962e 003b c90c 9dbc
000000c0: 4030 373d 57b1 08bc c9cd c13a a665 e13a
000000d0: 071c c2bc b123 12bc fecb 033c 3b74 3a3d
000000e0: 18d1 3338 f204 ff3a 0cd5 063b 5f47 563c
000000f0: 50ad 9d3b aaf4 023b d43c 4f3c 5c9e 8abc
00000100: b106 acbc 1b3d e7bc 4ea1 1b3d 699b 53bc
00000110: 8c92 c9ba dac2 bdba 6dc0 74ba 96cd 7539
00000120: 8642 d7bc ccaf 11bd 4251 453d 4d66 01ba
00000130: 3337 9a3a 70bb 0fba 4d0e 5dba 8aa3 20bb
00000140: 8b7c 9a3c 41fd 403b a192 05bc 843e ce39
00000150: 2e3e b23c 6d8c 833c 113e e938 7202 9d3c
00000160: 842d 00bd 8e36 c139 7b8f 443d f7c8 ce3a
00000170: 84dc 9339 150e dfba 3b12 4aba 5f3d 3f3d
00000180: 983f ceba 8d11 2b3d 1992 bcba 3f44 473d

second_cons6_filterlist.2.weight f4 [1, 4, 5, 5]
0.023309264 0.022103064 -0.004983729 -0.0011771942 -0.00053719 -0.006601044 -0.0005414792 -0.024773577
0.029575273 -0.0011587895 -0.04375402 0.0038429743 -0.0011560066 0.045481835 0.007786135 0.026925942
0.030678794 -0.012984376 -0.012618471 0.008257784 -0.021563143 0.00027087843 -0.0018758352 -0.007639233
0.011311883 -0.018938886 0.0010647349 0.0008788325 -0.00086650753 0.0056133927 0.03803898 0.013928348
0.03017189 -0.042076826 -0.0231663 -0.0012840508 -0.0010534748 -0.031626184 -0.038088508 -0.0022751621
-0.00027083082 -0.02345488 -0.031857993 -0.0020794335 0.0025821037 0.00015344554 -0.00063956087 0.013589947
-0.0060890834 -0.036459316 -0.00035755755 0.0012298973 -0.01827513 0.0012184456 -0.010714012 0.024826549
-0.022359947 -0.020662922 -0.0444782 0.018298347 -0.03968064 -0.018408963 0.027080307 0.0027615854
0.002545975 0.046134286 0.02125047 0.0009307334 0.007479946 0.01270513 -0.001167966 0.037147917
0.009602517 0.0003474958 -0.0015179275 -0.040069163 0.005801652 0.0011448312 0.0085911695 -0.00043986677
-0.001630294 -0.0026021977 -0.02123302 0.023271067 0.014282603 -0.044719435 -0.006688459 -0.0017255888
-0.0023804745 7.0477945e-05 -0.001406522 -0.0004362974 -0.012482516 0.01494999 0.00020312936 -0.00041862304
0.03337977 -0.025449555 -0.0021353778 -0.0002604097
00000000: 12f3 be3c 7c11 b53c 8d4e a3bb 154c 9aba
00000010: 36d2 0cba 924d d8bb 0ef2 0dba f5f1 cabc
00000020: d847 f23c 86e2 97ba 6a37 33bd 69da 7b3b
00000030: 2585 97ba 294b 3a3d d622 ff3b cb93 dc3c
00000040: 1852 fb3c 6cbc 54bc b4bd 4ebc a84b 073c
00000050: 30a5 b0bc b004 8e39 96de f5ba 8852 fabb
00000060: 7a55 393c b925 9bbc 938e 8b3a 7361 663a
00000070: 5626 63ba 8df0 b73b c3ce 1b3d ba33 643c
00000080: 0a2b f73c c058 2cbd 41c7 bdbc 984d a8ba
00000090: c014 8aba 758a 01bd b202 1cbd e31a 15bb
000000a0: 4cfe 8db9 7324 c0bc 877d 02bd 1b47 08bb
000000b0: 8338 293b 39e6 2039 34a8 27ba 5ea8 5e3c
000000c0: ef86 c7bb 5d56 15bd 9076 bbb9 8134 a13a
000000d0: bab5 95bc 40b4 9f3a d389 2fbc 0c61 cb3c
000000e0: 352c b7bc 4a45 a9bc c62e 36bd 6ae6 953c
000000f0: 2b88 22bd 65ce 96bc 85d7 dd3c b7fb 343b
00000100: 5fda 263b 4ef7 3c3d 7715 ae3c 76fc 733a
00000110: 561a f53b 2d29 503c 7016 99ba 6a28 183d
00000120: e053 1d3c 1930 b639 32f5 c6ba 901f 24bd
00000130: c91b be3b 290e 963a fac1 0c3c eb9d e6b9
00000140: 97af d5ba a289 2abb dff0 adbc f7a2 be3c
00000150: 9401 6a3c ba2b 37bd dc2a dbbb 272d e2ba
00000160: bc01 1cbb 8fcd 9338 0c5b b8ba d9be e4b9
00000170: 7783 4cbc cef0 743c 1fff 5439 a27a dbb9
00000180: 3ab9 083d 967b d0bc b2f1 0bbb 9987 88b9

second_cons6_filterlist.3.weight f4 [1, 4, 5, 5]
-0.04074654 0.00081066426 0.0018099104 -0.0137349125 0.04546392 -0.004636605 -0.0006463704 -0.002363241
-0.021016682 0.047709595 0.0016091295 -0.00046125439 -0.002383083 -0.016678667 0.008294773 0.00020035429
-0.0003511349 0.038015686 -0.0016132195 -0.002733831 0.00020356596 0.04338507 0.0002733854 0.0023363878
-0.030749077 -0.016752925 0.03050887 -0.00054658984 0.0013898031 0.04713836 0.00022252931 -9.386486e-05
-0.01245719 0.0004049093 -0.010170833 -0.015760511 0.0007426432 0.002458014 0.015799925 0.04498378
-0.014186082 -0.021219406 0.02976786 0.03993299 0.0021221116 -0.00042697077 -0.01676224 0.0011585753
0.043847106 0.00042925726 0.037731316 0.0004750382 -0.03339371 -0.039949514 -0.0014984851 -0.0062685763
0.0015550933 -0.008458548 0.019452479 -0.025877211 -8.097653e-06 0.01935513 0.0031267903 0.00028379777
0.001287345 -0.045183167 -0.037224006 0.041719686 0.011498319 0.0027616508 0.013729642 0.00016254093
0.002547147 0.03416155 0.007501715 0.0018044903 0.0314885 0.035704914 0.01569089 0.0017530681
0.020930475 0.0021944907 -0.03542092 -0.00025718735 -0.027943145 0.03510575 0.008113597 0.00020802279
-0.04200002 0.0011992394 -0.0005515675 0.047682393 -0.020294739 -0.012429184 -0.00085339864 -0.02763086
-0.02854919 -0.015034472 -0.0021882057 -0.0019481315
00000000: d8e5 26bd c282 543a 843a ed3a 6608 61bc
00000010: 6038 3a3d a9ee 97bb 2f71 29ba 9be0 1abb
00000020: 2d2b acbc 236b 433d 6de9 d23a 84d4 f1b9
00000030: 802d 1cbb b3a1 88bc cde6 073c 3216 5239
00000040: 8718 b8b9 56b6 1b3d aa72 d3ba 132a 33bb
00000050: 5274 5539 8bb4 313d 2b55 8f39 151e 193b
00000060: 7de5 fbbc 6e3d 89bc bded f93c 0649 0fba
00000070: 0e2a b63a 2714 413d c256 6939 50d9 c4b8
00000080: 3e19 4cbc 024a d439 91a3 26bc 301c 81bc
00000090: f1ad 423a a216 213b d86e 813c e940 383d
000000a0: be6c 68bc 52d4 adbc badb f33c c690 233d
000000b0: 2013 0b3b 0cdb dfb9 f750 89bc 56db 973a
000000c0: 0699 333d ef0d e139 278c 1a3d 8c0e f939
000000d0: d8c7 08bd 1aa2 23bd d168 c4ba a168 cdbb
000000e0: 46d4 cb3a b995 0abc ce5a 9f3c 72fc d3bc
000000f0: 28db 07b7 a68e 9e3c d6ea 4c3b b1ca 9439
00000100: 21bc a83a fc11 39bd 3378 18bd 43e2 2a3d
00000110: 7263 3c3c d0fc 343b 4bf2 603c c06f 2a39
00000120: 09ee 263b fbec 0b3d f2d0 f53b a684 ec3a
00000130: 16fa 003d 513f 123d 2e8a 803c 34c7 e53a
00000140: 6376 ab3c 72d1 0f3b 8715 11bd 1ad7 86b9
00000150: 06e9 e4bc 0ccb 0f3d e4ee 043c b120 5a39
00000160: 3708 2cbd cc2f 9d3a 1197 10ba 9d4e 433d
00000170: 2741 a6bc c7a3 4bbc 9db6 5fba 1d5a e2bc
00000180: fedf e9bc 2553 76bc 0068 0fbb 7258 ffba

second_cons6_filterlist.4.weight f4 [1, 4, 5, 5]
-0.0015071216 -0.0005181712 0.02114075 0.004992346 0.008703543 -0.026835157 -0.00011705907 0.037780404
-0.024733437 0.000950259 0.013829411 0.0015701674 -0.0005010314 -0.0014842204 0.005750651 0.029457515
0.00064013345 0.003097424 0.0009299997 0.017115153 -0.0013640109 -0.0061617494 0.0032460587 -0.033713043
0.0005200845 0.00068229524 -0.037453182 0.0009307696 -0.0013460931 -0.010007375 -0.0003375705 0.03482744
0.04386755 0.032947816 0.0026066958 0.0016841871 0.02883672 0.041071203 -0.00040899077 0.0017950854
-0.028001636 0.032538798 -0.03522799 0.001603237 0.0045465794 -0.00281258 0.019250462 -0.028292585
-0.00041915724 0.0007078817 0.0020769467 -0.0024858336 -0.0017328297 -0.026808852 -0.011545311 0.00096102944
0.0039397874 0.034944236 -0.0041655404 0.03208968 -0.035416454 -0.0006592373 -0.0006202371 -0.007819797
-0.03211497 -0.010697367 0.044457797 -0.033411834 -0.045096297 0.02891526 -0.0022041076 -0.015448375
-0.0059417556 -0.007195341 -0.016732082 -0.00025232197 0.002285773 0.0011795958 0.044917062 0.0009465601
-0.004995382 0.0010450542 0.032317284 -0.0019972592 0.00018011424 0.018689208 -0.0011938019 0.0125411
-0.03816914 -0.00061297964 0.0026842286 0.028250542 -0.0010539104 0.0016318292 -0.03777455 -0.0039078128
-0.045768432 -0.0006396169 0.020225456 -0.00012730854
00000000: 9c8a c5ba e1d5 07ba 5e2f ad3c d596 a33b
00000010: 4e99 0e3c 67d5 dbbc 9c7d f5b8 a0bf 1a3d
00000020: c79d cabc cd1a 793a c194 623c 13ce cd3a
00000030: a657 03ba 2c8a c2ba f56f bc3b e350 f13c
00000040: a1ce 273a 27fe 4a3b 39cb 733a 1435 8c3c
00000050: 9cc8 b2ba 80e8 c9bb d4bb 543b b016 0abd
00000060: 4856 083a 0fdc 323a 8268 19bd e4fe 733a
00000070: 646f b0ba f9f5 23bc f2fb b0b9 38a7 0e3d
00000080: 76ae 333d 4af4 063d 19d5 2a3b f1bf dc3a
00000090: fc3a ec3c 473a 283d d06d d6b9 1249 eb3a
000000a0: b063 e5bc 6747 053d 3a4b 10bd b523 d23a
000000b0: 79fb 943b 4353 38bb 25b3 9d3c dac5 e7bc
000000c0: 55c2 dbb9 2391 393a 621d 083b 5ee9 22bb
000000d0: 1e20 e3ba 3d9e dbbc 8b28 3dbc 98ed 7b3a
000000e0: 5519 813b b021 0f3d 167f 88bb 7870 033d
000000f0: d810 11bd abd0 2cba 6897 22ba 9b1e 00bc
00000100: fd8a 03bd 0244 2fbc 6119 363d d9da 08bd
00000110: e5b6 38bd b2df ec3c ca72 10bb 2e1b 7dbc
00000120: 0fb3 c2bb e5c6 ebbb b811 89bc 154a 84b9
00000130: e8cc 153b ab9c 9a3a f4fa 373d 9322 783a
00000140: 4db0 a3bb 33fa 883a 215f 043d 73e4 02bb
00000150: 0cdd 3c39 1c1a 993c 5879 9cba 3079 4d3c
00000160: 3f57 1cbd 5eb0 20ba e2e9 2f3b ae6d e73c
00000170: 5d23 8aba 1ae3 d53a 7db9 1abd 1c0d 80bb
00000180: ae77 3bbd f7ab 27ba dbaf a53c 207e 05b9

second_cons6_filterlist.5.weight f4 [1, 4, 5, 5]
0.0057771197 0.013485034 -0.013212916 -0.02681238 -9.9264245e-05 -0.0009453868 -0.002272779 -0.020754332
-0.04071622 -0.014136875 -0.026781917 -0.026959922 0.015327001 -0.0034452763 -0.004042921 -0.0006368395
-0.025699442 0.00046416436 -0.0014972792 0.036703724 -4.8400332e-05 -0.02620939 0.00033387393 0.0041842614
0.044955738 0.002501528 0.0009420926 -0.025846453 0.0032166021 0.007146042 0.00031901116 0.03307095
0.0033000554 0.0044926414 0.008024204 0.045388833 -0.026543291 0.0027388001 0.0014798908 0.0024500843
-0.03748966 0.04946989 -0.04357695 0.018263036 0.0032408563 0.04709823 0.0013596134 -0.03452507
-0.009126908 0.002520214 0.008247686 0.0019062945 -0.017747149 -0.018809397 0.0015501815 -0.02467819
0.00027285455 0.0010369157 0.001515996 0.04712831 -0.015214472 0.0001317022 0.021692883 0.0034741987
0.0012852146 -0.004166813 -0.00060666405 -0.016752604 0.0031672704 0.037616983 0.011939576 -0.001902281
-0.030265542 0.0011518335 0.04327245 0.0024227914 -0.04043039 0.0015257571 -0.000361787 0.00068661076
0.0010290375 -0.013499796 0.003179135 -0.003033867 -0.02981626 0.019106716 0.0031978248 0.00072501076
0.0008858111 0.0016859017 0.027820216 0.03362988 0.0014085182 0.001448195 -0.026250167 0.0002932524
0.0019054983 -0.003560612 -0.017487334 -0.031595457
00000000: fe4d bd3b 55f0 5c3c fd7a 58bc a3a5 dbbc
00000010: 162c d0b8 d6d3 77ba e7f2 14bb fd04 aabc
00000020: 0dc6 26bd 5a9e 67bc c065 dbbc 0edb dcbc
00000030: 1a1e 7b3c 25ca 61bb 7b7a 84bb 93f1 26ba
00000040: a387 d2bc 165b f339 5a40 c4ba a556 163d
00000050: 7601 4bb8 13b5 d6bc cd0b af39 211c 893b
00000060: 8223 383d adf0 233b c4f6 763a f1bb d3bc
00000070: a1cd 523b 5829 ea3b f440 a739 6875 073d
00000080: be45 583b 0237 933b f377 033c a4e9 393d
00000090: 5171 d9bc 717d 333b e5f8 c13a 9891 203b
000000a0: c28e 19bd f0a0 4a3d be7d 32bd 5d9c 953c
000000b0: 8c64 543b 13ea 403d 0e35 b23a 296a 0dbd
000000c0: 0789 15bc 2d2a 253b 4d21 073c a1dc f93a
000000d0: 7862 91bc 2a16 9abc 762f cb3a ea29 cabc
000000e0: eb0d 8f39 1ee9 873a 62b4 c63a 9d09 413d
000000f0: 1f46 79bc 8a19 0a39 46b5 b13c 62af 633b
00000100: a574 a83a c389 88bb 8908 1fba c23c 89bc
00000110: fb91 4f3b 4414 1a3d 369e 433c f555 f9ba
00000120: 71ef f7bc 1ef9 963a 743e 313d b2c7 1e3b
00000130: 569a 25bd eafb c73a 3bae bdb9 abfd 333a
00000140: c5e0 863a 402e 5dbc 0959 503b d8d3 46bb
00000150: 3b41 f4bc b085 9c3c 9992 513b a60e 3e3a
00000160: c735 683a 79f9 dc3a 39e7 e33c 7cbf 093d
00000170: 079e b83a 5cd1 bd3a 970a d7bc acbf 9939
00000180: eac1 f93a 2859 69bb 9941 8fbc 3d6a 01bd

third_cons3_filterlist.0.weight f4 [1, 4, 5, 5]
0.032283474 -0.0012798306 0.0066989074 0.03109037 -0.04400754 -0.0009956029 -0.00060385116 0.007071121
-0.03354044 0.03864251 0.03648265 -0.004211965 -0.036354337 0.024343569 0.00023543838 -0.001508333
-0.0021046698 -0.026845895 -0.009591928 0.0021548 0.00478052 0.0399247 -0.0020865512 0.015007044
-0.010295223 -0.0020038758 -0.002554931 0.0013521472 -0.039353132 -0.005169092 0.024447782 -0.00045148542
0.025169149 0.0008129202 0.0007071239 -0.011604309 0.016553171 0.000995926 -0.04340684 -0.037912212
0.033468887 0.00069083984 -0.00087813876 5.3286814e-05 0.024826452 -0.0011182269 -0.029883273 0.020115975
-0.00044449925 -0.0017461795 0.01686374 -0.003640524 -0.0022511992 0.017410405 0.03687687 -0.0005319618
-0.0013355587 -0.014131085 -0.045668915 -0.0015823343 -0.033659816 -0.014850821 -0.024532268 -0.0010630887
-0.001266086 -0.04857289 -0.00075762364 -0.0146209095 0.04423444 -0.00011804335 -0.019472785 0.032533564
0.03548295 -5.3842814e-05 -0.0092512835 -0.020752266 -0.028287444 0.011360761 0.0093008485 0.03574919
-0.00052609044 -0.00035326852 -0.0032748238 0.038966596 -0.04859792 -0.0398363 -0.014567993 -0.02555831
-0.049658805 -0.0008070906 -0.044020493 -0.020040642 -0.0009000213 -0.0019200203 -0.00064185786 -0.00035432214
-0.021328626 0.0009578877 0.010597356 9.102066e-05
00000000: ad3b 043d fdbf a7ba 8282 db3b 3bb1 fe3c
00000010: 4041 34bd e47e 82ba c44b 1eba ddb4 e73b
00000020: b361 09bd 9c47 1e3d d56e 153d 8604 8abb
00000030: 49e8 14bd 2a6c c73c 02e0 7639 42b3 c5ba
00000040: 80ee 09bb eceb dbbc 7627 1dbc 8c37 0d3b
00000050: e9a5 9c3b 1588 233d 85be 08bb 1be0 753c
00000060: 4cad 28bc 7553 03bb a170 27bb 883a b13a
00000070: c030 21bd 7d61 a9bb b746 c83c 59b5 ecb9
00000080: 882f ce3c 271a 553a 485e 393a 0020 3ebc
00000090: 849a 873c bb89 823a 5fcb 31bd d649 1bbd
000000a0: ac16 093d 7a19 353a e532 66ba 4880 5f38
000000b0: d860 cb3c 7891 92ba c4cd f4bc 42ca a43c
000000c0: ae0b e9b9 10e0 e4ba d325 8a3c dc95 6ebb
000000d0: db88 13bb 44a0 8e3c 330c 173d 5a73 0bba
000000e0: ea0d afba 1186 67bc 540f 3bbd 5466 cfba
000000f0: e0de 09bd dc50 73bc e5f7 c8bc 5657 8bba
00000100: ccf2 a5ba 5ef4 46bd 439b 46ba 8a8c 6fbc
00000110: 2c2f 353d 0a8e f7b8 6485 9fbc ea41 053d
00000120: 9256 113d 48d5 61b8 b292 17bc a800 aabc
00000130: 12bb e7bc 7c22 3a3c 9662 183c be6d 123d
00000140: 55e9 09ba e636 b9b9 6d9e 56bb 709b 1f3d
00000150: 9d0e 47bd 632b 23bd 97ae 6ebc a95f d1bc
00000160: 0867 4bbd ef92 53ba d54e 34bd 462c a4bc
00000170: 68ef 6bba 31a9 fbba 5a42 28ba 50c4 b9b9
00000180: 5fb9 aebc c11a 7b3a 88a0 2d3c 58e2 be38

third_cons3_filterlist.1.weight f4 [1, 4, 5, 5]
-0.011976131 0.020996183 -0.048888363 0.0034199655 0.0234485 0.0023669195 -0.03987074 0.0037069353
-0.032550342 0.0006306593 0.020179074 0.0034437557 0.00408801 0.000338063 -0.020635078 -0.01429807
0.0024814145 0.03296887 -0.023049874 0.0015748411 0.041709106 0.002470941 0.003522117 0.004220638
0.0021940542 0.03897485 -0.036127184 0.0015552662 0.041758828 0.04102932 -0.016018895 -0.012534549
8.026051e-05 0.0005460812 -0.01335845 -0.0011651018 -0.034153022 0.00018120036 -0.00023457281 -0.049401328
0.01472411 -0.00038213911 -0.023628667 0.0074753896 -0.002269935 0.00093160133 0.001167237 0.0020190366
0.004797743 0.0065476424 -0.00048172718 0.0021630055 -0.009082273 -0.03145214 0.00048673476 0.0023377233
0.0021801686 -0.01167458 0.0024038288 0.012438908 0.0014139852 -0.022591121 0.0033290356 -0.0068304385
0.04709229 0.003112074 0.04768188 0.0017302867 -0.025615536 -0.002141756 -0.011796064 -0.0439419
-0.00019707867 0.0006160502 -0.0065320386 0.0080859475 0.030094625 0.033380978 -0.018472519 0.0009079169
-0.008423589 -0.0016712891 0.00987323 -0.02238425 -0.0005954299 -0.003216189 -0.002409977 -0.005259748
0.041715525 -0.0070897066 0.047457237 -0.0015839885 -0.021320125 -0.030202555 -0.00050392206 -0.027071092
0.0007499644 0.018204762 0.018506851 0.00092138024
00000000: 8937 44bc 3000 ac3c 2a3f 48bd 8021 603b
00000010: 1217 c03c 521e 1b3b 804f 23bd 0ef0 723b
00000020: 8253 05bd d452 253a 964e a53c a2b0 613b
00000030: b7f4 853b 0c3e b139 e50a a9bc 7442 6abc
00000040: 3a9f 223b 5e0a 073d 17d3 bcbc e66a ce3a
00000050: 2bd7 2a3d 83ef 213b 51d3 663b 474d 8a3b
00000060: 1fca 0f3b 18a4 1f3d 19fa 13bd 13da cb3a
00000070: 4e0b 2b3d 5c0e 283d 0f3a 83bc b65d 4dbc
00000080: 8851 a838 e426 0f3a 66dd 5abc 54b6 98ba
00000090: 0ae4 0bbd 9a00 3e39 a9f7 75b9 0c59 4abd
000000a0: 653d 713c d859 c8b9 e890 c1bc 1df4 f43b
000000b0: 31c3 14bb b536 743a f9fd 983a d051 043b
000000c0: 6336 9d3b 9b8d d63b 5490 fcb9 36c1 0d3b
000000d0: d0cd 14bc f6d3 00bd 6f30 ff39 7d34 193b
000000e0: 29e1 0e3b bd46 3fbc 8e89 1d3b 90cc 4b3c
000000f0: 7855 b93a 0411 b9bc f32b 5a3b dfd1 dfbb
00000100: d8e3 403d f0f3 4b3b 134e 433d caca e23a
00000110: acd7 d1bc b45c 0cbb 4744 41bc 6cfc 33bd
00000120: e7a6 4eb9 6e7e 213a b60a d6bb ec7a 043c
00000130: 0189 f63c 7eba 083d ae53 97bc 4601 6e3a
00000140: 1803 0abc 280f dbba 54c3 213c 2d5f b7bc
00000150: a016 1cba b3c6 52bb b4f0 1dbb f759 acbb
00000160: e6dd 2a3d c550 e8bb 8562 423d d69d cfba
00000170: 8ba7 aebc 596b f7bc a319 04ba 32c4 ddbc
00000180: 4299 443a 2722 953c ae9b 973c c888 713a

third_cons3_filterlist.2.weight f4 [1, 4, 5, 5]
0.016517408 -0.040504925 0.010356107 -0.025256434 0.0015785256 -0.022407843 0.00032334944 0.00056178856
0.00080366933 -0.000434808 0.004661437 0.0038446642 0.0017792718 0.002088645 0.00082035124 0.041323125
5.2622643e-05 0.028130408 0.018174315 0.036500543 0.048514225 -0.00012772498 0.001195678 -0.03946414
-0.00260059 -0.00033747114 -0.044206128 -0.013535862 -0.0018366552 -0.0021352305 -0.0018071807 -0.0003866072
0.030582942 0.0009000865 -0.018909693 0.0027947782 -0.046030086 -0.0012596605 0.009359916 0.00030635815
0.008185948 -0.0403398 0.0016939153 -0.0036416415 -0.00062411954 -1.7212762e-05 -0.046348337 -0.0018269569
-0.00028516716 0.045888446 -0.018943671 0.0127118835 0.0014385013 -0.03312427 0.0022468315 -0.00047906343
-0.001412688 -0.00035186156 -0.0004829322 -0.0015312147 -0.0071711824 0.008693316 -0.029037926 -0.0075408462
0.0052910764 0.00034566195 0.010603582 -0.029296607 -0.0044958587 0.009319099 -0.037387718 -0.01614276
0.026420359 -0.03262317 0.020555744 -0.0026640077 -0.0016276344 0.044014066 -0.00044648888 -0.018568294
-0.0057907645 -0.03192516 0.025735503 -0.0030307013 -0.0022133829 -0.043083213 -0.013547791 0.014170383
-0.0066145523 0.0002329208 -0.030735796 -0.04062652 -0.009045459 -0.043252844 0.03868178 0.046878383
0.048116162 0.006047164 -0.010447455 0.029355114
00000000: 844f 873c 7ee8 25bd a9ac 293c 95e6 cebc
00000010: 88e6 ce3a a790 b7bc 3a87 a939 fe44 133a
00000020: 56ad 523a f1f6 e3b9 f8be 983b c3f6 7b3b
00000030: 7436 e93a a6e1 083b d70c 573a 7042 293d
00000040: 22b7 5c38 be71 e63c 4de2 943c 9881 153d
00000050: dab6 463d eaed 05b9 4cb8 9c3a 26a5 21bd
00000060: a96e 2abb 9cee b0b9 7c11 35bd 85c5 5dbc
00000070: ecbb f0ba 39ef 0bbb ecde ecba 8ab1 cab9
00000080: 1489 fa3c c8f3 6b3a 80e8 9abc 9928 373b
00000090: 0b8a 3cbd 311b a5ba 555a 193c b29e a039
000000a0: 5b1e 063c 593b 25bd 5e06 de3a 9ba8 6ebb
000000b0: f49b 23ba 2064 90b7 c1d7 3dbd 8076 efba
000000c0: 7d82 95b9 86f5 3b3d c22f 9bbc 8145 503c
000000d0: 188c bc3a 51ad 07bd 943f 133b ce2a fbb9
000000e0: f229 b9ba 0f7a b8b9 1032 fdb9 0ab3 c8ba
000000f0: 3dfc eabb 696e 0e3c f2e0 edbc 3419 f7bb
00000100: c460 ad3b f639 b539 a5ba 2d3c 70ff efbc
00000110: ff51 93bb 22af 183c dd23 19bd d23d 84bc
00000120: 826f d83c e09f 05bd 8564 a83c a296 2ebb
00000130: 5956 d5ba 1848 343d b916 eab9 891c 98bc
00000140: 74c0 bdbb f5c3 02bd 43d3 d23c bb9e 46bb
00000150: 670e 11bb 0678 30bd 8ef7 5dbc e52a 683c
00000160: e3be d8bb 333c 7439 a3c9 fbbc fe67 26bd
00000170: 6833 14bc e529 31bd c970 1e3d 8c03 403d
00000180: 7415 453d 4a27 c63b cd2b 2bbc 237a f03c

fourth_last1_filterlist.0.weight f4 [1, 6, 5, 5]
0.00037617394 -0.0015253935 -0.0015635958 -0.009538328 -0.0003570713 -0.006114389 0.026039088 -0.001234345
-0.0029677367 -0.027159326 -0.0014227844 -0.0016869883 -0.0025676955 -0.0015750569 0.002931972 0.0015474543
-0.001673582 0.016092533 -0.00053544866 -0.0012729653 -0.0009210165 0.0027831395 0.029137794 0.025310311
0.011746429 0.00079055806 -0.032144833 0.014165757 -0.012297023 0.0041212635 -0.0003544762 -0.0013943956
-0.00030619753 0.025486961 -0.001650603 0.00039043516 -0.0037924584 0.00019238236 0.029340401 -0.0015179471
-0.0019107398 -0.000232097 -0.0056942473 -0.0020607894 -0.023087457 -0.0008882127 -1.29281e-05 -0.00013265965
0.0013252842 0.017043803 0.0076382924 0.013954448 0.0007263476 0.001973813 0.00095319236 -0.0006693575
0.00035385467 -7.914801e-06 -0.011919214 0.00084116997 0.00047284787 0.028704185 -0.00020317144 -0.0013857477
-0.0010974422 0.0014514535 -3.3607197e-05 8.957065e-05 -0.015564475 -0.0016423303 -0.0009067991 -0.00055369147
7.284059e-05 -0.00011104968 -0.0022197063 -0.015712261 0.007187724 0.0014859213 -0.0004472712 0.0004696591
0.029799774 -0.030999849 0.024729893 0.0054675452 -0.00046936236 0.0015842002 -0.00010016312 0.014139666
0.00628397 0.0012519673 0.014949486 -0.005864986 0.00096249045 -0.005276674 0.0018975051 -0.018984133
-0.025113964 0.016046634 -0.013087368 0.002042607 0.019616136 0.00028157997 0.011290674 -3.594157e-05
-0.0011630976 0.005414304 -0.002679048 0.0010417599 -0.029274773 -0.00054481614 -0.006319102 0.0012806392
-0.0017422843 -0.019661276 -0.001352579 0.0019350495 0.031066362 -0.00073270814 0.029740728 0.009223647
-0.016232692 0.0012990244 0.0030295048 -3.7160353e-06 -0.019700281 -0.0029057758 -0.026153043 -0.00021703316
0.004271859 -0.0023690339 0.0013917811 0.0011881377 0.01531375 -0.0025280858 -0.0009920588 0.025653768
0.00095458556 -0.02934775 0.0009837999 -0.012354352 0.020847106 -0.0015960322 -0.028504133 0.022197094
-0.031760912 0.006979457 0.0055697863 -0.018804016 -0.000101408325 0.0002761331
00000000: 3639 c539 b6ef c7ba 92f1 ccba a646 1cbc
00000010: 4c35 bbb9 365b c8bb ed4f d53c bfc9 a1ba
00000020: 5c7e 42bb 3c7d debc b97c baba ef1d ddba
00000030: c846 28bb 2472 ceba 5426 403b f3d3 ca3a
00000040: 185c dbba 7dd4 833c 5a5d 0cba a1d9 a6ba
00000050: 5f70 71ba 5565 363b 62b2 ee3c 9257 cf3c
00000060: 1874 403c 743d 4f3a 4daa 03bd 7e17 683c
00000070: 7479 49bc aa0b 873b fdd8 b9b9 27c4 b6ba
00000080: 2389 a0b9 08ca d03c 0c59 d8ba 52b3 cc39
00000090: e58a 78bb 3fba 4939 485b f03c daf5 c6ba
000000a0: ca71 faba 105f 73b9 cf96 babb 4f0e 07bb
000000b0: e821 bdbc f2d6 68ba c4e5 58b7 8e1a 0bb9
000000c0: 29b5 ad3a 729f 8b3c a44a fa3b 32a1 643c
000000d0: 5d68 3e3a 165b 013b a8df 793a d277 2fba
000000e0: 9285 b939 d0c9 04b7 cf48 43bc f681 5c3a
000000f0: 91e8 f739 0a25 eb3c 6b0a 55b9 faa1 b5ba
00000100: 0dd8 8fba b33e be3a 74f5 0cb8 e0d7 bb38
00000110: 2402 7fbc 7643 d7ba 42b6 6dba 9b25 11ba
00000120: fec1 9838 58e3 e8b8 7e78 11bb 00b7 80bc
00000130: 0087 eb3b 3fc3 c23a b97f eab9 943c f639
00000140: a81e f43c 65f3 fdbc 5896 ca3c 1829 b33b
00000150: c014 f6b9 f0a4 cf3a aa0e d2b8 0faa 673c
00000160: c3e9 cd3b 0d19 a43a b0ee 743c 122f c0bb
00000170: a44f 7c3a f3e7 acbb b5b5 f83a 9d84 9bbc
00000180: cdbb cdbc 3b74 833c 666c 56bc 42dd 053b
00000190: 05b2 a03c 06a1 9339 85fc 383c f8bf 16b8
000001a0: 1473 98ba 796a b13b f892 2fbb a98b 883a
000001b0: a6d1 efbc fed1 0eba 7810 cfbb 1fdb a73a
000001c0: 5c5d e4ba af10 a1bc 0549 b1ba 7da1 fd3a
000001d0: e27e fe3c 3613 40ba d4a2 f33c c81e 173c
000001e0: 6cfa 84bc 0744 aa3a a88a 463b 0061 79b6
000001f0: 7c62 a1bc d46e 3ebb e83e d6bc 6593 63b9
00000200: f3fa 8b3b cb41 1bbb 6d6c b63a 49bb 9b3a
00000210: 86e6 7a3c 3eae 25bb f807 82ba da27 d23c
00000220: 273d 7a3a b16a f0bc d9f2 803a e869 4abc
00000230: 8dc7 aa3c f431 d1ba 8081 e9bc aed6 b53c
00000240: bb17 02bd eeb3 e43b c182 b63b e10a 9abc
00000250: 2eab d4b8 f5c5 9039

bn2.weight f4 [16]
0.94438 0.9444238 0.9444165 0.9444087 0.9444324 0.9443949 0.9444206 0.9444218
0.9443892 0.9444294 0.94442105 0.9444057 0.944389 0.94441694 0.9444308 0.9444088
00000000: e3c2 713f c2c5 713f 48c5 713f c5c4 713f
00000010: 52c6 713f ddc3 713f 8cc5 713f a1c5 713f
00000020: 7ec3 713f 20c6 713f 94c5 713f 92c4 713f
00000030: 7ac3 713f 4fc5 713f 38c6 713f c6c4 713f

bn2.bias f4 [16]
-0.000162314 1.0285363e-05 9.4506206e-05 -0.00020159005 0.00022780294 0.0004187061 3.674667e-05 -0.00020284977
0.000123699 7.9647994e-05 -0.00016699455 0.00043268845 -2.8424765e-05 4.9727132e-05 0.00024995164 -0.00035860774
00000000: d532 2ab9 4c8f 2c37 a231 c638 eb61 53b9
00000010: 63de 6e39 c885 db39 7020 1a38 12b4 54b9
00000020: 33b5 0139 b108 a738 421b 2fb9 76da e239
00000030: b871 eeb7 1a92 5038 f10b 8339 8403 bcb9

bn2.running_mean f4 [16]
0.21997604 -0.028418042 0.0116979955 -0.051036477 -0.09469098 -0.06257228 -0.0390997 0.042208407
0.0004188996 0.03176161 0.029236289 0.017842155 -0.07993354 0.020866068 -0.020356176 0.02843048
00000000: 6641 613e f4cc e8bc f3a8 3f3c a00b 51bd
00000010: 58ed c1bd e525 80bd 0227 20bd b9e2 2c3d
00000020: c19f db39 7618 023d f180 ef3c b629 923c
00000030: 32b4 a3bd 51ef aa3c ffc1 a6bc 0ae7 e83c

bn2.running_var f4 [16]
0.034394905 0.00956477 0.007820922 0.01224211 0.017225105 0.010123895 0.040631212 0.007975398
0.0054820618 0.009097325 0.0058486043 0.009039923 0.008502313 0.0049327435 0.016216522 0.006032856
00000000: ace1 0c3d 8eb5 1c3c 5323 003c 2293 483c
00000010: aa1b 8d3c b1de 253c ea6c 263d 3eab 023c
00000020: dea2 b33b f20c 153c a6a5 bf3b 2f1c 143c
00000030: 494d 0b3c daa2 a13b 83d8 843c 44af c53b
