models/1.pth (torch_old, 252400 bytes, 36 tensors)

c1.weight f4 [6, 3, 5, 5]
0	0xafb996dc	-3.3758496e-10
1	0x2b23b7c0	5.816424e-13
2	0xae27db2d	-3.816607e-11
3	0x2e887760	6.205769e-11
4	0xad236c24	-9.289489e-12
5	0xacee3c1d	-6.7710408e-12
6	0x33bbdf3c	8.748472e-08
7	0xb34db7c2	-4.789741e-08
8	0x3478a083	2.3155194e-07
9	0x2e13bf3b	3.3593777e-11
10	0xad4734c8	-1.132356e-11
11	0x33b93cf8	8.625824e-08
12	0x2f387a1f	1.6778089e-10
13	0xb646d6be	-2.9629296e-06
14	0x2f58efdf	1.9730305e-10
15	0xaf1795a0	-1.3786527e-10
16	0xaf506ce7	-1.895618e-10
17	0x2d0a3f1d	7.858406e-12
18	0x2dcc084a	2.3195796e-11
19	0x2e636d7b	5.1711063e-11
20	0xabfc0455	-1.7906879e-12
21	0xaa90f890	-2.5752013e-13
22	0xb000be3c	-4.683647e-10
23	0xb1b0e3e3	-5.148182e-09
24	0xaf07ba8f	-1.2344457e-10
25	0xadf4fdf7	-2.7852371e-11
26	0xad2b8c54	-9.751384e-12
27	0x2e926cde	6.65865e-11
28	0x3057f603	7.856615e-10
29	0x2db99912	2.1100042e-11
30	0x2c89e35b	3.9190157e-12
31	0x33cabeaa	9.4410396e-08
32	0x3469f843	2.1790133e-07
33	0xb0e3a095	-1.6562064e-09
34	0x311fcf52	2.3255393e-09
35	0xae4d6008	-4.6696896e-11
36	0xaba7b22e	-1.1915518e-12
37	0xacb21795	-5.0616824e-12
38	0xb3d4c13d	-9.907169e-08
39	0xb04956f5	-7.324695e-10
40	0xacc53da8	-5.605922e-12
41	0x30dcfb31	1.60785e-09
42	0x31159545	2.1767204e-09
43	0x2f2b6543	1.5588335e-10
44	0xb0b592fe	-1.3211261e-09
45	0x33bd2070	8.806899e-08
46	0x2e638e23	5.1740067e-11
47	0xae7bf046	-5.7284198e-11
48	0x33a834ca	7.832712e-08
49	0x36374cf4	2.7313918e-06
50	0x2ebbd3d7	8.541406e-11
51	0xad6acc84	-1.3346772e-11
52	0x2e83a6e5	5.986837e-11
53	0xb11d6e4b	-2.2909201e-09
54	0x2d4adf30	1.1531928e-11
55	0xad924592	-1.6629174e-11
56	0xae1f4bd1	-3.6219753e-11
57	0xb5921238	-1.088315e-06
58	0xadf31ca4	-2.763862e-11
59	0x3303a16d	3.064763e-08
60	0x2bb382cc	1.2755018e-12
61	0xb317b70e	-3.5323914e-08
62	0x2d027488	7.41552e-12
63	0x2f0d1c0b	1.2833838e-10
64	0x2e0843c6	3.0983015e-11
65	0x33c5aee8	9.2053426e-08
66	0x2f5d0010	2.0099855e-10
67	0xaddaad91	-2.486081e-11
68	0xb007fab5	-4.946899e-10
69	0xb5273303	-6.228658e-07
70	0x2cf2bc49	6.8989575e-12
71	0xb097d4ad	-1.1047142e-09
72	0xaf321060	-1.6194823e-10
73	0xadda77a2	-2.4836858e-11
74	0x2e1e2fde	3.5967555e-11
75	0x2c6c59af	3.3587402e-12
76	0x2fc034c7	3.4962097e-10
77	0x31fdad47	7.3829685e-09
78	0x304e0a37	7.495688e-10
79	0x325867f0	1.2596487e-08
80	0xac28739c	-2.3938412e-12
81	0xae360f66	-4.1395685e-11
82	0xaeb3004f	-8.1400324e-11
83	0x2f055cf7	1.2129307e-10
84	0xaf900e81	-2.6203753e-10
85	0x33e693a5	1.0737066e-07
86	0x33c0089f	8.942265e-08
87	0x2e2e133d	3.9580107e-11
88	0x2de41dd5	2.5933847e-11
89	0xb15985f7	-3.1653806e-09
90	0xab767186	-8.75543e-13
91	0xad6dc578	-1.3515737e-11
92	0xacd777ea	-6.1239807e-12
93	0x315a22b7	3.1742908e-09
94	0xb22a7664	-9.922221e-09
95	0xadb803d8	-2.0920085e-11
96	0xae676a66	-5.261782e-11
97	0xaf2c1d0b	-1.5653627e-10
98	0xad03cadc	-7.491532e-12
99	0x2d33e9da	1.02268975e-11
100	0x3106d404	1.9620083e-09
101	0xadbb31ce	-2.1281556e-11
102	0xae58f607	-4.933123e-11
103	0xab6a9440	-8.333924e-13
104	0xae751f87	-5.5734552e-11
105	0x2f2a2b7e	1.5476861e-10
106	0xb201ed9c	-7.562814e-09
107	0xafe31f1d	-4.1313167e-10
108	0x2cff0430	7.248001e-12
109	0xb0cd84b9	-1.4953435e-09
110	0xb0352f7d	-6.59149e-10
111	0x2e2c835c	3.9224943e-11
112	0xae58ffc8	-4.9339893e-11
113	0x2f07af99	1.2340563e-10
114	0x301b24e0	5.6441074e-10
115	0x2f40e78a	1.7544557e-10
116	0xaf54828f	-1.9327671e-10
117	0xb1de726c	-6.4740586e-09
118	0x2e9006f1	6.549595e-11
119	0x3236bc84	1.0636658e-08
120	0xae4ad638	-4.6119747e-11
121	0x33cb8d71	9.478652e-08
122	0xae6d332c	-5.393301e-11
123	0x2e140986	3.3659762e-11
124	0x3158f9ec	3.15742e-09
125	0xace9bf93	-6.6435273e-12
126	0xac399634	-2.637346e-12
127	0x2cd16f11	5.952468e-12
128	0x2fb5e2b1	3.3084782e-10
129	0xaed10bc6	-9.506311e-11
130	0x2c443f02	2.7888252e-12
131	0x2cf63b06	6.9982934e-12
132	0xae22ae84	-3.6989536e-11
133	0xb3e7500c	-1.0771336e-07
134	0xb050d3dd	-7.5971035e-10
135	0x3331882b	4.1334868e-08
136	0x2e738a06	5.5374393e-11
137	0x362037bf	2.3874306e-06
138	0x31a21ef9	4.7183417e-09
139	0xb00e2c64	-5.172238e-10
140	0xb0a07ef4	-1.1677614e-09
141	0x35384649	6.864762e-07
142	0xb121900a	-2.351046e-09
143	0x2c981af4	4.3230922e-12
144	0x33e71d5c	1.0762116e-07
145	0xb3960322	-6.985489e-08
146	0xab985a1c	-1.082526e-12
147	0x2f022f2d	1.1840191e-10
148	0x2c875d52	3.8472914e-12
149	0xb056a31c	-7.808454e-10
150	0xaf77172a	-2.2472749e-10
151	0x2de3f77f	2.5916823e-11
152	0xb3cadeeb	-9.4469065e-08
153	0xb035ab03	-6.609044e-10
154	0x2b14b4d0	5.283109e-13
155	0xafbc8796	-3.429334e-10
156	0x2d8861cc	1.550484e-11
157	0xacc89d82	-5.7018288e-12
158	0xad1f949b	-9.071101e-12
159	0xb04ed2ba	-7.5241824e-10
160	0xb20a01d9	-8.033077e-09
161	0xb08f7887	-1.0438875e-09
162	0x2d8c43eb	1.5946319e-11
163	0x2c1fa2cb	2.2685627e-12
164	0x2da80abb	1.9104154e-11
165	0xb1c406b0	-5.705111e-09
166	0x2ebe424e	8.651978e-11
167	0x2d06f585	7.671534e-12
168	0xaf00cf40	-1.1715162e-10
169	0x2e1057d7	3.2819827e-11
170	0x2c62636c	3.2171722e-12
171	0x33145284	3.4533983e-08
172	0xb0ba5490	-1.3557315e-09
173	0x32374e7a	1.06698455e-08
174	0xb1deebd4	-6.487861e-09
175	0x36551bb0	3.175559e-06
176	0x2e917587	6.6147136e-11
177	0x2f39ab4f	1.6886513e-10
178	0x32372ca0	1.06621485e-08
179	0x2d69e209	1.32947065e-11
180	0xad9e00cf	-1.796288e-11
181	0xad2c700b	-9.801947e-12
182	0xaeb65f8f	-8.2933764e-11
183	0x34ca9639	3.7734733e-07
184	0xb2298526	-9.867369e-09
185	0x34234fde	1.5209613e-07
186	0xae934c0e	-6.698296e-11
187	0x318d4e74	4.112559e-09
188	0x2eedf4e3	1.0821013e-10
189	0x2daae033	1.9426327e-11
190	0xaf8273ca	-2.3729135e-10
191	0xaff8f312	-4.528365e-10
192	0xb161829e	-3.2816057e-09
193	0x2bd4de70	1.5125245e-12
194	0xaec478e3	-8.934522e-11
195	0x2b0990f8	4.887336e-13
196	0x2a09dde8	1.2245034e-13
197	0x2f154bbf	1.3578381e-10
198	0xaf4ff260	-1.8912649e-10
199	0xadaca54d	-1.9627544e-11
200	0xacd2e2b2	-5.993727e-12
201	0xaf026492	-1.1859161e-10
202	0x2e64352e	5.188843e-11
203	0x31031c95	1.9079256e-09
204	0x33c39abd	9.108542e-08
205	0xae640eee	-5.1854458e-11
206	0xadccb43c	-2.3272155e-11
207	0x2ed7b0b6	9.808458e-11
208	0x3047c18e	7.2670836e-10
209	0x2ec2766f	8.8431366e-11
210	0xaf490015	-1.8280873e-10
211	0xac64dc51	-3.252305e-12
212	0x338b4d76	6.486782e-08
213	0xb226e773	-9.715097e-09
214	0xaef0cc7c	-1.095026e-10
215	0x2cd3f11f	6.0237505e-12
216	0x2c671553	3.2838912e-12
217	0x3057b395	7.8471746e-10
218	0xae4e5c30	-4.6920856e-11
219	0xaec3fb02	-8.912161e-11
220	0x322f1bad	1.0192633e-08
221	0x2f1b930c	1.414941e-10
222	0x2e20638a	3.6468197e-11
223	0x2fcae964	3.690942e-10
224	0x2b784503	8.820307e-13
225	0x2d9ccee1	1.782702e-11
226	0xada9b82e	-1.9294868e-11
227	0xaf8084c6	-2.3377406e-10
228	0x2ea969e1	7.704038e-11
229	0x33d08848	9.710544e-08
230	0xb1da92a5	-6.3613066e-09
231	0x33bbf936	8.753197e-08
232	0xae7bfc3f	-5.7294832e-11
233	0xb36791fa	-5.3916644e-08
234	0x2d7b2e21	1.4277941e-11
235	0xaeb7e1b6	-8.361971e-11
236	0xab70abb8	-8.5503436e-13
237	0x2d081a9c	7.736613e-12
238	0x3489e600	2.5685586e-07
239	0xae3e4984	-4.3266293e-11
240	0x2c88574d	3.875045e-12
241	0xae8dcad8	-6.44797e-11
242	0x334df830	4.7956007e-08
243	0xac7cb3ba	-3.5911122e-12
244	0x2de0b824	2.5547627e-11
245	0x311fa20e	2.3229663e-09
246	0xacbcc0de	-5.364694e-12
247	0xb0a97b80	-1.2331469e-09
248	0xae9cf0d6	-7.13684e-11
249	0x2e9da1b1	7.1682556e-11
250	0x33986b6a	7.09759e-08
251	0x33886436	6.351222e-08
252	0x2b232bca	5.797e-13
253	0xaae75388	-4.1091804e-13
254	0xadb4ef7f	-2.0569988e-11
255	0xaf0a626e	-1.2585996e-10

c1.bias f4 [6]
0	0xaf2bec43	-1.5636296e-10
1	0x2e68fbc7	5.2974316e-11
2	0x2d4582c9	1.1227194e-11
3	0xb56145b2	-8.392045e-07
4	0x2b1247d0	5.196928e-13
5	0x2f502dfb	1.8933825e-10

bn1.weight f4 [6]
0	0x3f2344d3	0.6377689
1	0x3f2344d3	0.6377689
2	0x3f2344d3	0.6377689
3	0x3f2344d3	0.6377689
4	0x3f2344d3	0.6377689
5	0x3f2344d3	0.6377689

bn1.bias f4 [6]
0	0x00000000	0.0
1	0x00000000	0.0
2	0x00000000	0.0
3	0x00000000	0.0
4	0x00000000	0.0
5	0x00000000	0.0

bn1.running_mean f4 [6]
0	0x00000000	0.0
1	0x00000000	0.0
2	0x00000000	0.0
3	0x00000000	0.0
4	0x00000000	0.0
5	0x00000000	0.0

bn1.running_var f4 [6]
0	0x3f800000	1.0
1	0x3f800000	1.0
2	0x3f800000	1.0
3	0x3f800000	1.0
4	0x3f800000	1.0
5	0x3f800000	1.0

first_cons6_filterlist.0.weight f4 [1, 3, 5, 5]
0	0x2a9378c5	2.6196246e-13
1	0xab35984a	-6.451546e-13
2	0x2ddf500f	2.5387718e-11
3	0x2bb45744	1.281399e-12
4	0x2f4ac3cb	1.8441353e-10
5	0xae810a10	-5.868028e-11
6	0x2e4712a6	4.5263925e-11
7	0x2d27dafe	9.541477e-12
8	0xaec71f4a	-9.05503e-11
9	0xada7ca56	-1.9075557e-11
10	0x2d5066a9	1.1846226e-11
11	0xad14fd57	-8.469079e-12
12	0x2c583926	3.072717e-12
13	0xb3e3664b	-1.0589118e-07
14	0xb174bdf9	-3.561466e-09
15	0xad9c5c23	-1.7776064e-11
16	0xb1633046	-3.3060288e-09
17	0x2e1efc71	3.6149254e-11
18	0xad2eff22	-9.947406e-12
19	0x2def420e	2.7200488e-11
20	0xaeadf72b	-7.911035e-11
21	0x30218bce	5.8770133e-10
22	0x2f511441	1.9015635e-10
23	0x33574e40	5.0129756e-08
24	0xaee9cb04	-1.0631676e-10
25	0x2f54191a	1.9290206e-10
26	0x302cbce3	6.284166e-10
27	0xb03bb848	-6.8292083e-10
28	0x2f92f84a	2.6733665e-10
29	0xb08424ce	-9.614725e-10
30	0x2e0b0153	3.1606117e-11
31	0x2d67c242	1.3173964e-11
32	0x32cd9f72	2.3937648e-08
33	0x2dbcd93b	2.1469595e-11
34	0x319e9779	4.6156257e-09
35	0xac9cdbd0	-4.4581908e-12
36	0x31da15e4	6.3471237e-09
37	0x2f0ba0f0	1.2699153e-10
38	0x2deded3e	2.7049137e-11
39	0xae434604	-4.4400053e-11
40	0xafc1ca41	-3.5250206e-10
41	0xae319995	-4.038155e-11
42	0x335db8af	5.162354e-08
43	0x33cc116b	9.5026586e-08
44	0x3031e47b	6.4716915e-10
45	0x2dbf864c	2.1773826e-11
46	0x2dd604b0	2.4331065e-11
47	0xadf159e4	-2.7438447e-11
48	0xaebd8bca	-8.6195565e-11
49	0xb32c2a6a	-4.0085446e-08
50	0x2e4ef430	4.705586e-11
51	0x2b29873c	6.0228537e-13
52	0xafc17b00	-3.5193892e-10
53	0x302f84f3	6.385356e-10
54	0x31fb9111	7.3215536e-09
55	0x2d6d9849	1.3505704e-11
56	0xb21f2433	-9.263249e-09
57	0x2e426e76	4.4208602e-11
58	0x2df9baca	2.8390974e-11
59	0xb2375ff6	-1.0673821e-08
60	0xb0542e9e	-7.71914e-10
61	0xafc343c9	-3.5518458e-10
62	0xb3c409fd	-9.128778e-08
63	0x2f01be04	1.1799989e-10
64	0x2cfdf864	7.2182694e-12
65	0x33608949	5.2278924e-08
66	0x2e1017b0	3.2762848e-11
67	0xae5bbb4f	-4.99612e-11
68	0x2f4a9352	1.8424132e-10
69	0xadf150f6	-2.7434482e-11
70	0x30571356	7.824402e-10
71	0xab3b6540	-6.657626e-13
72	0x3227b08e	9.760823e-09
73	0x2f688792	2.1148441e-10
74	0xabe734ed	-1.6428227e-12

first_cons6_filterlist.1.weight f4 [1, 3, 5, 5]
0	0x2c7ad5cd	3.564582e-12
1	0x2d9a5855	1.7547e-11
2	0xaf091ed9	-1.2471037e-10
3	0xafb98bde	-3.3750686e-10
4	0xb3df9349	-1.0411038e-07
5	0x2ec0eaaf	8.772837e-11
6	0xabecf2f6	-1.6836244e-12
7	0x2f0cb81e	1.2798337e-10
8	0x2c4f5023	2.9460954e-12
9	0xadb0e067	-2.0108538e-11
10	0xae41e729	-4.408843e-11
11	0xb511f1a2	-5.436833e-07
12	0x30297712	6.165105e-10
13	0xb395d5b1	-6.9772234e-08
14	0x28f65440	2.7348024e-14
15	0x2ded6f40	2.6993185e-11
16	0xafdb787a	-3.9921472e-10
17	0xad7785a9	-1.4070003e-11
18	0x2dbfc777	2.1802766e-11
19	0xb1c2d6e2	-5.6705725e-09
20	0xace09ef0	-6.3841085e-12
21	0x311e8ce2	2.3072109e-09
22	0xac8ff8a6	-4.09191e-12
23	0x2f52d2b4	1.9174246e-10
24	0xaeab59c4	-7.792125e-11
25	0xae165e9f	-3.419009e-11
26	0xaf0447b4	-1.2030804e-10
27	0x31cc62d3	5.9484164e-09
28	0x3226e940	9.715507e-09
29	0xad2e6198	-9.912425e-12
30	0xb327c8e0	-3.9065412e-08
31	0xb22a7e7a	-9.92406e-09
32	0x2e0d7cf0	3.2170655e-11
33	0x3080aa7c	9.36168e-10
34	0xae365317	-4.1455808e-11
35	0x2e04acac	3.016669e-11
36	0x33402673	4.4738453e-08
37	0xb058c640	-7.886207e-10
38	0x3052cd6d	7.668948e-10
39	0xad5ab0a8	-1.2431091e-11
40	0xad6d28fc	-1.3480991e-11
41	0xb217bc42	-8.832162e-09
42	0x2f948e6f	2.7022248e-10
43	0xb63dfea8	-2.8311424e-06
44	0x2d939356	1.6777395e-11
45	0x3451eb3f	1.9550224e-07
46	0xab67d870	-8.2368053e-13
47	0x3121b17f	2.3529478e-09
48	0x2d2db746	9.874606e-12
49	0xaf239b46	-1.4879928e-10
50	0x2d9439bc	1.6851291e-11
51	0xafb6e6e4	-3.3269665e-10
52	0xb5e5bfba	-1.7117629e-06
53	0xb20c80f3	-8.178392e-09
54	0x2f3c4365	1.7122444e-10
55	0xad491f58	-1.1432487e-11
56	0x2eff14e4	1.15997684e-10
57	0x338a382a	6.436342e-08
58	0x2fababd6	3.1226816e-10
59	0xb0b1ec16	-1.2945545e-09
60	0xae9b8e4e	-7.073862e-11
61	0xb396860c	-7.009302e-08
62	0x309b8010	1.1314132e-09
63	0xb47b30eb	-2.3393993e-07
64	0xab7f0340	-9.059871e-13
65	0xac92774a	-4.1628133e-12
66	0x2d5e5f03	1.2640336e-11
67	0x2e455f0b	4.487703e-11
68	0x2d0a9701	7.877921e-12
69	0xaec448ec	-8.9260016e-11
70	0xb39f2968	-7.411546e-08
71	0x2d3946ea	1.0531779e-11
72	0xae15efcd	-3.4091664e-11
73	0xad099cee	-7.822394e-12
74	0x2d5db32d	1.2602181e-11

first_cons6_filterlist.2.weight f4 [1, 3, 5, 5]
0	0x35f73540	1.8418432e-06
1	0x3307b8c5	3.1600184e-08
2	0xade693dc	-2.6213635e-11
3	0xad350dff	-1.0291767e-11
4	0x33ca722f	9.427128e-08
5	0x2fab3fd2	3.1150066e-10
6	0x303672ab	6.637417e-10
7	0xad047570	-7.529408e-12
8	0xab535b30	-7.5088807e-13
9	0x2dc8315e	2.2759291e-11
10	0xab4bae5a	-7.236205e-13
11	0x2f29bbe3	1.5437211e-10
12	0x2fd0edb8	3.800389e-10
13	0x3272046b	1.40872585e-08
14	0x3056b798	7.811365e-10
15	0xad4efc45	-1.1765759e-11
16	0x2e062f3c	3.0510025e-11
17	0x2df287de	2.7572552e-11
18	0x2b92a6be	1.0420204e-12
19	0x2f1221da	1.3290649e-10
20	0x30abfba2	1.2513406e-09
21	0xacd914c0	-6.1698147e-12
22	0x2ca60529	4.7185767e-12
23	0xacc8d192	-5.707609e-12
24	0xb0f4457c	-1.7773085e-09
25	0x2cb912f0	5.2601187e-12
26	0xb23ad41d	-1.0874854e-08
27	0xac553c1a	-3.0302484e-12
28	0xadd8aaaf	-2.4632156e-11
29	0x311810d7	2.2128483e-09
30	0xafb6b5bd	-3.323474e-10
31	0x2e0ce5ed	3.203653e-11
32	0x33af7aed	8.1714326e-08
33	0x2e9f0ad4	7.232406e-11
34	0x2c5b7080	3.1184222e-12
35	0xad2f3be8	-9.9609e-12
36	0x2c27fa01	2.3870907e-12
37	0xad674b00	-1.3147483e-11
38	0x2f53bba6	1.9257004e-10
39	0x2cfbc89a	7.1561203e-12
40	0x30f6380c	1.7914785e-09
41	0x32329d0e	1.0396674e-08
42	0xae23a8d3	-3.7211855e-11
43	0x2e4805a3	4.547974e-11
44	0xad4d75e3	-1.1679077e-11
45	0x34e3f376	4.2459186e-07
46	0xb239e964	-1.0821484e-08
47	0x2d94c4c7	1.6913039e-11
48	0x2f887e51	2.482801e-10
49	0xb30fec99	-3.3509966e-08
50	0xae3f6762	-4.3520194e-11
51	0xb16af5dc	-3.4191237e-09
52	0xb1f94974	-7.2552044e-09
53	0x2cb709de	5.2022683e-12
54	0x2e2a3f3b	3.8709685e-11
55	0xb559e128	-8.1166445e-07
56	0xae6d422a	-5.3946327e-11
57	0xb12076b1	-2.3350533e-09
58	0x30c8e112	1.4615884e-09
59	0x2d888e89	1.5524708e-11
60	0x35f765b8	1.8432538e-06
61	0x2ce9c0a8	6.6436474e-12
62	0x33216373	3.7576182e-08
63	0x300c7e52	5.1111215e-10
64	0x2ef6930c	1.12129056e-10
65	0xb259a3d1	-1.266831e-08
66	0xafbef4d0	-3.4734748e-10
67	0x3576247a	9.169522e-07
68	0xb1222b4d	-2.3598716e-09
69	0x2f25fd73	1.5096706e-10
70	0xae759e31	-5.5847053e-11
71	0xad7bc7b8	-1.4312045e-11
72	0xada0e2fc	-1.8290695e-11
73	0xae249bd6	-3.7427693e-11
74	0x2e69b72a	5.314075e-11

first_cons6_filterlist.3.weight f4 [1, 3, 5, 5]
0	0xaea65229	-7.5634006e-11
1	0x2b883fd8	9.681101e-13
2	0xabcd8548	-1.4603119e-12
3	0x331ae15d	3.6060886e-08
4	0xac4f9209	-2.9497535e-12
5	0x2b8ab159	9.854714e-13
6	0x3045ebec	7.200345e-10
7	0x33bec0e1	8.882649e-08
8	0x2c063134	1.9069859e-12
9	0x288b0100	1.5432534e-14
10	0x30419eeb	7.0438827e-10
11	0x35607eb0	8.363086e-07
12	0x2e93f52a	6.728336e-11
13	0xad2649ff	-9.452438e-12
14	0x2b9ed27f	1.1285e-12
15	0x33c938aa	9.370099e-08
16	0xadac3e11	-1.9581699e-11
17	0xafbcfb87	-3.4375722e-10
18	0xb67be268	-3.75337e-06
19	0x2c15d4ff	2.129241e-12
20	0xa9e84440	-1.0314709e-13
21	0xab81c228	-9.21989e-13
22	0x33909b95	6.733823e-08
23	0x2ec50902	8.960123e-11
24	0x3309c692	3.2078397e-08
25	0x2e3ed158	4.3386933e-11
26	0xad00c5ae	-7.319851e-12
27	0x35b2644b	1.3291223e-06
28	0xb38347c2	-6.1132155e-08
29	0x32c1a537	2.2543288e-08
30	0xafbabda0	-3.396794e-10
31	0x32259ab2	9.639438e-09
32	0x30550b73	7.750522e-10
33	0x2d758a09	1.3957288e-11
34	0xaf0383f3	-1.1961258e-10
35	0xac99e23e	-4.3736395e-12
36	0xb32161f4	-3.757482e-08
37	0xb13d020f	-2.750429e-09
38	0xb22b1593	-9.958415e-09
39	0x32d11896	2.4341983e-08
40	0xaf07a831	-1.2337932e-10
41	0x2d2c5de3	9.797915e-12
42	0xaf05c336	-1.2165632e-10
43	0x310d014b	2.0518935e-09
44	0xb4010791	-1.2016814e-07
45	0x30515f94	7.616958e-10
46	0x2db0ae65	2.008633e-11
47	0x2d9bb12a	1.7700136e-11
48	0xae7042a7	-5.462888e-11
49	0xacd0e5df	-5.9372364e-12
50	0x2c25d13c	2.3564059e-12
51	0xad9bf636	-1.77308e-11
52	0x2ca469fc	4.672927e-12
53	0xaeb819f6	-8.371963e-11
54	0x2e2620a0	3.7773007e-11
55	0x2d1e1ace	8.987212e-12
56	0xadac4aee	-1.9587412e-11
57	0xb20045c7	-7.466446e-09
58	0x2d949684	1.6892494e-11
59	0x30463fa8	7.212244e-10
60	0xac05c22e	-1.9008228e-12
61	0xb0f3a561	-1.772758e-09
62	0x2c89e9c1	3.919726e-12
63	0x337d1cb3	5.8932255e-08
64	0x3119a7be	2.235978e-09
65	0xacffe0d2	-7.272496e-12
66	0x2ee8f6ca	1.0593977e-10
67	0x2ad2dec0	3.7458057e-13
68	0x2c811bb5	3.6694766e-12
69	0x2e9c04ea	7.0949316e-11
70	0xb3d24224	-9.790918e-08
71	0x2e26fe70	3.7970016e-11
72	0xb38e0d4c	-6.614809e-08
73	0x335e8217	5.180672e-08
74	0x2d80f139	1.465904e-11

first_cons6_filterlist.4.weight f4 [1, 3, 5, 5]
0	0x2f9790a3	2.756951e-10
1	0x2c54b8c6	3.0229582e-12
2	0x2d87ac9a	1.5424374e-11
3	0x2e5d6ada	5.0344486e-11
4	0xad34d5ff	-1.0279332e-11
5	0xafc19ee3	-3.521939e-10
6	0x2f5238a0	1.9119506e-10
7	0xaf08a6e4	-1.242842e-10
8	0x2b8f232c	1.0170523e-12
9	0xaf352138	-1.6473656e-10
10	0x2ffe0abb	4.6209955e-10
11	0xaf929e2a	-2.6669628e-10
12	0x323ad1a5	1.0874293e-08
13	0x2ec5fefa	9.003816e-11
14	0xac28f920	-2.4012528e-12
15	0x2d1a423c	8.7685935e-12
16	0xac1a95b0	-2.196781e-12
17	0xb4dbc131	-4.0932494e-07
18	0x2dce77cf	2.3472694e-11
19	0xae424c2e	-4.4178154e-11
20	0x2e94deb1	6.769819e-11
21	0x34818666	2.412591e-07
22	0xad83ec84	-1.499801e-11
23	0x2f6301cb	2.0646167e-10
24	0xacc87694	-5.6975067e-12
25	0x334d9bfc	4.787215e-08
26	0x33770d05	5.752101e-08
27	0x31e8bb7e	6.773404e-09
28	0x3603d948	1.9646995e-06
29	0xaefbba4e	-1.1447253e-10
30	0x361ebcc6	2.3653715e-06
31	0x2e6c1724	5.368074e-11
32	0xaf046172	-1.203995e-10
33	0xae080b71	-3.0932982e-11
34	0x2dc0d307	2.1921588e-11
35	0x3224fa29	9.602936e-09
36	0x2ceb4055	6.686244e-12
37	0x2d72ef4b	1.3809241e-11
38	0xad2d6898	-9.857136e-12
39	0xacc99935	-5.729773e-12
40	0xae5779f0	-4.8993642e-11
41	0xac135d40	-2.094172e-12
42	0x36200fa4	2.3850962e-06
43	0x31ae499c	5.072435e-09
44	0x32335972	1.0439509e-08
45	0xae42d27f	-4.429745e-11
46	0x3167e71a	3.374629e-09
47	0x307f5af2	9.28977e-10
48	0xaf2375aa	-1.4866566e-10
49	0xad7f403c	-1.4509335e-11
50	0xb4777526	-2.3046286e-07
51	0x350ee002	5.3225097e-07
52	0x2df1cdec	2.7489976e-11
53	0xad3e3290	-1.0811477e-11
54	0x30ee29b3	1.7328631e-09
55	0x34fc1f2a	4.6961333e-07
56	0x2dee3dc6	2.70849e-11
57	0x2fb4128a	3.2754982e-10
58	0xb2295aeb	-9.857767e-09
59	0xb1204d4b	-2.3327e-09
60	0xb2367d1e	-1.0622243e-08
61	0x338d426d	6.577907e-08
62	0xaf40616e	-1.7496912e-10
63	0xadcb84b2	-2.3137357e-11
64	0xaecb0be9	-9.233487e-11
65	0x2eb5a7a2	8.2607046e-11
66	0xb03217fc	-6.4790107e-10
67	0xac9b350b	-4.411254e-12
68	0x2f719ad6	2.1973831e-10
69	0x2d80e0c6	1.4651735e-11
70	0xadd1af35	-2.3838357e-11
71	0x2ca79156	4.762561e-12
72	0x2cbc8a63	5.3586454e-12
73	0xaf741fe5	-2.2203002e-10
74	0xae2bacdb	-3.9034425e-11

first_cons6_filterlist.5.weight f4 [1, 3, 5, 5]
0	0x33cc8b08	9.52478e-08
1	0x323709d6	1.0654238e-08
2	0x2cc038aa	5.463259e-12
3	0x2bfbd8e3	1.7894821e-12
4	0xb22277f7	-9.456918e-09
5	0xb00a1616	-5.0235494e-10
6	0x2df6b13d	2.8045672e-11
7	0xacb9cc92	-5.280728e-12
8	0x2c001724	1.820274e-12
9	0x2c98ed1d	4.3464247e-12
10	0x35b7df72	1.3699594e-06
11	0x2e005bdc	2.9185418e-11
12	0x2e0b5d46	3.1687784e-11
13	0x2fe0f440	4.0918913e-10
14	0xb4864209	-2.5007492e-07
15	0xb3a1e540	-7.538847e-08
16	0x2ce54579	6.5162845e-12
17	0x33e7d080	1.0794702e-07
18	0x35cdc158	1.5329961e-06
19	0x317383b2	3.5436014e-09
20	0xb1dd8869	-6.4474546e-09
21	0x2c764e6c	3.5002235e-12
22	0x2d9a8840	1.756828e-11
23	0xb43c053d	-1.751077e-07
24	0x2e9577e7	6.7970345e-11
25	0xafcfd804	-3.780657e-10
26	0x2eb8fc6e	8.412192e-11
27	0xb0c36b3c	-1.4218595e-09
28	0x2ebf1f4a	8.6912325e-11
29	0xb5a95e44	-1.2618916e-06
30	0xb1e7a210	-6.741409e-09
31	0xafb066df	-3.2087308e-10
32	0xaef341eb	-1.106207e-10
33	0x2c931ac8	4.1809646e-12
34	0xad8858c0	-1.5500823e-11
35	0x2e85b63a	6.08051e-11
36	0xacec5bda	-6.717721e-12
37	0x2f058f3b	1.2147165e-10
38	0xafbbd4b2	-3.416623e-10
39	0x3324ea11	3.8397108e-08
40	0xac7ce697	-3.5939357e-12
41	0xaf310267	-1.609891e-10
42	0xae31f3d5	-4.0461707e-11
43	0x2b5d8544	7.8699916e-13
44	0xae5aa199	-4.971099e-11
45	0x2d898b46	1.5636947e-11
46	0x2e624028	5.1443433e-11
47	0x2be2c930	1.6114107e-12
48	0xad8bc006	-1.5887746e-11
49	0x3050e851	7.60001e-10
50	0x3397a563	7.061569e-08
51	0x2d8bb439	1.5882505e-11
52	0xae11ae7e	-3.3124163e-11
53	0x34d9fea1	4.0604667e-07
54	0xab644424	-8.1096436e-13
55	0xaed576cd	-9.707222e-11
56	0x300359a5	4.7784915e-10
57	0x2c7b74d0	3.573409e-12
58	0xad0915db	-7.792401e-12
59	0xaac78182	-3.5439365e-13
60	0x3312b4bc	3.415765e-08
61	0xb0be8377	-1.3861684e-09
62	0xb3ac6ec1	-8.02952e-08
63	0xae859299	-6.074181e-11
64	0x2ed9f458	9.911422e-11
65	0xb388c51f	-6.3688496e-08
66	0xabd91325	-1.5424091e-12
67	0xacef198f	-6.795626e-12
68	0x2e9144bc	6.606046e-11
69	0xada70c71	-1.8991227e-11
70	0x35ed031f	1.7658784e-06
71	0xab8fab82	-1.0208364e-12
72	0xb3c661f9	-9.2379146e-08
73	0x2dacef4f	1.966041e-11
74	0x2d847406	1.5058187e-11

second_cons6_filterlist.0.weight f4 [1, 4, 5, 5]
0	0x336900d1	5.4250282e-08
1	0x304821cf	7.280762e-10
2	0x2cc38a24	5.55757e-12
3	0xaddf830e	-2.5410365e-11
4	0xac784446	-3.528082e-12
5	0x2c36fdb3	2.6004587e-12
6	0xad0860be	-7.752186e-12
7	0xb285f1eb	-1.559325e-08
8	0x2c385e10	2.6200188e-12
9	0xae559e68	-4.8571286e-11
10	0x2d93382a	1.6736907e-11
11	0xaec1c219	-8.8111025e-11
12	0xac75d75d	-3.4936145e-12
13	0x30373955	6.6656486e-10
14	0x2ef72e92	1.1240532e-10
15	0x2f1cf087	1.427357e-10
16	0x327ad249	1.45997285e-08
17	0xb0e96aba	-1.6983315e-09
18	0xad900b6e	-1.637598e-11
19	0xb049b369	-7.337833e-10
20	0xae243780	-3.7338577e-11
21	0x3353c16b	4.930318e-08
22	0xae7e9074	-5.7881214e-11
23	0xaebd99e8	-8.622064e-11
24	0x2f041f76	1.2016507e-10
25	0xaeaa7001	-7.750601e-11
26	0xadc0010c	-2.1828338e-11
27	0x320b68ec	8.114721e-09
28	0xafdf6f84	-4.06427e-10
29	0xacb97fb4	-5.272194e-12
30	0x2fd3d0b6	3.8528974e-10
31	0xb1c879af	-5.8346e-09
32	0x2e3f6810	4.3520798e-11
33	0x2c337742	2.5503631e-12
34	0xb225e0be	-9.6553645e-09
35	0x2b2e8a85	6.200945e-13
36	0x2e278fc0	3.809908e-11
37	0xab9f4867	-1.1317725e-12
38	0xb3b40c5a	-8.38415e-08
39	0xacee13cd	-6.766565e-12
40	0xb057eee7	-7.8556045e-10
41	0x2d9639ca	1.707869e-11
42	0xaba35516	-1.1605463e-12
43	0x2d0791be	7.706223e-12
44	0xac2108c4	-2.2884342e-12
45	0x2cb0d2e5	5.025635e-12
46	0xab9ee3ae	-1.1289769e-12
47	0x2e149e4b	3.3791896e-11
48	0x2e844050	6.014089e-11
49	0xae87ba65	-6.1721996e-11
50	0xad817b96	-1.4720485e-11
51	0xb2360764	-1.0595475e-08
52	0xad1919a8	-8.70274e-12
53	0x2fb9369a	3.36901e-10
54	0xaf4220fa	-1.7655913e-10
55	0xad858286	-1.5178313e-11
56	0x2e871772	6.143254e-11
57	0x2f3fb5df	1.7435962e-10
58	0xacbd1a2e	-5.3746096e-12
59	0xab972c98	-1.0741573e-12
60	0xb00ceaa3	-5.126514e-10
61	0xad146e7a	-8.437357e-12
62	0x2a919288	2.585885e-13
63	0x2e23331e	3.710731e-11
64	0xb0e371c6	-1.654876e-09
65	0x29283e80	3.7357704e-14
66	0x3172b59c	3.5318868e-09
67	0x33164725	3.4989302e-08
68	0x30e5c81a	1.6718815e-09
69	0xaf22112d	-1.4739916e-10
70	0xae526236	-4.78357e-11
71	0x2fa6a0f8	3.03096e-10
72	0xb3aa31b0	-7.92528e-08
73	0xae2b16fe	-3.890132e-11
74	0x2d3a3ae2	1.05859505e-11
75	0xb234ff77	-1.0535465e-08
76	0x2fa5406a	3.0059094e-10
77	0xacd46de8	-6.0376044e-12
78	0xade34200	-2.5836222e-11
79	0xae8be048	-6.3608285e-11
80	0x2e211847	3.6628724e-11
81	0x2ebff725	8.729576e-11
82	0xade3f952	-2.5917633e-11
83	0x2d44af2b	1.1180205e-11
84	0x32e0604f	2.6120828e-08
85	0x2da9a459	1.928606e-11
86	0x2df671a2	2.8017425e-11
87	0xae592b5f	-4.937861e-11
88	0x2dde0984	2.5242704e-11
89	0x2e4527bc	4.4827905e-11
90	0xad254b07	-9.3958235e-12
91	0x3056b791	7.811361e-10
92	0x313924a4	2.694187e-09
93	0xae9245a2	-6.6516806e-11
94	0x30fbbd15	1.8316394e-09
95	0xaf3891f7	-1.678656e-10
96	0x300f268c	5.2077875e-10
97	0x2e89ba37	6.263117e-11
98	0x2ee48d48	1.0393336e-10
99	0xac8a66d8	-3.933614e-12

second_cons6_filterlist.1.weight f4 [1, 4, 5, 5]
0	0xaeb00eaa	-8.006158e-11
1	0xab24fb4c	-5.861325e-13
2	0xb0a689f4	-1.2117298e-09
3	0xaf4ae0c0	-1.845164e-10
4	0x32e9b226	2.7205783e-08
5	0xae282574	-3.8232043e-11
6	0xb225df11	-9.6549835e-09
7	0x2d6c5b8e	1.3435376e-11
8	0xae1af6a6	-3.5234614e-11
9	0xb1efbc28	-6.9772064e-09
10	0x2f3a8f3a	1.6967486e-10
11	0xadb55a40	-2.0617397e-11
12	0xac6f424f	-3.4000751e-12
13	0x2d18b7ad	8.680984e-12
14	0x3282a3f4	1.5208549e-08
15	0x2d9bffba	1.7735025e-11
16	0x2eac164e	7.8256165e-11
17	0xabb3d0e0	-1.2776689e-12
18	0x2dadfb31	1.9779374e-11
19	0xafc1661d	-3.517905e-10
20	0x30564889	7.7955825e-10
21	0xb12002d3	-2.328467e-09
22	0xad458939	-1.1228623e-11
23	0xae144154	-3.3709327e-11
24	0x2c39b404	2.639001e-12
25	0x2e40f9f3	4.3877745e-11
26	0xab7915a0	-8.849258e-13
27	0xaeb4453d	-8.1977515e-11
28	0x2d10033f	8.186173e-12
29	0x2d76297e	1.3992694e-11
30	0x2d7fd3cc	1.45421e-11
31	0x2de26213	2.5736779e-11
32	0x2c65e372	3.2669115e-12
33	0x2ce5ff76	6.5369333e-12
34	0xad9e4bb1	-1.7996134e-11
35	0xaec72e4d	-9.057697e-11
36	0xad92eecf	-1.670433e-11
37	0xaf32f46f	-1.6275846e-10
38	0x33aac4c2	7.952032e-08
39	0xaf5ef630	-2.0278246e-10
40	0x2cc493e6	5.587075e-12
41	0xae6c7109	-5.3760583e-11
42	0xac565ecc	-3.0463852e-12
43	0xae0f8dbe	-3.2640328e-11
44	0x2aed6c60	4.2174857e-13
45	0xac1430af	-2.105909e-12
46	0x3390e84f	6.747779e-08
47	0xadd0b74b	-2.372826e-11
48	0x303bab8c	6.8273986e-10
49	0xae44adc1	-4.4719565e-11
50	0x2b358910	6.449433e-13
51	0x2d24071b	9.323898e-12
52	0xac0597a2	-1.898461e-12
53	0x315140cb	3.0450333e-09
54	0xaf06e0be	-1.2267073e-10
55	0xac2f9510	-2.4951742e-12
56	0xae4a35ca	-4.5977257e-11
57	0x2d669b40	1.3108459e-11
58	0xb0ae04f4	-1.2661574e-09
59	0xb239cfdd	-1.081568e-08
60	0xabdba042	-1.5605366e-12
61	0x339013ef	6.7091484e-08
62	0x2ca30cf3	4.6341763e-12
63	0x2d851ac3	1.5132234e-11
64	0xaf8d7884	-2.5733382e-10
65	0xb2ad5a9e	-2.0181059e-08
66	0xb0079941	-4.93305e-10
67	0xafc0bf17	-3.5060374e-10
68	0xab237bb0	-5.8080884e-13
69	0x2dc4782c	2.2335987e-11
70	0x2f66d75b	2.0994888e-10
71	0x2c6da806	3.3772997e-12
72	0x2adb8bfb	3.8999346e-13
73	0x2c749da4	3.4761994e-12
74	0x2e8c1d86	6.371707e-11
75	0xadfc6312	-2.869308e-11
76	0xaf31c293	-1.6167183e-10
77	0xae09fa68	-3.13726e-11
78	0x2cee658c	6.775641e-12
79	0x2a7807a8	2.2029481e-13
80	0x2d900600	1.637357e-11
81	0xae40a597	-4.380282e-11
82	0xb204ee8a	-7.737649e-09
83	0x2f53ac14	1.9251473e-10
84	0xb056bdd9	-7.8122536e-10
85	0xaa842a20	-2.347714e-13
86	0x32209017	9.345988e-09
87	0x2cb2af2a	5.0785114e-12
88	0x313d38ae	2.7535338e-09
89	0x2c1d7d3e	2.2380565e-12
90	0x2e2635f5	3.7791954e-11
91	0x2daa434a	1.9356645e-11
92	0xaca26502	-4.615531e-12
93	0x2de58170	2.6091768e-11
94	0xad11ad46	-8.28077e-12
95	0xac90b4d0	-4.1128004e-12
96	0x31045834	1.9258666e-09
97	0xaf4357d8	-1.7766355e-10
98	0xae160395	-3.4109233e-11
99	0xb04658ae	-7.2158e-10

second_cons6_filterlist.2.weight f4 [1, 4, 5, 5]
0	0xae0e1ec5	-3.231439e-11
1	0xad06671a	-7.639911e-12
2	0xacf9e4bd	-7.1024007e-12
3	0x3194b1f6	4.3275987e-09
4	0x2de58808	2.6094696e-11
5	0xacb80fef	-5.2313635e-12
6	0xad9c9e8c	-1.7805556e-11
7	0x2d69c062	1.3287234e-11
8	0x2e9063db	6.5661e-11
9	0x2f565879	1.9494618e-10
10	0xad05a174	-7.5960245e-12
11	0x2eb4ef4e	8.2279614e-11
12	0x2dee8448	2.7116212e-11
13	0x2af5df52	4.3675702e-13
14	0xb120d8a8	-2.340622e-09
15	0xb10cfa31	-2.0514899e-09
16	0xade5bb2e	-2.611741e-11
17	0xb0c80682	-1.4553765e-09
18	0x2e4921be	4.5732078e-11
19	0xae115b84	-3.3050465e-11
20	0xad86c00d	-1.5319324e-11
21	0x2e6a987d	5.3340877e-11
22	0x31067460	1.9565718e-09
23	0xae19375c	-3.483734e-11
24	0xadbec807	-2.168933e-11
25	0x2f18bd25	1.3891517e-10
26	0x301c1d3d	5.679402e-10
27	0x2f8ae96b	2.5267907e-10
28	0xaeeff9d4	-1.091284e-10
29	0x2cccce62	5.820942e-12
30	0x32209bf4	9.348685e-09
31	0xae6fe2d1	-5.4543762e-11
32	0x2b923446	1.0388433e-12
33	0x31121458	2.125736e-09
34	0xb10e988a	-2.0750428e-09
35	0xad8f5a24	-1.6297248e-11
36	0xaeefa62f	-1.0897982e-10
37	0xaf7d299f	-2.3025003e-10
38	0xacb020aa	-5.0058473e-12
39	0x2c9a7ecc	4.3910205e-12
40	0x2f3c0b13	1.7102435e-10
41	0x309500ea	1.0841437e-09
42	0xb0b3a456	-1.3070671e-09
43	0x2dd26da1	2.3922921e-11
44	0x2d2a4dd3	9.680662e-12
45	0x2deb17b6	2.6726937e-11
46	0x2eee365e	1.08326445e-10
47	0xb3aa04bd	-7.917104e-08
48	0x32006321	7.47312e-09
49	0x2e52484c	4.7812684e-11
50	0xb0c3d032	-1.424729e-09
51	0xae33384f	-4.07499e-11
52	0x2d989a56	1.7348938e-11
53	0xabadd3ad	-1.2351141e-12
54	0x3031a955	6.463286e-10
55	0xaeae4c32	-7.926139e-11
56	0xb2233a9b	-9.501174e-09
57	0xaec0c2b6	-8.765737e-11
58	0xae460fb0	-4.503392e-11
59	0xae7375af	-5.5356327e-11
60	0x2c280753	2.3878302e-12
61	0x2d022969	7.398839e-12
62	0x2d7db054	1.4420538e-11
63	0x3112a5c7	2.134003e-09
64	0x32103679	8.394289e-09
65	0x30f472f8	1.7786013e-09
66	0xad560118	-1.21647345e-11
67	0x2e60f89b	5.115251e-11
68	0x2d82bb0a	1.4862351e-11
69	0xae3aae3a	-4.2446248e-11
70	0x2b5f5216	7.933943e-13
71	0x2f082402	1.238192e-10
72	0xafbcf175	-3.4368566e-10
73	0x2f032fc9	1.1931357e-10
74	0xad6d326f	-1.3483089e-11
75	0x2fe2ee2b	4.127839e-10
76	0xb07ba2e1	-9.1544733e-10
77	0x30d9fb6a	1.5860284e-09
78	0x2d9b87ad	1.7681712e-11
79	0xb2390efc	-1.0771824e-08
80	0x3269c7f8	1.3607853e-08
81	0xadeac26a	-2.6689057e-11
82	0x2e27d78e	3.8162855e-11
83	0x2c278304	2.3804856e-12
84	0xacfc8d68	-7.17797e-12
85	0xadba4ccf	-2.1179862e-11
86	0x3365f202	5.3538322e-08
87	0x2cffee4a	7.2739913e-12
88	0xacec9c89	-6.7249023e-12
89	0xad71969a	-1.3732704e-11
90	0xae01dd64	-2.952784e-11
91	0x2dc5cd54	2.2487491e-11
92	0xad10244f	-8.1935144e-12
93	0x309a4437	1.1224363e-09
94	0x2ba6f2b1	1.186237e-12
95	0x32265f9f	9.684213e-09
96	0x3054a87c	7.736458e-10
97	0xaf54635d	-1.9316589e-10
98	0xac6c6ddc	-3.3598601e-12
99	0xb05932b2	-7.901618e-10

second_cons6_filterlist.3.weight f4 [1, 4, 5, 5]
0	0xb03eea92	-6.945494e-10
1	0xb111c31b	-2.1211182e-09
2	0x2e7c01b5	5.7299682e-11
3	0xac7833a2	-3.5271582e-12
4	0xace25d5f	-6.4336726e-12
5	0x2d4bfdcf	1.1595571e-11
6	0xac7e28cf	-3.6118224e-12
7	0xadcee8c1	-2.3522852e-11
8	0xb22ef9cc	-1.018493e-08
9	0x2d0e2b3d	8.081366e-12
10	0x2e76fd18	5.6158717e-11
11	0x2f8cb881	2.559695e-10
12	0x2dcd0154	2.3306392e-11
13	0xab62fdd8	-8.064361e-13
14	0xad839476	-1.4958906e-11
15	0x2d4679c6	1.1282036e-11
16	0xadaf4f64	-1.9930453e-11
17	0xadab6312	-1.9484445e-11
18	0xb1670473	-3.3617453e-09
19	0x2d4647ea	1.1270965e-11
20	0x2c1ef44a	2.2588758e-12
21	0xae02d8a4	-2.9750993e-11
22	0x320f3be4	8.337313e-09
23	0x2dc33970	2.219444e-11
24	0x2ed7cdab	9.813602e-11
25	0x2d212154	9.159191e-12
26	0x2e7c0cd4	5.730956e-11
27	0x323585f4	1.0566044e-08
28	0x2cdf6a88	6.3498685e-12
29	0x2eeef082	1.086571e-10
30	0xb03eb3bb	-6.937701e-10
31	0xb056f215	-7.8196766e-10
32	0x2c98ecd9	4.346395e-12
33	0x2ba55968	1.174877e-12
34	0x2d2dcebc	9.879816e-12
35	0xad657d02	-1.30449e-11
36	0xb3b45770	-8.397808e-08
37	0x2d9f2400	1.8092194e-11
38	0xae8c4ad0	-6.379752e-11
39	0x308bd1f0	1.0173249e-09
40	0xb10b51eb	-2.0273727e-09
41	0xaec04424	-8.743253e-11
42	0xacab13d8	-4.8623154e-12
43	0x2fad0c8e	3.1477437e-10
44	0x2fa91ca9	3.0761285e-10
45	0x2e6cdbe6	5.3855496e-11
46	0xadcec8af	-2.350861e-11
47	0xaec14b0c	-8.789955e-11
48	0x2ec406cb	8.914255e-11
49	0xae2632d2	-3.7789168e-11
50	0x2c6944d3	3.3149497e-12
51	0x2cd007f6	5.9125994e-12
52	0xae4618ff	-4.504219e-11
53	0xae8d1968	-6.416451e-11
54	0xb380c1b0	-5.995696e-08
55	0xaee2426c	-1.0289089e-10
56	0x2db9d506	2.1126666e-11
57	0xb2c48a0a	-2.2880176e-08
58	0x2d95e16e	1.703945e-11
59	0x2de16b50	2.5627195e-11
60	0xb00ce3e3	-5.125555e-10
61	0xacf4649c	-6.946067e-12
62	0x2dd8c65a	2.4644443e-11
63	0xaf879966	-2.4665353e-10
64	0x2dec4da2	2.686457e-11
65	0xafb51484	-3.2938285e-10
66	0x2f3d989b	1.7243666e-10
67	0xacd2ef2a	-5.9951115e-12
68	0x3357379d	5.010917e-08
69	0xad69b6f7	-1.3285143e-11
70	0xaf52fc92	-1.918912e-10
71	0xb1e96fa4	-6.7938846e-09
72	0x2d1fb872	9.079059e-12
73	0x2f5813c8	1.9652113e-10
74	0xae425577	-4.41864e-11
75	0x2f0bc968	1.271353e-10
76	0x2c8ab927	3.942752e-12
77	0xaf23d0da	-1.4898963e-10
78	0xadd63e93	-2.4356772e-11
79	0xaee42c64	-1.0376125e-10
80	0x2d11e7e1	8.293783e-12
81	0xae8e3c49	-6.468121e-11
82	0x2d3251e1	1.0136309e-11
83	0xae39c765	-4.2241228e-11
84	0x331d473c	3.66192e-08
85	0x2e08f358	3.1138953e-11
86	0xb052518a	-7.651343e-10
87	0x2effaeaf	1.16270875e-10
88	0x2f374540	1.6668356e-10
89	0x2fa47260	2.9912695e-10
90	0xadbe451e	-2.1631193e-11
91	0xadf9c14a	-2.839386e-11
92	0xaf2b9212	-1.5604254e-10
93	0x2d911c39	1.6497125e-11
94	0x2be847be	1.6504504e-12
95	0xaeba2276	-8.464422e-11
96	0xb0220016	-5.893538e-10
97	0xae06eef1	-3.0680295e-11
98	0xae71039b	-5.4800258e-11
99	0xace05e4f	-6.3769333e-12

second_cons6_filterlist.4.weight f4 [1, 4, 5, 5]
0	0xad87cc90	-1.5438567e-11
1	0x2ea9d004	7.722181e-11
2	0xb0342ec7	-6.5550093e-10
3	0x2cc0af98	5.476463e-12
4	0xaf06b494	-1.2251383e-10
5	0xab2a2e4d	-6.046039e-13
6	0x2d295bea	9.626947e-12
7	0x2cd19e3a	5.957704e-12
8	0xae5831ce	-4.915695e-11
9	0x2cea3c63	6.6573843e-12
10	0x2e9fbe52	7.2642906e-11
11	0x2d9f3fcb	1.8104537e-11
12	0x33b39a0f	8.36336e-08
13	0x2d843cea	1.5033714e-11
14	0xade3bb44	-2.5890075e-11
15	0xb1b06dfc	-5.134778e-09
16	0x2e23e843	3.72682e-11
17	0x2e039fae	2.9927776e-11
18	0x2c1f89f8	2.2671847e-12
19	0x2e145392	3.372553e-11
20	0xac1e1898	-2.2466803e-12
21	0xb233e52a	-1.0471277e-08
22	0xaead09ff	-7.868905e-11
23	0xb2ebeb40	-2.746458e-08
24	0xae91aa88	-6.624129e-11
25	0x2ef26f3a	1.1024644e-10
26	0x30bb1ac1	1.3613645e-09
27	0xad6049a6	-1.2749279e-11
28	0x2f953e50	2.7147218e-10
29	0x2c4cd8bb	2.9110453e-12
30	0x31f5d516	7.1546635e-09
31	0xad7deba8	-1.4433711e-11
32	0xada4fd25	-1.875706e-11
33	0xae20e557	-3.6583483e-11
34	0xad2981cc	-9.6353585e-12
35	0x2e81d6e2	5.904412e-11
36	0x2dcf3f4e	2.3561288e-11
37	0x2f010aba	1.1736292e-10
38	0x2ce78cb4	6.581036e-12
39	0xad7e6f55	-1.4462949e-11
40	0xad897472	-1.5626809e-11
41	0x2b51cbd6	7.4534595e-13
42	0xac79af68	-3.5482398e-12
43	0x3051101f	7.6056667e-10
44	0x2f354608	1.6486734e-10
45	0xb097ca56	-1.1044203e-09
46	0xabaf9560	-1.2475958e-12
47	0xae761007	-5.594816e-11
48	0xaa57e510	-1.9175308e-13
49	0x2d2c182a	9.7824335e-12
50	0x2f8c92fe	2.5570296e-10
51	0xae65023b	-5.2070553e-11
52	0xab8647aa	-9.541163e-13
53	0x2cf24062	6.8852016e-12
54	0xac8faac5	-4.0832637e-12
55	0xac642ac3	-3.2424486e-12
56	0xafb8cddd	-3.361568e-10
57	0xb3aeb41c	-8.135268e-08
58	0x2d8e6714	1.6189307e-11
59	0x2e929ff9	6.667728e-11
60	0xad120c5b	-8.301883e-12
61	0x311c7113	2.2765263e-09
62	0xaf09749c	-1.2501505e-10
63	0x32c0b789	2.2435204e-08
64	0xae82548e	-5.9267355e-11
65	0xb04b632d	-7.3991907e-10
66	0x32da3cdb	2.5406214e-08
67	0xb22ecfa2	-1.0175343e-08
68	0xb2195b98	-8.926598e-09
69	0xab6fedd4	-8.523991e-13
70	0xad30f745	-1.0059347e-11
71	0x2c420c32	2.7575828e-12
72	0x2d48a5c8	1.1405495e-11
73	0xad7ea86e	-1.4475627e-11
74	0x2deac3ff	2.668976e-11
75	0xafbaba31	-3.39655e-10
76	0x2cf137c6	6.855824e-12
77	0x33b281fc	8.312415e-08
78	0xad49c6b4	-1.1469648e-11
79	0xafc2250d	-3.531472e-10
80	0xacd93060	-6.1728817e-12
81	0x29ffe160	1.1363371e-13
82	0xb115f2de	-2.1820408e-09
83	0xafaa6bae	-3.099933e-10
84	0xab3a0938	-6.609327e-13
85	0x2eb37034	8.159909e-11
86	0xad738fae	-1.3844854e-11
87	0x31105569	2.1003308e-09
88	0xb0763518	-8.956973e-10
89	0x2c1ee799	2.2581713e-12
90	0x2e1db7eb	3.586102e-11
91	0x2a3c8e80	1.6747194e-13
92	0xac415c96	-2.7478345e-12
93	0x2ddc9c8e	2.5080629e-11
94	0x2db6a6fa	2.0765157e-11
95	0x2faaf576	3.109723e-10
96	0x2ff77528	4.5012283e-10
97	0xad37a97c	-1.0439979e-11
98	0xad086abb	-7.754404e-12
99	0xaf50a172	-1.8974847e-10

second_cons6_filterlist.5.weight f4 [1, 4, 5, 5]
0	0xac35fc58	-2.5861726e-12
1	0xb0c92230	-1.4634391e-09
2	0x3233ad2a	1.0458544e-08
3	0xabfabb35	-1.7815529e-12
4	0x320f7845	8.351042e-09
5	0xac84c567	-3.7735817e-12
6	0x2e43ceb5	4.452146e-11
7	0x2eb41ac4	8.190207e-11
8	0xb230bbd2	-1.0287254e-08
9	0x30b9d1eb	1.3520184e-09
10	0x2d70a611	1.3679295e-11
11	0x2f052cb6	1.2112164e-10
12	0xae24dd3f	-3.748579e-11
13	0x306ce690	8.618395e-10
14	0xb224791b	-9.573593e-09
15	0x2e1c0dc8	3.5482534e-11
16	0x2e7bd7a2	5.7262313e-11
17	0xaf4beba0	-1.8546453e-10
18	0x2d8602a8	1.5235216e-11
19	0xad7374e9	-1.383891e-11
20	0xb2235cc3	-9.50894e-09
21	0x30099a15	5.0059273e-10
22	0xab88b75a	-9.714271e-13
23	0xb2f868b2	-2.891861e-08
24	0xad5ba8db	-1.2486202e-11
25	0xb239670f	-1.079185e-08
26	0x2f26cdca	1.5170723e-10
27	0x3124ed84	2.4000153e-09
28	0x2c8bc00f	3.9719404e-12
29	0xb231769e	-1.0329726e-08
30	0xb19c3793	-4.5465156e-09
31	0xadaa42a1	-1.9356352e-11
32	0xadb90bb3	-2.103726e-11
33	0xaf9febdf	-2.9089528e-10
34	0xae7f264f	-5.8014312e-11
35	0x2d15acb4	8.508017e-12
36	0xadebd442	-2.6810668e-11
37	0xade78888	-2.6322292e-11
38	0x30253591	6.010277e-10
39	0x2e1ab560	3.517664e-11
40	0x2caafc95	4.859733e-12
41	0xac690725	-3.3115257e-12
42	0xae451e60	-4.4819592e-11
43	0x2d76b3fe	1.4023447e-11
44	0x2e0c08a0	3.1839975e-11
45	0x2d48d448	1.141582e-11
46	0x2d0fee40	8.181511e-12
47	0x310f53c6	2.0856858e-09
48	0xb235983c	-1.0570201e-08
49	0x2fd5ac21	3.886678e-10
50	0x2cb7db45	5.2255166e-12
51	0xb2f164ba	-2.8101898e-08
52	0xaea20803	-7.36833e-11
53	0x2e93bd74	6.71844e-11
54	0xae932f90	-6.693235e-11
55	0x2b4a0e23	7.1784435e-13
56	0xad1951d6	-8.715214e-12
57	0xaec59fa4	-8.986881e-11
58	0x30231bf8	5.93388e-10
59	0xad8634fb	-1.5257564e-11
60	0xaea30813	-7.413816e-11
61	0x30e9a547	1.6999956e-09
62	0xae1951c1	-3.4860784e-11
63	0xb39f3519	-7.413673e-08
64	0xae6cf9e4	-5.3882135e-11
65	0x31228a58	2.3652742e-09
66	0x2c353874	2.5752985e-12
67	0xad2c949d	-9.810067e-12
68	0xb09c5ac1	-1.1376288e-09
69	0x311f722b	2.3202442e-09
70	0xac99fad7	-4.3763704e-12
71	0x2c0a70c9	1.9673588e-12
72	0x31ab1e19	4.9801767e-09
73	0x32387572	1.0736914e-08
74	0x2e17e5bd	3.4537474e-11
75	0xb1ff7264	-7.4344815e-09
76	0x2e26433a	3.780374e-11
77	0x2ee2fe30	1.0322443e-10
78	0xae7e3e5f	-5.780831e-11
79	0xb01ff4eb	-5.819191e-10
80	0xad17b08d	-8.622558e-12
81	0xaf53f3ac	-1.9276908e-10
82	0x2e15cca1	3.4060425e-11
83	0x2e95e680	6.8166806e-11
84	0x31470f6a	2.8967073e-09
85	0xb235fc67	-1.0592976e-08
86	0xb0e8bc6b	-1.6933773e-09
87	0x2ec073e6	8.751737e-11
88	0xac911203	-4.1231476e-12
89	0x329efb82	1.8507993e-08
90	0xaee2e7ff	-1.0318501e-10
91	0xae92ab82	-6.669777e-11
92	0x3216e570	8.783317e-09
93	0x2d7d3f14	1.4395391e-11
94	0xae118081	-3.3083317e-11
95	0x2cc23b5d	5.5204023e-12
96	0x2fa31f8c	2.9671943e-10
97	0xacc1fe22	-5.5136043e-12
98	0x2f239f2b	1.4881311e-10
99	0x30065efa	4.8883886e-10

third_cons3_filterlist.0.weight f4 [1, 4, 5, 5]
0	0xad467608	-1.1281205e-11
1	0x2d02d0d7	7.436016e-12
2	0x2d079084	7.7059505e-12
3	0x2d4ed728	1.1757519e-11
4	0x330d5f88	3.2916006e-08
5	0x2de19a2a	2.5648001e-11
6	0x30dfb2ec	1.6276238e-09
7	0x305ac54f	7.958833e-10
8	0x3058dd0b	7.8894463e-10
9	0x2e5a1f38	4.959519e-11
10	0xae31015d	-4.024635e-11
11	0x2fb6f154	3.327708e-10
12	0x2fbf6cfd	3.4820138e-10
13	0x2f4f8f10	1.8877366e-10
14	0x2d8a012a	1.56893e-11
15	0xaca644c9	-4.7256405e-12
16	0xad01330d	-7.344137e-12
17	0xaf062f8f	-1.2204125e-10
18	0x3214d0f8	8.662248e-09
19	0xb0597417	-7.9109114e-10
20	0xade62cdb	-2.6167893e-11
21	0x2fb41a99	3.2760708e-10
22	0xadf04a75	-2.7317907e-11
23	0x2e76b95f	5.6098567e-11
24	0x2fc1ae9a	3.5230557e-10
25	0x31220e7d	2.3582338e-09
26	0x2cf45d54	6.9452586e-12
27	0xb047f3d9	-7.2742307e-10
28	0x2e2a2c89	3.869308e-11
29	0xb20b2c06	-8.100875e-09
30	0x2db00bdb	2.0014148e-11
31	0xacfb5886	-7.143677e-12
32	0x2ee52cda	1.04216816e-10
33	0x2c64dcba	3.2523277e-12
34	0xaed19c0d	-9.53194e-11
35	0x2f28004a	1.5279614e-10
36	0xb1125edb	-2.1299715e-09
37	0xae87b158	-6.170592e-11
38	0x2c2f3b5a	2.4901942e-12
39	0x31ecf04b	6.895822e-09
40	0x2f0b004a	1.2642079e-10
41	0xabb74fc2	-1.3025069e-12
42	0x2c812e76	3.6715587e-12
43	0xaf1b7218	-1.4137702e-10
44	0x2d87364a	1.5371832e-11
45	0x3175fb02	3.5794874e-09
46	0x2fcdb31d	3.741655e-10
47	0x2f5ed3f3	2.0266082e-10
48	0x2d87b04e	1.5426018e-11
49	0xaf0787c1	-1.2326408e-10
50	0x2fc12068	3.5129522e-10
51	0xada0267d	-1.8206986e-11
52	0x2c07f981	1.9323156e-12
53	0x2d1ee802	9.032776e-12
54	0xae63058c	-5.161875e-11
55	0xadec0c42	-2.6835537e-11
56	0xafc86242	-3.6449604e-10
57	0x2d4a1f0e	1.1489266e-11
58	0x30023fb1	4.7384235e-10
59	0x2f00a3ba	1.16997e-10
60	0xb3864e72	-6.2541304e-08
61	0x3038f2eb	6.728402e-10
62	0x2de1a8ba	2.5654468e-11
63	0x31c457f0	5.714348e-09
64	0xabc33024	-1.3868945e-12
65	0xb20eabca	-8.304548e-09
66	0x2ee06e4e	1.0205935e-10
67	0x328eba45	1.6615681e-08
68	0xab8deaa9	-1.0083784e-12
69	0x2c91ef27	4.147699e-12
70	0xada1a11a	-1.8375124e-11
71	0x2c365950	2.5913334e-12
72	0xac9121ca	-4.124899e-12
73	0xacdb63f0	-6.2354497e-12
74	0x30ed8208	1.7280977e-09
75	0x2fb7eb0a	3.345451e-10
76	0xadba8617	-2.12053e-11
77	0xaf966131	-2.73539e-10
78	0x300253c4	4.741276e-10
79	0xb2204da9	-9.330884e-09
80	0x2cc61f8e	5.6310017e-12
81	0xadd7410d	-2.4471558e-11
82	0xaf4ab1e6	-1.8434995e-10
83	0x2cdbaa7b	6.2432815e-12
84	0xb2025274	-7.585744e-09
85	0x2d1d7b2b	8.9517655e-12
86	0x2cbfa806	5.447201e-12
87	0xae2aa8bc	-3.880339e-11
88	0xab151659	-5.296645e-13
89	0x2d981bd6	1.7292761e-11
90	0x3184b134	3.8618513e-09
91	0x2e3b5552	4.2594657e-11
92	0x2c862a34	3.8131946e-12
93	0xae25102d	-3.7531023e-11
94	0x2fa7c9e5	3.0520578e-10
95	0x2dd4910a	2.416602e-11
96	0x2c57ab59	3.0648455e-12
97	0x2faf1e06	3.1853647e-10
98	0xac28fc5b	-2.4014321e-12
99	0xb10d91cb	-2.0601074e-09

third_cons3_filterlist.1.weight f4 [1, 4, 5, 5]
0	0x2fcfd1f3	3.7802259e-10
1	0x30582295	7.8629486e-10
2	0x2c4c0228	2.899134e-12
3	0xb23a8b6a	-1.0858324e-08
4	0x2cee31ab	6.769881e-12
5	0x3120694b	2.3342916e-09
6	0xb237995e	-1.0686874e-08
7	0xad58d26d	-1.2324902e-11
8	0xadb54421	-2.0607573e-11
9	0xaf55811e	-1.9418109e-10
10	0xade33a0e	-2.5832694e-11
11	0x2e0ef9b5	3.2508846e-11
12	0x2da5113e	1.8765985e-11
13	0x3200ff90	7.508689e-09
14	0x2c837c79	3.737063e-12
15	0xab90644b	-1.0259652e-12
16	0x2d5b816a	1.2477444e-11
17	0x31f2c5f3	7.065631e-09
18	0xb21e3901	-9.209772e-09
19	0x2b12c968	5.2149127e-13
20	0xac49e89c	-2.8692942e-12
21	0x2e533ea6	4.803149e-11
22	0xb121173c	-2.344179e-09
23	0x3019fffc	5.602485e-10
24	0x329ad31c	1.8023961e-08
25	0x3239855a	1.0798738e-08
26	0x3219d390	8.953876e-09
27	0xaf3b3915	-1.702783e-10
28	0xb097ab9e	-1.1035473e-09
29	0xad6e1529	-1.3533432e-11
30	0xae0e25d6	-3.2320667e-11
31	0x2d80abfa	1.4628288e-11
32	0x2cb47c70	5.129723e-12
33	0x2ef1592e	1.09752527e-10
34	0x320dd657	8.256015e-09
35	0xaff5c1f0	-4.470304e-10
36	0xafb258ca	-3.24411e-10
37	0x31164e0c	2.1872237e-09
38	0x2f5b2fe5	1.993495e-10
39	0xadf37b41	-2.7680637e-11
40	0x2f0eb3d9	1.297872e-10
41	0xae0edb84	-3.248203e-11
42	0x3224935b	9.579561e-09
43	0xb11cb4ed	-2.2803832e-09
44	0x2f064f51	1.2215408e-10
45	0x2bdb1f90	1.5569646e-12
46	0xaf207984	-1.4595086e-10
47	0xb058ac10	-7.882486e-10
48	0xb21b5d37	-9.043382e-09
49	0xb0cc8af1	-1.4882443e-09
50	0xaf06ab11	-1.2248004e-10
51	0x2b5ceed8	7.8491163e-13
52	0xaea92d2b	-7.693254e-11
53	0xb01b5e63	-5.6522803e-10
54	0x2de640c8	2.6176741e-11
55	0x2fbd2756	3.440685e-10
56	0xad17aa44	-8.621163e-12
57	0xb041079d	-7.022381e-10
58	0x2e8be923	6.3624016e-11
59	0x2df548e4	2.7885645e-11
60	0xadabfbcc	-1.955227e-11
61	0xab8f71fa	-1.0192396e-12
62	0xace3a2cc	-6.469802e-12
63	0x30d2b3c2	1.5330601e-09
64	0xadae8461	-1.9840298e-11
65	0xad9d71c6	-1.7899359e-11
66	0x2d1ebefc	9.023667e-12
67	0x2b82ed01	9.302837e-13
68	0x3223571f	9.507658e-09
69	0x3092679d	1.0652347e-09
70	0x2db97288	2.1082927e-11
71	0x2f5cabe0	2.0069946e-10
72	0xaed9d89e	-9.9064965e-11
73	0x2cad8e14	4.9327296e-12
74	0x32322edc	1.0371618e-08
75	0x2f512c1f	1.9024114e-10
76	0xac8a10b2	-3.9240495e-12
77	0x2d4ba10e	1.1574975e-11
78	0x31c5c030	5.755304e-09
79	0xae58a1f5	-4.925656e-11
80	0xb0511617	-7.606515e-10
81	0xb04b50d5	-7.396584e-10
82	0xadad3354	-1.9690617e-11
83	0xaf00f2b7	-1.1727762e-10
84	0xaebb41ef	-8.5154876e-11
85	0xae0e4066	-3.234426e-11
86	0x2f058148	1.214221e-10
87	0xae9222e2	-6.645508e-11
88	0x2e3e7e9c	4.331345e-11
89	0x309cc601	1.140677e-09
90	0x2e5d7cd7	5.0360462e-11
91	0x3171ed1f	3.5204903e-09
92	0xb0ae75c2	-1.2693635e-09
93	0xad99ebe8	-1.749885e-11
94	0xac88814b	-3.879707e-12
95	0x2c828b17	3.7102643e-12
96	0xa9c34a20	-8.672598e-14
97	0x2cf69a84	7.008895e-12
98	0x2e3766e2	4.170076e-11
99	0xad50dcd4	-1.1872465e-11

third_cons3_filterlist.2.weight f4 [1, 4, 5, 5]
0	0x2ca3abfb	4.6518323e-12
1	0x2ddabd24	2.4867726e-11
2	0xadb93a69	-2.1058004e-11
3	0x2e1dfaf1	3.5920548e-11
4	0x33a33305	7.5995594e-08
5	0x2d3dea6e	1.079546e-11
6	0xac058128	-1.8972133e-12
7	0x30940930	1.0771029e-09
8	0x2e64fdf6	5.206676e-11
9	0xada510b9	-1.8765755e-11
10	0x33884943	6.34632e-08
11	0xaefc22fa	-1.1465846e-10
12	0xb1f79ed7	-7.206704e-09
13	0xae9f9d96	-7.258476e-11
14	0xae71315e	-5.4840903e-11
15	0xad4b720a	-1.1564536e-11
16	0x2bafa21c	1.2479492e-12
17	0x3081eabf	9.452704e-10
18	0xabcf1a92	-1.4715609e-12
19	0xaf96832b	-2.7378042e-10
20	0x335914fb	5.054333e-08
21	0xb31fa7cf	-3.7172693e-08
22	0x2e54a8c2	4.8353106e-11
23	0xaeff06a7	-1.1597239e-10
24	0x3239edbf	1.08224745e-08
25	0x2dd0fc0d	2.3758795e-11
26	0xab99866c	-1.0908613e-12
27	0xadead59e	-2.6697585e-11
28	0xad479bbd	-1.1346421e-11
29	0xad823fca	-1.4807617e-11
30	0x2e508549	4.7412105e-11
31	0x316da7b6	3.4583372e-09
32	0x2d83b7fc	1.4974681e-11
33	0xabdbefce	-1.5627445e-12
34	0xae6e6347	-5.420311e-11
35	0xab903ebe	-1.024923e-12
36	0xb1118037	-2.1173159e-09
37	0xaecd2307	-9.328543e-11
38	0xb239a811	-1.0806631e-08
39	0x2fb66246	3.3175435e-10
40	0xb04817ec	-7.279357e-10
41	0xad4350f7	-1.11024445e-11
42	0x2e156ed7	3.3977123e-11
43	0xb10ae073	-2.0209228e-09
44	0xaebc02ba	-8.5497345e-11
45	0xb031d532	-6.4695194e-10
46	0x2cf14bd2	6.8580497e-12
47	0xade44b4b	-2.5954036e-11
48	0xb030d19c	-6.43263e-10
49	0x3056d28d	7.8151957e-10
50	0x2dfec240	2.8962721e-11
51	0xaeb39748	-8.1668505e-11
52	0x2fc1dedc	3.5264847e-10
53	0xb214cf10	-8.661814e-09
54	0x3335d334	4.2334435e-08
55	0xacf48ded	-6.950654e-12
56	0xad5cc1a2	-1.2548547e-11
57	0x2cb1d88c	5.054684e-12
58	0xb3824668	-6.0664036e-08
59	0x322202a8	9.430245e-09
60	0x2db3ed91	2.0455445e-11
61	0xae51d3da	-4.770926e-11
62	0xaebd1ac4	-8.5994795e-11
63	0xb32e29fe	-4.0550724e-08
64	0x2df3a2ea	2.769825e-11
65	0x2d439de6	1.1119527e-11
66	0x333fd95e	4.4668347e-08
67	0x2f9f9e96	2.9034614e-10
68	0x2d8aecba	1.5793911e-11
69	0xae3d7e24	-4.308566e-11
70	0x2c264c75	2.363246e-12
71	0x32200fa3	9.316781e-09
72	0xb16275e9	-3.2954353e-09
73	0xac53ac9c	-3.008072e-12
74	0xa9f245e8	-1.0759086e-13
75	0x2c1ff66c	2.273205e-12
76	0xb1029a6b	-1.9005266e-09
77	0x2e43dc08	4.4533294e-11
78	0x31c5ca9c	5.7564886e-09
79	0x2e47f3a6	4.5463765e-11
80	0x30307aba	6.420283e-10
81	0x32240b80	9.548671e-09
82	0xaa164138	-1.3345304e-13
83	0xada95fdb	-1.9255644e-11
84	0xb21a22d6	-8.9719006e-09
85	0xaf4f1e59	-1.8837322e-10
86	0x33b415b8	8.385854e-08
87	0xb02ab0c5	-6.2096844e-10
88	0xad048a89	-7.534092e-12
89	0x2dbebef9	2.1685308e-11
90	0xafc29990	-3.5397507e-10
91	0xb194e9e1	-4.333956e-09
92	0xac35b814	-2.582383e-12
93	0xad2687e0	-9.466178e-12
94	0x2e47ea66	4.545555e-11
95	0x2dacbf2f	1.9639039e-11
96	0x30f1eef6	1.7602975e-09
97	0xad2ca0a0	-9.812734e-12
98	0x32232441	9.496092e-09
99	0x304e25e8	7.499623e-10

fourth_last1_filterlist.0.weight f4 [1, 6, 5, 5]
0	0x2f05c1c8	1.2165124e-10
1	0x2d152237	8.477267e-12
2	0x2ba8d7a1	1.1996967e-12
3	0x2f7f6df1	2.3231174e-10
4	0xad09685a	-7.810719e-12
5	0x2d94cd31	1.6916775e-11
6	0x2fbf10f2	3.4754738e-10
7	0xab545780	-7.543896e-13
8	0x2f089baf	1.2424438e-10
9	0x2f351065	1.6467679e-10
10	0x3121852d	2.3504285e-09
11	0xaf6f24ca	-2.1749993e-10
12	0x2e381a3e	4.1860064e-11
13	0xacae36bc	-4.951454e-12
14	0xaf0dc794	-1.289478e-10
15	0xac6bbf4a	-3.3501695e-12
16	0x2ebfe0ff	8.725642e-11
17	0xacd3708e	-6.0094768e-12
18	0x2fc1fb33	3.5284983e-10
19	0x2bc1d140	1.3771553e-12
20	0x2e200814	3.6386963e-11
21	0xaf0e791f	-1.2957856e-10
22	0x2f401834	1.7470897e-10
23	0xaaf755f4	-4.3935656e-13
24	0x2dadfbbb	1.9779614e-11
25	0xad62aa06	-1.28843654e-11
26	0xaf30aef0	-1.6069257e-10
27	0xb1210d9b	-2.3436317e-09
28	0x2c831480	3.72552e-12
29	0x2ea9d0ae	7.722299e-11
30	0x2e56d12c	4.884375e-11
31	0xaf9bc635	-2.833517e-10
32	0x3115886f	2.1759907e-09
33	0x2d201e19	9.10163e-12
34	0x2e040439	3.0017076e-11
35	0xab13aab1	-5.2461773e-13
36	0x2d02e2dc	7.440017e-12
37	0xafc1ca88	-3.5250403e-10
38	0xae119d28	-3.3108766e-11
39	0xb0529018	-7.6602324e-10
40	0x2f396d6b	1.6864525e-10
41	0xb12091df	-2.3365982e-09
42	0xac61a96f	-3.2068478e-12
43	0x2dfbb15e	2.8614163e-11
44	0xaec25830	-8.837764e-11
45	0x2ff3aa35	4.4322382e-10
46	0xaaf5e020	-4.367626e-13
47	0xae94eae5	-6.7719864e-11
48	0xaf3c7064	-1.713843e-10
49	0x2d2a0935	9.665426e-12
50	0x2dc22654	2.2072268e-11
51	0x3055ac63	7.7733925e-10
52	0x2e1368f2	3.351714e-11
53	0xaca55fb5	-4.7002077e-12
54	0xaf5252e4	-1.9128837e-10
55	0x3121217b	2.3447615e-09
56	0x2ea68f6d	7.5742836e-11
57	0x2d6f87d8	1.36157405e-11
58	0xad209e55	-9.130104e-12
59	0x2e0e42d8	3.234643e-11
60	0xad231d09	-9.271924e-12
61	0x2d0173c9	7.3585105e-12
62	0x2cf040fc	6.828425e-12
63	0x2fc082a2	3.5017417e-10
64	0x2b1f1d02	5.6528404e-13
65	0x2d0ef849	8.126896e-12
66	0x2dc9a754	2.2925363e-11
67	0xae022e3d	-2.9599646e-11
68	0xad0cac38	-7.996319e-12
69	0xafe9c516	-4.252249e-10
70	0xae420de4	-4.412283e-11
71	0x2daa89b1	1.938791e-11
72	0x2d338428	1.02043166e-11
73	0xaed39fc4	-9.623549e-11
74	0xae0daa68	-3.221104e-11
75	0xada67319	-1.8923129e-11
76	0x30c29ec7	1.4160485e-09
77	0xae7b46dd	-5.7133732e-11
78	0xafbfda27	-3.4897704e-10
79	0xad0c26a5	-7.9666595e-12
80	0xad7dfbae	-1.4437269e-11
81	0x2d804597	1.458282e-11
82	0x2dc5c8ab	2.2485422e-11
83	0x2a6088e0	1.9942685e-13
84	0x2cc0b3d8	5.476935e-12
85	0x2ef0ea07	1.0955508e-10
86	0xad81a080	-1.4736878e-11
87	0xad976290	-1.7210483e-11
88	0xaf088447	-1.2416122e-10
89	0xae00a995	-2.925445e-11
90	0x2e2e7752	3.9668997e-11
91	0x2dd06fce	2.3696514e-11
92	0xb119dd4a	-2.2390219e-09
93	0xad200131	-9.0952116e-12
94	0xae0a935c	-3.150845e-11
95	0xad339d2f	-1.0209874e-11
96	0x2e962f61	6.8296264e-11
97	0x2f3b8037	1.7053102e-10
98	0xad0348e7	-7.4626754e-12
99	0x2e017b21	2.9440565e-11
100	0xac3f0f4b	-2.7151222e-12
101	0xafb96dcd	-3.3729322e-10
102	0x2e6f9637	5.4475726e-11
103	0x2fb4df41	3.290044e-10
104	0x2ebf050c	8.686571e-11
105	0xab9e7dd4	-1.12615e-12
106	0xad0817f9	-7.736028e-12
107	0xadaeaa57	-1.9857156e-11
108	0x2fba4fdf	3.3889955e-10
109	0xadb1b868	-2.0204463e-11
110	0xacca51ca	-5.7502657e-12
111	0x2ce4c26f	6.501736e-12
112	0x2fc3825e	3.5562925e-10
113	0x2c14df43	2.1156e-12
114	0x2d6daea8	1.3510672e-11
115	0x2cfaa90a	7.1241945e-12
116	0x2c3f367a	2.7172973e-12
117	0xadec8f46	-2.689372e-11
118	0x2ea59349	7.5294944e-11
119	0x2cf3cbf2	6.929118e-12
120	0x2dde3025	2.5259858e-11
121	0x2d9c3e7f	1.77629e-11
122	0x2e421ba7	4.4135053e-11
123	0x2e63d1f7	5.180031e-11
124	0x2e3d6f89	4.3072688e-11
125	0x2e5a4d13	4.9635917e-11
126	0xad15baa6	-8.511114e-12
127	0xad9b9632	-1.768816e-11
128	0x2d79392d	1.4166707e-11
129	0xadc33790	-2.2193608e-11
130	0x2d28d743	9.597492e-12
131	0x2d35d87c	1.0336728e-11
132	0x2ec52f85	8.966964e-11
133	0x304a7305	7.3650624e-10
134	0x2fc1c072	3.5243236e-10
135	0xae17ceb3	-3.451701e-11
136	0xaf386aeb	-1.6772687e-10
137	0xae2ace05	-3.8836507e-11
138	0x2e297e81	3.853851e-11
139	0x2bd45f9c	1.5090043e-12
140	0x2d0b400a	7.915455e-12
141	0x2fdc480e	4.0068965e-10
142	0x2c36b8dd	2.5966375e-12
143	0xafb245a8	-3.2427505e-10
144	0x2d9f27fe	1.8093967e-11
145	0xb0594187	-7.903726e-10
146	0x2dae2e77	1.9802144e-11
147	0x2d82c87f	1.4868327e-11
148	0xac1bcf4f	-2.2141904e-12
149	0x2dcf9f9b	2.3604054e-11
