models/10.pth (torch_old, 252400 bytes, 36 tensors)

c1.weight f4 [6, 3, 5, 5]
000000 ae 9a cd bd 60 5d 11 3b 4e 4e b9 3d 84 10 a3 3d
       -0.100392684 0.00221809 0.090481386 0.079621345
000010 9c f5 28 3d e8 ac b3 3d f4 17 69 bd cf 40 37 bd
       0.041249856 0.087732136 -0.05690761 -0.04473954
000020 d0 a4 8c bc 23 f3 fa 3c 91 c8 6f bc 72 3b 53 bd
       -0.017168432 0.030633515 -0.014635221 -0.051570363
000030 e7 fa 43 3d 40 33 54 bd 55 59 71 bd a8 eb 6a bd
       0.0478467 -0.05180669 -0.058923084 -0.057353646
000040 02 42 80 3d 81 d0 9e 3d 6d 74 69 3d 13 58 9d 3c
       0.0626259 0.07754613 0.056995798 0.019207036
000050 b0 9e 98 bd cb 8c 4a 3c 5e ca 29 3c 1b 37 5d 3c
       -0.07452142 0.012362669 0.0103631895 0.013501908
000060 3f 63 95 3d ca b4 3e 3c ae 79 c3 bd 5d f9 c0 3d
       0.0729432 0.011639783 -0.09544693 0.09422562
000070 ea ad c4 bc 31 07 5d bd bf 16 db 3d d0 5a 5f bd
       -0.02400871 -0.053961936 0.10697698 -0.054529965
000080 02 2d 26 bd d6 23 bc 3c 3f 70 67 bd 25 c2 8f 3d
       -0.040570267 0.022966307 -0.05650353 0.07019452
000090 86 0b 5a 3c bb ae 00 bd 84 30 ac bc cf 5b dc bd
       0.013308411 -0.031416636 -0.021019228 -0.107596986
0000a0 40 29 56 3d de 7a c8 bd 2b a6 c3 3d 3d 1a 46 3d
       0.052285433 -0.0978906 0.095531784 0.048364867
0000b0 b5 d7 bd bd 2e d4 12 3c 16 f5 21 bd 24 5b f9 bb
       -0.092696585 0.00896172 -0.039540373 -0.0076097418
0000c0 20 fc 4b bc 85 ff 65 3d 9f 2f 1d bd ae ca ed 3c
       -0.012450248 0.056151886 -0.038375493 0.02902731
0000d0 86 40 0b 3e 46 a7 c4 3d 00 a5 a7 bc ff 99 96 3d
       0.13598832 0.096022174 -0.02046442 0.07353591
0000e0 2e 40 7d 3d 43 6c e8 3d c4 92 5d bd d3 50 b6 bd
       0.061828785 0.11348774 -0.054095045 -0.08902135
0000f0 5a 01 50 bd ba 80 39 3c 5c 49 37 bd c5 fa 1f 3a
       -0.05078254 0.011322195 -0.044747695 0.0006102736
000100 54 5a 45 3d ca 53 ce bc f1 af 90 3d 5f 5b 2c 3b
       0.048181847 -0.025186438 0.07064808 0.0026299579
000110 ac 3a 6b 3c b6 74 62 bd 3c c6 5d bd d1 3d e8 3d
       0.01435725 -0.055287085 -0.05414413 0.113399155
000120 a1 45 9c bc f0 38 fe 3d 1e 4f 96 3d e1 bb 91 3d
       -0.01907617 0.12413204 0.07339309 0.07115913
000130 14 c8 e3 3c 60 13 67 bd d0 12 98 bd fc 63 9e bd
       0.027805366 -0.05641496 -0.07425463 -0.07733914
000140 1e 97 a5 3c 84 bf 20 3c 4a c6 5f bd f9 c3 22 3d
       0.02021366 0.009811286 -0.054632463 0.039737675
000150 66 59 be 3d 1b f6 8a 3c 9b 1b 6d 3d 5a 19 d3 3c
       0.09294395 0.016963055 0.057887655 0.025768925
000160 b8 94 ec 3d 16 4a cd 3d 9d ff 5f bd 65 d5 79 bd
       0.11551803 0.100238964 -0.05468713 -0.060994525
000170 29 be fc 3d 5d 38 84 3d e7 2c 4a 3d 48 79 db 3d
       0.12340958 0.06456063 0.04935923 0.10716492
000180 9f 74 0c bd 75 94 9b 3d 3c 99 a3 bd cc dc 89 bd
       -0.034290906 0.07596675 -0.079882115 -0.06731567
000190 3e 27 6f 3d 1b 3d 24 bd 8f fa d9 bd af ce 27 bc
       0.058387034 -0.040097337 -0.106434934 -0.010242148
0001a0 dd e3 8e 3d 90 59 f1 bc 7d c3 a6 39 e5 8c a4 bd
       0.06977055 -0.029461652 0.00031807637 -0.08034686
0001b0 f0 ac ac bd af 58 d5 3c 93 7b dd 3c 90 4e 9e 3c
       -0.08431423 0.026043264 0.027036464 0.01932457
0001c0 93 16 8a 3d b7 cf 0e bd c1 ae 5d bd 13 3f 88 bd
       0.06742587 -0.03486606 -0.054121736 -0.066526555
0001d0 fd 89 67 3d ec de bd 3d 17 7b 0c bc 45 bb 90 3d
       0.05652808 0.092710346 -0.008574269 0.07066969
0001e0 8d c5 c2 bd bf 43 c7 3d 98 35 60 3d 37 af 5f bd
       -0.09510336 0.097297184 0.05473861 -0.054610457
0001f0 31 ab b6 bc 22 cf 1f bd b3 26 41 bd 55 b2 eb bd
       -0.022298427 -0.039015897 -0.047156047 -0.115086235
000200 37 d6 19 bc 9a 87 54 bc 2e 6e d8 3a dc 7b 08 3d
       -0.009389452 -0.012971783 0.0016512328 0.033321247
000210 81 6c 95 3c e5 8f ea bd b5 29 f0 bd 94 94 8e bd
       0.018240215 -0.11453227 -0.11726705 -0.06961933
000220 58 0a 91 bd a2 5e db 3d 7d 4e d3 bc 9a 38 35 bd
       -0.07082051 0.10711409 -0.025794262 -0.044243433
000230 36 80 08 3d cf 13 ee 3d 1f 9f 07 3e 13 76 8a bd
       0.033325396 0.11624872 0.13244294 -0.06760802
000240 7a 6a 06 bd 46 ae 67 3b 50 f6 04 3d ae f0 d7 3d
       -0.032816388 0.0035351678 0.032461464 0.10543953
000250 05 b1 65 bc 50 3b ac bd fe 83 d5 bd ec c3 f1 3d
       -0.0140192555 -0.084097505 -0.10425566 0.11804947
000260 bb cf 00 bd f2 b4 dd 3b 9d 68 a8 3b f4 66 b3 bd
       -0.031448107 0.006765955 0.005139424 -0.08759871
000270 e1 2e a5 bd ee 0e a6 bd fe 48 3f 3d 7f db c9 bd
       -0.08065582 -0.08108316 0.04670047 -0.09856319
000280 72 90 ec 3b 8c f8 91 3c fa e8 58 bd ab e3 6e 3d
       0.0072193677 0.017818712 -0.05295656 0.05832259
000290 01 86 de 3c a2 83 89 bd 47 02 e5 bd 2b 6c dd bd
       0.027163507 -0.0671456 -0.11182075 -0.10811647
0002a0 ac 81 c4 3d 51 7d ef bd fa 15 04 3d 48 70 5e bd
       0.095950454 -0.11693824 0.03224752 -0.0543063
0002b0 5a 9d 31 bd 5e b5 e9 3d 08 34 66 bd 99 60 c5 3c
       -0.043362953 0.11411546 -0.056201965 0.024093913
0002c0 66 ee 1f 3d a8 e0 a5 bd f2 88 a3 3d 15 b2 2d bc
       0.039045714 -0.080994904 0.079851046 -0.01060154
0002d0 1f 3c 50 bd ba 0a bb bd 8b 32 fe bd 30 a6 b2 bc
       -0.050838586 -0.09132905 -0.12411984 -0.02180776
0002e0 85 aa 6a 3d 67 a6 2b 3d 8f 0a a1 bd 8c f7 a4 3c
       0.057291526 0.04190674 -0.07863342 0.02013757
0002f0 a6 52 eb bd 89 23 ce 3d 8a f0 c1 bc 5d 7c 4b 3c
       -0.11490373 0.100653715 -0.023674268 0.012419787
000300 a8 5b d7 bc ca 7b 5f bc 0a 81 41 3d ca 11 ef bd
       -0.026288822 -0.013640353 0.047242202 -0.11673315
000310 74 69 05 3e 98 54 3f bb 21 84 d4 bd 6a 69 ee bd
       0.13028508 -0.002919471 -0.10376764 -0.116412
000320 f4 55 be 3d 9b 5a 62 ba 42 65 5d bd 2d fe 95 3d
       0.09293738 -0.0008634717 -0.054051645 0.07323871
000330 95 98 60 bb fc ec a9 bd 7a 0b 80 bd d4 07 b4 3b
       -0.0034270633 -0.08297154 -0.06252189 0.0054940972
000340 1c 6a d5 3d 83 14 a0 b9 51 b9 45 bd 34 8b a6 bd
       0.104206294 -0.0003053286 -0.048272435 -0.0813202
000350 fb e8 4b 3d f7 8e d2 bd 82 2f ac 3d 46 27 d2 bd
       0.049782734 -0.10281175 0.08407499 -0.10261397
000360 72 da 39 3d 2d e7 ba bd 63 97 a2 bd 20 56 af bd
       0.04537434 -0.091261245 -0.07939031 -0.08561349
000370 dd 9a 00 bb b8 04 1d bd ed e6 df 3d cf f5 4e bd
       -0.0019623556 -0.03833458 0.109327175 -0.05052739
000380 b1 3b b4 bd 97 07 92 3d 84 38 21 bc bd 17 ee 3c
       -0.08800448 0.07130354 -0.0098401345 0.029064054
000390 a2 6f c4 3d d2 b1 52 3c b5 a5 66 3d 29 12 55 3c
       0.09591605 0.0128597785 0.056310374 0.013004818
0003a0 f1 80 86 3d c0 db af 3d ff 6c 7a 3d db df 19 bd
       0.06567562 0.08586836 0.061139103 -0.037567
0003b0 c5 79 50 3c ac 6d 8e bd 04 13 3a 3d 11 86 fe 3c
       0.012724345 -0.06954512 0.04542829 0.031069787
0003c0 10 f1 6a bd 57 d1 51 bb ec d0 d2 3d 0e d6 44 3d
       -0.0573588 -0.0032015645 0.10293755 0.0480557
0003d0 07 fb 00 bd 3c 05 d7 3d 7e e8 c5 3d 24 04 c5 bb
       -0.0314894 0.10499045 0.09663485 -0.0060124565
0003e0 8b 01 20 3d 14 3b b7 bd 7c 75 85 bd 4b a7 9d bd
       0.03906397 -0.08946815 -0.06516549 -0.07697924
0003f0 0a 60 04 bd 9e 1e a7 3c f9 8b 00 3d 62 43 80 bd
       -0.032318152 0.020400342 0.03138349 -0.06262852

c1.bias f4 [6]
000000 00 70 4b b9 d1 e6 e6 3d c4 0e 94 3d f0 35 a6 3d
       -0.00019401312 0.112744935 0.07229379 0.081157565
000010 5f b7 ae 3c c3 1e d5 3d
       0.021327673 0.10406258

bn1.weight f4 [6]
000000 0f d0 7e 3f 09 cf 80 3f fb aa 75 3f 0c dc 86 3f
       0.9953622 1.0063182 0.9596402 1.0535903
000010 8f 5e 7b 3f 04 84 80 3f
       0.9819116 1.0040288

bn1.bias f4 [6]
000000 99 59 cc bb 19 27 9e bc 57 89 71 bc 90 98 a5 3b
       -0.006236267 -0.019305753 -0.014742217 0.0050535873
000010 a0 26 86 ba f6 d5 80 ba
       -0.00102349 -0.000982939

bn1.running_mean f4 [6]
000000 7c 15 56 3e 55 59 c5 3e 6a 98 9a 3e ff 71 9d 3e
       0.20906633 0.38544717 0.30194408 0.30751035
000010 c5 db 84 3e 37 78 aa 3e
       0.2594892 0.33294842

bn1.running_var f4 [6]
000000 18 c3 22 3e 7c db a1 3e bb 36 cb 3f ee f7 41 3e
       0.15894735 0.31612766 1.5876077 0.18942234
000010 e9 c2 3a 3f e0 0b a4 3e
       0.7295366 0.3204031

first_cons6_filterlist.0.weight f4 [1, 3, 5, 5]
000000 74 f0 5e 3d 47 b2 c5 bc 62 f4 38 3d f3 57 97 3b
       0.054428533 -0.02413286 0.045154937 0.0046186387
000010 85 43 a2 3c 96 d8 54 3d 45 19 d5 bc 0a 7b 84 3d
       0.019807586 0.051964365 -0.026013026 0.0646878
000020 ec 43 39 bd 7f c0 49 bc 96 b1 a8 bd 96 20 c6 bd
       -0.04523079 -0.012313961 -0.08236997 -0.09674184
000030 b4 20 0a 3d 93 ae 66 3d 2d 31 96 bd 3e 73 8f bd
       0.033722594 0.05631883 -0.07333598 -0.070044026
000040 f6 82 b1 bd d4 ed 9e bd 3a 19 a9 3d af f0 2d 3d
       -0.08667557 -0.07760206 0.08256765 0.042465862
000050 72 03 8d 3d 05 3c 5c bd a8 3d 41 bd 45 f3 2b bd
       0.06885423 -0.053768177 -0.04717794 -0.041980047
000060 a2 1b e4 bd 7f 6b dc bd 1c d6 86 3d 82 64 d5 bd
       -0.11138083 -0.10762691 0.06583807 -0.10419561
000070 c4 7b 04 3e cf 61 95 3d 20 97 96 bd e2 ac bf bc
       0.12937838 0.07294046 -0.073530436 -0.023397867
000080 f7 35 83 bd 79 4e 66 3b a9 77 4d 3b 13 8d 8d bd
       -0.06406777 0.0035141988 0.003135184 -0.069116734
000090 38 e6 ad 3d 23 89 c2 3d e7 c8 9e 3c 77 44 e7 bd
       0.08491176 0.09498813 0.019382907 -0.112923555
0000a0 17 bb 8f 3d 36 92 c0 3d 5b c9 2e bd 25 d8 e4 bd
       0.070181064 0.094028875 -0.042672496 -0.11174039
0000b0 c1 8f b7 3d 2a f3 d2 bd 7c 11 13 3d b7 d2 40 3c
       0.08962966 -0.10300286 0.035905346 0.011768988
0000c0 d9 2e 88 3c 81 61 71 3c 08 d2 91 3d 6e 5c be bb
       0.016623901 0.014732719 0.071201384 -0.0058093583
0000d0 6d de 58 3d 09 ef 76 3d 68 3a 15 3d 3b d2 1a 3d
       0.052946497 0.060286555 0.036432654 0.037798148
0000e0 75 7f ca 3c fd 26 22 3d 50 d3 1f 3c 01 1e 4b 3c
       0.02471898 0.039587963 0.009754971 0.01239729
0000f0 21 18 f7 bd 18 f4 d9 3a b4 5c f8 3c 4a 26 66 3d
       -0.12065149 0.0016628532 0.030317642 0.05618886
000100 83 78 bf bc 0b 32 9f bd dc 4d dc bd 03 4a 53 3b
       -0.023372894 -0.07773217 -0.10757038 0.003224016
000110 24 b6 ca 3d 33 2c 9e 3d 85 f5 bb 3d 92 a9 b4 bd
       0.09898022 0.07723274 0.091776885 -0.088214055
000120 0f d0 c6 bd 1d 31 b9 3d da d3 a2 bd
       -0.09707653 0.09042571 -0.07950564

first_cons6_filterlist.1.weight f4 [1, 3, 5, 5]
000000 21 c8 41 bd 05 a6 d7 3d bf 8d 56 bd 36 86 74 3d
       -0.04731 0.105297126 -0.052381273 0.059698306
000010 01 2e 64 bd fd 77 dc 3d 3c ff 70 3d 27 a1 bc bd
       -0.055707935 0.107650734 0.05883716 -0.09210425
000020 17 cc a5 3d 53 50 27 3d 07 59 aa bd c6 f0 d7 bd
       0.08095568 0.040848088 -0.08317762 -0.10543971
000030 67 45 47 3d 27 d5 bc bc 4b dc 94 3b 13 b4 05 bd
       0.04865017 -0.023050858 0.0045428625 -0.032642435
000040 62 cd e5 3d 3e 0b 94 bd 9c 6a 8d 3d 8d e8 2e bd
       0.11220814 -0.07228707 0.069051 -0.042702246
000050 b6 0b b7 bb 0d 2b e2 3d 86 67 ce 3d 98 9d 39 3c
       -0.005586113 0.110433675 0.10078339 0.011329077
000060 b3 23 d0 bd 60 d2 86 bd c2 87 81 bd f5 f7 43 bc
       -0.10163059 -0.065830946 -0.06324722 -0.011960973
000070 9c d1 bf 3b fa d1 8c 3d b5 ba a8 3d 05 23 30 bd
       0.005853845 0.06875987 0.082387365 -0.043002147
000080 44 ff 8d 3d 06 d5 eb bb 3e 2f 1f bd 20 42 7b bc
       0.06933454 -0.007197025 -0.038863413 -0.01533559
000090 8e b8 75 3d 64 87 ca bd 64 7f b0 3d 75 80 bc 3d
       0.05999046 -0.09889105 0.08618048 0.09204189
0000a0 a0 f9 94 bd 54 5e 59 3c f4 61 95 bd 2f 67 36 bd
       -0.07274175 0.0132671185 -0.07294074 -0.044531997
0000b0 a6 37 97 3d e1 19 01 3d 78 d9 85 bc d7 a2 2a bd
       0.07383661 0.03151882 -0.016339049 -0.041659202
0000c0 c0 6c ee b9 fb 9a 13 3c fd 20 0f bc 66 ad 42 bd
       -0.00045475923 0.009009118 -0.008735892 -0.047528647
0000d0 0f a2 90 bd 30 39 a4 3d a9 1b 84 39 d7 f3 e5 bd
       -0.0706216 0.0801872 0.0002519761 -0.112281494
0000e0 21 07 b4 3d 39 9a 24 bd 43 94 5e bd 6f 8e 50 bd
       0.08790422 -0.04018614 -0.054340612 -0.050917085
0000f0 40 5a 16 bd 43 19 02 be 43 d6 ad bd f4 96 05 3c
       -0.036707163 -0.12704949 -0.08488133 0.008153666
000100 a1 4c cc bd 51 76 dd 3d 02 96 03 be b4 10 bb bd
       -0.09975553 0.10813583 -0.12850192 -0.09134045
000110 75 3c c6 bd d6 d9 1d bd 8f 6d f6 3d ab 06 7a 3d
       -0.096795 -0.038537823 0.120326154 0.061041515
000120 4e 73 f4 3d 52 7e d2 bd 2c bb d4 bd
       0.11936055 -0.10278 -0.10387263

first_cons6_filterlist.2.weight f4 [1, 3, 5, 5]
000000 07 68 49 bd 12 09 24 3d 44 6d e1 3d 9a 4e 9d 3d
       -0.049171474 0.040047713 0.11007169 0.07681008
000010 1d f5 7f bd 4f c9 87 3d 2a 7f 8e bd bb b1 83 3d
       -0.062489618 0.066301934 -0.06957848 0.06430384
000020 1b 9e bc 3d 49 93 d5 3b a8 44 a3 3d bf 42 9e bc
       0.09209844 0.006517802 0.079720795 -0.019318936
000030 ca 7e 79 bd 1f 8d 5b bd 86 e4 b2 bd 53 90 8f bc
       -0.06091193 -0.05360138 -0.08734994 -0.017524874
000040 86 80 92 bd 04 73 af bc f7 08 28 bc 00 f3 e5 bc
       -0.0715342 -0.021417148 -0.010256044 -0.028069973
000050 81 2e c9 3d e4 16 98 3c d3 81 e3 3c 5f 2e d8 3d
       0.09823323 0.018565603 0.027771866 0.105557196
000060 9b 50 dd bd a0 9b 51 bd 34 ba 67 3d d1 ce 8e bd
       -0.1080639 -0.051173806 0.05657406 -0.06973041
000070 d5 9b d6 bd 28 72 79 bc 47 72 e8 bd 2e ac 9e 3d
       -0.10478941 -0.015224971 -0.11349922 0.077476844
000080 75 14 c6 bc 7c 99 06 be be 08 95 3d f9 60 05 bd
       -0.024179677 -0.13144487 0.07277058 -0.032563183
000090 9d 3e 8b bd 90 ca d4 3d 15 1b bd 3d d9 3b d2 bd
       -0.06799052 0.10390198 0.09233681 -0.10265321
0000a0 1f 88 ab bd 1f 73 88 3d d6 ab 0b bd bc 8f d5 bd
       -0.083755724 0.066625826 -0.034099422 -0.10427806
0000b0 df 88 02 bd f5 5f 52 3c f1 f1 33 bd 59 30 94 3c
       -0.03186881 0.012840261 -0.043931905 0.01808946
0000c0 74 78 6f 3d 99 59 94 bc a2 ca f0 bc 08 24 ed 3c
       0.058464482 -0.01810913 -0.029393498 0.028947845
0000d0 0e 58 1c bd 56 e4 87 bd 67 cb 77 3d f6 48 f7 bc
       -0.038169913 -0.066353485 0.060496714 -0.030186158
0000e0 e8 da 08 bc 80 d4 b4 3d 79 e9 a8 3d 03 75 8f 3d
       -0.008352973 0.08829594 0.082476564 0.0700474
0000f0 ca bd 09 3e 3c 94 38 bd 1a 8a f9 3d f2 cc e8 3d
       0.13451305 -0.045063242 0.12184544 0.11367215
000100 85 c3 2b bd 7d 7d a0 3d 9d 50 ab bd 4b 56 bb bc
       -0.04193451 0.07836435 -0.08364985 -0.022868296
000110 28 ef 9e ba 97 a5 98 bd c0 c8 ad bd 9b 00 8e bc
       -0.0012125717 -0.07453459 -0.08485556 -0.017334273
000120 ef 10 e7 bd bc 50 8f bd a3 e5 b3 bd
       -0.11282527 -0.06997821 -0.08784034

first_cons6_filterlist.3.weight f4 [1, 3, 5, 5]
000000 b7 55 aa bd 11 97 62 bc 6b ea 6e bb dd 8a 10 bd
       -0.0831713 -0.013829962 -0.0036455642 -0.03528868
000010 f7 c0 d8 3d 86 7d ae 3c b4 c1 25 3d 98 e4 9e 3d
       0.1058368 0.021300089 0.040467933 0.077584445
000020 73 83 ca 3c cc 0a 72 bd 76 bf a7 bc 0f 25 32 bd
       0.024720883 -0.059092328 -0.020477038 -0.043492373
000030 da a1 60 3d 3e 12 46 bd b4 9f dd bd ad 2c 2e 3d
       0.054841854 -0.04835724 -0.108214766 0.042523075
000040 28 21 b9 bd c7 f9 b8 3d 5c 6a 9f bd 22 1e c9 3d
       -0.09039527 0.09032016 -0.07783958 0.098202005
000050 d5 64 87 3d 15 0d 06 3d 21 2a 88 3d 00 52 92 3d
       0.06611029 0.03272732 0.066486605 0.071445465
000060 e4 54 be bd 52 56 42 3d 6b 46 ad 3d 05 f2 ac ba
       -0.09293535 0.047445603 0.08460697 -0.0013194686
000070 64 83 bd 3d fe 08 22 bd d4 2f f0 bc 5a 75 50 bd
       0.092535764 -0.039559357 -0.029319681 -0.050893165
000080 71 5b 52 3d bf 3b 00 bc 54 89 c5 3d 42 d2 9e bb
       0.051356737 -0.007826745 0.09645334 -0.004846842
000090 46 29 c2 3d 6c ce 5c 3d ad 28 ee 3c 4d 06 83 3d
       0.094805285 0.053907797 0.02907213 0.06397686
0000a0 7f 9e 2f 3d c2 9a 3d bd ff 9d 60 3d 80 34 a8 3c
       0.042875763 -0.046290167 0.054838177 0.020532846
0000b0 28 84 bc 3c 85 e3 f2 bd 3e a4 a9 3d bb 39 5e bd
       0.023012236 -0.11859802 0.0828328 -0.054254275
0000c0 38 d9 d8 3d 2f 46 59 3d c5 0f fe bd 41 d9 cd 3d
       0.10588306 0.053045448 -0.124053515 0.100512035
0000d0 05 52 80 3d e1 67 a0 bb 15 6a 69 3d 32 f6 a0 3d
       0.06265644 -0.004895196 0.056985933 0.07859458
0000e0 6c 27 8a 3b 28 1d f5 3d 0a 6b ac 3b 14 4e ad bd
       0.0042161252 0.11968452 0.0052617835 -0.08462158
0000f0 c3 c3 8f bd 9c a3 25 3c 33 5d 0a bc 27 bf d6 3d
       -0.070197605 0.010109808 -0.008445072 0.10485678
000100 b8 1f b2 bd 49 ce 09 3d 6c 3c 96 bc 2f 63 33 3d
       -0.08697456 0.033643994 -0.018339358 0.04379576
000110 c3 28 53 bc f2 3e ee 3d c8 8e c1 3a ca 93 0e be
       -0.012888136 0.116330996 0.0014767284 -0.13923565
000120 f7 10 99 bc 3d fa 24 3d 46 2d 54 bd
       -0.018684847 0.04027771 -0.05180099

first_cons6_filterlist.4.weight f4 [1, 3, 5, 5]
000000 36 97 1c 3e 2e 5a 1f bd 6c c7 ef 3d 09 b5 99 3d
       0.15292057 -0.03890436 0.117079586 0.07505233
000010 63 b1 56 3d ca b6 99 bd 9a d6 52 bb cf 36 09 3c
       0.052415263 -0.07505567 -0.003217137 0.008374884
000020 8e ed f6 3d c5 8c 86 3d 30 c0 01 be d4 7d 93 bd
       0.12057029 0.065698184 -0.1267097 -0.07201734
000030 74 d1 a0 3d b1 43 fe bd a4 58 59 3d 04 de 1d bc
       0.0785245 -0.12415255 0.05306305 -0.009635452
000040 0a df 02 be aa ae e4 bd 87 41 77 3d e1 0f a0 bd
       -0.12780395 -0.11166127 0.060365226 -0.07815529
000050 c3 fb b4 3d 43 c0 b6 ba 63 c0 b3 3d 0b a2 cc 3d
       0.08837082 -0.0013942797 0.08776929 0.09991845
000060 9b 0a 98 bc df 3a 85 3c 5c 7c 14 bb 00 b2 e5 3d
       -0.018559745 0.016263423 -0.0022657132 0.112155914
000070 ea 29 2a bd 67 a0 08 3d 57 a0 da bd d2 ab a6 3d
       -0.04154388 0.033356097 -0.10675114 0.08138241
000080 c7 63 a4 3d 4e dc af 3c c0 1f ae 3d 25 e7 c3 bc
       0.080268435 0.021467354 0.085021496 -0.02391393
000090 1d e4 0e 3d 68 ee a1 bd dd a6 93 3d 98 b7 cd 3c
       0.034885515 -0.079068005 0.07209561 0.025111958
0000a0 14 8e 17 3d f3 1c 2d 3d f0 0d a7 bc 6f a2 49 bd
       0.03700073 0.042263936 -0.020392388 -0.049227174
0000b0 55 67 84 3d 92 e8 de bc 30 18 aa 3d a1 e5 a2 3d
       0.064650215 -0.027210508 0.08305395 0.079539545
0000c0 6f ca e7 bd fd 79 cc bd 97 00 87 bc 02 1e a4 bd
       -0.11317908 -0.09984205 -0.016479773 -0.08013536
0000d0 23 f5 a6 3d cc 10 cf bd 23 b4 ee 3c 7d 62 7a bd
       0.08152225 -0.101106256 0.02913863 -0.061129082
0000e0 a2 b0 8c bc 1b 23 bc 3d 0f be 40 3d f4 6c e2 bd
       -0.017174069 0.09186383 0.047056254 -0.110559374
0000f0 c1 08 c5 bd 7a d6 8b bb 5b 65 3d 3d 58 36 13 bd
       -0.0962081 -0.004267511 0.04623924 -0.035940498
000100 35 0c 3f 3d 8e 38 a5 3d 63 b8 45 bc c0 23 f1 bd
       0.0466425 0.080674276 -0.012067887 -0.11774397
000110 aa 5b 52 bc c2 34 00 3e 69 e3 58 bd 66 84 c4 3d
       -0.012839237 0.12520126 -0.05295125 0.095955655
000120 ec b6 f6 3c b2 5d ab 3d 76 29 47 3d
       0.03011652 0.0836748 0.048623525

first_cons6_filterlist.5.weight f4 [1, 3, 5, 5]
000000 c4 b3 de 3c 1d 63 90 bd ac 78 b3 3c 3a b4 d2 bd
       0.027185328 -0.07050154 0.021908127 -0.10288282
000010 17 b7 1e bd f3 82 1c bd 59 8f 07 3d cb ce 7c 3d
       -0.038748827 -0.03821082 0.03309569 0.06172065
000020 35 e4 39 bd 1f fc 82 3d 38 76 aa 3d 79 99 39 3d
       -0.04538365 0.063957445 0.0832333 0.04531238
000030 e2 fb b5 bd f5 6e 48 3c b7 a8 97 bc 67 65 bd bd
       -0.088859335 0.0122334855 -0.018513067 -0.092478566
000040 00 7e 5e 3d a2 7c 1f bd dd 2e 0c 3d f8 f0 49 3b
       0.05431938 -0.03893722 0.03422438 0.0030813795
000050 ba cd c1 bd 97 e4 2e bd aa 97 f1 bd e4 bf 23 3c
       -0.09463067 -0.04269847 -0.11796506 0.009994481
000060 48 c9 7e bd e4 56 d9 3d ee 01 45 3d c9 ee e4 3d
       -0.062203676 0.10612276 0.048097543 0.11178357
000070 e9 41 b0 ba 21 61 f1 bd 42 46 a3 3d 33 f0 31 3d
       -0.0013447377 -0.11786104 0.07972385 0.043441962
000080 6f 56 2a 3d d5 80 ad bc bc c8 6a 3c b7 f2 b0 3d
       0.041586336 -0.021179596 0.014330085 0.08640044
000090 12 47 b3 bc e1 79 7b bd 94 d9 7d 3d 5b 0e ed bc
       -0.021884475 -0.06139553 0.061975077 -0.02893751
0000a0 1e 51 ad 3d ca 17 38 bb 12 a4 6a 3c ed 16 fa 3c
       0.084627375 -0.0028090351 0.014321344 0.03052851
0000b0 cc f9 f5 3c ac 50 5f 3d d6 0d f5 3c 47 e4 93 3c
       0.030026339 0.054520294 0.029913824 0.018053187
0000c0 a5 f2 77 3d 17 76 68 bd 47 0e 81 bc ec d6 d3 bd
       0.06053414 -0.056753244 -0.015753878 -0.103437275
0000d0 80 7f c8 bd 69 df 39 bd 20 83 b0 bd 81 74 18 3d
       -0.09789944 -0.045379076 -0.0861876 0.03722048
0000e0 bb 6b 9f bd 60 81 e5 bd 71 e7 74 3a f4 a0 a2 bc
       -0.0778422 -0.11206317 0.0009342349 -0.019852139
0000f0 b0 82 93 bd 3e 1e cb bd 34 6b 97 3d a0 7b 12 3d
       -0.07202661 -0.099178776 0.07393494 0.03576243
000100 c8 68 76 3b d6 50 7e bd 55 d8 7a 3b 02 c6 87 bd
       0.0037599076 -0.06208881 0.0038275917 -0.06629564
000110 59 24 45 3c a3 d9 a0 3c 6b 74 e6 3d 71 21 90 bd
       0.012032592 0.019635027 0.11252674 -0.070376284
000120 b6 7f b0 3d f9 03 97 bc 12 7c 3d bd
       0.08618109 -0.018434511 -0.0462609

second_cons6_filterlist.0.weight f4 [1, 4, 5, 5]
000000 14 54 8a bd d6 36 86 3d 50 27 ab 3d 73 5f 0a be
       -0.06754318 0.06553428 0.08357108 -0.13512973
000010 d2 74 fa bc 26 1c 6e bd 48 8e 65 3d bf d3 a1 3d
       -0.030573282 -0.058132313 0.056043893 0.079017155
000020 b4 3a 67 bc 02 82 98 bc 6c 9d e1 bd 86 14 97 3c
       -0.014113117 -0.01861668 -0.11016354 0.018442404
000030 a2 9f f4 3d 5f 66 ed bc 00 2a 74 bd 47 5c af 3b
       0.1194451 -0.028979478 -0.059610367 0.0053515765
000040 ac e1 9b 3d e3 cf 3f bd 37 87 d9 3c 23 94 97 3d
       0.07611403 -0.046829116 0.026553733 0.07401302
000050 4e 2e ca 3c dd 3f f3 3c a5 f3 97 bd 4d ae 25 3d
       0.024680283 0.029693538 -0.074195184 0.04044943
000060 9f 6c c7 3b 8c 2b 5d bd b2 aa 20 3d b2 14 1a bd
       0.0060859467 -0.053996608 0.039225288 -0.037617393
000070 15 1c d8 3b 8b fe 87 3d d0 26 b3 3c 4a 20 56 bd
       0.0065951445 0.06640347 0.021869093 -0.052276887
000080 9a d1 2e bd c0 93 4d bd bd 90 f5 bc 0e e3 75 3d
       -0.04268036 -0.050189734 -0.029976243 0.06003099
000090 5e a6 d0 3c 41 da 5c 3d c2 f6 1e bd 4d de ab bd
       0.025469955 0.05391908 -0.038809545 -0.0839201
0000a0 ec 05 3f 3d 41 32 c9 3c b6 7a 72 bd c5 0e ad 3d
       0.046636507 0.024560096 -0.059199058 0.08450083
0000b0 c7 cb cd bd f7 d7 9f bc ab 35 a1 3a b3 d6 a4 bd
       -0.10048633 -0.01951216 0.001229932 -0.08048763
0000c0 0d 96 33 3d 4f 91 3b 3c 80 b3 3c 3c 4c ad d5 3c
       0.04384427 0.0114482185 0.0115174055 0.026083611
0000d0 b7 59 0e 3d 70 f8 59 3d 0d 1f 90 3c b0 3c 6a 3c
       0.034753527 0.053215444 0.017592931 0.014296696
0000e0 da 8a ae bd 02 02 5a bd b7 4a 58 3d b0 93 05 3d
       -0.085225776 -0.05322457 0.05280563 0.03261155
0000f0 be 56 b4 3d 52 58 03 3c 16 a8 5a 3d f5 4c ca bc
       0.08805607 0.008016663 0.053382955 -0.0246949
000100 c9 e4 97 3c de 0a d2 bc 78 c7 65 bd 4a c8 d2 bd
       0.01854171 -0.025639948 -0.05609843 -0.10292108
000110 55 d8 84 bc dc 36 8b bd 24 b6 ef 3b c4 d1 06 3d
       -0.016216436 -0.06797573 0.007315414 0.03291489
000120 c2 2c 5b 3d 54 56 5f 3d 3e fd 2d bd b1 7d 49 3d
       0.05350948 0.05452569 -0.04247784 0.049192134
000130 c9 d8 95 bd 66 0e b2 3d 02 93 b3 bc 4a dc bd 3d
       -0.07316739 0.086941525 -0.021920685 0.092705324
000140 2a d5 ab bd 66 fb c5 3b d5 60 a0 bd b6 9c 5a 3d
       -0.08390267 0.006041932 -0.07830969 0.053372107
000150 cd fd 99 bd 0a ee c1 bc 1c 34 9d bd ec 89 52 bd
       -0.07519112 -0.023673076 -0.07675955 -0.051401064
000160 ce 00 90 3d 6b c0 60 bd 25 19 8b bd 5d 25 f5 bd
       0.070314035 -0.054871004 -0.06791905 -0.11970017
000170 46 d4 f9 bd 74 79 90 3d 23 8d 9e bc ff 8e b0 bc
       -0.12198691 0.07054415 -0.019354409 -0.02155256
000180 41 06 ad bd d5 04 27 3d ce 89 2c bd 01 65 86 3c
       -0.084484585 0.040776093 -0.04212361 0.016405584

second_cons6_filterlist.1.weight f4 [1, 4, 5, 5]
000000 5f f6 c5 bd a9 c9 34 3d db 10 9b bd c3 34 b7 bd
       -0.09666132 0.04413763 -0.07571574 -0.089456104
000010 86 11 4a bd 93 29 14 3c 5a 0e b8 3d eb 21 fe 3c
       -0.049333118 0.009043115 0.08987112 0.031022033
000020 9a 49 e9 bc f5 cf 3d bc f5 04 10 bd b2 3d 87 bd
       -0.028477479 -0.011585225 -0.035160977 -0.06603564
000030 36 fb c5 bd 57 1b a8 3c b9 d5 38 3d 96 6a 4c 3d
       -0.09667055 0.02052085 0.045125697 0.049906336
000040 e6 94 af 3d 5e 92 0e 3d da 11 83 bd 29 78 80 3d
       0.08573322 0.034807555 -0.06399889 0.06272919
000050 66 f7 bc bd 33 7d 45 3d e6 87 61 3d 77 f9 1c bc
       -0.09226875 0.048215102 0.055061243 -0.009580961
000060 b7 6d 3a bd 51 83 52 3c f6 82 e3 bc 1f a1 42 bd
       -0.04551479 0.012848691 -0.027772408 -0.04751694
000070 45 7f ad bd 23 79 89 bd 15 48 f0 3c 1d f2 52 3d
       -0.0847154 -0.06712558 0.029331246 0.05150043
000080 c0 0e 88 3d c0 a5 86 bd ca 08 9a 3d 70 6d 73 bc
       0.06643438 -0.06574583 0.07521208 -0.014857635
000090 56 dd f5 bc 23 c5 83 bd 8a d5 67 3d 93 2f cf 3c
       -0.030012768 -0.06434085 0.05660013 0.02529124
0000a0 7b da 3c bd 6b d8 a5 3d 63 d0 96 bd cf dd 97 bd
       -0.046106797 0.08097919 -0.07363965 -0.074153535
0000b0 9a 3f d2 bc 94 8d 24 3d 55 cc da 3c b7 a4 65 bd
       -0.025665093 0.040174082 0.026708761 -0.056065287
0000c0 24 20 7c 3d 8e b5 8e bd da 45 da 3b 33 13 c0 3d
       0.06155409 -0.069682226 0.006661159 0.09378662
0000d0 5e fd 54 bd 32 da 20 be f7 36 ec 3d aa 30 ca 3d
       -0.051999442 -0.15708235 0.11533921 0.09872563
0000e0 18 3f f3 bb 2f 1c 75 bc 94 11 2b 3d 69 72 89 bd
       -0.007423293 -0.014960333 0.04176481 -0.06711275
0000f0 85 66 3f bd 29 f5 83 3d fa 76 6f 3d 7d 44 a6 bd
       -0.04672863 0.06443245 0.058463074 -0.08118532
000100 d1 d4 a4 3c 77 b0 52 bd 55 d9 af 3d d7 98 a1 3d
       0.02012101 -0.05143782 0.08586375 0.0789048
000110 01 4c a3 bd c3 29 74 bd b3 cd cb 3d fc dc 5d 3d
       -0.07973481 -0.05961014 0.099513434 0.054165825
000120 e6 b2 96 bd 06 6f f5 3b a6 60 23 3d 97 1c 8a 3c
       -0.07358341 0.0074900417 0.039887093 0.016859336
000130 bb 7b 8f bd 27 82 44 bd 42 98 80 bd c7 e7 b2 3d
       -0.070060216 -0.047975685 -0.06279041 0.08735614
000140 3c d8 ce 3c 73 f9 9e bd 80 d0 97 3d a2 87 8b bc
       0.025249593 -0.077624224 0.07412815 -0.017032448
000150 ff 70 3c bd a5 99 dd bc 14 65 79 3d b9 ba 5b 3c
       -0.0460062 -0.027050802 0.06088741 0.013411217
000160 e4 57 bf bd 80 97 75 bd 31 13 b0 bd 03 81 95 3d
       -0.09342936 -0.059958935 -0.085974105 0.07299998
000170 dc d3 4c 3d d7 ec 96 ba ba fe 3b 3d b4 81 96 37
       0.050006732 -0.0011514676 0.045897223 1.7941791e-05
000180 3d 3f 6b bd ab d8 b2 3d a2 80 0c bd 62 f4 93 3d
       -0.057433356 0.087327324 -0.03430236 0.07224347

second_cons6_filterlist.2.weight f4 [1, 4, 5, 5]
000000 f3 f2 59 3d 74 68 e3 bc 57 ee ac 3d e1 b2 af 3b
       0.05321021 -0.027759768 0.08443897 0.0053619
000010 07 c5 d4 bc ed a9 2e 3d b6 f5 85 bd 33 95 15 3c
       -0.025972856 0.042642523 -0.06541006 0.00912981
000020 08 79 a1 bd 3f ac 5f 3c 48 4a bb 3c 60 ca f9 bc
       -0.07884413 0.0136519065 0.022862568 -0.030492008
000030 66 09 76 bd 0e d2 1f 3d 97 7c 35 bd b4 ff 9d 3d
       -0.060067557 0.039018683 -0.04430827 0.07714787
000040 67 fa 08 3d e3 92 ab bd d5 f3 72 bc 61 d5 58 3d
       0.033441927 -0.08377626 -0.014828642 0.05293787
000050 da 8b 26 bd 04 f4 5c 3d ca ab 4d 3b d8 34 e1 bd
       -0.040660717 0.05394365 0.0031382912 -0.10996407
000060 24 da 1c bd 85 dc af bd fb 5d 0c 3c 5e cf 14 bb
       -0.038293973 -0.08586983 0.008567329 -0.0022706608
000070 49 24 a1 3d 1f fa cd bc 0a 75 95 3c df 9d 12 3d
       0.07868249 -0.025143681 0.018244285 0.03579509
000080 38 58 d9 3c 37 79 f4 bc 2b 6c 51 3c 84 d5 13 3d
       0.026531324 -0.029842956 0.012782137 0.036092296
000090 14 bb 1a 3b 1e 15 0d bc 94 96 bc 3c b4 69 22 bd
       0.0023610042 -0.008610992 0.02302102 -0.039651588
0000a0 d6 b0 91 3d 26 51 e5 bc 30 fa 70 bb 2b 30 2c 3d
       0.07113807 -0.027992796 -0.0036770217 0.042038124
0000b0 45 b2 d9 3d d3 42 5b 3d bf d8 f4 bd 82 41 bd bc
       0.10629705 0.053530525 -0.119554035 -0.023102526
0000c0 68 90 86 3d cd f3 f3 3c 9e e6 3e 3d 3d 37 85 3c
       0.06570512 0.02977934 0.046606652 0.016261691
0000d0 39 d7 24 3d 4e e4 42 3d ef 45 ea 3c d9 82 a4 bc
       0.040244315 0.04758101 0.0285978 -0.020081924
0000e0 c8 6c ec bd 1b f6 51 bd 4a 93 97 bd 98 e0 7d bd
       -0.11544186 -0.051260095 -0.0740114 -0.061981767
0000f0 dd 33 2a 3d 0e 55 9e bd e8 d5 8a bd 63 79 36 3d
       0.041553367 -0.07731067 -0.06779081 0.044549357
000100 d4 36 61 bd a6 b8 58 3d 0d a7 91 bd 4f b8 95 3d
       -0.05498393 0.05291047 -0.071119405 0.07310545
000110 ca 0c 96 bd 84 a2 a6 3d 70 69 97 bd ab 71 cb 3d
       -0.07326658 0.08136466 -0.073931575 0.0993379
000120 7d 79 0e bd 58 9d f5 bd 8f 70 2e bc 30 95 e2 3c
       -0.03478383 -0.119929016 -0.010646953 0.027659029
000130 79 27 5e 3d 55 7e cb 3c 93 f0 c2 3d e9 c5 7d bd
       0.054236863 0.024840513 0.09518542 -0.06195632
000140 9f 3f 66 3c 89 3b 0c bc 1e 21 2d 3d aa 33 dc 3d
       0.014053254 -0.008559116 0.04226791 0.10752042
000150 73 04 a4 3c fc f2 8e 3d 67 01 c8 bc 7a e1 76 bd
       0.020021653 0.06979939 -0.024414731 -0.060273625
000160 53 7b d7 3b d0 69 dc 3c d4 9f 07 bd 83 53 74 3d
       0.0065759807 0.026905924 -0.03311141 0.059649955
000170 71 af 00 bd c5 91 85 3d 41 21 ff 3c b7 2e 2d 3d
       -0.031417314 0.06521944 0.031143786 0.04228088
000180 28 16 95 3b 35 4c 21 3d 5c 06 9b bd 8d 64 81 bd
       0.0045497604 0.039379317 -0.07569572 -0.06318007

second_cons6_filterlist.3.weight f4 [1, 4, 5, 5]
000000 b4 35 5d 3c 8f 0e 03 3d ef cd 60 bd eb be 82 3d
       0.013501573 0.031996306 -0.054883894 0.06384071
000010 c8 8c 85 bd b4 ab 6a bd 49 85 65 3d 81 66 d8 3d
       -0.065209925 -0.057292655 0.056035314 0.10566426
000020 a4 b9 ca bc 09 b4 60 3c 25 f1 b1 3c 15 4d 21 3d
       -0.024746723 0.013714799 0.021721432 0.03938015
000030 90 d4 72 3d 27 2b 2a 3d f8 d1 bd 3d 76 80 e5 bc
       0.059284747 0.04154506 0.09268564 -0.028015357
000040 8b 66 9f bc f7 0b b0 bd 08 e5 1b 3c aa 69 7e 3d
       -0.019458076 -0.08596032 0.0095150545 0.062112488
000050 de a3 a3 bd 63 5c 8d 3d f0 72 9c bd 60 e5 96 bd
       -0.079902396 0.06902387 -0.0763911 -0.073679686
000060 0c e7 23 bd a2 77 3d 3d 0e 13 97 3d 7a 27 fe bc
       -0.040015265 0.04625667 0.07376681 -0.031024683
000070 4c 26 26 3c e8 d0 ee 3c f7 d2 49 bd 4b 56 5b bc
       0.010140967 0.029152349 -0.049273457 -0.013387273
000080 d2 a2 85 3d ea 0e d6 3a 8e 4a 2b 3b 85 cd 46 3d
       0.06525196 0.0016331349 0.0026136967 0.048535842
000090 eb c2 b9 bd fa 64 89 3c ba ef 96 3d 38 75 09 3d
       -0.09070381 0.016771782 0.07369943 0.033559054
0000a0 c4 ad 72 bd 5e 18 17 3d 5d ae 6c 3b 66 40 ce bc
       -0.059247747 0.036888473 0.003611467 -0.025177192
0000b0 54 62 10 bd 10 e4 8b bd 63 79 db 3d 36 e5 f0 bc
       -0.035250023 -0.06830609 0.10716512 -0.029406171
0000c0 4f 86 7b 3d bc 7b 2c 3d a1 b2 ba bc 87 66 18 bd
       0.061407384 0.04211019 -0.022790255 -0.037207153
0000d0 d2 ce 27 bd a8 f8 6f 3d 71 59 e8 bc cf ba d4 3d
       -0.040968724 0.058586746 -0.028362961 0.103871934
0000e0 97 5a 40 bd 06 22 22 bd 8e 78 fa ba c3 64 ab 3d
       -0.046961393 -0.03958323 -0.0019109414 0.08368828
0000f0 8a 09 47 bd 55 8c 2c 3c 44 ab 85 3d 46 ab f6 bc
       -0.04859308 0.010531505 0.06526807 -0.030110966
000100 87 61 a4 bb c2 9b 8d bd 8e 73 d2 3b e7 62 cf bc
       -0.005016509 -0.06914474 0.0064224666 -0.025315715
000110 97 83 98 ba 4f b5 b5 3d 9a d5 7d bd 2a d8 df 3c
       -0.0011635897 0.088724725 -0.061971284 0.027324755
000120 ae 80 ac 3d 75 a3 8e ba c5 21 ec bb 5b 57 b0 bd
       0.08422981 -0.0010882454 -0.007206174 -0.08610412
000130 74 bd e6 bd fa 2d c0 3c 36 8a 14 3d f1 70 a1 bc
       -0.11266604 0.023459423 0.03626462 -0.019707175
000140 61 f7 95 3c 27 60 8e bd d1 69 fe bc ff 94 b4 3d
       0.018306436 -0.06951933 -0.031056317 0.08817481
000150 38 f5 83 bc f5 4c 3b 3d 6c 8f 06 3d 0a fb e1 3c
       -0.01610814 0.04572769 0.03285162 0.027585525
000160 d2 48 9b 3d 4b e0 d1 bb a2 f5 46 bd 95 bf 29 bd
       0.07582249 -0.0064049116 -0.048574097 -0.041442472
000170 12 06 04 bd 4e 39 3c 3c f2 cf f8 bc 44 71 6b 3d
       -0.03223235 0.011488272 -0.030372594 0.057481065
000180 4f db 81 bd c7 ef aa 3c 3e 3c d8 bd bd 10 0b 3c
       -0.06340658 0.020866288 -0.10558365 0.008487877

second_cons6_filterlist.4.weight f4 [1, 4, 5, 5]
000000 1e db 91 3d 20 69 fe bd 09 0d 86 bd f6 dd bc 3d
       0.071218714 -0.12422395 -0.06545455 0.09222023
000010 a2 5f a2 bd 55 e1 a9 bd fc 4a a7 bd 96 2b ca bd
       -0.07928397 -0.08294932 -0.08168599 -0.098715946
000020 02 4c 06 3d 44 e9 c9 bd c5 79 07 3d 7c d3 a2 3d
       0.03278733 -0.09858945 0.033075113 0.07950494
000030 c6 26 46 bd cd 2b e2 bd 80 f7 81 bd f6 0e 1a 3d
       -0.04837682 -0.110435106 -0.06346035 0.037611924
000040 a6 42 ee bd 3e 2d 71 bd ff e1 b6 bd e2 3b ce 3d
       -0.11633806 -0.058881037 -0.08929824 0.100700155
000050 5d a8 ae 3d 3c 01 87 3c 18 96 41 3c 50 02 6b 3c
       0.085282065 0.01648008 0.01181557 0.014343813
000060 ca 6e 33 bb 0f 36 bf bc 8d f2 e4 bc 84 24 5d 3d
       -0.0027379268 -0.023341207 -0.027947688 0.053989902
000070 83 79 2d 3d 20 61 a7 3d 6a 6f 2e 3c 0c f0 bc bd
       0.04235221 0.08172822 0.01064668 -0.09225473
000080 fa b7 d5 3b bb b2 51 bd d8 eb 17 3d 7b cb 9c 3c
       0.006522176 -0.05119584 0.037090153 0.019139996
000090 24 b8 64 bd a3 70 6c 3d 53 b7 9b 3d 3c e2 0e 3d
       -0.055839673 0.057724606 0.07603326 0.034883723
0000a0 03 9e 88 3d 2a 54 ef bb b7 8a 79 3d c6 5a e4 bc
       0.06670763 -0.0073037343 0.060923304 -0.027875315
0000b0 5d 73 5d 3c c6 e3 d6 3d 3a f3 8f 3d 4d e1 ee bc
       0.013516274 0.10492663 0.07028814 -0.029160166
0000c0 e0 08 b5 3d 05 59 04 3d 0e 46 7f 3d b4 57 69 bd
       0.088395834 0.03231146 0.06232267 -0.056968406
0000d0 f1 1c 6d 3d 1d d6 2f bd aa a7 e4 3c 5e 4a a5 3d
       0.05788893 -0.042928804 0.02791198 0.08070825
0000e0 19 db 4b bd 4f a1 4b 3d 6e d2 5f 3d c3 a0 82 3d
       -0.049769495 0.049714383 0.05464404 0.06378319
0000f0 cb 11 7d 3d 79 9b 35 3d 5b af 96 3d 3d 57 d4 bd
       0.061784547 0.044337723 0.07357665 -0.10368202
000100 1c f3 53 3d f6 16 95 3d 5c bd 9b 3c 9b ed b4 3b
       0.05174552 0.0727977 0.019011192 0.005521489
000110 95 22 85 3d 65 60 9a 3b 06 89 17 3b b3 a9 6c 3c
       0.065007366 0.004711198 0.0023122444 0.014444756
000120 15 80 85 3d f7 ff 94 36 3b 3a 32 bd a0 7c 3e bc
       0.0651857 4.440542e-06 -0.043512564 -0.011626393
000130 eb 7e 35 3d 51 14 20 bd ba 3c 80 bd 70 3a 5f 3d
       0.04431049 -0.039081875 -0.06261583 0.05449909
000140 38 69 1d bd 14 3d df bc fc 59 11 bd 5a 05 13 bd
       -0.038430423 -0.027250804 -0.035486206 -0.035893776
000150 7b 45 a1 3d 80 cc 36 bd 2d 75 3b bd 2f 4e e0 bd
       0.078745805 -0.04462862 -0.045766044 -0.10952412
000160 6d 70 8c 3d e7 7b 22 bd b3 79 8f bd 06 70 f3 bc
       0.06857381 -0.039668944 -0.07005634 -0.029716503
000170 6c 46 7c 3d b9 ba 2c 3d b4 29 51 bd 07 50 bf bd
       0.061590597 0.04217026 -0.05106516 -0.09341436
000180 9e 95 54 3d 63 b3 00 bd 28 cd 08 bd 00 03 34 3d
       0.0519005 -0.031421077 -0.033398777 0.043948174

second_cons6_filterlist.5.weight f4 [1, 4, 5, 5]
000000 e1 af 25 3d ff 60 01 3d 66 79 66 3d bb 89 a9 3d
       0.040450934 0.031586643 0.05626812 0.08278223
000010 98 56 8b bd 4f ef 5b bd 5b f7 eb bc 03 c4 9c 3d
       -0.06803626 -0.05369502 -0.028804472 0.07654574
000020 5a 60 a4 bd 02 48 cb 3c f3 9f da bd 40 a5 1c bd
       -0.0802619 0.02481461 -0.10675039 -0.038243532
000030 56 72 dc bc 26 de 8b bd 49 15 76 bd 2b a0 b3 3d
       -0.026909988 -0.06829481 -0.060078893 0.08770784
000040 54 5b 5f 3d 6a 0a 41 bd 56 d9 aa 3d 32 40 5d bd
       0.054530457 -0.047129072 0.08342235 -0.0540163
000050 d8 6d b6 3c a9 c3 c3 bc 41 4e 47 bc 81 f6 0b 3d
       0.022269174 -0.023897009 -0.012164653 0.03417063
000060 d9 c5 51 3d cc c9 18 bd 38 86 90 3d 5b 6a e8 bc
       0.051214073 -0.037301823 0.0705685 -0.028371027
000070 de 73 5f 3d 5d e9 9c 3d c9 f5 ef bc d5 37 37 bd
       0.05455386 0.07661698 -0.029292004 -0.04473098
000080 ec ac c3 bc 66 46 72 39 ba 51 ba 3d 41 10 6d bd
       -0.023886167 0.00023105144 0.09097619 -0.05787683
000090 75 2a f2 3b fd 1e be bc 57 76 62 bc 37 22 99 bd
       0.007390315 -0.023208136 -0.01382216 -0.07477229
0000a0 9c c2 8d 3d 08 23 af bd 42 10 cb bd f6 9b 35 3d
       0.069218844 -0.085516036 -0.0991521 0.04433819
0000b0 e0 7b 84 3d c7 2b ac bd b3 90 05 be e8 a0 01 be
       0.0646894 -0.08406787 -0.1304348 -0.12659037
0000c0 ae b7 89 3d 9b a4 c0 3c 15 2d 26 3d 27 46 af bd
       0.06724487 0.02351599 0.040570337 -0.085583024
0000d0 cd f2 03 bd 6c c8 86 3d 3e 7f 0a bd d5 c2 ae bd
       -0.032213975 0.06581196 -0.033812754 -0.08533255
0000e0 06 e0 88 bc 5e 73 0d 3d 2a 42 5d bb 30 36 2c 3d
       -0.016708385 0.03453385 -0.003376136 0.042043865
0000f0 c2 36 45 bc 35 16 c0 3a 89 e6 96 bb 55 70 ac 3d
       -0.012036981 0.0014655056 -0.0046051187 0.08419863
000100 ca 1e 53 3d 07 23 81 bd c2 d7 26 bd e9 9b 1e 3d
       0.051543035 -0.06305509 -0.040733106 0.038722906
000110 1f 3e 3f 3c cb 9a 28 3c c2 f1 37 bd 5f a2 81 bd
       0.011672526 0.010290812 -0.044908293 -0.06329798
000120 11 b5 24 3d 86 e8 1a 3d 4c db 6b 3d bd 68 cb 3b
       0.04021174 0.037819408 0.057582185 0.006207554
000130 c7 88 83 3d 87 c0 cd bb fd 62 84 3c db 1a c8 bc
       0.064225726 -0.0062790546 0.016160483 -0.024426868
000140 ea ea cd bc 4a 3d a7 3d bf fb 89 bd 03 4e 51 3d
       -0.02513643 0.08165987 -0.0673747 0.05109979
000150 ae b2 9c 3d 07 00 37 bd 94 61 71 3d 1e fe 84 bc
       0.07651268 -0.04467776 0.05893095 -0.016234454
000160 f8 52 6a 3d f1 d4 e3 bd 01 04 e4 bd 05 dc b3 bd
       0.05720803 -0.111246 -0.11133576 -0.087822
000170 8b d7 57 3d e8 00 ab 3d 0e a4 be bd b8 08 ba bd
       0.052695792 0.08349782 -0.09308635 -0.09083694
000180 93 68 8b 3d eb f2 39 3c 27 ec 54 bd d4 ed b4 3c
       0.06807055 0.01134942 -0.051983025 0.022086062

third_cons3_filterlist.0.weight f4 [1, 4, 5, 5]
000000 ea e3 c6 bd f0 35 89 3d 0a af 65 3d 68 7b d4 3d
       -0.0971144 0.06699741 0.056075133 0.103751004
000010 da f9 07 3d 42 5a df bd 2c fb 78 bc 9b 16 29 bc
       0.03319726 -0.10905887 -0.015196603 -0.010320331
000020 70 0f bf 3d 79 13 ed 3c c3 96 7a bd 7b f0 92 ba
       0.09329116 0.02893995 -0.061178934 -0.0011210585
000030 f8 61 28 3d 73 98 e5 bd 2d 06 a2 3d d2 03 b9 3d
       0.041109055 -0.11210718 0.07911334 0.09033932
000040 a8 f7 77 3c f1 c9 05 3e 29 2b 88 bd 59 71 a9 3d
       0.015134729 0.13065316 -0.06648857 0.082735725
000050 e3 0f 85 3d 3b 85 a7 bd 7b b8 96 3d de fe 22 3d
       0.06497171 -0.081797086 0.073594056 0.03979384
000060 14 60 58 3c 83 12 a9 3c 99 62 83 3d b4 1f bd 3d
       0.013206501 0.02063871 0.064152904 0.092345625
000070 39 42 8f bc 47 92 c8 3d 93 38 a2 bc e2 f3 d9 bd
       -0.017487632 0.09793525 -0.019802367 -0.1064222
000080 65 95 fd 3a 79 8b 87 3c e0 54 83 3d f0 bd bf 3c
       0.0019346891 0.016545998 0.06412673 0.023405999
000090 6e 76 42 bd 78 69 46 3c bf e9 b1 bd 55 b2 58 3d
       -0.047476225 0.012110107 -0.08687162 0.052904446
0000a0 e1 0b 9c 3c 29 da b7 bc 79 b0 73 bd 30 49 7b 3c
       0.019048633 -0.022442894 -0.05949447 0.0153372735
0000b0 4e 1c 3f bd a7 25 2e 3c b3 09 cc bc 9a fe b0 3c
       -0.046657853 0.010629094 -0.024906969 0.021605778
0000c0 59 6a 8f 3d 26 87 4a 3d e7 ca 8f 3d fb 2d d0 3c
       0.07002706 0.049445294 0.070211224 0.02541255
0000d0 0a f8 98 bd d6 19 8f 3d 71 af 10 3d 67 dd 3c 3c
       -0.07469185 0.0698735 0.035323564 0.011527396
0000e0 61 25 0c 3d 7b 1d 3e 3d 69 39 a8 3d 49 a9 a2 bc
       0.034215335 0.046414834 0.08214075 -0.019856112
0000f0 f9 81 9a 3c 59 9c 84 bd a5 40 84 bc 31 39 fc 3c
       0.018860804 -0.064751334 -0.016144106 0.03078899
000100 a7 0e a4 bd 43 dc 91 3d 9b de 84 3d 8d a4 51 3d
       -0.08010607 0.0712209 0.06487771 0.05118232
000110 37 e1 ec bc 17 b2 75 3d 4c bf b0 3d 66 10 3b bc
       -0.028915985 0.059984293 0.08630237 -0.011417484
000120 32 09 da 3c ba da d0 3d 2a b8 b1 bd 3a b7 8d 3b
       0.026615713 0.10197969 -0.08677705 0.004324821
000130 3f 43 9a bd 85 28 f6 3c 89 dd 9a 3b 02 21 78 bd
       -0.075323574 0.030048618 0.004726116 -0.060578354
000140 5f e3 f7 3a eb bc 6c 3c b7 98 a1 3d 1d da 31 3d
       0.0018912366 0.014449338 0.07890456 0.0434209
000150 71 f8 b6 bc c8 ff 2d 3c b5 64 8b bd 32 99 68 bd
       -0.022335263 0.010620065 -0.06806318 -0.056786723
000160 dc 39 83 3d 75 a2 31 bc 6f e1 a2 3d 82 90 41 3d
       0.0640752 -0.010841955 0.07953154 0.047256954
000170 74 37 9f 3d 5a 56 2d bd 9f 54 9d bd 1a 7e 64 3d
       0.07774249 -0.04231868 -0.07682156 0.055784322
000180 88 de fb bd c1 df 86 bd c1 1c 9b bd cb ab dd bb
       -0.12298304 -0.065856464 -0.07573844 -0.006764864

third_cons3_filterlist.1.weight f4 [1, 4, 5, 5]
000000 a2 c3 dc bd 36 37 e2 bd b8 82 40 bd 7c 56 bb bc
       -0.107795015 -0.11045687 -0.046999663 -0.022868387
000010 26 42 4b bd 37 5c 2f bd 44 5d 20 3c 9a 85 dd bc
       -0.04962363 -0.042812552 0.009787861 -0.027041245
000020 5b 73 4c bd b9 f2 0d bc d9 32 f5 bb 21 54 32 3d
       -0.0499147 -0.008663827 -0.007482868 0.043537263
000030 ca 6b 84 3c b9 a6 69 bd 1d 31 a8 3d 0e 74 2a 3d
       0.01616468 -0.057043765 0.082124926 0.041614585
000040 d2 6e 38 bd b3 d1 73 bd ab 28 80 3d a8 3f ac 3c
       -0.04502756 -0.059526157 0.06257757 0.021026447
000050 ec 70 3e bd fd 5f bb bd 2d a4 cf 3d 20 53 d0 bc
       -0.04649441 -0.09149168 0.10138736 -0.025430262
000060 33 bf 08 bc a8 a9 84 3d 51 99 40 3d 42 b5 90 3d
       -0.008346367 0.06477672 0.047021214 0.07065822
000070 f2 2c 6f bd 42 ec 81 3b 1e 09 1a bd 4e 88 99 bc
       -0.058392473 0.0039649317 -0.03760635 -0.018741753
000080 fb dc 88 bc 52 40 c4 3c 82 cf 51 bd 68 69 b1 3d
       -0.016706934 0.023956452 -0.051223285 0.08662683
000090 70 60 47 3d 77 49 a8 bd dc 6e cb bd a4 6a be 3d
       0.048675954 -0.08217137 -0.09933254 0.09297684
0000a0 04 65 9c 3d d2 7d b5 3d 72 15 72 3d 53 49 a7 3d
       0.07636455 0.08861889 0.059102483 0.08168282
0000b0 a0 7d bd 3c a3 92 c4 3c 97 fa 2f 3d dc d6 fe bb
       0.023131192 0.023995703 0.04296359 -0.007777078
0000c0 2d ed a6 bd 01 ed df bd c1 3a 7d 3d 6b 41 b5 3d
       -0.081507064 -0.10933877 0.06182361 0.08850368
0000d0 67 28 28 3d 9d f1 76 3c ba 89 3c 3d 99 bb cd bc
       0.041054156 0.0150722535 0.046029784 -0.025113868
0000e0 a0 59 f8 bd c2 f4 5a bd f5 dd 62 3d 9b d1 1b 3d
       -0.121264696 -0.053456075 0.055387456 0.038041692
0000f0 16 3f 4a 3d 26 83 c4 bc 67 47 e1 3d e4 0f 09 3d
       0.04937657 -0.023988318 0.10999947 0.03346242
000100 c0 74 9c 3d 6c 1a ec 3d 55 e4 07 bc 85 96 68 ba
       0.07639456 0.11528477 -0.008294185 -0.0008872527
000110 73 3b 20 3c 38 6f 00 bd f0 9c 8d 3d 31 cc ae 3d
       0.009779799 -0.031356066 0.06914699 0.0853504
000120 ac 23 87 bd a8 c9 0e 3d 39 60 1e 3d 90 b0 ea bc
       -0.06598601 0.034860283 0.038665984 -0.028648645
000130 cc 69 47 bd a8 5e db 3b 7d 2a 50 3d a0 83 e5 bd
       -0.04868488 0.0066946335 0.05082177 -0.11206746
000140 85 a6 c1 3d ac f2 89 3d 20 31 64 3c 47 f9 87 bc
       0.09455589 0.06735739 0.013927728 -0.016598357
000150 2d 77 ef bd d9 74 d2 3d 48 5d ca bb a5 3f cc 3c
       -0.11692653 0.10276193 -0.006175671 0.024932692
000160 25 85 5e 3d ed ed 66 3d f7 b8 3f bd 30 56 32 bb
       0.054326195 0.056379247 -0.046807256 -0.0027212016
000170 65 d5 2d bd 04 ee 8f 3d 2f c6 a5 3d 82 b7 2d 3d
       -0.042439837 0.0702782 0.08094441 0.042411335
000180 3c b1 6b bd 9f 32 c9 3d e2 85 cf 3c 40 86 c7 3c
       -0.05754207 0.09824108 0.025332395 0.024356008

third_cons3_filterlist.2.weight f4 [1, 4, 5, 5]
000000 a0 89 a8 bd ac b6 a7 3d 8e 6e b0 bd c0 b1 2a 3d
       -0.08229375 0.08189139 -0.08614837 0.04167342
000010 68 1c 55 3d 34 ab bc bc f1 bb 80 bc df 55 5c bd
       0.052029043 -0.023030855 -0.015714617 -0.05379283
000020 97 6f b5 bd bc c9 45 bd 93 4f e5 3d a5 e1 cd ba
       -0.08859175 -0.048288092 0.11196818 -0.0015707506
000030 a4 b9 0f bd 25 46 b7 bc bc 08 99 bd 82 c7 d5 bc
       -0.03508915 -0.022372315 -0.07472369 -0.02609611
000040 fa 22 aa ba b0 1c e6 3b b2 88 82 bd 88 d0 2b 3c
       -0.0012980395 0.007022463 -0.06373729 0.010486729
000050 1d 33 fd bb e3 8c 85 3c cd 53 05 bc c2 a9 76 3b
       -0.0077270404 0.016302532 -0.008137655 0.0037637805
000060 89 db 81 3c b2 12 85 3d 11 2d d6 bc d7 1c 24 bd
       0.015851753 0.064977065 -0.026144536 -0.040066566
000070 ea 8f 89 3d be b3 91 3c 4e 4c 5e bc 39 bc ed bd
       0.067169026 0.017785903 -0.013567997 -0.11608166
000080 20 40 8c 3c 82 99 b1 bd c0 f7 e9 bc 6d 65 c4 3c
       0.017120421 -0.086718574 -0.02856052 0.023974145
000090 8e cf 83 bd f5 9d d3 3c a9 a5 36 bd fc 9e b2 3d
       -0.06436072 0.025832156 -0.04459158 0.0872173
0000a0 bc 82 b5 3d 2e 3d 91 3d 04 cb dc 3c 2c 38 0e 3d
       0.08862826 0.07091747 0.026952274 0.03472154
0000b0 db 1c d1 bd 85 05 af bd 66 8f d1 3d b0 da 6f bd
       -0.10210582 -0.08545975 0.10232429 -0.058558166
0000c0 db ed ab bd ec 46 28 bd 69 d1 cb 3d 4a 52 53 bd
       -0.08394977 -0.04108326 0.09952051 -0.05159215
0000d0 8b 1a ad bd 1d b8 68 3d be bc f9 3d f7 6f 33 3d
       -0.08452328 0.05681621 0.12194203 0.04380795
0000e0 7d bf 1b be 50 92 b1 bd 7d 3c 27 bb b7 11 be 3c
       -0.15209766 -0.08670485 -0.0025518232 0.023201806
0000f0 bf d9 fa 3d be ff ed bd 6e c7 39 3d f4 c8 2c 3d
       0.12248563 -0.116210446 0.045356207 0.04218383
000100 8f ba 98 bd ee f6 69 bd e0 06 84 bd 7b 20 19 bd
       -0.07457458 -0.057120256 -0.06446624 -0.03738449
000110 f3 fd 22 bc ee f3 ac 3c 88 82 31 3d a5 04 6c bd
       -0.0099482415 0.021112408 0.043337375 -0.057621617
000120 cf c0 f1 bd f0 01 5b 3d 56 4c e4 bd a2 3b d4 bd
       -0.118043534 0.053468645 -0.111473724 -0.103629366
000130 9a 95 7b 3d b0 fd 2c 3d da a0 00 3d 6e cd 29 3c
       0.061421968 0.042234123 0.0314034 0.01036392
000140 f5 b9 80 3d 71 fd 86 bd 72 1e bb bd 1c 89 9e 3c
       0.062854685 -0.06591309 -0.09136666 0.019352488
000150 23 51 a4 3d 15 82 b2 bd 15 32 c5 ba ba 17 61 3c
       0.08023288 -0.087162174 -0.0015044833 0.013738567
000160 a5 1e 11 bd 01 9f a3 bd 9f 87 12 bd 95 58 a1 bd
       -0.035429616 -0.07989312 -0.03577387 -0.07878224
000170 b1 62 60 bd 26 bb ac 3d 26 e0 c2 bc 77 97 bb bd
       -0.05478162 0.08434133 -0.023788523 -0.09159749
000180 f0 a4 4f 3d 06 d9 a9 bd 27 f8 e0 3c 96 b7 93 bd
       0.050694406 -0.08293347 0.027462078 -0.072127506

fourth_last1_filterlist.0.weight f4 [1, 6, 5, 5]
000000 b2 f8 da 3c 6b 09 97 3d 9b eb 07 3d 4a 4d 73 bd
       0.026729915 0.07374843 0.033183675 -0.05939988
000010 3e 41 c1 3b ee 38 1d 3d 21 d3 88 bd 51 16 80 bc
       0.00589767 0.03838437 -0.06680895 -0.015635641
000020 17 cd ce 3c 79 8e ae bc 0d 34 6d 3c e4 ec 24 bd
       0.025244279 -0.02130817 0.014477742 -0.04026498
000030 e9 9e 82 bb 8a 3c c5 3c c1 30 a4 bd 6b f6 9f bd
       -0.0039862287 0.024076719 -0.080171116 -0.078106724
000040 67 a9 b6 3c 32 d6 0f 3d 74 28 68 3d 84 3e 05 3d
       0.022297574 0.035116382 0.056679204 0.032530323
000050 0c 74 66 3c 36 20 05 3c 97 19 4b 3d 0b ac 30 bc
       0.014065754 0.0081253555 0.04958495 -0.010783206
000060 47 e7 a2 3d 9e f3 dd 3c 2d 3d 78 bd 6d b9 6f bd
       0.07954269 0.027093705 -0.060605217 -0.058526445
000070 ac c2 0d 3d c9 b5 6b 3d 08 48 23 bb 87 71 aa bc
       0.03460948 0.05754641 -0.002491476 -0.020806087
000080 fb 33 c4 3c 99 d3 49 bd 2c 29 79 3d ea 4b 42 bc
       0.023950567 -0.04927406 0.06083028 -0.01185892
000090 ac 59 9c bd 53 b0 62 bd 35 44 09 bc d1 fb aa 3d
       -0.07634291 -0.055343937 -0.008378078 0.083488114
0000a0 b9 82 30 bd 53 ae 85 3d 22 61 92 3d 94 e7 bb 3c
       -0.043093417 0.0652739 0.07147433 0.022937573
0000b0 5d 33 76 bc 8d 4e b1 3c 31 55 a6 3d 5f 85 68 bd
       -0.015026894 0.021643901 0.08121718 -0.056767818
0000c0 81 a2 d8 3c 1f f6 83 3d 48 9b 8f bd 34 7c 39 bd
       0.026444675 0.06443428 -0.070120394 -0.045284465
0000d0 f5 f6 e1 bb cb 96 09 bb a5 59 58 bd 7f 3a 91 3d
       -0.0068958947 -0.002099442 -0.052819867 0.07091235
0000e0 8a e7 6f bd 76 0a 8a bc 65 3b 42 bd 53 b9 75 bd
       -0.058570422 -0.016850691 -0.047419924 -0.059991192
0000f0 62 61 6f 3c 84 8a 6e 3c af 3e 3b bd f2 e6 24 bd
       0.01461062 0.014559392 -0.045714077 -0.04025931
000100 12 7d 70 3d 83 71 02 3d 32 56 98 bc 0f 61 81 3c
       0.058713026 0.031846534 -0.018595789 0.015793351
000110 5c 55 7c 3d 10 3a 0d 3d 0b df 77 bd 17 10 19 bd
       0.061604843 0.0344792 -0.060515445 -0.03736886
000120 c4 f4 22 bd 0f e8 8a 3d 05 4e c1 3c 05 d8 0b bd
       -0.039784208 0.06782543 0.023596773 -0.03414156
000130 c0 eb 92 3d 97 6d e2 3c 26 7e a3 3d 64 30 7d 3d
       0.07173872 0.027640147 0.07983045 0.061813727
000140 c3 2e 09 3d ce c4 55 3d 52 80 c5 3d 98 07 ac 3d
       0.03349186 0.05218964 0.09643616 0.08399886
000150 49 48 d8 3b fb d6 34 bd ff 25 55 3d 9d 60 ec 3b
       0.006600414 -0.044150334 0.05203819 0.0072136656
000160 73 59 3c bc 71 ab 95 bd 0b 69 1a 3d 5e 8b 84 3d
       -0.011495936 -0.073080905 0.037697833 0.06471895
000170 3d 84 d9 3d ac 97 0f bc 58 10 08 bd 4a a3 38 3d
       0.106209256 -0.008764189 -0.03321871 0.0450776
000180 2a 76 22 3d 55 32 95 3d eb 5b ae 3d 93 5a db bc
       0.03966347 0.07284991 0.08513626 -0.026776588
000190 b4 a5 54 bd ba ea 82 3d a5 e4 66 3c 53 04 22 3a
       -0.05191584 0.06392427 0.014092599 0.0006180454
0001a0 54 a5 77 bd 61 2c 19 bd d4 39 7a bc 6a bf d2 3c
       -0.060460404 -0.03739584 -0.015272576 0.025726039
0001b0 73 f4 e5 bc e2 5a df bc f9 a9 98 bd 5b 39 95 3c
       -0.028070664 -0.027265016 -0.07454295 0.018215826
0001c0 47 cd 21 bd c9 30 39 bd f1 ed 52 3c e8 25 47 3d
       -0.03950241 -0.04521254 0.012874112 0.048620135
0001d0 62 6e cc 3c ca de 8d bd e2 4a 64 bd 16 54 30 bd
       0.024954978 -0.06927259 -0.055735476 -0.04304894
0001e0 dc 28 82 3d 96 2e eb 3c 84 bd 48 3d 0f b9 86 3c
       0.063554496 0.028708737 0.04900886 0.016445665
0001f0 5d 1d b8 bc b9 73 a5 bd c3 0e 40 bd 06 b8 95 bd
       -0.022474939 -0.08078713 -0.046889078 -0.0731049
000200 93 67 8d bd 93 61 f5 3c cd 08 7f 3d d7 33 90 3c
       -0.06904521 0.029953754 0.062264252 0.017602844
000210 e7 3a 3a 3d cb b9 68 3c 51 da a8 bc 4e 98 48 3d
       0.04546633 0.014204453 -0.020611914 0.048973374
000220 df 0e 11 bd a9 5f a1 bd 64 03 59 3b d6 67 e4 bc
       -0.035414573 -0.07879574 0.0033113593 -0.027881544
000230 4c d4 81 3d 92 cd de bc 10 ad cc 3c 88 d3 ab bc
       0.063393205 -0.027197633 0.024984866 -0.02097489
000240 1b 86 76 bd f6 6a 57 3c ea 2b bc bd ca dc ee bc
       -0.060186487 0.01314806 -0.091880634 -0.029158015
000250 26 73 76 bd ea 0b 88 3d
       -0.060168408 0.066428974

bn2.weight f4 [16]
000000 72 96 7c 3f 0e cc 83 3f 9d 24 7d 3f fc dd 77 3f
       0.9866706 1.0296648 0.9888399 0.96823096
000010 13 f3 7d 3f 0c b9 81 3f a0 4d 7e 3f e1 0f 89 3f
       0.99199027 1.0134597 0.99337196 1.0707971
000020 07 95 7a 3f 93 61 78 3f a5 db 7d 3f 9a 09 7b 3f
       0.9788365 0.97023886 0.99163276 0.98061526
000030 2b d0 7b 3f 13 ad 77 3f d5 f6 84 3f 14 c0 88 3f
       0.98364514 0.96748465 1.0387827 1.0683618
