models/11.pth (torch_old, 252400 bytes, 36 tensors)

c1.weight f4 [6, 3, 5, 5]
000000 99 4b 82 bd 37 ae 87 bd 93 7b fd 3d 5f 31 2d 3d
       -0.06362075 -0.06625026 0.123770855 0.042283412
000010 27 96 54 bd 99 8d 61 be b7 fd e1 bd 1d 9d 05 be
       -0.05190101 -0.22026671 -0.110347204 -0.13048215
000020 ef 34 0b 3d 3e bc 7f bd 7e 97 51 bd a2 8e d5 3c
       0.03398603 -0.06243538 -0.051169865 0.02606899
000030 cf c3 25 3d 6f 60 1b 3c 55 fa 1c be 8a 6f 36 3c
       0.04046994 0.009483441 -0.15329869 0.011134991
000040 3d 22 0d 3e 2a 86 0b 3e 02 b8 10 bd f5 0d e1 bd
       0.13782592 0.13625398 -0.035331734 -0.1098899
000050 0f aa 63 bb 67 61 0d 3e a0 53 7c 3d 0d e9 98 3d
       -0.0034738814 0.13806687 0.06160319 0.07466326
000060 78 34 8f 3d d1 8c 50 bd c2 62 94 bd a6 a2 2c 3d
       0.069924295 -0.050915543 -0.07245399 0.0421473
000070 7c a1 3e 3d 17 48 3c 3d db 05 4c be a4 e3 d8 bd
       0.046540722 0.045967188 -0.19924109 -0.10590294
000080 00 c9 4c bc 6a e4 10 be ee 82 d4 bc 49 26 88 bc
       -0.012499094 -0.14149633 -0.025941338 -0.016619818
000090 55 eb 77 bd 8d 54 6d 3c 13 f7 d1 bd 17 b7 bd 39
       -0.060527164 0.0144854905 -0.10252204 0.00036185302
0000a0 f1 f4 ca 3b d0 df 72 3b 75 93 ce bc da 16 fd 3d
       0.00619375 0.0037059672 -0.025216797 0.12357874
0000b0 73 2e 10 bd d4 d4 4a 3e c0 0e 0d 3e cd 8c 44 3e
       -0.035200547 0.1980775 0.13775158 0.19194336
0000c0 7b 9e d1 3d 34 25 ad 3d b4 22 4a bd e8 42 fd 3d
       0.10235306 0.084543616 -0.0493495 0.12366277
0000d0 6c 7c ce bd f4 c9 11 3d b0 75 82 3d 8a 2d 39 be
       -0.10082325 0.035592988 0.06370103 -0.18083778
0000e0 7e cc 40 be 79 e5 e7 3c 3f c9 ee bd 06 13 c8 bb
       -0.18828008 0.028307663 -0.116594784 -0.0061057834
0000f0 c3 3a a2 bd dc cb 1d bc 23 9d 15 3d 01 fb 97 bd
       -0.07921364 -0.009631123 0.03652681 -0.07420922
000100 78 68 c6 3d bc de 0d 3e 26 e4 47 3e d0 18 3f 3e
       0.096878946 0.13854498 0.19520625 0.18661809
000110 90 33 47 3d 1b bd 0c 3e b7 e4 78 3e 39 9e 4b 3e
       0.04863316 0.13744013 0.24305998 0.19884576
000120 15 97 05 3e 25 9e 60 3e 38 7f e9 3d a4 7b 52 3d
       0.13045914 0.21935327 0.11401218 0.051387444
000130 c6 3b 43 bc b4 00 0a 3e f1 66 1d 3e 94 84 f5 3d
       -0.011916107 0.1347683 0.153713 0.11988178
000140 a6 95 b5 3d 3c e4 6a bd 8d a7 47 bd 05 b0 20 bd
       0.08866434 -0.057346568 -0.048743773 -0.039230365
000150 f7 02 a1 3d 77 d6 d1 3d c1 21 18 3e aa 28 84 3d
       0.078618936 0.10245984 0.14856626 0.064530686
000160 cb 95 99 3d f1 02 2c bc f6 96 50 bd 05 83 53 bd
       0.07499274 -0.010498748 -0.050925218 -0.05163862
000170 81 06 a2 3d 16 1c f2 3d 32 ff a0 3d eb 14 3f bd
       0.07911397 0.11821763 0.07861175 -0.04665081
000180 5e fa a5 3d 78 a9 9e 3d 0f e4 f8 3c e3 e8 b9 3d
       0.081043944 0.07747167 0.030382184 0.09077623
000190 c9 d1 8d 3d 03 1f d5 b7 6a a9 cb 3d 65 5e a6 3d
       0.06924779 -2.540602e-05 0.099444225 0.08123473
0001a0 fe d5 44 3e 70 64 11 3e 2c 32 1c bd 78 81 98 3d
       0.19222257 0.1419847 -0.038133785 0.07446569
0001b0 3d 5b a1 3d f1 be 3b 3d 39 be db 3d 2e 09 d7 3d
       0.078787304 0.045836393 0.107296415 0.10499798
0001c0 5b 13 9b 3b 2d bc 73 3d 81 3d da 3d d9 6a 1a 3e
       0.004732532 0.05950563 0.10656262 0.15079822
0001d0 55 de b4 3d de f0 36 3d d0 4f 4c 3d 00 db 2c 3e
       0.08831469 0.044663303 0.049880803 0.16880417
0001e0 6b 8e d2 bd 34 23 bb 3c f1 97 9c 3d 6a 12 ba 3d
       -0.1028107 0.022843935 0.07646168 0.090855435
0001f0 66 f6 00 3d a7 c4 1e 3c 8d b6 86 3d e2 59 57 3e
       0.031484984 0.00969044 0.065777875 0.21030381
000200 86 c6 03 3d ed 9c 66 3e e4 74 92 3d 48 5e 26 3e
       0.03217175 0.225208 0.07151201 0.16246903
000210 f2 2d d3 bc 05 a3 8e 3d 82 02 a8 bc cf 9e 62 3d
       -0.025778744 0.06964687 -0.020509008 0.055327233
000220 ec 0a ba 3d 33 66 1b 3e 3f 83 c3 bc f9 1c fc 3d
       0.090841144 0.15175705 -0.023866294 0.123102136
000230 3e fa 80 3e 36 12 6d 3e a2 83 67 3d 1c c1 b6 3d
       0.2519092 0.23151478 0.05652202 0.089235514
000240 91 fa 7f 3e f8 7d 94 bd 7e 5e d0 bc c7 33 dc 3c
       0.24997927 -0.07250589 -0.025435682 0.026880158
000250 af 92 d5 3c 5f bd cf 3d 34 86 00 3d 23 50 b3 3c
       0.02607092 0.101435415 0.031377986 0.021888798
000260 ac c0 ef bc ca 13 2c bd e2 cb 06 3e 42 9a 59 bd
       -0.029266678 -0.04201106 0.13163713 -0.053125627
000270 90 64 a9 bc e7 2f 42 be 52 41 36 bd e1 3f e0 3d
       -0.020677835 -0.18963586 -0.044495888 0.10949684
000280 92 96 09 be 3e ec 50 be 85 3e 7b be 56 2b f6 bd
       -0.13436344 -0.20402619 -0.24535568 -0.120199844
000290 6f 41 c6 bd ed 1a 60 bd ec 20 fa bd 3b e9 a4 bd
       -0.09680449 -0.05471318 -0.122133106 -0.08052298
0002a0 76 ec 07 bd 82 b7 40 3d 9b 23 8d bc f3 8b 52 be
       -0.03318449 0.047050007 -0.017228892 -0.20561199
0002b0 f3 ab 01 be d0 47 fe bd 0d 25 1d 3e 6a b5 6c bc
       -0.1266325 -0.12416041 0.15346165 -0.014447549
0002c0 aa ea ed 3c e9 66 be 3d fa 94 c9 bb e8 0f 16 3e
       0.02904256 0.09296972 -0.0061517926 0.14654505
0002d0 e8 82 14 39 dc 5b 0f be 59 27 24 bc 39 5e a6 bc
       0.00014163146 -0.13999885 -0.010019147 -0.0203086
0002e0 ba ea 77 3d 31 c3 94 bd a9 d8 49 bd b5 00 70 bd
       0.060526587 -0.07263792 -0.04927889 -0.058594424
0002f0 d4 ef 12 ba 71 be f3 3d 0d 5a 76 3d 26 c8 8f bc
       -0.0005605195 0.11901558 0.060144473 -0.017551493
000300 4d 76 2b bd 09 04 33 bc 96 36 da 3d e0 6b 14 3d
       -0.041860867 -0.010926255 0.10654943 0.03623569
000310 94 91 ea bd 82 d3 9a bd db 2f c5 bc 7e 83 1e 3e
       -0.11453548 -0.07559873 -0.02407067 0.15479848
000320 6b 7a 23 3e ef 8f 49 3e 22 3c 66 3d 6f ae 3a 3e
       0.15964667 0.19683813 0.05620969 0.18230604
000330 01 5c 5f 3e 74 e5 19 bd e9 57 fb bb 7a c8 ad 3b
       0.2181244 -0.03757234 -0.007670392 0.0053034397
000340 fe 89 34 b9 32 f2 42 3c 2a 5b 18 3d f6 1b 55 bd
       -0.00017217544 0.011898564 0.037196316 -0.05202862
000350 a5 f1 d4 3d 38 ee de 3c 2a 6d 11 3e 9d 35 43 3d
       0.103976525 0.0272132 0.14201799 0.04765855
000360 1e d0 37 bd e9 f2 59 bd 40 2f 80 3d 0f ab 43 3e
       -0.04487621 -0.053210173 0.06259012 0.19108222
000370 70 34 b2 3d 36 3e 3d bc 3e a1 93 bd 17 d6 3f 3e
       0.08701408 -0.011550477 -0.07208489 0.18734013
000380 da a3 4a 3d 14 89 dc bd 4e b9 7c bd e0 22 fd 3d
       0.049472667 -0.10768333 -0.061700158 0.123601675
000390 58 bc b8 3d aa 56 da bc 80 57 80 3c c9 90 18 be
       0.09020299 -0.026652653 0.015666723 -0.14898981
0003a0 f7 7d 73 bd 3d 0a 6d 3c cf f2 b2 3d 46 ed 89 3d
       -0.0594463 0.014467773 0.08737718 0.067347094
0003b0 95 b1 77 bd 63 ec 44 bd 8d f9 03 3c 93 a0 72 3e
       -0.06047209 -0.048077 0.008055103 0.23694067
0003c0 31 c2 8c bd c3 62 e8 bb dc 36 2c be ab 1c fc bb
       -0.068729766 -0.0070918514 -0.16817802 -0.007693847
0003d0 6b 54 55 3e d5 5e 5d be 3c e9 39 be 7a 6a 45 bd
       0.20832984 -0.21618207 -0.18155378 -0.048197247
0003e0 ed 3f f7 bd 7c b3 eb bd a3 ac 2e bb ed f8 51 3d
       -0.1207274 -0.11508843 -0.0026653192 0.051262785
0003f0 12 ed 37 3e bd da fd 3d 20 0a 2b 3d 4a 33 05 3d
       0.17961529 0.12395237 0.041757703 0.032519616

c1.bias f4 [6]
000000 af 9a a0 3d 99 5a ad bd 08 42 df bd 6a ba 74 3d
       0.078420036 -0.08464546 -0.10901266 0.05974809
000010 ca c6 ad bd 75 cf 2f bd
       -0.08485182 -0.042922456

bn1.weight f4 [6]
000000 ef 23 82 3f ea 25 59 3f ee 79 84 3f 45 2c 8e 3f
       1.0167216 0.8482348 1.034971 1.110726
000010 30 c8 63 3f 6c 66 87 3f
       0.88977337 1.0578132

bn1.bias f4 [6]
000000 b5 6d 68 bb e2 23 99 be d9 83 cc 3d ff 81 91 bd
       -0.003546578 -0.2991019 0.099860854 -0.07104873
000010 57 79 21 be 4c f5 1f bd
       -0.15768944 -0.039052293

bn1.running_mean f4 [6]
000000 23 5e 1c 3f 1f f6 cf 3e 78 28 16 3f e9 31 38 3f
       0.6108114 0.40617463 0.586555 0.71951157
000010 3f f0 e6 3e 3b 3c 68 3f
       0.45105168 0.90716904

bn1.running_var f4 [6]
000000 68 ad 55 40 34 00 7b 41 18 44 05 40 cd 86 30 40
       3.3387089 15.68755 2.082281 2.7582276
000010 46 88 ea 40 4b 02 5c 41
       7.329135 13.75056

first_cons6_filterlist.0.weight f4 [1, 3, 5, 5]
000000 af 3b a0 3d 0f 75 e1 bc ff 36 9a 3d b0 26 08 be
       0.07823884 -0.027521638 0.07530021 -0.13296008
000010 dc d3 29 be 84 2c 4c bd 4b 3c b3 bc 8c 35 51 be
       -0.16584724 -0.04984714 -0.021879336 -0.20430583
000020 85 c8 6a bd 28 1a db 3c 38 79 ca bd 72 e0 d7 3c
       -0.057320137 0.02674587 -0.09886402 0.026352141
000030 61 40 ed 3c 07 ca 4e bd 15 14 da bd 81 cc 41 be
       0.028961362 -0.050485637 -0.106483616 -0.18925668
000040 d4 56 58 be 18 dc 21 bd 53 45 ca 3d db d0 da 3d
       -0.21126872 -0.03951654 0.09876504 0.10684367
000050 07 0d 27 be f6 42 30 be a8 a5 fa bd 81 c6 38 bb
       -0.16313563 -0.17213044 -0.12238628 -0.002819449
000060 7e b5 25 3e 4d 2b b6 3d 20 09 50 bc c5 1e 37 bd
       0.16182515 0.08894978 -0.012697488 -0.04470708
000070 5b 8c 02 3d bc 9c 66 3d 34 36 64 3d 8a f8 f2 bd
       0.031872135 0.056301817 0.055715755 -0.11863811
000080 77 b5 68 bd 9a d1 2c bd ba 13 89 3b e0 b4 c2 bc
       -0.056813683 -0.04219208 0.00418326 -0.023767889
000090 c0 2d 8e bc 76 6d be bd 05 b8 22 be 10 1d 51 be
       -0.0173558 -0.09298222 -0.1589051 -0.20421243
0000a0 92 71 b7 bd 4e 92 26 bc e7 04 82 bd 83 aa db bd
       -0.08957209 -0.010166718 -0.06348591 -0.10725882
0000b0 59 74 8e 3c 0c 54 36 be 8c 06 db bd aa cc 52 bc
       0.017389463 -0.17805499 -0.10694608 -0.0128661785
0000c0 b5 b0 6d bd 64 b4 0a 3e a6 f6 fb bd e3 14 46 be
       -0.05802985 0.13545376 -0.12302904 -0.19343905
0000d0 89 5a 80 3d 08 b2 fc 3c 0f f6 f9 3c c0 15 37 3d
       0.06267268 0.03084661 0.030512838 0.044698477
0000e0 54 41 7d be a4 00 0f be c8 f4 fd bd 40 ca f6 3a
       -0.24731952 -0.13965088 -0.12400204 0.0018828586
0000f0 ea 4b ce bc 48 91 f1 bd 15 12 26 3d d8 ea 88 bd
       -0.025182683 -0.11795288 0.040544588 -0.06685418
000100 4f 93 00 be 8e 35 8d bc 61 12 50 be 6a 6e 33 bc
       -0.12556194 -0.01723745 -0.20319511 -0.010951618
000110 96 ab f7 bd a4 d2 1c be da 55 d7 bd c1 ba 7a be
       -0.12093274 -0.15314728 -0.10514422 -0.24485303
000120 38 0a 7f bd 6f a7 e7 3d 1a d1 50 be
       -0.062265605 0.11311232 -0.20392266

first_cons6_filterlist.1.weight f4 [1, 3, 5, 5]
000000 03 3b 03 be 47 2b 71 3c 1c d4 2e 3d cd 14 ed bc
       -0.1281548 0.014719791 0.042682752 -0.028940583
000010 cf cb 31 3e 8d e0 05 bd b0 c1 ac bd 26 28 89 bd
       0.17362903 -0.03268485 -0.084353805 -0.06697111
000020 21 e0 20 3d 84 63 0d 3e 7e a7 5b be 79 0c ac bd
       0.039276246 0.13807493 -0.21450612 -0.084008165
000030 4e a9 28 be 09 02 ef bd e5 88 74 bd a9 33 24 be
       -0.16470835 -0.1167031 -0.059700865 -0.16035332
000040 4a e5 34 be 88 6d c6 bd c2 bd d7 bc 26 89 29 3e
       -0.17665592 -0.0968886 -0.0263356 0.16556224
000050 44 32 6a be 8a 8c d5 bd a1 8c 3c bd 78 d4 a3 bd
       -0.22870737 -0.10427196 -0.04603255 -0.079995096
000060 b0 f9 e5 3d 0f 11 49 3e 6d ba ac bd 0f d7 8c bd
       0.11229265 0.19635414 -0.084339954 -0.06876957
000070 e7 ab 25 3d ae a1 35 bd 81 9d c3 3d 29 57 fe bb
       0.040447142 -0.044343643 0.09551526 -0.007761855
000080 f6 28 07 be 13 a5 1b 3e c1 59 b3 3d 39 ee 9f 3d
       -0.13199219 0.1519969 0.087573536 0.07809109
000090 fb 1c 43 bd 2c 60 cc 3d 28 17 ca 3d d3 55 86 3d
       -0.04763506 0.09979281 0.09867698 0.065593384
0000a0 43 bf 97 bd 3b fb 24 be 5a 5a 57 3d 70 46 4b 3b
       -0.07409527 -0.16111462 0.0525764 0.0031017326
0000b0 9b 16 7f bd 54 f0 18 bd c1 c9 1f be 45 3e 08 3e
       -0.062277418 -0.03733857 -0.15604307 0.13305004
0000c0 37 a4 1e 3e 55 39 89 3d 40 46 3b 3d 90 90 16 be
       0.1549233 0.06700388 0.045721292 -0.14703584
0000d0 52 a9 7b be f0 ff 64 bc c0 78 d7 bd a3 e9 6b 3d
       -0.2457631 -0.013977036 -0.10521078 0.05759586
0000e0 c4 b5 8a 3c 8b 98 16 3d 4c 40 6c 3d de b5 88 bb
       0.016932376 0.03676657 0.057678506 -0.004172071
0000f0 57 f5 a5 bd 34 29 2f be 8a ed 91 bd 1a 04 1b bd
       -0.081034355 -0.17105561 -0.07125385 -0.03784571
000100 98 d7 34 be 5f 68 6d 3c 92 a1 86 3c 30 5e e7 3d
       -0.17660367 0.014490216 0.016434465 0.11297262
000110 0a 23 67 3d 1b f3 fd 3c 3c b6 b2 3d e7 fd 04 bd
       0.0564299 0.03099971 0.08726165 -0.032468703
000120 42 54 b9 bd 94 71 14 3e b9 c0 15 be
       -0.09049274 0.14496452 -0.14624299

first_cons6_filterlist.2.weight f4 [1, 3, 5, 5]
000000 d8 0a a0 3d 61 a3 e7 bd d4 03 f7 bd 83 ab 8b bc
       0.07814568 -0.11310459 -0.12061277 -0.017049557
000010 7a 9a 47 be d4 38 f6 3d 0e a6 3e 3d d0 d4 1b 3e
       -0.19492522 0.12022558 0.04654508 0.152179
000020 9f 83 d9 ba 3f b9 64 be a3 2f 3f bd fb 1d 66 bc
       -0.0016595012 -0.22336291 -0.04667629 -0.014045234
000030 cb f6 58 bc 00 5d 60 be 04 c3 c0 bd 9d 3b bb bd
       -0.013242434 -0.21910477 -0.09412196 -0.0914223
000040 40 0e d9 3d 5d 02 75 bd 7d bf b0 3d 8d 03 c6 3d
       0.10598421 -0.059816707 0.086302735 0.09668646
000050 be fe 21 be c9 c2 01 bd 4b 37 0e 3e 8a e0 a2 3d
       -0.15819833 -0.031679902 0.1388828 0.07952984
000060 a2 fb ba 3d 2c 85 dd 3c 2b 2c 84 be 33 a5 24 be
       0.091300264 0.02704104 -0.25814947 -0.16078644
000070 a5 fa 11 bd 01 21 0c be 15 17 8f 3d 00 42 41 bd
       -0.035639424 -0.13684465 0.069868244 -0.047182083
000080 94 a8 e3 bc 52 9c 05 be da 02 eb bc cc c1 a3 3d
       -0.027790345 -0.13047913 -0.028687883 0.07995948
000090 23 b7 16 3e 18 5b 93 3c 57 51 f2 bd 62 95 3f be
       0.14718299 0.017987773 -0.118319206 -0.18709329
0000a0 fd 9b c5 bd 0f 0a 2f 3c a0 b0 e7 3d 13 ce 98 3d
       -0.09648893 0.0106835505 0.113129854 0.074611805
0000b0 e0 79 c2 bd ae ae 33 be c2 43 76 bd 99 82 b7 3d
       -0.09495902 -0.17547104 -0.060123213 0.089604564
0000c0 70 1b 08 3e 04 03 9c 3d 1a 37 b5 bd e6 41 61 3c
       0.13291717 0.07617763 -0.088484004 0.013748622
0000d0 a4 bb 9b bd 55 9f 47 be da 71 99 bd d3 20 01 be
       -0.07604149 -0.19494374 -0.074924186 -0.12610178
0000e0 e6 59 58 bd 54 75 68 3d 57 4e 32 3d 0f 60 09 be
       -0.05282011 0.056752518 0.043531742 -0.1341555
0000f0 fe fd 32 be 60 22 14 be f4 ea c6 3d 27 06 64 bd
       -0.17479703 -0.14466238 0.097127825 -0.05566993
000100 1b 3a 80 3d ac da 41 be 15 6d cc bd e4 25 e6 3d
       0.06261083 -0.18931073 -0.09981743 0.11237696
000110 f1 a4 c7 3d d4 85 97 3d 86 6d 49 be 09 bd 32 be
       0.09748257 0.073985726 -0.19670686 -0.17454924
000120 f6 2a b7 bd e3 8b ff 3c 6a 23 d6 3d
       -0.08943741 0.031194633 0.104559734

first_cons6_filterlist.3.weight f4 [1, 3, 5, 5]
000000 68 07 a5 be 20 63 7f be 33 b9 03 be d4 e0 22 be
       -0.32232213 -0.24940157 -0.12863617 -0.15906078
000010 c0 96 12 be 8d 58 79 bd 50 61 85 3d f3 a2 a3 bd
       -0.14315319 -0.060875464 0.065127015 -0.079900645
000020 9b c3 70 be 0d ba 52 bd a6 69 c0 3d 78 96 ca 3d
       -0.23512118 -0.051446963 0.09395151 0.09891981
000030 bb dd 32 3c 57 0a 66 bd eb f6 05 3e 6d 5d ac 3c
       0.0109171225 -0.056162205 0.13082473 0.021040643
000040 27 b5 40 3d 75 4e 8b 3c 75 1b 05 3d 0a 78 2c 3e
       0.04704776 0.017005185 0.03249689 0.16842666
000050 24 0f 0e be 2c 29 f8 bd d0 4d 6d 3d 70 1d 86 3c
       -0.13872963 -0.12117228 0.057935536 0.016371459
000060 4e d2 af 3d 65 8c f1 3d a0 46 b3 bd 02 0c a2 bd
       0.08585034 0.11794356 -0.08753705 -0.079124466
000070 24 48 da 3c 12 4a cb bd b5 13 c0 3d 87 57 a6 3d
       0.026645727 -0.09926237 0.09378759 0.08122163
000080 55 ca 1f bd 60 43 b0 bc b8 93 89 bc 4e c9 99 3d
       -0.03901132 -0.021516502 -0.01679407 0.07509099
000090 c7 40 5a bd 2f d7 9d 3d af 63 80 3d 41 d9 41 3d
       -0.053284433 0.07707059 0.06269013 0.04732633
0000a0 0c 47 64 bd c4 03 b1 bb 23 aa 6f 3c f1 6e 8a 3d
       -0.055731818 -0.00540206 0.014627966 0.06759442
0000b0 4e 40 94 3d 56 91 de bd 3a 92 89 be cc 0d 44 be
       0.07238828 -0.108675644 -0.26869375 -0.19145888
0000c0 ed c5 64 3c 7c e3 9b bd bc 64 a3 be 3b 72 6c be
       0.013963205 -0.076117486 -0.31912792 -0.2309045
0000d0 b4 8f 29 3d 5d 0d 36 bd 4f a1 6f be e3 5d 65 be
       0.04139681 -0.044446338 -0.23401378 -0.22399096
0000e0 b3 32 87 be ee 25 03 be e8 ac 22 be d5 3f 8a be
       -0.26405868 -0.12807438 -0.15886271 -0.27001825
0000f0 c5 62 1d be fd 12 58 be 89 72 4a be d0 6f 9c bc
       -0.15369709 -0.21100993 -0.19770254 -0.019096285
000100 ee 04 1b be f3 c3 03 bc 49 8a 5c bb ec c9 c9 bd
       -0.151386 -0.008042323 -0.003365176 -0.09852967
000110 aa 73 39 3d 06 2e b5 bd ef 19 f8 3d ba c2 cc 3d
       0.04527632 -0.08846669 0.121143214 0.09998079
000120 ec 31 ae 3d 40 1f 30 3e 41 43 18 3e
       0.085056156 0.17199421 0.14869405

first_cons6_filterlist.4.weight f4 [1, 3, 5, 5]
000000 54 2b 90 3d 53 fe fc 3d 78 cc 37 bd 9b 97 a1 3d
       0.07039514 0.12353196 -0.04487273 0.078902446
000010 4e b6 71 bd b0 35 0d 3e f0 fa 61 bc a7 23 35 3e
       -0.05901175 0.13790011 -0.013792738 0.17689382
000020 8e 76 0d 3e 06 7e 3b bc 1b 02 35 3e 18 17 89 3d
       0.13814756 -0.011443621 0.17676584 0.06693858
000030 36 6d 19 be 34 ed 04 be 63 60 8e bd ad 3a 33 3c
       -0.14983067 -0.12981111 -0.06951978 0.010939282
000040 b3 fa e3 3d 88 a3 e4 3d 14 36 8b bc 7e 4f a7 3d
       0.111318015 0.111640036 -0.01699356 0.08169459
000050 8d 3f f6 bd 6e f1 11 3d 07 9e 88 bd f5 09 e4 3c
       -0.1202384 0.035630636 -0.06670766 0.02783678
000060 ff 55 34 be 76 b4 ce bc c9 93 1a 3d 1e 45 c9 3d
       -0.1761093 -0.025232535 0.037738595 0.09827636
000070 2f 3c 82 3d c7 73 80 3e d3 f2 12 bd b7 4f 80 3d
       0.06359135 0.2508833 -0.035876106 0.062652044
000080 02 37 af bd a1 bb a7 bd aa 47 fc 3d 1c 0c 4d 3d
       -0.08555414 -0.08190084 0.12318356 0.050060377
000090 73 f8 1c be f8 e2 ee 3d 7f 51 70 bd c2 de 40 3c
       -0.15329151 0.116643846 -0.05867147 0.01177186
0000a0 30 38 95 3d 1e 98 71 bd a8 f0 a8 3d ab 1e 96 bd
       0.072861075 -0.05898296 0.082490265 -0.07330068
0000b0 e6 49 ef bd 61 44 b1 bd 16 8e e4 3d d0 87 7e 3d
       -0.11684017 -0.0865562 0.11159913 0.06214124
0000c0 38 df b7 3c 26 ef e0 bc 84 15 98 bd db 57 2a 3d
       0.022445306 -0.027457785 -0.07425979 0.04158769
0000d0 02 96 e6 3d 90 c4 76 3d 39 04 ac bc 51 31 1f bd
       0.112590805 0.06024605 -0.020998107 -0.03886539
0000e0 62 bb b6 3d 19 d2 82 bd 1e 68 fe bb 22 16 2d be
       0.08922459 -0.06387729 -0.0077638766 -0.16902974
0000f0 73 35 0c 3e 0d d7 d0 3d f0 78 0e 3d 48 5a 29 3e
       0.13692264 0.10197268 0.034783304 0.16538346
000100 e1 e1 32 3e a7 62 f7 3d 35 95 79 3e a8 be 28 3e
       0.17468978 0.12079363 0.24373324 0.1647898
000110 65 5e 5c 3e fd d5 3f 3e a0 70 8d 3e 4c 72 37 3e
       0.21520384 0.18733974 0.2762499 0.17914695
000120 c7 3a dc 3d 32 c8 15 3e 16 34 58 3e
       0.107533984 0.1462715 0.21113619

first_cons6_filterlist.5.weight f4 [1, 3, 5, 5]
000000 77 21 7a 3e 05 67 3f 3e 86 a9 70 be e9 cf 27 be
       0.24426828 0.18691643 -0.23502168 -0.16387905
000010 12 41 8f bd 6c 20 94 3d c3 a2 e6 bd c1 ba 4b be
       -0.06994833 0.072327465 -0.11261513 -0.1989546
000020 a4 3b f2 bd 59 a5 94 bd 7e e1 d2 bd a1 35 11 be
       -0.11827782 -0.072581 -0.102969155 -0.14180614
000030 81 fb 86 3b 62 78 fc 3d 6a 4c dc bd fd 8e 80 3d
       0.004119337 0.12327649 -0.10756762 0.06277273
000040 fa 62 aa 3d 36 73 88 bb 10 39 9c bc a7 7b 98 3c
       0.083196595 -0.004164125 -0.019070178 0.01861365
000050 28 e6 e3 bb 46 f8 8c 3d 27 5c f2 3d 73 37 03 3d
       -0.006954927 0.06883292 0.11833983 0.032035302
000060 8e 71 91 bd 27 3e 55 3d 57 2f be 3c 8c f6 8a 3d
       -0.07101737 0.052061226 0.023215933 0.06785306
000070 69 ca b7 3d 94 4c 34 bd 2b 3e 13 3e 63 36 88 3d
       0.089741535 -0.044018343 0.14379184 0.066509984
000080 ac be d0 3c 6b 35 46 bd e4 e3 3f be 8e 4c 0b 3e
       0.025481544 -0.048390787 -0.18739277 0.13603422
000090 90 0b c1 bd a7 4f 60 3c 22 50 3e 3d f3 8f 22 3c
       -0.094260335 0.013690866 0.04646314 0.0099220155
0000a0 75 a7 28 3e 91 c4 91 bd 29 07 51 be 34 fb 6c be
       0.1647013 -0.0711757 -0.20412888 -0.23142701
0000b0 03 d7 69 be 70 88 a7 bb 31 63 ba 3d e3 7e 23 bc
       -0.22835927 -0.0051127 0.091009505 -0.009978983
0000c0 dc 3d f5 bc 9f 8c 27 be 7b 79 84 be bd 98 a6 be
       -0.029936723 -0.16362236 -0.25873932 -0.32538405
0000d0 9c 76 75 be ee a7 69 bd 5a f1 f7 3b 84 2b 8f be
       -0.23971027 -0.057044916 0.007566613 -0.27962887
0000e0 6c 66 88 be 3f 9c 9e 3d fc a4 b5 3c 37 e7 39 be
       -0.26640642 0.07744645 0.022173397 -0.18154608
0000f0 ad df 22 bd 32 53 1a bd 8f a3 0a 3d e1 7c 77 be
       -0.039764095 -0.037676997 0.033847388 -0.24168731
000100 f0 c5 53 bd 8a 0d ba bd 45 2e ba bd 0b 2f 9d bc
       -0.05170244 -0.090846136 -0.090908565 -0.01918747
000110 e2 a3 9c 3b f2 d7 0c bd e8 46 36 be 2c ad 2c bd
       0.0047802785 -0.03438563 -0.17800486 -0.042157337
000120 f2 57 fa bd a9 d8 2b 3d 2a b3 a5 3d
       -0.122238055 0.04195467 0.080908135

second_cons6_filterlist.0.weight f4 [1, 4, 5, 5]
000000 25 81 3b 3d 82 e4 f3 3c 86 e5 2f bb ba e7 19 3e
       0.04577746 0.029772047 -0.0026839687 0.15029803
000010 bc f4 12 3e ba f1 35 bc 9f 1b cf bd 70 fc a0 3c
       0.14351171 -0.011104995 -0.1011269 0.019651622
000020 2c b0 05 3d 8b 80 7e 3d 97 8f 59 bc 62 97 77 be
       0.032638714 0.062134307 -0.013278863 -0.24178842
000030 51 96 91 bd 7f 8c 02 be a9 56 b6 bd 97 bf a4 bd
       -0.07108749 -0.12748908 -0.08903248 -0.08044355
000040 78 34 ca bd 2c c1 11 be 65 d9 3f be db 07 34 be
       -0.09873289 -0.14233845 -0.18735273 -0.17581122
000050 27 0f a8 bc c7 58 62 3c 76 e6 3c bd 03 37 a0 bd
       -0.020515038 0.0138151115 -0.046118222 -0.07822993
000060 2d c1 81 3c b4 fc 94 bd 0d ab 47 bd 11 50 e8 bd
       0.015839184 -0.07274762 -0.04874711 -0.113433965
000070 12 16 30 be 8b 56 e8 bd d3 4b 73 bd b4 91 21 bc
       -0.17195919 -0.11344632 -0.059398483 -0.0098613985
000080 10 2b 72 3d 2b 65 0b be 7c aa 14 3e d2 4f 2d 3e
       0.0591231 -0.13612811 0.1451816 0.1692498
000090 d5 6c 87 bc cd 45 4b 3d b6 59 2e 3d 76 e0 eb 3c
       -0.016531387 0.049627114 0.042566024 0.028793555
0000a0 ce 48 d8 3c 15 93 15 3c 66 d5 e0 3c 33 b5 91 3d
       0.026401903 0.009129305 0.027445506 0.07114639
0000b0 11 4d 08 3d 86 f9 84 3c a4 bf 87 3d db ec 35 bd
       0.03327662 0.016232263 0.066283494 -0.044415336
0000c0 b3 bf 52 3d 62 e2 81 bd 2b 08 4c 3d be dd 51 be
       0.05145235 -0.06342007 0.049812477 -0.20494744
0000d0 a6 6f a0 bd f5 1a 86 3d 55 c8 0d bc 31 e2 e4 bd
       -0.07833795 0.065481104 -0.00865372 -0.11175955
0000e0 0b 0c d3 ba 23 2a 78 3c 1e b0 9c 3d ae f1 3a be
       -0.0016101612 0.015146765 0.07650779 -0.18256256
0000f0 35 1d 53 be 67 2d 17 be aa 52 d6 bc 02 15 7e bd
       -0.2061661 -0.14763413 -0.026162464 -0.062031753
000100 79 f5 ca bd b7 53 bf bd e4 61 67 bc 00 67 53 bd
       -0.099101014 -0.09342139 -0.01412246 -0.0516119
000110 d6 c1 06 3d 75 e1 30 3d e2 6d 8a 3d 04 8e e1 bc
       0.0328997 0.043183763 0.0675924 -0.027533539
000120 0c 07 35 bd f5 3c cc 3b d1 3c 14 be 68 7f 9d 3d
       -0.044196174 0.0062328526 -0.14476325 0.076903164
000130 e0 0f 90 bc 97 ba 9e bc 69 52 96 3d 74 34 b8 bb
       -0.017585695 -0.019376082 0.07339937 -0.0056214873
000140 3d 43 3a bb f5 0a 9b bd 48 d3 9e bc e8 ee 18 bd
       -0.0028421425 -0.07570449 -0.019387856 -0.037337214
000150 33 1b ca bc a0 0b 97 bd 9f 2c bd 3d 6c 89 59 be
       -0.024671173 -0.07375264 0.092370264 -0.21243829
000160 88 6e 9f bd 78 9f 75 bd a8 0e 3a 3e f0 dc bc 3d
       -0.07784754 -0.059966534 0.18169653 0.09221828
000170 0a 76 3b 3d 41 96 ad 3b d5 a5 92 bc 28 45 5d 3e
       0.045766868 0.0052974527 -0.01790134 0.21608412
000180 ca ef 96 3d 9d 90 6b 3e ff 9c 70 3e 8e 36 47 3e
       0.07369955 0.23004384 0.2349739 0.19454405

second_cons6_filterlist.1.weight f4 [1, 4, 5, 5]
000000 b8 00 8a 3d 9d af d1 bc f9 f6 21 bd 21 61 1c 3e
       0.06738418 -0.025596434 -0.039542172 0.15271427
000010 dc 76 02 3e 9e dd dc bd d6 bf 90 3c 0d 76 04 bc
       0.12740654 -0.107844576 0.0176696 -0.008084786
000020 3e c4 7c 3d 4f 8b 09 3e 35 ef 84 3d f0 52 b9 bd
       0.06171059 0.13432048 0.064909376 -0.09049022
000030 6a b1 3c 3d b6 8b f1 bc 51 de 91 bb a9 a2 4b 3d
       0.046067633 -0.029485565 -0.004451551 0.04971567
000040 1c 00 b1 3d a7 2f c8 3d a7 f9 1f 3d a5 e4 67 3d
       0.08642599 0.09774714 0.039056446 0.056614537
000050 35 4d 24 be 5f 07 11 be 5a eb 03 bd 71 9b 9a bd
       -0.16045077 -0.14162968 -0.03220687 -0.07549179
000060 dd 35 58 bd 6b 58 f7 3d fe 0b bb 3d 42 45 82 3d
       -0.052785743 0.12077411 0.09133147 0.06360866
000070 d5 53 ed bc 23 e9 b3 3c 62 41 a8 bd b0 a4 b2 3c
       -0.028970638 0.021961754 -0.08215596 0.021807045
000080 47 e5 59 bb 75 fb 2a 3d ee f0 39 3c 96 6d 3b be
       -0.0033248232 0.041743714 0.011348946 -0.18303522
000090 df be a8 bd 46 cf 13 be 71 1d f0 bd 05 eb 98 3c
       -0.08239531 -0.14434537 -0.117243655 0.018666754
0000a0 58 bd 30 be 6f 80 7f 3d 12 a9 3b 3b 14 90 7c 3c
       -0.17259729 0.062378343 0.002863471 0.01541521
0000b0 02 37 83 bc 4e 53 2e bc d7 71 ea 3d e4 02 06 be
       -0.01601744 -0.010639979 0.114474945 -0.1308704
0000c0 f3 3c bb bc aa ab e6 3d f1 3e 51 3d 48 a6 11 bd
       -0.022856211 0.11263211 0.051085416 -0.03555897
0000d0 d4 89 f6 3c 33 de fb bd b8 77 47 be 8a 94 91 be
       0.030095018 -0.122982405 -0.19479263 -0.2843364
0000e0 ba ff d6 bd 75 f1 ce 3d 68 8c a7 bb b5 ab 5d 3d
       -0.10497995 0.10104648 -0.0051131733 0.05411883
0000f0 4d 45 2f be a2 35 fc bd 91 04 50 be 32 9b 84 3d
       -0.1711628 -0.12314917 -0.20314242 0.06474914
000100 02 3d e5 3d 37 38 f4 3c 49 fa d5 3d 7d 85 d2 bc
       0.11193277 0.029811962 0.10448129 -0.025698418
000110 14 38 4f 3e 32 66 87 3e c4 0b 8b bd 6d a9 ae 3d
       0.20236236 0.26445156 -0.067893535 0.08528409
000120 99 93 ee 3d 5d 20 11 3e 00 a5 54 3e ab 90 ee bd
       0.11649246 0.14172502 0.20766068 -0.11648687
000130 7c b5 3c 3d 06 a4 28 bd 67 83 1a 3e ab 8b ee bc
       0.046071514 -0.04117205 0.15089189 -0.029119333
000140 05 4d 49 bd 4d 1b f4 bd b6 22 86 3c b3 38 95 3d
       -0.049145717 -0.1191927 0.016373973 0.07286205
000150 8c 08 9f 3d da 4a 58 bd b5 f2 b3 bd 5a 2e 36 3d
       0.07765302 -0.05280576 -0.08786527 0.044477798
000160 23 26 4c 3c 71 0a c6 3b fe d3 55 bd 1b be 9b 3c
       0.012460264 0.006043725 -0.052204125 0.019011548
000170 e6 f3 67 bd af 4c 49 bd c7 d5 23 3d fa 59 10 be
       -0.056629084 -0.049145397 0.039998796 -0.14096823
000180 93 e0 82 bc 58 f0 5c bd 39 58 31 bd 2c 36 54 be
       -0.015976226 -0.053940147 -0.043297026 -0.2072379

second_cons6_filterlist.2.weight f4 [1, 4, 5, 5]
000000 17 7b f4 3b e9 5f 40 be 6a 1c a8 bd b8 7f 2a be
       0.0074609625 -0.18786587 -0.082085446 -0.16650283
000010 d5 62 b8 bd 45 6d 24 bd f8 c3 b9 bd f7 e4 4a be
       -0.09003226 -0.04014327 -0.09070581 -0.19813906
000020 c3 89 31 be 98 d2 08 be 2f ee 2b be 24 c9 24 be
       -0.17337708 -0.13361585 -0.16790079 -0.16092354
000030 bd c7 5d bd 1e 09 23 be 90 ac 4d be c3 aa 14 3d
       -0.054145563 -0.15921447 -0.20085359 0.036295664
000040 62 b2 4c bd 17 4f 50 3d 78 a0 d0 bd 9b d2 09 be
       -0.049974807 0.050856676 -0.10186857 -0.13459246
000050 50 60 59 bc 3a 2d 1c 3d c6 f8 9d bd 03 51 29 be
       -0.013267592 0.03812907 -0.077134654 -0.1653481
000060 a4 27 88 bd 30 e8 60 3d 78 f7 4f be 5a d9 7e bd
       -0.06648186 0.05490893 -0.20309246 -0.062219
000070 30 27 96 3d 0b 32 68 be 41 68 2a be 5d e4 7f bc
       0.07331693 -0.2267534 -0.16641332 -0.015618411
000080 4e e1 f4 3c ca 38 1c bd 9a a6 32 be 99 36 6c 3c
       0.02989259 -0.038140096 -0.17446366 0.014417314
000090 2b e1 c0 3d ab b2 78 3d 42 5d 0b bd aa 3c 06 bd
       0.094179474 0.060717266 -0.034024484 -0.032772698
0000a0 ad 20 9c 3d 33 0a 0a be 3f 77 39 bd 73 62 57 bd
       0.0762342 -0.13480453 -0.045279738 -0.052584123
0000b0 68 c7 60 be 7e 8c 98 bc ba de 28 3d e8 81 d8 3d
       -0.21951067 -0.01862168 0.041228034 0.10571653
0000c0 0f 5c a1 3c 4e 24 1d 3e 94 db 2b be be 76 ec bd
       0.019697217 0.1534588 -0.16782981 -0.11546086
0000d0 f5 9d 97 be c9 f1 8f be e7 38 93 be 7e aa b1 3c
       -0.296127 -0.28114155 -0.2875435 0.021687742
0000e0 38 f4 12 be ca 79 a8 bd 5e 7c 55 be e9 60 6a bd
       -0.14350975 -0.082263544 -0.20848224 -0.057221327
0000f0 20 8f d7 3c d1 a5 38 3d 9f 0a e5 3a fb 5a 0d be
       0.026313365 0.04508001 0.0017474479 -0.13804238
000100 3d 19 9d 3c 72 8b 91 bd 1c 1e 3f bd d5 22 bc bb
       0.019177074 -0.07106675 -0.046659574 -0.005741457
000110 57 cc c1 bd e7 50 bf 3c 05 f1 34 be af 27 24 bc
       -0.09462803 0.023354007 -0.17670067 -0.010019227
000120 62 d3 88 bd d6 91 4a bd c7 e6 34 3d 2b e8 e7 bd
       -0.06680943 -0.049455486 0.0441654 -0.113235794
000130 27 1e c7 bd 38 a3 73 bd ce 6f d7 bd 11 54 27 be
       -0.09722548 -0.05948183 -0.10519372 -0.16340663
000140 c6 4d 76 be 21 35 2e be 20 83 15 be ac 0b 82 bc
       -0.24053106 -0.17012455 -0.14600801 -0.015874706
000150 a9 53 e3 bd 13 60 76 be 43 e5 bd bd 05 69 67 bd
       -0.11099941 -0.24060087 -0.09272244 -0.05649664
000160 5d f2 42 be 78 1a 5f 3d 95 43 90 bc 36 60 65 be
       -0.19037767 0.054468602 -0.01761035 -0.22399983
000170 70 9c f4 bd 65 dc ae bd f0 11 78 be ff 68 0c bd
       -0.119439006 -0.08538131 -0.24225593 -0.03427982
000180 f9 a7 8c bd 0b 24 10 bd 97 6a 67 be 53 7a 1e be
       -0.06867976 -0.035190623 -0.22599255 -0.1547635

second_cons6_filterlist.3.weight f4 [1, 4, 5, 5]
000000 9c 47 37 bd 6a 91 fd bd 56 d9 06 3d 9a c6 84 3c
       -0.044746026 -0.12381251 0.03292211 0.016207982
000010 03 79 6a bd 9e e4 54 3d 39 79 b0 3d 7f a1 b1 bd
       -0.057244312 0.05197584 0.086168714 -0.08673381
000020 1c 9d 2c bb 6b 45 e5 3c cc 77 b4 3d 29 08 1c 3b
       -0.0026338762 0.027987203 0.08811912 0.0023808575
000030 9d b3 63 3d 1c 4a aa bd cd 49 7d bd c3 e9 21 3e
       0.055591214 -0.083149165 -0.06183796 0.1581183
000040 10 8c 22 be bb 32 81 bd 09 a0 18 3c 39 d4 f6 bd
       -0.15873742 -0.06308504 0.009315499 -0.12052197
000050 92 ec 1d 3e 07 3f be 3d ad e3 08 be 69 24 4f bd
       0.15422276 0.09289365 -0.13368101 -0.050571833
000060 52 41 20 be bb 22 3b bc b0 19 db 3d 33 ee 85 3d
       -0.15649918 -0.011421855 0.10698259 0.065395735
000070 46 a1 cc bc 8d 96 b8 3d ab c4 f6 bd ba 23 c5 3d
       -0.024979245 0.0901309 -0.1204923 0.09625955
000080 4a 12 1d 3e db 7a 24 bc 16 f0 2b 3c 35 1f 6d be
       0.15339008 -0.010039057 0.010494253 -0.23156436
000090 56 e5 26 be a2 45 a5 3b 03 36 6f 3d 60 d6 0a 3e
       -0.16298422 0.0050437013 0.05840112 0.1355834
0000a0 75 55 8a 3d 3d 60 03 3e 3a 04 0a be 14 62 be 3d
       0.06754581 0.1282968 -0.13478175 0.09296051
0000b0 0c fc 0a 3e 61 99 1e be bd 60 90 bd 87 40 b6 bd
       0.13572711 -0.15488197 -0.07049701 -0.08899026
0000c0 3c d6 0e be 57 39 67 3e b5 fa 0b bc b1 90 5f 3c
       -0.13948911 0.22580467 -0.00854366 0.013645337
0000d0 9e 4f a5 3d 18 b2 59 3d 29 cd a7 3d 6f de 8a bd
       0.080718264 0.05314836 0.08193428 -0.06780707
0000e0 c6 56 15 be 9f 97 d9 3d 91 76 ce 3d 87 e1 5f bc
       -0.14583883 0.106246226 0.100812085 -0.01366461
0000f0 0e 67 dd bd d7 8e 53 3c 66 0b 37 bd 04 26 b4 3d
       -0.10810672 0.012912474 -0.044688605 0.087963134
000100 a3 85 1e 3e 39 45 5b 3d 3c 98 03 bd 10 d4 af bd
       0.15480666 0.053532813 -0.032127604 -0.085853696
000110 21 b1 ee bd 30 c1 24 3d dc 5e d7 3d 30 ae 31 be
       -0.116548784 0.0402233 0.1051614 -0.17351604
000120 36 ad 73 bd e3 b0 ce 3b 92 15 27 be e9 74 72 3e
       -0.05949136 0.0063077076 -0.16316822 0.2367741
000130 32 93 12 3e 3f c0 a3 3d 7f a2 88 bc be ec 65 3d
       0.14313963 0.079956524 -0.016679047 0.056133978
000140 f3 5e 60 3e 26 d6 42 3e d8 2e 8a 3c c9 a3 bf bc
       0.2191122 0.19027004 0.01686804 -0.023393529
000150 cb 4a 9b bd 79 d6 8e 3d 5d 37 50 3d ed da db 3d
       -0.07582625 0.06974501 0.05083405 0.10735116
000160 d6 19 e5 3d f7 80 2a bd d4 e7 14 3d 3a c3 88 bc
       0.111865684 -0.041626897 0.0363539 -0.016694654
000170 d9 44 4b 3c 53 6d 22 3e ce 71 08 3e 3c c9 bf 3c
       0.012406551 0.15862016 0.13324663 0.023411386
000180 c1 c6 02 3e 9f f4 08 3e cd d9 c5 3d ef 3b 2f 3e
       0.12771131 0.13374566 0.09660683 0.17112707

second_cons6_filterlist.4.weight f4 [1, 4, 5, 5]
000000 d8 8e ae bd 0f a1 3d be 22 7c a2 bd 5c e0 3c bd
       -0.08523339 -0.1851847 -0.07933833 -0.046112403
000010 fc 42 fa bd f8 7e 27 3d 44 3e 6c bc 02 13 c1 3d
       -0.122198075 0.04089257 -0.014419142 0.094274536
000020 6e d1 b3 3d 1a 01 23 3e 9f 14 18 be 25 da 71 3c
       0.0878018 0.15918389 -0.14851616 0.014761482
000030 58 49 ac 3d ee 57 1e 3e 0a 3d 4f 3d 37 6c af bc
       0.08412427 0.1546323 0.05059532 -0.021413906
000040 7a b5 1f bd 57 e3 99 bc 4d c4 3a bc dd 78 3f be
       -0.03899143 -0.018785162 -0.011399341 -0.1869845
000050 da f1 55 3c dc c5 10 3e b7 f6 8b 3d eb c2 13 be
       0.01305815 0.14137977 0.068341665 -0.14429824
000060 d4 4a 91 be 7a 16 5f bd 6a 59 71 3c f2 18 bd bd
       -0.28377402 -0.054464795 0.014730791 -0.092332736
000070 3f 37 a0 bd c7 ab f5 bd b2 c3 86 bd 86 7d 2c bd
       -0.07823037 -0.119956546 -0.06580295 -0.042111896
000080 28 82 24 3d 75 fb 05 be 21 22 90 3c 82 3d ea bc
       0.04016319 -0.13084204 0.017594399 -0.028593782
000090 23 9c 9a 3c e9 a2 1e 3c 09 ef 04 3c 55 ef cc 3d
       0.01887328 0.0096823955 0.008113631 0.100065865
0000a0 09 01 a1 3c 73 86 ea 3c 3d e2 5c 3e ce 21 a1 3c
       0.019653814 0.028628564 0.21570678 0.01966944
0000b0 81 e6 f6 3d cd fd aa bd df a4 09 3e 0c 66 16 3e
       0.12055684 -0.0834919 0.134418 0.14687365
0000c0 41 17 28 3e 55 14 2f bc 3d 43 07 3c 7a e0 1e be
       0.1641512 -0.010686 0.008255777 -0.15515319
0000d0 9c 8a e6 bd bc 50 dc bd ab 24 19 bb df 6b 0b bd
       -0.112569064 -0.10757586 -0.0023367803 -0.03403842
0000e0 a1 0d 9a 3b 55 94 56 3c 90 41 02 be aa c0 f8 bd
       0.0047013317 0.013096889 -0.12720323 -0.12146123
0000f0 46 49 e3 bb a8 35 a6 bd 80 b3 b5 bd 4f 3b 35 3d
       -0.006936225 -0.08115703 -0.088721275 0.044246014
000100 28 5e b8 bd 17 f7 b5 bd 79 ec 9b 3c b8 91 d5 3d
       -0.09002334 -0.08885019 0.019033657 0.10428184
000110 f8 62 61 3c 7a 14 1f 3e 25 34 ea 39 cc 98 08 3e
       0.013756506 0.15535155 0.0004467081 0.13339537
000120 20 02 62 3e b6 54 a1 3d 6b 78 82 3d 2e 6d 07 3e
       0.22071123 0.078774855 0.06370624 0.13225242
000130 a6 85 05 3c 63 64 82 3d e4 16 f1 3d 2b 22 23 bd
       0.00814954 0.063668035 0.11771944 -0.039827507
000140 e4 97 c1 bc a0 9c f6 3d f2 0c 43 3e 72 d2 fd 3d
       -0.023631997 0.120415926 0.19047907 0.12393655
000150 78 6b 34 bc fb b6 2d 3e 67 36 c0 3d 3f d4 21 3d
       -0.011011951 0.16964333 0.093853764 0.039509054
000160 3a 25 64 bd 0e 3e f0 3d b1 21 a7 3d f5 ce 8a 3c
       -0.055699565 0.11730586 0.08160723 0.016944388
000170 d7 aa ad bc 04 55 71 bc c0 10 94 bd 2f c8 07 3e
       -0.021199627 -0.014729742 -0.07229757 0.13259958
000180 42 a3 20 3d c3 30 ad bc 15 dc 28 bc fb 9e 8b 3d
       0.039218195 -0.021141415 -0.010306378 0.068174325

second_cons6_filterlist.5.weight f4 [1, 4, 5, 5]
000000 1d 13 01 bd ba 63 4d be 13 40 10 be ec 3b 03 bd
       -0.03151237 -0.20057574 -0.14086942 -0.032039568
000010 bf 96 23 be d3 c8 03 bd 47 b0 6a bc ae 8b ce bd
       -0.15975474 -0.032173943 -0.014324254 -0.100852355
000020 73 bb 28 be 7e ac 09 be 00 29 b9 3d 39 7f a4 3c
       -0.16477756 -0.13444707 0.09041023 0.020080196
000030 04 a4 22 bc a9 61 c1 bd cc 7c 22 be 1b 41 0e 3d
       -0.0099268 -0.09442455 -0.15867919 0.03473006
000040 53 63 b2 3b 70 3f 83 3d a5 9a ec bc 98 18 00 3d
       0.0054439693 0.06408584 -0.028882334 0.031273454
000050 e1 69 fb bd 01 99 d2 3c b4 ad 5d bc 52 59 a1 3c
       -0.12276054 0.025707724 -0.013530184 0.019695912
000060 b6 c2 08 3e ae 34 16 3d 01 de 05 bb 47 cb 91 3d
       0.13355526 0.036671333 -0.0020426514 0.0711885
000070 8b 55 78 3d 5f 1c fa 3d e8 16 f4 3d a2 c3 af 3d
       0.060628455 0.122124426 0.119184315 0.08582236
000080 32 3c 6e bd 4c f8 e1 3d 79 14 49 3e 92 00 97 3d
       -0.058162875 0.11033687 0.19636716 0.07373156
000090 30 f3 86 3d a4 73 47 3d c8 b0 ba 3d 79 32 11 3e
       0.06589353 0.048694268 0.091157496 0.1417941
0000a0 4f 6a db 3b 72 14 9d 3d 3c 1a 9a 3d 59 b2 0e 3e
       0.0066960226 0.07669915 0.07524535 0.13935222
0000b0 42 80 e6 3d 12 ed 77 bd 23 9b 40 be 3a 8c 44 be
       0.11254932 -0.060528822 -0.1880918 -0.19194117
0000c0 45 c4 bb bd bc 32 d4 3c 35 02 8a be 92 ea 00 be
       -0.09168295 0.025903098 -0.2695481 -0.12589481
0000d0 d8 a9 1f bd 5f fe e8 3c fe c9 0c bb 65 ad 88 be
       -0.038980335 0.028441606 -0.0021482701 -0.2669479
0000e0 fe 2f 5c be 5e 84 86 bd 77 44 05 bd 81 f2 03 be
       -0.21502683 -0.06568216 -0.032535996 -0.12885477
0000f0 63 7e 21 be af a8 4f be ca d8 94 3c b0 09 19 3c
       -0.15770869 -0.20279191 0.01816978 0.009340689
000100 6e 0d 40 be 5d 0b c9 bc f2 60 c9 3c 2d 4d a1 bd
       -0.18755123 -0.024541551 0.02458236 -0.07876048
000110 e2 ba a9 bd 4c dc 9d bd 55 4b 6f bd 18 d5 28 3d
       -0.08287598 -0.07708034 -0.05842145 0.041218847
000120 9f 20 30 3e e9 9a ae 3d 12 12 09 3d 72 9a d4 bc
       0.17199944 0.085256405 0.0334645 -0.025952552
000130 49 0f 21 3c 1c 7d 61 bc d1 7f 22 be 0d 50 9e bc
       0.009830304 -0.013762739 -0.1586907 -0.01932528
000140 9a be ed bd 55 60 e1 bd a1 b9 c8 bb 00 fc d2 bc
       -0.1160862 -0.11004702 -0.0061256443 -0.025754929
000150 1b c3 e4 bd 9b 24 3d be 2f e0 f4 bd 8a 1e 6d bd
       -0.11170026 -0.18470995 -0.11956822 -0.057890452
000160 3c 7a c6 3d d5 55 f2 bc cc 41 e2 bd 9d 40 05 be
       0.09691283 -0.029581944 -0.11047706 -0.1301293
000170 9b 49 fe 3c ab f5 84 bd 0c 25 7c 3c c5 d4 00 3e
       0.031040957 -0.0649217 0.015389692 0.12581165
000180 83 f2 a8 3d ed 2b bf 3d fc 36 06 3e 86 de 73 3d
       0.082493804 0.0933455 0.13106912 0.059538387

third_cons3_filterlist.0.weight f4 [1, 4, 5, 5]
000000 94 88 27 3e 71 a4 ff 3d 46 7e 85 3e fd 13 f2 3d
       0.16360694 0.124825366 0.260729 0.11820219
000010 26 d2 2f 3e 02 4a cd bd 29 8f d5 bb 24 dd 26 be
       0.17170009 -0.100238815 -0.00651731 -0.16295296
000020 e2 7a 10 3d a8 20 55 3b b3 1a a7 bd 67 cd 86 bd
       0.03527344 0.0032520685 -0.08159389 -0.06582146
000030 eb ab ea bd 65 c2 30 be aa e5 0c be dd 46 45 bd
       -0.11458572 -0.17261656 -0.13759485 -0.048163284
000040 48 c5 3f be 40 ef bf bd b2 ab 44 be 5a 09 42 bd
       -0.187276 -0.09371805 -0.19206122 -0.0473722
000050 a3 6f 90 bd d4 95 3a bd fc 35 a6 bd b9 86 47 bd
       -0.07052543 -0.045553043 -0.081157655 -0.048712466
000060 da b9 36 be 42 ca 03 bd 59 c5 76 3c 85 50 a4 bd
       -0.17844334 -0.03217531 0.0150617 -0.080231704
000070 61 d3 41 bd ab 1a 90 3d 68 51 46 ba fb 5d c4 bc
       -0.047320727 0.070363365 -0.0007565231 -0.023970595
000080 63 47 64 3d c5 00 1b 3d d9 29 e1 3d 25 9e b7 3d
       0.055732142 0.03784253 0.1099431 0.089657106
000090 b3 0e 02 3e 57 f6 8f 3d ff d0 09 3d 3d 35 63 3d
       0.1270092 0.070294075 0.03364658 0.055470694
0000a0 4d be 91 bb 31 e5 8f 3c df d0 f6 3c 8e 7d f1 bc
       -0.0044477344 0.017565342 0.030128894 -0.029478814
0000b0 da 87 89 bd 87 70 e8 bd be d9 8c 3d f2 4c ea 3d
       -0.06715365 -0.11349588 0.068774685 0.114404574
0000c0 0f 8d 33 3d 54 d0 0e 3e ad 99 82 bd 7a ce ff ba
       0.043835696 0.13946658 -0.063769676 -0.0019516491
0000d0 5a 29 b6 3d df dc 29 3c 16 df 99 3b 5b 6c 85 bd
       0.08894606 0.010367601 0.0046957834 -0.06514808
0000e0 9d a0 f5 bd 66 2d 0a 3c 22 6a 20 bd b9 40 0d 3d
       -0.11993525 0.008433675 -0.039163716 0.034485552
0000f0 31 cc ca bd df f5 54 be 11 2d 7f bd 4c f8 8f be
       -0.09902228 -0.20796917 -0.062298838 -0.28119123
000100 96 13 1f be 07 50 ec 3d 1e 6e c9 bc 85 a8 ae bd
       -0.15534815 0.115387015 -0.02458864 -0.08528236
000110 e3 d4 4c be 23 a2 28 be 90 c2 2e 3e 79 e7 40 3e
       -0.20003085 -0.164681 0.17066407 0.188383
000120 c6 cf 1c 3e 6b a3 04 3e 16 33 6e 3d 61 0e eb bd
       0.15313634 0.12952964 0.058154188 -0.11477352
000130 51 b7 86 bd 80 bb 80 be 9f b3 0b be ab 07 83 be
       -0.065779336 -0.2514305 -0.13642739 -0.25591788
000140 c2 68 b7 3d 77 3b 73 bd 94 8a 92 bc 0b 0f d7 3d
       0.08955528 -0.059382882 -0.017888345 0.10500916
000150 69 db 86 3d ed bc 7a 3c 94 d7 06 3d 6c d4 9d 3d
       0.06584818 0.0153038325 0.032920435 0.07706532
000160 19 c0 bc bd d5 47 8b 3d 4f 16 ba 3c fb d7 06 3e
       -0.09216327 0.0680081 0.022715716 0.13168328
000170 4e d9 18 3d 2a 3e b1 3c 30 05 1b bc 5e b4 40 bd
       0.037316613 0.021636087 -0.009461686 -0.04704701
000180 43 30 9f 3d 29 f2 8d 3d 7b 15 99 3c a7 b3 11 3e
       0.07772877 0.06930954 0.018687 0.14228688

third_cons3_filterlist.1.weight f4 [1, 4, 5, 5]
000000 99 32 37 3b 5f 1b 6a 3c 58 8e 4b 3e 79 0c 0d 3e
       0.0027953743 0.014288752 0.19878519 0.13774289
000010 80 14 35 3e 7a a4 97 bd 4d 20 92 bd 3d d8 92 3d
       0.17683601 -0.07404418 -0.07135067 0.071701504
000020 82 23 1e 3d 13 cc b2 bc 10 4b c4 bc 6c 2e 45 be
       0.03860808 -0.021825826 -0.023961574 -0.1925599
000030 bb ca 01 be 66 61 08 be 52 62 2b be fc 9d 1b bd
       -0.12674992 -0.13318405 -0.16736725 -0.037992463
000040 fc bc 0d bd fd 00 03 bd 29 66 07 be 72 e5 16 be
       -0.034604058 -0.031983364 -0.13222565 -0.14735964
000050 8f 3f 9d bd dd bd 58 be e5 36 fe bd 0c 9d 4c be
       -0.076781385 -0.21166177 -0.12412814 -0.19981784
000060 92 e1 2f be d3 03 1e 3e c7 eb 6e 3d 7c 03 bb bd
       -0.17175892 0.15431146 0.058330324 -0.09131524
000070 e4 a6 29 3c 16 97 d1 bd 20 02 fb 3c 66 c9 89 3c
       0.010354731 -0.102338955 0.030640662 0.016819667
000080 8d 34 21 3d d1 67 94 bc 6f 65 7f 3c 60 ef 4a 3a
       0.039356757 -0.01811591 0.0155881485 0.0007741358
000090 61 07 00 3d 0a c9 39 3c 94 72 9d 3d b6 fa 3e bd
       0.031257037 0.011339435 0.0768787 -0.046625815
0000a0 de 08 02 be a4 30 3c be b3 30 be bb fe 75 72 bd
       -0.12698695 -0.1837793 -0.0058041452 -0.059194557
0000b0 6d 94 2b be fd 64 d2 bd 18 db 74 be 9d c8 3d be
       -0.16755839 -0.10273168 -0.23911703 -0.18533559
0000c0 7c dd 49 bd 94 07 42 be 61 1e 84 3d 6b 1c 07 3e
       -0.04928349 -0.18948203 0.06451107 0.13194434
0000d0 c8 b8 bd 3c 0f c6 53 3e ff 8b 26 3d f0 34 7f 3c
       0.0231594 0.20681022 0.040660854 0.015576586
0000e0 10 03 30 3d e0 88 01 3d ff 80 b8 3c 99 7c 7a 3d
       0.04297167 0.031624675 0.022522448 0.06115398
0000f0 1b 2f 22 be b4 17 a7 bd 80 ea 05 be e0 71 bc 3b
       -0.15838282 -0.08158818 -0.13077736 0.0057508796
000100 3b ce de bd d2 76 46 be aa d8 86 bd 58 e8 42 be
       -0.10879179 -0.19381264 -0.06584294 -0.19033945
000110 71 b7 72 bd d6 81 2e be 66 50 de bd 9e 2f 10 bd
       -0.059256975 -0.17041716 -0.108551785 -0.03520166
000120 ff 0e 5b be e0 c5 6f be 9a 60 82 bd 60 ec 2b bd
       -0.2139244 -0.23415327 -0.063660815 -0.04197347
000130 8b 90 ec bd a5 10 5a bd 12 7f 35 3c d6 40 21 be
       -0.11551007 -0.05323853 0.011077659 -0.15747389
000140 7b b4 1d bd df 34 59 bc 08 13 c7 bd e3 d8 0c be
       -0.038502198 -0.013257234 -0.09720427 -0.1375461
000150 6c 8f 36 bb 98 3f 7c bd ed 0f f0 bb 25 49 27 bd
       -0.0027856482 -0.061584085 -0.0073261173 -0.04084124
000160 8b c0 bf bc 9e a4 a4 3c ba a2 a0 bd b0 bf 27 bd
       -0.023407241 0.020098027 -0.07843538 -0.04095429
000170 b4 29 08 bd 14 92 8e 3c 35 83 f2 3b 82 01 76 bc
       -0.033242896 0.01740364 0.007400895 -0.015015008
000180 18 95 ae bd d9 78 14 bd 3a f4 c1 bd 4f d3 6e 3c
       -0.08524531 -0.03624806 -0.09470411 0.014576747

third_cons3_filterlist.2.weight f4 [1, 4, 5, 5]
000000 a2 67 ca bd 31 00 c4 bd 42 8b 9b bc fe 0e 20 bd
       -0.09883048 -0.09570349 -0.018987302 -0.039076798
000010 5a a0 ff 3d 0f c6 0b 3e 9f 4e 12 3d 95 cc 75 bd
       0.124817565 0.13649772 0.03571951 -0.060009558
000020 27 bd 10 3d a7 88 ce 3d c6 8b 04 be 88 99 85 bb
       0.03533664 0.10084658 -0.12943944 -0.0040771402
000030 81 f0 a8 bd 65 fa 56 bd e9 94 d8 bd 62 bf 43 bd
       -0.082489975 -0.05248489 -0.10575277 -0.04778994
000040 cd c8 1f bd e7 81 d1 3c 0c 8f d9 3d 37 08 bf bc
       -0.039009858 0.025574638 0.10622987 -0.023319347
000050 9b c0 d3 3c 16 02 5f bd 51 ee 3f be 59 19 12 bd
       0.025848677 -0.05444535 -0.18743254 -0.035668705
000060 ac 77 4b bc cd 21 20 bd 4c 29 93 3d e8 51 2b 3e
       -0.012418669 -0.039094735 0.07185611 0.16730464
000070 ba 3d d8 bd 83 44 98 ba f3 cd ec bd 09 25 0d 3e
       -0.105586484 -0.0011617098 -0.11562719 0.13783659
000080 5b 49 6a 3e 4b f6 90 3b a0 f9 2c 3d ce 1b b0 be
       0.22879545 0.0044238917 0.04223025 -0.34396213
000090 de 72 98 3c ba b9 57 bc 47 d7 c2 bd ad c5 cb bd
       0.01860946 -0.013166839 -0.09513717 -0.09949813
0000a0 90 1a c9 bd d5 97 90 3d 84 94 41 3a 98 5d 69 3e
       -0.098195195 0.0706021 0.0007384496 0.2278961
0000b0 b5 f7 79 3e 61 92 7a bd ba d3 4d bd 42 4b 09 bc
       0.24410899 -0.061174754 -0.050250746 -0.008379759
0000c0 2d 5b cd 3d 8d 10 f5 3c 8f 08 e7 3d 00 dc bd bd
       0.10027156 0.029915119 0.11280929 -0.09270477
0000d0 e7 88 44 bd 4f 9d 45 bd 33 fd 0f be bd 69 dd bd
       -0.047982123 -0.048245724 -0.14061432 -0.108111836
0000e0 1d 3e b0 bb 37 17 a2 3d e8 d9 bd bd 65 56 86 bd
       -0.005378498 0.07914584 -0.09270078 -0.06559447
0000f0 ab 0c 08 3d 24 fe af 3b 48 4c ee 3d d0 e8 60 3e
       0.033215206 0.005370872 0.11635643 0.21963811
000100 2b 17 20 3e 15 ea f2 3d 32 17 c9 bd 60 bf ed 3d
       0.15633838 0.11861054 -0.09818877 0.116087675
000110 8b 5a 57 3e ad 1f 13 3d c0 32 e8 bd cd 24 06 be
       0.21030633 0.03591888 -0.11337805 -0.13099976
000120 ec 97 69 3d 8e 38 93 3b 83 0f 3f bd 39 77 9c bc
       0.05702965 0.004492826 -0.046645653 -0.019099819
000130 ed b9 5f 3d 41 24 41 bb b7 50 aa 3c bf c5 44 3d
       0.054620672 -0.0029471072 0.020790441 0.048040148
000140 93 dc 84 3d 73 c7 98 3d fe 8d a5 bd 59 a5 a5 3c
       0.06487384 0.07459917 -0.080837235 0.020220445
000150 e3 95 af bd 01 c9 ad bd f3 eb 01 3e 40 b6 80 3d
       -0.085735105 -0.08485604 0.12687664 0.062847614
000160 11 fe 29 be c1 19 b8 3c 29 19 3a bd 67 93 7d 3d
       -0.16600825 0.022473218 -0.04543415 0.061908152
000170 3f 05 ae 3a 9f 90 29 bd ab 03 6c bd 5f 54 fe 3d
       0.001327671 -0.041397687 -0.057620686 0.12418436
000180 95 b3 80 bd db 4d b8 3d 14 75 fd 3d ba c3 35 bc
       -0.062842526 0.08999225 0.123758465 -0.011094028

fourth_last1_filterlist.0.weight f4 [1, 6, 5, 5]
000000 8e 8a 86 3e 7c 4d 1c 3e 70 ec 9f bd d9 86 f0 bd
       0.26277584 0.15263933 -0.07808769 -0.1174447
000010 35 dc 98 bc 74 39 de 3d 36 93 a4 3d b2 d9 27 be
       -0.01865969 0.10850802 0.08035891 -0.16391638
000020 73 46 d9 bd 50 71 0c be 16 a2 52 3d df 52 48 3d
       -0.1060914 -0.137151 0.05142411 0.048907157
000030 90 60 60 bc 39 83 21 be 6a 11 19 be 55 cc 24 bd
       -0.013694897 -0.15772714 -0.14948049 -0.04023393
000040 8a 88 c1 bd d3 c3 54 bd cf a2 c4 3c da 67 9e bd
       -0.09449871 -0.051944565 0.024003414 -0.07734652
000050 ad 0c cc bd d1 98 5b bc c3 6c 66 3d e0 be 85 3d
       -0.09963355 -0.0134031335 0.056256067 0.06530547
000060 5a 6d 12 be d4 42 b1 3d c4 71 f4 3d 04 64 13 3d
       -0.14299527 0.086553246 0.119357616 0.035984054
000070 0d 5f 9b 3c 40 e7 42 bd bc 9a 22 3e 10 01 22 bc
       0.018966222 -0.04758382 0.15879339 -0.009887949
000080 93 92 91 bd 62 0a d9 bd 8b 4d 89 bd 55 96 35 3e
       -0.07108035 -0.105976835 -0.06704243 0.17733128
000090 f2 93 9a 3c a3 2a 55 bc e1 f3 21 bd 09 1b 15 be
       0.018869374 -0.013010654 -0.03953922 -0.14561094
0000a0 67 40 0f 3e ef 29 04 3e 0d 0e 3d 3d 27 91 66 bd
       0.13989411 0.12906621 0.046155978 -0.05629077
0000b0 5f 41 24 bd c2 0d fa 3d 86 78 0e bd 3c 54 3d 3d
       -0.040101405 0.12209655 -0.03478291 0.04622291
0000c0 1c 75 b3 bc 73 4c 0d be 72 4f 09 3e f4 04 80 3d
       -0.021906428 -0.13798694 0.13409212 0.06250945
0000d0 d9 35 a1 3d a0 52 75 bd 3a 75 fe 3d 8c 18 b7 3d
       0.07871599 -0.05989325 0.12424703 0.08940229
0000e0 00 32 11 bd 7e a9 63 3d 45 a4 34 bd 5e 42 49 3d
       -0.035448074 0.055581562 -0.044101972 0.04913556
0000f0 15 22 91 3d 75 b4 79 3d 15 36 aa bd b2 4d d1 bd
       0.07086579 0.060963113 -0.083110966 -0.10219897
000100 d2 34 0b 3d b6 5f ca bd a3 33 98 bc e7 8e c7 bd
       0.03398592 -0.09881537 -0.01857931 -0.09744053
000110 c7 0a 63 be 33 01 f5 3c 11 af d3 3c 12 d0 12 3e
       -0.2217208 0.029907798 0.025840314 0.14337185
000120 cb fa ca bd be 1a f4 bd bf f3 b9 3d ea 5a 28 bd
       -0.09911116 -0.11919163 0.09079694 -0.041102327
000130 db 41 a4 bd 27 c5 91 3d c9 e6 cd bd fb 3d 8e bc
       -0.080203734 0.07117682 -0.100537844 -0.017363539
000140 12 e5 f6 3a 02 f9 d3 bd 40 13 3c bd 37 84 f7 b8
       0.0018836579 -0.10350229 -0.045916796 -0.00011802505
000150 1e ce 4d bd 51 6a 17 bd 2d d9 05 bc 60 b2 03 be
       -0.050245397 -0.036966626 -0.0081694545 -0.12861013
000160 5a 20 9c bd 40 cb 0b 3e 67 f6 87 3c 76 d3 bd bd
       -0.07623358 0.13651752 0.016596986 -0.092688486
000170 88 8b bb bc f6 19 f3 bd d0 83 bd bc f5 b3 3f bd
       -0.022893682 -0.11870186 -0.023134142 -0.04680248
000180 a1 b6 38 bc 16 a9 97 bd 03 2a 24 be 32 07 c0 bd
       -0.011274011 -0.074052975 -0.16031651 -0.093763724
000190 89 d1 04 3e b8 cc f4 bd 6a 3b 87 3d 56 7b 5a bd
       0.12970556 -0.119531095 0.06603129 -0.05334028
0001a0 83 fd a1 bd a4 af 5e 3e 91 8a 95 3c 0b ea f7 bc
       -0.07909682 0.21746689 0.01825455 -0.030262968
0001b0 d5 f9 cd bd 0d 46 c9 bd 90 28 77 3e 66 b4 cc 3b
       -0.10057417 -0.09827814 0.24136567 0.006247091
0001c0 e9 6e 93 bd 43 59 3f be 4d 71 00 be 04 67 d0 3d
       -0.07198889 -0.18686394 -0.12543221 0.10175899
0001d0 75 ad dc 3d 84 5a 99 bd 50 79 81 bd 29 ea 81 bd
       0.10775272 -0.074879676 -0.06321967 -0.06343491
0001e0 51 89 14 3e 24 b0 90 bc 1a e8 19 bd b7 4f 9a bd
       0.14505507 -0.017662115 -0.037574865 -0.07534736
0001f0 ac e5 23 be ee 3c d7 bd 6f b3 77 3c 50 e7 24 be
       -0.16005582 -0.10509668 0.015118464 -0.16103864
000200 13 2e 46 be b0 3b 02 bd 1e 3a 6b bc 94 cc 8a 3d
       -0.19353513 -0.031795204 -0.014357118 0.067773014
000210 e6 6f 48 bd c1 ef 57 bd e0 25 89 3d 43 bd 03 be
       -0.04893484 -0.05271888 0.06696677 -0.12865166
000220 fb 71 64 3d 32 82 9e 3d 54 c7 83 3c 4e 3d e2 3d
       0.055772763 0.077396765 0.016086258 0.11046849
000230 c5 6a d1 bd 54 78 7d bd e5 77 8f bd 66 25 82 bc
       -0.10225443 -0.061882332 -0.0700529 -0.015886974
000240 81 c1 0d 3d 9b af b9 bd f0 cd 12 3d 87 31 e7 3c
       0.034608368 -0.09066697 0.03584093 0.028221859
000250 93 a1 10 bc 1e 32 a8 3d
       -0.008827585 0.08212684

bn2.weight f4 [16]
000000 c0 65 73 3f dc fc 46 3f e7 40 8d 3f 34 1a 73 3f
       0.95077133 0.7772958 1.1035432 0.9496186
000010 70 a5 85 3f 46 1c 83 3f 76 3c 80 3f 3a 52 88 3f
       1.0441113 1.0243003 1.0018451 1.0650094
000020 84 38 5c 3f fc 6a 83 3f 2d 58 80 3f 5d 2a 91 3f
       0.86023736 1.0267024 1.0026909 1.1341053
000030 b6 28 91 3f 15 d4 88 3f 00 14 6c 3f 81 74 81 3f
       1.1340549 1.0689722 0.9221802 1.0113679

bn2.bias f4 [16]
000000 54 d6 f5 bd fc f5 36 be f2 77 7c be ac 81 33 bd
       -0.120037705 -0.17867273 -0.2465513 -0.043824837
000010 e7 cf 12 be 00 87 65 bc 44 31 ad be 2d 0d 24 be
       -0.14337121 -0.014009237 -0.3382665 -0.16020651
000020 89 88 11 be a1 86 7c be 5e 33 17 be 07 78 2e be
       -0.1421224 -0.24660732 -0.14765689 -0.17037974
000030 5b de c8 be 84 bc 8a bd 74 09 81 bd 39 6f 5e be
       -0.39232144 -0.06774238 -0.06300631 -0.21722116
