models/2.pth (torch_old, 252400 bytes, 36 tensors)

c1.weight f4 [6, 3, 5, 5]
0	0x3dd84d6c	0.10561642
1	0x3d897647	0.06712013
2	0xbc4d572c	-0.01253299
3	0x3a1480bf	0.00056649366
4	0xbd7a8f4c	-0.061171815
5	0x3de09c3b	0.109672986
6	0x3d742e23	0.059614312
7	0x3db666ad	0.089063026
8	0x3d6c276b	0.05765478
9	0xbc3c3ecd	-0.011489582
10	0x3d3bf47c	0.045887455
11	0x3db1f544	0.08689359
12	0x3c8b6328	0.017015055
13	0x3e032192	0.12805775
14	0xbce4e8fa	-0.027943123
15	0x3cbf8e53	0.023383295
16	0x3d95bf6c	0.073119015
17	0xbdc24c78	-0.094872415
18	0x3bbf45d4	0.0058371816
19	0xbce8d9d2	-0.028424177
20	0x3de94732	0.113905326
21	0x3d075b92	0.033046313
22	0x3d4a1ec1	0.049345735
23	0xbd34a279	-0.04410026
24	0x3ddc21c9	0.107486315
25	0x3dac7654	0.08421007
26	0xbd8b1737	-0.06791537
27	0xbdb2368a	-0.08701809
28	0xbd234585	-0.03986122
29	0xbde6984e	-0.112595186
30	0x3ca4097d	0.020024056
31	0xbdca9e45	-0.09893469
32	0xbaca8cb9	-0.0015453316
33	0xbdebc122	-0.115114465
34	0xbe00a52b	-0.12563007
35	0xbdf6dd69	-0.120539494
36	0x3d09a927	0.033608582
37	0xbdbc2075	-0.09185878
38	0x3c23f8f5	0.010008086
39	0x3935ddd4	0.00017344143
40	0x3cdc282b	0.026874622
41	0xbcf4d720	-0.029887736
42	0x3db4a4a1	0.08820463
43	0xbc85b0b8	-0.016319618
44	0xbded8b5f	-0.115988486
45	0x3cfc0b0b	0.030766984
46	0xbd099eee	-0.033598833
47	0xbcfe7235	-0.031060318
48	0x3d8472f2	0.064672366
49	0x3cbc5088	0.022987619
50	0x3da769ad	0.08174453
51	0xbd1b590c	-0.03792672
52	0xbdce8f3e	-0.10085915
53	0xbdc3dd57	-0.095637016
54	0x3d098846	0.033577226
55	0x3ccaa1c4	0.024735339
56	0xbd7164ba	-0.05893395
57	0xbd46bb2f	-0.048518356
58	0xbb449acb	-0.002999949
59	0xbd86a8fc	-0.065752
60	0x3cc097a0	0.0235098
61	0xbd99ee04	-0.07516101
62	0x3da09703	0.07841303
63	0x3dddd262	0.10831143
64	0x3d04b52c	0.03239934
65	0xbd1027bf	-0.035194155
66	0x3d6d5602	0.05794335
67	0x3d0ed783	0.034873497
68	0xbd8f4b4a	-0.06996782
69	0xbdd1eb30	-0.102499366
70	0x3d57f7d0	0.052726567
71	0xbd1c215d	-0.038117755
72	0xbd69221b	-0.05691729
73	0xbda819c4	-0.082080394
74	0xbca27766	-0.019832324
75	0x3bacb781	0.005270899
76	0xbd9d60e3	-0.07684495
77	0xbcb00f8b	-0.021491786
78	0x3dbca3a4	0.092108995
79	0x3d44bb03	0.04802991
80	0xbd0fd602	-0.035116203
81	0xbdbb2a91	-0.09138978
82	0xbd991301	-0.07474328
83	0x3dce69f6	0.10078804
84	0x3dbe2f1d	0.0928633
85	0xbd2bf061	-0.04197729
86	0xbd3861b7	-0.045015063
87	0xbd89d1ec	-0.067294925
88	0xbd704d12	-0.05866725
89	0x3dd2edde	0.10299276
90	0xbceb11e5	-0.028695056
91	0x3df7bf63	0.12097051
92	0x3de307c9	0.11085469
93	0x3d9c970e	0.07645999
94	0x3b56469d	0.0032695897
95	0x3dd1b5ce	0.102397546
96	0x3d8b8173	0.068118
97	0xbd9d8634	-0.07691613
98	0xbda2936c	-0.07938275
99	0x3d5dfc6d	0.05419581
100	0xbda3f9eb	-0.080066524
101	0xbdd36485	-0.10321907
102	0xbe09105a	-0.13385144
103	0xbd8ace36	-0.06777613
104	0xbd1a9253	-0.037737202
105	0x3deb8ae7	0.11501103
106	0x3dedce02	0.116115585
107	0xbba22fe2	-0.0049495557
108	0x3d20638b	0.03915743
109	0x3ccab7fa	0.02474593
110	0x3d7ab118	0.061204046
111	0x3cdd1704	0.026988514
112	0xbd3b61c8	-0.04574755
113	0x3e037c37	0.12840353
114	0xbc8311be	-0.015999671
115	0xbd076ac7	-0.033060815
116	0x3d054b35	0.032542426
117	0x3d9d68a5	0.07685975
118	0xbd9f4d24	-0.07778385
119	0x3dabfbec	0.0839766
120	0x3d56ff95	0.052489836
121	0x3cdb6f70	0.026786536
122	0xbdb0e086	-0.086365744
123	0xbd52a65f	-0.051428195
124	0x3db892fa	0.090124086
125	0x3d8d3cea	0.06896384
126	0xbb0674a8	-0.002051631
127	0x3d076b44	0.03306128
128	0xbcea8dcb	-0.028632065
129	0xbdbfccf2	-0.09365262
130	0xbd4c73ea	-0.04991523
131	0x3d59bc89	0.053158317
132	0xbd76bb63	-0.0602373
133	0x3c96c9c7	0.018406762
134	0x3dd68ea7	0.104764275
135	0xbbbc002f	-0.0057373266
136	0x3b002ae0	0.0019556805
137	0xbd738a09	-0.059457812
138	0x3d8b2d9a	0.06795807
139	0x3da4b88e	0.080430135
140	0xbce58d4f	-0.028021483
141	0x3d0b9fd0	0.034087956
142	0x3d9f4938	0.07777637
143	0xbd743a0d	-0.059625674
144	0x3cf5095b	0.029911688
145	0x3dc69826	0.09696989
146	0x3d9eee02	0.0776024
147	0x3c7f4d45	0.015582387
148	0x3b0aa53d	0.0021155619
149	0xbd65abdc	-0.0560721
150	0x3d5375e8	0.051626116
151	0x3d83661b	0.064159594
152	0x3ab1338a	0.0013519388
153	0x3d213f8f	0.039367255
154	0xbdc3760c	-0.09544
155	0xbd1bfdc8	-0.03808382
156	0xbdb906a6	-0.09034471
157	0x3da7da69	0.08195955
158	0xbcef56c8	-0.029216185
159	0x3dd22297	0.10260504
160	0xbd3ae489	-0.045628104
161	0x3d3952c5	0.04524495
162	0xbdb0a397	-0.08624952
163	0xbda5347e	-0.08066653
164	0xbc65fdec	-0.0140375905
165	0x3a59d5cd	0.0008309752
166	0xbd044ab3	-0.0322978
167	0x3d3b5ca5	0.04574265
168	0xbdbff8e7	-0.09373646
169	0xbddc8f52	-0.10769524
170	0xbd825318	-0.06363505
171	0xbbe9c5ea	-0.007134189
172	0xbca0613c	-0.019577615
173	0xbd34b2c2	-0.04411579
174	0xbdedfc94	-0.11620441
175	0x3d4a5072	0.049393125
176	0x3d9872ed	0.07443795
177	0x3dc58446	0.0964437
178	0x3d54f2a6	0.05198922
179	0x3da3413b	0.07971426
180	0x3d6bde86	0.05758526
181	0x3ced6b7b	0.028981915
182	0x3d37401b	0.04473887
183	0x3dc5d472	0.09659661
184	0xbd03b770	-0.03215736
185	0xbd560b1e	-0.052256696
186	0xbd90c1c0	-0.07068205
187	0xbddf1629	-0.108928986
188	0xbdc13f74	-0.09435931
189	0x3cebbdc2	0.028777007
190	0xbdbecfc4	-0.09316972
191	0xbda89d86	-0.0823317
192	0xbd6c19f5	-0.057641942
193	0xbd21df69	-0.0395197
194	0xbc97d4da	-0.018534113
195	0x3da0e83f	0.078567974
196	0xbdea5ad3	-0.114431046
197	0xbd789774	-0.060691312
198	0x3c5194f7	0.012791864
199	0xbd935572	-0.07194032
200	0x3d11458b	0.035466712
201	0x3dacbdac	0.084346145
202	0xbc55190c	-0.01300646
203	0xbd3aff03	-0.045653354
204	0x3dd3c94b	0.10341128
205	0xbb3291f9	-0.002724765
206	0xbc7958c6	-0.015218919
207	0x3c85d782	0.016338114
208	0xbdc182cf	-0.09448778
209	0x3c97a214	0.018509902
210	0xbcb35223	-0.021889752
211	0xbcdd1139	-0.026985751
212	0x3d8e479e	0.06947254
213	0xbd18748b	-0.03722052
214	0x3d8c5a6a	0.068531826
215	0x3d690d1c	0.056897268
216	0x3c9e94dc	0.019358091
217	0x3cb432ce	0.021996882
218	0x3d1f05d7	0.03882393
219	0xbcb705ee	-0.022341695
220	0xbd34a54a	-0.044102944
221	0x3d66b3d1	0.05632383
222	0xbd87fd45	-0.06640104
223	0x3d99bf3a	0.07507177
224	0xbc9f66a1	-0.019458117
225	0xbca1ed77	-0.019766552
226	0x3d864094	0.06555286
227	0xbdb1e8b2	-0.08686961
228	0x3db246be	0.08704899
229	0x3dba4d71	0.09096802
230	0xbdc494db	-0.095987044
231	0xbcde4ff9	-0.027137743
232	0x3bea9036	0.0071583046
233	0xbc245d47	-0.010032005
234	0xbd740843	-0.05957819
235	0xbe0b18de	-0.13583705
236	0x3b976633	0.0046203374
237	0xbddfc7b6	-0.10926764
238	0x3b089792	0.0020842296
239	0xbdbb5674	-0.09147349
240	0xbc43e6c7	-0.011956877
241	0xbddd41fc	-0.10803601
242	0xbde9d9bd	-0.114184834
243	0x3d3f9518	0.046773046
244	0xbd5de272	-0.054171033
245	0xbbc1e65c	-0.0059173536
246	0xbb007b73	-0.0019604831
247	0x3d96aafb	0.07356831
248	0xbdc56869	-0.09639055
249	0xbe079b3a	-0.13242808
250	0xbd02d811	-0.03194434
251	0xbc26f9fd	-0.010191438
252	0x3d7cdf18	0.061736196
253	0x3e078422	0.13233998
254	0xbd4b3887	-0.049614456
255	0xbdb80bf0	-0.08986652

c1.bias f4 [6]
0	0x3d5fa176	0.05459734
1	0xbdfb7d84	-0.122797996
2	0xbd5562a6	-0.05209603
3	0x3cdd059d	0.026980216
4	0xbd100059	-0.03515658
5	0x393913ee	0.00017650399

bn1.weight f4 [6]
0	0x3f800000	1.0
1	0x3f800000	1.0
2	0x3f800000	1.0
3	0x3f800000	1.0
4	0x3f800000	1.0
5	0x3f800000	1.0

bn1.bias f4 [6]
0	0x00000000	0.0
1	0x00000000	0.0
2	0x00000000	0.0
3	0x00000000	0.0
4	0x00000000	0.0
5	0x00000000	0.0

bn1.running_mean f4 [6]
0	0x00000000	0.0
1	0x00000000	0.0
2	0x00000000	0.0
3	0x00000000	0.0
4	0x00000000	0.0
5	0x00000000	0.0

bn1.running_var f4 [6]
0	0x3f800000	1.0
1	0x3f800000	1.0
2	0x3f800000	1.0
3	0x3f800000	1.0
4	0x3f800000	1.0
5	0x3f800000	1.0

first_cons6_filterlist.0.weight f4 [1, 3, 5, 5]
0	0xbc1ddbd0	-0.009634927
1	0x3dcfaa98	0.1013996
2	0xbc7d0d30	-0.015445039
3	0x3d079578	0.03310153
4	0x3d52dad6	0.05147823
5	0x3da02853	0.07820191
6	0x3df505e6	0.11964016
7	0xbd8e6b46	-0.069540545
8	0x3dec38e6	0.1153429
9	0x3c283eac	0.010268848
10	0xbdc2934b	-0.0950075
11	0x3e0377a5	0.1283861
12	0x3ddc8dbf	0.107692234
13	0x3d99e27a	0.075139
14	0x3d9bed59	0.0761363
15	0xbd2d9689	-0.04237989
16	0xbd9ff3a0	-0.0781014
17	0x3dc8b5c1	0.09800292
18	0x3e037583	0.12837796
19	0x3d74997d	0.05971669
20	0xbdcad4a1	-0.09903837
21	0xbd5f81a8	-0.05456701
22	0x3d8cc891	0.068741925
23	0x3c67046e	0.014100177
24	0xbda7228f	-0.081608884
25	0xbdd37a00	-0.10326004
26	0x3d09e96f	0.033669885
27	0xbded62b3	-0.11591091
28	0xbce8111a	-0.028328467
29	0x3c24c2fc	0.0100562535
30	0xbc5607ef	-0.013063415
31	0x3de3f48a	0.111306265
32	0xbd809e4c	-0.06280193
33	0x3d437612	0.047720022
34	0x3d8686e6	0.065686986
35	0xbd88ff7d	-0.066893555
36	0x3db9c089	0.09069926
37	0x3cf67a45	0.0300876
38	0xbde6a4ba	-0.11261888
39	0x3c733fc6	0.014846748
40	0x3a179bb4	0.00057833944
41	0x3d702785	0.05863144
42	0xbb02e72d	-0.0019974217
43	0x3de383b9	0.111091085
44	0xbd8409cf	-0.06447183
45	0x3dc7c07e	0.09753512
46	0x3d8c23c9	0.06842763
47	0xbe04756d	-0.1293542
48	0x3cd21f52	0.0256497
49	0xbd449e82	-0.048002727
50	0x3cb2c2e2	0.021821443
51	0xbd8ce96d	-0.0688046
52	0xbcce5ea2	-0.025191609
53	0xbbecbdf4	-0.0072247926
54	0xbcc36e94	-0.023856439
55	0x3dadd245	0.08487371
56	0xbc1cd2dc	-0.009571757
57	0xbc3198c1	-0.010839642
58	0xbd7ee3b7	-0.062228885
59	0xbc7eff47	-0.015563793
60	0xbca2b5fc	-0.019862168
61	0x3cbba35e	0.022905048
62	0xbda29d6f	-0.07940184
63	0xbc9e5b4f	-0.019330649
64	0x3d9b62bf	0.07587194
65	0x3c9ca1f0	0.019120187
66	0x3dd43b38	0.103628576
67	0xbda8d84a	-0.08244379
68	0xbc1976e6	-0.0093667265
69	0xbcb3d5a6	-0.021952461
70	0x3df53d38	0.11974567
71	0xbd0ed331	-0.034869377
72	0x3e024c5c	0.12724441
73	0xbd1df1c9	-0.038560662
74	0xbc1dd7a2	-0.00963393

first_cons6_filterlist.1.weight f4 [1, 3, 5, 5]
0	0x3c42bbaa	0.011885563
1	0x3caf7333	0.021417236
2	0xbd17ecc5	-0.037091035
3	0xbdf2e5e5	-0.11860255
4	0x3cb200a5	0.021728823
5	0x3c8f2ac3	0.017476445
6	0x3c87dcf0	0.016584843
7	0xbd723540	-0.059132814
8	0x3d663b35	0.056208808
9	0xbd008d3c	-0.03138469
10	0x3dee4785	0.11634735
11	0x3dcc48d3	0.099748276
12	0x3d3d2617	0.046178903
13	0x3ccbf0b9	0.024895059
14	0x3e099fcd	0.13439865
15	0x3caa4e3f	0.020789264
16	0x3d9e9a76	0.07744305
17	0x3cf81581	0.030283691
18	0x3dd459d2	0.10368694
19	0x3e10bb6f	0.14134
20	0xbd8f7e3b	-0.070064984
21	0x3d30794d	0.04308443
22	0xbbccff91	-0.006256052
23	0x3dc5c85a	0.09657355
24	0xbdc0a306	-0.09406094
25	0xbd9ebf9c	-0.0775139
26	0x3dd19d2f	0.102350585
27	0x3d9012d6	0.07034843
28	0x3d17f36e	0.037097387
29	0xbd17e1ca	-0.037080564
30	0x3ccba3b5	0.024858335
31	0xbd8fe831	-0.07026709
32	0xbd256128	-0.04037586
33	0x3d3aa643	0.045568716
34	0xbdba410d	-0.09094439
35	0xbe00c218	-0.12574041
36	0xbc851bbc	-0.016248576
37	0xbd89daee	-0.06731211
38	0xbd25ad73	-0.040448617
39	0xbe071159	-0.13190211
40	0xbcc54d20	-0.024084628
41	0x3d313d80	0.04327154
42	0xbd1db442	-0.038501985
43	0xbcc3b878	-0.023891672
44	0x3c0ffd21	0.008788378
45	0x3cab1ba6	0.020887207
46	0x3e07b16f	0.1325128
47	0xbdba0e6f	-0.09084784
48	0xbd5c8eb6	-0.053847037
49	0xbdacf59f	-0.08445286
50	0x3d61720e	0.05504041
51	0x3dddf93d	0.10838554
52	0x3d101cc3	0.03518368
53	0x3d76cbfb	0.060253125
54	0x3dbf1f8f	0.09332191
55	0xbd829712	-0.063764706
56	0xbd18db39	-0.037318442
57	0xbd8676d7	-0.06565636
58	0xbbd03dd4	-0.0063550267
59	0x3d954376	0.07288258
60	0xbd0e1b6a	-0.034694113
61	0xbe10ed4a	-0.14153019
62	0x3c7f1441	0.015568794
63	0xbd3e3997	-0.04644164
64	0xbe1ff7fe	-0.15621945
65	0xbd394f6a	-0.04524175
66	0x3cb692cd	0.022286797
67	0xbc81c691	-0.015841754
68	0xbe0527d0	-0.13003469
69	0xbd80b4fc	-0.0628452
70	0x3d9c06d9	0.076184936
71	0xbde3612a	-0.11102517
72	0x3da25f4f	0.07928335
73	0xbd52147a	-0.05128906
74	0xbd2d02f1	-0.042239133

first_cons6_filterlist.2.weight f4 [1, 3, 5, 5]
0	0x3c286b20	0.010279447
1	0x3db12acb	0.0865074
2	0x3d8a8ce4	0.06765154
3	0x3cdaa7e8	0.026691392
4	0x3c6f2832	0.014596986
5	0xbdaf4094	-0.08557239
6	0xbd626357	-0.05527052
7	0xbd966f48	-0.07345444
8	0x3d4323af	0.047641452
9	0x3d8fd088	0.07022196
10	0xbb6b70e0	-0.0035925433
11	0x3d5dece7	0.054181006
12	0xbd04a425	-0.032383103
13	0x3cd41ff0	0.025894135
14	0x3cf27be3	0.02960009
15	0xbda1ed36	-0.079065725
16	0x3db94d17	0.09047907
17	0xbcd1c0c9	-0.025604622
18	0x3dd18400	0.10230255
19	0xbd0441eb	-0.032289427
20	0x3d78c3b3	0.06073351
21	0x3d486bc6	0.048930906
22	0xbd846862	-0.06465222
23	0xbd182cc2	-0.03715206
24	0x3d2f3a4a	0.0427802
25	0xbcad95fa	-0.021189678
26	0xbdf8fc56	-0.12157504
27	0xbc437d77	-0.011931769
28	0xbda83525	-0.082132615
29	0x3da0bc55	0.078484215
30	0x3da133c6	0.07871203
31	0x3dc5003b	0.096191846
32	0xbcc9ac96	-0.024618428
33	0xbd9a3ee3	-0.07531526
34	0xbcefb319	-0.029260205
35	0x3dce879b	0.100844584
36	0x3b7fc531	0.0039027447
37	0x3cb43fcc	0.022003077
38	0x3d52a4dd	0.051426757
39	0xbd82d5b5	-0.06388418
40	0x3dcc4e02	0.09975816
41	0x3cff6e87	0.031180633
42	0xbc870db4	-0.016486026
43	0x3d9c2a99	0.07625312
44	0x3d23a189	0.039948974
45	0xbbf1f241	-0.0073836152
46	0xbdbfc7c3	-0.093642734
47	0x3cde2e29	0.02712162
48	0x3d62a456	0.055332504
49	0x3d84931a	0.0647337
50	0x3e00a6c5	0.12563618
51	0x3d61c194	0.05511625
52	0x3c02d7a4	0.007985983
53	0xbb1e4743	-0.0024151362
54	0xbde86139	-0.11346669
55	0xbbb5fdc4	-0.005553933
56	0xbab26846	-0.0013611398
57	0xbd80889b	-0.062760554
58	0xbdc459c4	-0.09587434
59	0x3dbbd6e8	0.091718495
60	0x3d277b4f	0.04088908
61	0xbdfc58ad	-0.12321601
62	0xbe0e6efe	-0.13909528
63	0xbd8f7261	-0.07004238
64	0x3cf7e44f	0.030260233
65	0x3d0229fe	0.031778328
66	0xbd680760	-0.05664766
67	0xbe1043ec	-0.1408841
68	0xbdedcf06	-0.11611752
69	0xbd6db84a	-0.05803708
70	0x3a73625d	0.00092843716
71	0x3d2df73a	0.0424721
72	0xbdb407de	-0.08790563
73	0x3cd6e2d4	0.026231207
74	0x3d752e7d	0.059858788

first_cons6_filterlist.3.weight f4 [1, 3, 5, 5]
0	0x3dd2b96b	0.10289272
1	0x3db7f2e9	0.08981878
2	0x3da60ab9	0.08107514
3	0xbd972129	-0.07379372
4	0x3da7f3ce	0.08200799
5	0xbd847bd7	-0.06468933
6	0x3df2413e	0.1182885
7	0xbda4090e	-0.080095395
8	0xbd91a8c1	-0.071122654
9	0x3def52c9	0.11685712
10	0xbb6c65ee	-0.0036071497
11	0xbd3660eb	-0.044526022
12	0x3de65ff6	0.11248772
13	0xbdccc3fb	-0.09998318
14	0xbdeaf1e6	-0.1147192
15	0xbc889e12	-0.016676936
16	0x3ba3bdc4	0.004996987
17	0xbd6d17c2	-0.057883985
18	0x3db47b2b	0.08812555
19	0xba2eb87e	-0.0006665065
20	0xbd91ac3d	-0.0711293
21	0x3c6e8926	0.014559066
22	0xbd8c8ec5	-0.068631686
23	0xbd80a376	-0.06281178
24	0xbd8c70e9	-0.068574734
25	0x3d17262c	0.036901638
26	0x3dc35194	0.09537044
27	0xbdd24083	-0.10266211
28	0xbdf7d3ab	-0.12100919
29	0xbdb6630b	-0.0890561
30	0x3dcf3635	0.10117761
31	0x3dd89345	0.105749644
32	0x3b1f4f94	0.0024308907
33	0xbd8c9d48	-0.068659365
34	0xbd447f05	-0.047972698
35	0xbdb90e64	-0.09035948
36	0xbcf60724	-0.030032702
37	0x3d39341e	0.04521572
38	0xbe09c9d9	-0.13455905
39	0xbe243449	-0.1603557
40	0xbdf41ec6	-0.11919932
41	0xbcd1d9c5	-0.025616536
42	0xbc9e37ff	-0.01931381
43	0x3da493b0	0.08035982
44	0xbdc9f3c2	-0.09860946
45	0xbd160e8c	-0.036634967
46	0x3cc307cf	0.023807434
47	0x3c8d4426	0.01724441
48	0xbdc605e0	-0.09669089
49	0x3d74e183	0.059785377
50	0x3dd781ab	0.10522779
51	0xbd931b19	-0.07182903
52	0x3d853098	0.06503409
53	0xbd3ba7ca	-0.045814313
54	0x3d7a5434	0.06111546
55	0xbc46fbe8	-0.01214502
56	0x3c8a3a02	0.016873363
57	0x3d272c01	0.04081345
58	0x3c605803	0.013692859
59	0x3df46aaa	0.11934407
60	0xbadf4a82	-0.0017035755
61	0x3c25149e	0.010075716
62	0x3d3e1e9b	0.046415906
63	0xbd3999b0	-0.045312583
64	0x3dfd2efd	0.12362478
65	0x3d905492	0.070473805
66	0x3d2a5f6e	0.041594915
67	0x3d462dd1	0.048383538
68	0xbc9e5421	-0.019327225
69	0x3b724416	0.0036966852
70	0xbd965d12	-0.073419705
71	0x3d193241	0.03740144
72	0x3dc8d4c0	0.09806204
73	0x3cde5eae	0.027144756
74	0x3c503675	0.012708296

first_cons6_filterlist.4.weight f4 [1, 3, 5, 5]
0	0xbdb4b9ca	-0.08824499
1	0xbd0fe3fd	-0.035129536
2	0x3d6e648c	0.058201358
3	0xbce1f86e	-0.02758428
4	0x3d168c1e	0.03675472
5	0x3d87f4fd	0.06638525
6	0x3d72350b	0.059132617
7	0x3dfd9c1f	0.12383293
8	0x3d6559ba	0.055993773
9	0xbc335650	-0.0109458715
10	0x3c1df7ec	0.009641629
11	0xbd0f7fba	-0.03503392
12	0xbd83f6ef	-0.06443583
13	0x3e069135	0.1314133
14	0xbd76f3aa	-0.06029097
15	0x3d3cf6bb	0.046133738
16	0x3d36e63e	0.04465317
17	0x3db8bf00	0.09020805
18	0x3ddf706d	0.109101154
19	0xbd059abe	-0.032618277
20	0x3deefa64	0.11668852
21	0x3d644eb4	0.05573912
22	0xbd1b6452	-0.03793747
23	0x3b25a148	0.0025273133
24	0xbce626d0	-0.02809468
25	0x3d07ef9f	0.033187505
26	0xbdbd70cd	-0.09250031
27	0x3dd97085	0.106171645
28	0xbd041595	-0.032247145
29	0x3d96460d	0.0733758
30	0xbdb9227e	-0.09039782
31	0x3dde8941	0.10866023
32	0x3dcf6a84	0.10127738
33	0xbd954860	-0.07289195
34	0xbd4179e2	-0.047235377
35	0xbc94b1b1	-0.018151136
36	0x3d725d28	0.059170872
37	0x3dab11c7	0.08353
38	0xbd4c6e76	-0.04991003
39	0xbd0fb4dd	-0.035084594
40	0x3d17a3b5	0.037021358
41	0x3dca4710	0.09876835
42	0x3e009a4b	0.12558858
43	0x3da21245	0.07913641
44	0x3ca498ee	0.020092454
45	0xbd70888d	-0.058723975
46	0x3db54393	0.088507794
47	0x3dc50b14	0.096212536
48	0xbdee71f6	-0.1164283
49	0xbd9ce204	-0.076602966
50	0x3ce246de	0.027621683
51	0xbdca02ac	-0.09863791
52	0x3cd9a31f	0.02656704
53	0xbdbe9638	-0.09305996
54	0xbddfef18	-0.109342754
55	0x3cac7c3b	0.021055331
56	0xbe0ea49d	-0.13929982
57	0x3db34d62	0.08754994
58	0xbd084eed	-0.033278394
59	0xbdac8ffb	-0.084258996
60	0xbd9d7c98	-0.0768978
61	0x3d567c06	0.05236437
62	0xbd09fe0c	-0.033689544
63	0xbd464202	-0.048402794
64	0xbdc7a122	-0.097475305
65	0xbcdd7d8a	-0.0270374
66	0xbd2d505d	-0.04231297
67	0xbda4da92	-0.080495015
68	0x3d81f8cf	0.063462846
69	0xbd692c01	-0.05692673
70	0x3d91b0e9	0.07113821
71	0xbda40a68	-0.08009797
72	0xbc7e7d8c	-0.015532862
73	0xbd656f8e	-0.05601459
74	0x3c0f183c	0.008733805

first_cons6_filterlist.5.weight f4 [1, 3, 5, 5]
0	0x3bb27bfc	0.005446909
1	0xbde44e27	-0.11147719
2	0xbdbdc262	-0.09265591
3	0x3dc874db	0.097879134
4	0x3ccd8fa3	0.025092905
5	0xbd749bcb	-0.05971889
6	0xbcfccebb	-0.030860296
7	0x3ce7c1e8	0.028290704
8	0xbdbf7f0d	-0.09350405
9	0xbdc683fe	-0.09693144
10	0x3da709f0	0.08156192
11	0xbd64777d	-0.055778015
12	0x3cdfac6a	0.027303893
13	0xbd97d5c0	-0.074138165
14	0x3d600df5	0.05470081
15	0xbda0f5a0	-0.07859349
16	0xbd8398ca	-0.064256266
17	0xbe097b67	-0.1342598
18	0xbe036b35	-0.12833865
19	0x3d38d91f	0.045128938
20	0x3d4a9936	0.04946252
21	0xbd82abfb	-0.06380459
22	0x3d89ddc1	0.06731749
23	0x3cac847e	0.021059271
24	0xbd167bf9	-0.036739323
25	0xbbc0cc95	-0.005883763
26	0x3d19c7a9	0.037543926
27	0x3d8e3b2e	0.069448814
28	0xbd1713a6	-0.036883973
29	0x3bc61910	0.006045468
30	0xbd269e0d	-0.040678073
31	0xbdc51d6b	-0.09624752
32	0xbd6a98b4	-0.057274535
33	0x3c593a86	0.013258582
34	0xbcee6c9d	-0.029104525
35	0x3dc6699e	0.09688114
36	0x3da124f9	0.0786838
37	0x3c9b0bb4	0.018926479
38	0xbdcb7c97	-0.09935873
39	0x3ddbd308	0.107336104
40	0x3dc695e7	0.0969656
41	0x3d081c1c	0.033229932
42	0x3d4564aa	0.048191704
43	0x3dda1990	0.10649407
44	0x3a2d1654	0.00066027534
45	0x3d9d735a	0.07688017
46	0x3dc19aff	0.09453391
47	0xbdc4d8ac	-0.096116394
48	0xbdd157ce	-0.102218255
49	0x3d3c0fce	0.04591351
50	0x3de0e346	0.10980849
51	0x3d5dd382	0.054156788
52	0x3df0af11	0.11752141
53	0xbda2506b	-0.07925495
54	0x3e0825bb	0.13295643
55	0x3d0d8651	0.034551922
56	0xbc1ad5b3	-0.009450364
57	0x3df89418	0.12137622
58	0x3d6e606f	0.058197435
59	0x3dccd4bf	0.100015156
60	0xbcbb4627	-0.0228606
61	0x3d62617d	0.055268753
62	0x3c884c77	0.016638024
63	0x3dc89e56	0.09795825
64	0xbd814470	-0.063118815
65	0x3d8b1144	0.067904025
66	0x3d8bc51c	0.06824705
67	0x3d518b2d	0.05115812
68	0xbdc27cdd	-0.09496472
69	0x3e0053d3	0.12531976
70	0xbd4ffbd7	-0.050777283
71	0xbcd4a5af	-0.02595791
72	0x3dd8e818	0.10591143
73	0xbc2b98fa	-0.010473484
74	0xbdc213e4	-0.0947645

second_cons6_filterlist.0.weight f4 [1, 4, 5, 5]
0	0x3dc0a921	0.09407259
1	0x3daa113a	0.08304067
2	0xbd435a48	-0.04769352
3	0xbdf42f08	-0.11923033
4	0x3d441882	0.047874935
5	0x3c0c1b12	0.008551376
6	0x3d970124	0.073732644
7	0xbdc256fc	-0.09489247
8	0xbdedca93	-0.116109036
9	0xbdc0eea9	-0.09420521
10	0x3c94abd4	0.01814834
11	0x3c27020e	0.010193361
12	0xbc153668	-0.00910721
13	0x3d31a67e	0.04337167
14	0x3d6c39ba	0.05767224
15	0x3d235c36	0.03988286
16	0xbd264f5e	-0.040603034
17	0x3d2bb9b1	0.041925136
18	0x3d8af75e	0.06785463
19	0x3cf8a4c6	0.030352008
20	0xbd5f72a7	-0.0545527
21	0xbcce789a	-0.025203992
22	0xbdd3dcb0	-0.10344827
23	0xbd03ef67	-0.032210734
24	0xbabbc569	-0.0014325801
25	0xbd426e83	-0.047468673
26	0xbd6ab0c9	-0.0572975
27	0x3be5c7f5	0.007012362
28	0xbd978243	-0.07397892
29	0xbdde4905	-0.10853771
30	0x3dc44a2b	0.09584459
31	0xbcbc02e5	-0.022950599
32	0x3c8309ee	0.015995946
33	0x3bd2a293	0.0064280718
34	0xbd6c7442	-0.05772806
35	0x3df9fe5a	0.12206717
36	0x3ca533da	0.020166326
37	0x3de19144	0.11014035
38	0x3c892839	0.016742812
39	0x3bca4de7	0.0061738375
40	0x3dd15627	0.102215104
41	0x3bdd277f	0.006749093
42	0xbd06f4a4	-0.03294815
43	0x3de6d088	0.11270243
44	0x3d07a51e	0.033116452
45	0x3c5c8b15	0.013460894
46	0x3c1ffdc6	0.009765094
47	0xbdd2e058	-0.102966964
48	0x3cb7ad19	0.022421407
49	0xbcaf3f5d	-0.021392519
50	0xbd798885	-0.06092121
51	0x3d6133a3	0.054980885
52	0x3d9ea661	0.07746578
53	0x3dd4c13b	0.10388418
54	0xbb3582df	-0.0027696413
55	0xbd86b2b0	-0.06577051
56	0xbd84367e	-0.06455706
57	0xbda573c1	-0.08078719
58	0x3d07a20e	0.03311353
59	0xbcaab5ed	-0.020838702
60	0xbdf8d696	-0.12150304
61	0xbb166d7f	-0.0022953448
62	0x3d8701f9	0.06592173
63	0x3d9900e3	0.07470872
64	0xbdd6f436	-0.10495798
65	0xbdb91e0d	-0.09038935
66	0x3c63d3a2	0.013905438
67	0xbddd45b1	-0.10804308
68	0x3d227d93	0.03967054
69	0x3cf5c646	0.03000177
70	0x3d866b46	0.065634295
71	0xbcc68d18	-0.0242372
72	0x3c1024a8	0.008797802
73	0xbcb85ee9	-0.022506194
74	0x3de65154	0.11245981
75	0x3dbfed79	0.09371466
76	0x3d83c7fc	0.06434628
77	0xbdcd6ebb	-0.10030886
78	0x3d0f7599	0.03502426
79	0x3cb8425f	0.022492586
80	0x3d3aba97	0.045588102
81	0xbcdc3712	-0.026881728
82	0xbd9b0975	-0.07570163
83	0xbc2fc139	-0.01072722
84	0x3d82de55	0.06390063
85	0xbce570bf	-0.028007863
86	0xbdb97526	-0.090555474
87	0xbd66e56c	-0.056371137
88	0xbd38b8b2	-0.045098014
89	0xbce0e808	-0.027454391
90	0xbda00900	-0.078142166
91	0xbdc8693b	-0.09785696
92	0xbe04fab8	-0.12986267
93	0xbd814cd1	-0.0631348
94	0xbdb597ad	-0.088668205
95	0xbdbbb0be	-0.0916457
96	0x3d8eda88	0.06975275
97	0x3d5a16ae	0.053244285
98	0xbdb1fd78	-0.086909235
99	0x3dc022a7	0.093816094

second_cons6_filterlist.1.weight f4 [1, 4, 5, 5]
0	0xbd159937	-0.03652307
1	0x3d9306ff	0.07179069
2	0xbbf439cb	-0.0074531785
3	0x3db611c3	0.088901065
4	0xba971128	-0.0011525499
5	0xbdc4f87d	-0.09617708
6	0x3c39ee53	0.011348325
7	0x3c6d4b69	0.014483311
8	0x3d83f229	0.06442673
9	0xbcb6e1b9	-0.02232443
10	0xbdf66039	-0.12030072
11	0xbd5ce256	-0.05392679
12	0xbdde427c	-0.10852525
13	0x3dba46ea	0.09095557
14	0xbd712549	-0.05887345
15	0xbac76e7e	-0.0015215424
16	0xbd2c7696	-0.04210528
17	0xbd238d89	-0.0399299
18	0x3d83adfb	0.064296685
19	0xbd01075b	-0.031501155
20	0xbc1cbd0c	-0.009566557
21	0xbc4ee5db	-0.012628044
22	0xbca4eabf	-0.020131467
23	0xbd8eb6bd	-0.06968448
24	0x3d5bb641	0.053640608
25	0x3d971cb4	0.073785216
26	0x3cbe51f3	0.023232436
27	0xbdc059d1	-0.09392131
28	0x3c307dcb	0.010772179
29	0x3d6dcab2	0.058054633
30	0x3d520785	0.051276702
31	0x3d1743cc	0.03692989
32	0x3d941d2e	0.07232128
33	0x3d9a04bd	0.07520435
34	0xbc3b929c	-0.011448529
35	0x3dba3778	0.09092611
36	0x3d1652c0	0.03670001
37	0x3c88a9c1	0.016682507
38	0x3dbfc92d	0.09364543
39	0xbdb2112c	-0.086946815
40	0xbc0ad31c	-0.008473184
41	0x3d7ba440	0.061435938
42	0xbd9a7187	-0.07541185
43	0x3d2d6804	0.042335525
44	0x3c017bed	0.007903081
45	0x3c95a648	0.018267766
46	0x3bfc2316	0.0076946123
47	0xbd2107f5	-0.03931423
48	0x3d92a5fd	0.07160566
49	0xbd9bf24a	-0.07614572
50	0x3cb93711	0.022609266
51	0x3b885e2b	0.0041616163
52	0x3dd3c4d5	0.10340277
53	0xbcc336ef	-0.023829905
54	0xbd9be44a	-0.07611902
55	0xbd1516c5	-0.036398668
56	0x3d54d806	0.05196383
57	0xbdbfa5cf	-0.09357797
58	0xbc92d43a	-0.017923463
59	0x3d8a462d	0.06751666
60	0x3d72659b	0.05917893
61	0xbda04b99	-0.07826919
62	0xbb892680	-0.0041854978
63	0x3b01e2c9	0.0019819012
64	0xbdaa35f0	-0.08311069
65	0xbbe765b9	-0.007061687
66	0xbdb3db50	-0.08782065
67	0x3b8b9eec	0.0042608883
68	0x3d99edb3	0.07516041
69	0xbbf5cae3	-0.0075009926
70	0xbd94c8d2	-0.07264866
71	0xbdc15f21	-0.094419725
72	0xbd9ef200	-0.077610016
73	0xbd9bc9dd	-0.07606862
74	0xbd35e85f	-0.04441106
75	0xbd20ec9e	-0.039288156
76	0x3d7fec2a	0.062481083
77	0xbd0fcc6b	-0.035107058
78	0x3d4d6eb2	0.050154395
79	0x3d574405	0.052555103
80	0x3d9531a3	0.07284858
81	0x3c65a52d	0.014016432
82	0xbd3e50c6	-0.04646375
83	0x3dae85b0	0.085215926
84	0x3defe7b2	0.11714114
85	0x3d9f31fe	0.07773207
86	0x3d0d8d24	0.03455843
87	0x3df54073	0.11975183
88	0x3dc6cc81	0.09706975
89	0x3dd7f81e	0.105453715
90	0x3db714b9	0.089394994
91	0xbd2075cd	-0.039174844
92	0x3d752e0d	0.05985837
93	0x3da318a5	0.07963685
94	0x3de21fc0	0.11041212
95	0x3da1dd65	0.07903556
96	0xbd738fa6	-0.059463166
97	0x3c2a8272	0.010407077
98	0x3d5cdc36	0.053920947
99	0xbd9721da	-0.073795035

second_cons6_filterlist.2.weight f4 [1, 4, 5, 5]
0	0xbddf8e0a	-0.10915764
1	0x3d436bb3	0.04771013
2	0xbde46d8f	-0.11153709
3	0xbd010164	-0.031495467
4	0xbcfef24a	-0.031121392
5	0xbd9550df	-0.072908156
6	0x3da78215	0.08179108
7	0xbdab90c6	-0.08377223
8	0xbdac23c7	-0.084052615
9	0xbdce0b0f	-0.10060703
10	0x3d88ac3a	0.066734746
11	0x3d4f375b	0.0505899
12	0x3c06995a	0.008215273
13	0x3d3560fa	0.044281937
14	0xbc2aec7c	-0.010432359
15	0x3d4b4113	0.049622606
16	0xbb14db23	-0.0022713623
17	0xbd8af245	-0.067844905
18	0x3dc1f815	0.09471146
19	0x3b2e7260	0.0026618466
20	0xbd438e44	-0.047743097
21	0xbd8469ca	-0.0646549
22	0xbd90065f	-0.07032465
23	0x3c8c5996	0.017132562
24	0xbdb8a6ad	-0.09016166
25	0xbd0e794e	-0.034783654
26	0xbd469bfd	-0.048488606
27	0x3d8c799b	0.06859132
28	0x3c887545	0.016657481
29	0xbcf50576	-0.02990983
30	0xbd87a1ea	-0.066226795
31	0xbd173fc0	-0.03692603
32	0x3da1a37a	0.07892509
33	0xbdeb9071	-0.115021594
34	0xbce269c5	-0.027638325
35	0xbb26ac39	-0.0025432243
36	0x3cdf6a7d	0.027272457
37	0xbd2baf17	-0.041915026
38	0x3de4ced2	0.1117226
39	0xbce69c41	-0.02815068
40	0x3d87363c	0.06602141
41	0xbd7ee0b3	-0.06222601
42	0xbccf1b9b	-0.025281718
43	0x3c5dd97c	0.013540622
44	0xbd7b4990	-0.06134945
45	0xbd9b232c	-0.07575068
46	0xbc2007a9	-0.009767451
47	0xbd282364	-0.041049376
48	0xbc6a9c9c	-0.014319565
49	0xbda1118d	-0.07864676
50	0xbd4e026c	-0.05029528
51	0xbdc4599f	-0.09587406
52	0xbc2e17cd	-0.010625792
53	0xbc1c1833	-0.009527254
54	0x3c31a87b	0.0108433915
55	0x3d8ba80e	0.06819163
56	0x3cb15800	0.021648407
57	0xbd59523a	-0.053056933
58	0x3d6a0c74	0.057140782
59	0xbcb1f2a6	-0.02172215
60	0x3d579042	0.05262781
61	0xbd774978	-0.0603728
62	0x3da4f755	0.08054987
63	0xbd85a8c6	-0.065263316
64	0x3dd7fa85	0.1054583
65	0xbd93740c	-0.071998686
66	0x3d9589c0	0.07301664
67	0xbcda620b	-0.026658079
68	0xbd27ed21	-0.040997628
69	0xbd31bc6d	-0.043392587
70	0x3c841276	0.016122084
71	0xbcd229f1	-0.025654765
72	0xbbc83c62	-0.006110714
73	0x3d7acab5	0.061228473
74	0x3cfc9801	0.0308342
75	0xbdcff183	-0.101534866
76	0xbdf60d9f	-0.12014317
77	0xbdf39845	-0.118942775
78	0x3d4fc2d7	0.050722923
79	0xbac946d4	-0.0015356191
80	0xbd37efcb	-0.04490642
81	0xbdaec6c0	-0.08534002
82	0x3c026f28	0.007961072
83	0x3d87f1ca	0.066379145
84	0xbda4985f	-0.08036875
85	0x3c98a47d	0.018633122
86	0x3cde27fe	0.02711868
87	0x3d4e8293	0.050417494
88	0x3bb3e428	0.005489845
89	0xbda9784c	-0.08274898
90	0xbd0f33a6	-0.034961365
91	0xbd9c077b	-0.07618614
92	0x3d8005d6	0.06251113
93	0x3cd08ffe	0.025459286
94	0x3d4d526b	0.050127428
95	0xbb42bcca	-0.0029714578
96	0x3d1eec99	0.038799856
97	0xbcd7fefc	-0.026366703
98	0xbe086dc3	-0.13323121
99	0xbdeb9a03	-0.11503985

second_cons6_filterlist.3.weight f4 [1, 4, 5, 5]
0	0x3d024431	0.031803314
1	0x3d49a767	0.049231913
2	0x3d109568	0.035298735
3	0xba542689	-0.00080929004
4	0xbd880965	-0.06642417
5	0x3dc99d08	0.098444045
6	0x3d0789e6	0.033090495
7	0xbd86060a	-0.065441206
8	0x3dcd9705	0.1003857
9	0x3ca26cf9	0.019827353
10	0x3d09c3f6	0.03363415
11	0x3dc3afc9	0.09555013
12	0xbd79345e	-0.060840957
13	0x3da7fc50	0.08202422
14	0xbd636311	-0.0555144
15	0xbbcca2eb	-0.0062450073
16	0x3dd13179	0.10214514
17	0x3db2e5c7	0.08735233
18	0x3d8ed9e2	0.069751516
19	0x3d89710b	0.06711014
20	0x3da8e8c3	0.08247521
21	0xbc95cb10	-0.018285304
22	0x3da20e57	0.07912891
23	0x3de7f70a	0.11326416
24	0x3dec7642	0.115459934
25	0x3d751ef3	0.05984397
26	0x3da371cc	0.079806894
27	0xbbe8aa65	-0.0071003907
28	0xbd537a05	-0.05163004
29	0x3cbcdc20	0.023054183
30	0x3d85d09f	0.06533932
31	0x3c805edf	0.015670238
32	0x3cf25f56	0.029586475
33	0x3de357bf	0.111007206
34	0x3d0e2b89	0.034709487
35	0x3d884e54	0.06655565
36	0x3ca1b81b	0.019741109
37	0xbda6f612	-0.08152403
38	0xbd8b56cd	-0.06803665
39	0xbda4fd84	-0.08056167
40	0xba349d6e	-0.0006889914
41	0xbde3c335	-0.11121217
42	0xbb5a42a0	-0.0033303872
43	0xbdd200b1	-0.10254038
44	0x3cc0bc5b	0.023527315
45	0x3dd2bb34	0.102896124
46	0xbca1ca48	-0.019749776
47	0x3d49e604	0.049291626
48	0x3d724139	0.059144232
49	0x3d93318b	0.07187184
50	0xbc60099c	-0.013674166
51	0xbd29b818	-0.04143533
52	0xbdb27e9b	-0.08715554
53	0x3d29aeed	0.041426588
54	0x3c93c0e1	0.018036308
55	0x3db62a59	0.08894796
56	0xbd8f9206	-0.07010274
57	0xbd545728	-0.05184093
58	0xbdb1ac0b	-0.08675393
59	0x3db63116	0.08896081
60	0xbd3dd9be	-0.046350233
61	0xbdac379b	-0.084090434
62	0x3cd40085	0.025879154
63	0xbce90d05	-0.028448591
64	0xbd3e2c16	-0.046428762
65	0xbc859555	-0.016306559
66	0x3dcbf99f	0.09959721
67	0x3dbe483e	0.09291123
68	0xbd460cc9	-0.048352037
69	0x3d9b127e	0.075718865
70	0xbc198a99	-0.009371423
71	0x3e03c9f1	0.12870003
72	0x3d5b1509	0.053486858
73	0x3ddeebfb	0.108848535
74	0x3d45ab6b	0.04825918
75	0x3decea2a	0.11568101
76	0xbdadcefb	-0.08486744
77	0x3cdb8aa9	0.026799517
78	0xbd979084	-0.07400611
79	0x3db6c6f8	0.08924669
80	0xbd4ef4ac	-0.050526306
81	0xbd391302	-0.045184143
82	0xbbff691d	-0.007794513
83	0xbdb87363	-0.09006383
84	0xbc773742	-0.015088858
85	0xbdf1a233	-0.11798515
86	0xbde506a4	-0.11182907
87	0x3ba6f52a	0.005095144
88	0xbdefad86	-0.11703019
89	0x3d05bfe8	0.03265372
90	0xbdfabe3e	-0.12243317
91	0xbd8337b0	-0.06407106
92	0x3d054f01	0.032546047
93	0x3c6bed09	0.014399775
94	0x3d5a750c	0.05333428
95	0xbdb8a2c5	-0.09015421
96	0x3db99af0	0.09062755
97	0xbd402950	-0.0469144
98	0xbc2e5eb6	-0.010642698
99	0xbcf24be0	-0.029577196

second_cons6_filterlist.4.weight f4 [1, 4, 5, 5]
0	0x3dad72cc	0.084691614
1	0xbb938b3d	-0.0045026825
2	0xbd2a85c7	-0.041631486
3	0x3d9bbf2c	0.076048225
4	0xbd25c7ef	-0.040473875
5	0xbd637d83	-0.05553962
6	0xbcb71b1b	-0.022351792
7	0x3d1aaf4c	0.037764832
8	0x3d84d451	0.06485809
9	0x3d766cda	0.060162403
10	0x3dab5d07	0.08367353
11	0xbd026549	-0.031834874
12	0x3d850b05	0.064962424
13	0x3d4db8d6	0.0502251
14	0xbd9e1718	-0.077192485
15	0x3d819003	0.06326296
16	0x3db274a1	0.087136514
17	0xbd6bbdd6	-0.05755409
18	0xbd3c206e	-0.045929365
19	0xbbfb7df2	-0.007674926
20	0xbd1c572f	-0.038169082
21	0xbddfb895	-0.10923878
22	0xbdbac7a3	-0.09120109
23	0xbd9b1b54	-0.07573572
24	0xbd0b8656	-0.03406366
25	0x3d6ce3a2	0.057834275
26	0x3daddbe5	0.08489207
27	0xbd361cb3	-0.044460963
28	0xbdd02075	-0.10162441
29	0x3c3a732e	0.01138
30	0x3dca3bf7	0.09874719
31	0xbda33009	-0.07968146
32	0x3d0a2d74	0.033734754
33	0x3c8c85f3	0.017153716
34	0x3cc15cf4	0.023603894
35	0xbd868718	-0.06568736
36	0x3c30838e	0.010773553
37	0xbc49362b	-0.012280981
38	0x3de84bb0	0.11342561
39	0xbd1299de	-0.03579127
40	0xbd6da9c6	-0.058023237
41	0x3c126357	0.008934817
42	0xbda911fc	-0.08255383
43	0x3d613f07	0.05499175
44	0x3d81a11e	0.06329559
45	0xbddd1982	-0.10795881
46	0x3df12ccf	0.11776125
47	0xbdaf3174	-0.08554354
48	0xbd8f6e79	-0.07003493
49	0x3d0889d2	0.03333456
50	0x3d61e58b	0.05515055
51	0xbd000a80	-0.031260014
52	0x3cca6a58	0.024708912
53	0xbd3b40ec	-0.04571621
54	0x3daea5d4	0.08527723
55	0xbd848fd5	-0.06472746
56	0x3d9c2bc0	0.07625532
57	0xbd3a7645	-0.045522947
58	0xbd8e5af9	-0.069509454
59	0xbdd7ea0e	-0.10542689
60	0xbddccab8	-0.10780853
61	0xbc38fc6e	-0.011290653
62	0x3d992e2b	0.07479509
63	0xbe04bc3f	-0.12962435
64	0xbc73e4be	-0.014886079
65	0xbd89f9c5	-0.06737093
66	0xbdb7adba	-0.089686826
67	0x3b57de1b	0.0032938782
68	0xbdeb03e4	-0.114753515
69	0xbdd50dbd	-0.10403011
70	0xbd8fcaa3	-0.07021072
71	0x3c392a2c	0.011301558
72	0x3d9943fd	0.07483671
73	0x3c33fb40	0.010985196
74	0xbdaee575	-0.08539859
75	0xbd508cc8	-0.05091551
76	0xbc0818e8	-0.008306719
77	0xbdafd384	-0.08585265
78	0xbd876591	-0.06611169
79	0x3da5bd7f	0.08092784
80	0xbd113bd0	-0.035457432
81	0x3dc1b45d	0.0945823
82	0xbcbfb87e	-0.023403402
83	0xbce78668	-0.028262332
84	0x3d161b54	0.036647156
85	0xbad22139	-0.001603163
86	0x3cda76ea	0.02666803
87	0x3d9c5299	0.07632942
88	0x3d1d2016	0.038360678
89	0xbd92269f	-0.07136273
90	0xbd1e39ac	-0.03862922
91	0x3d57b24d	0.052660275
92	0x3d905e25	0.07049207
93	0x3de1550e	0.11002551
94	0x3d8f14b1	0.069863684
95	0x3ddf98af	0.10917794
96	0x3cfe248d	0.031023288
97	0x3ce6c540	0.028170228
98	0x3d70714e	0.058701806
99	0xbc304e48	-0.010760851

second_cons6_filterlist.5.weight f4 [1, 4, 5, 5]
0	0x3dfca3a0	0.123358965
1	0x3da3a1a2	0.079898134
2	0xbce84d5b	-0.028357198
3	0xbd1c2cec	-0.03812878
4	0x3db42676	0.08796398
5	0xbd295e3b	-0.04134963
6	0x3dc5bda4	0.09655312
7	0x3da1a237	0.07892268
8	0xbba001f6	-0.0048830463
9	0x3d13f9dc	0.036126956
10	0x3d4aa326	0.049471997
11	0x3d14200e	0.036163382
12	0xbd99a7d5	-0.075027145
13	0x3b3d5aff	0.002889335
14	0xbd8d292a	-0.06892617
15	0xbd0c2b7c	-0.034221157
16	0xbd28f24d	-0.0412467
17	0xbdcd8d67	-0.10036736
18	0xbd8b6af2	-0.068075076
19	0xbdd0c4fa	-0.1019382
20	0x3da697df	0.08134436
21	0xbd84ba12	-0.064808026
22	0xbda35ea1	-0.079770334
23	0x3ddd9f6e	0.108214244
24	0xbd23d1d4	-0.03999503
25	0x3db6cb8c	0.08925542
26	0x3d53aacf	0.051676568
27	0xbd1c0d19	-0.03809843
28	0xbda1c3d2	-0.07898678
29	0xbd4284e5	-0.04749002
30	0x3d7e8da2	0.06214679
31	0xbc3c7893	-0.0115033565
32	0xbce5b7ff	-0.028041838
33	0xbd451bba	-0.048122145
34	0x3d593aba	0.05303452
35	0xbd9cc027	-0.07653838
36	0x3d219586	0.039449237
37	0xbd9652bc	-0.07339999
38	0xbc36bbea	-0.011153201
39	0x3cc4f6f6	0.024043541
40	0xbcfbfc51	-0.030759962
41	0x3d9abab8	0.07555145
42	0x3d16af36	0.036788188
43	0xbd346b29	-0.04404751
44	0xbdc6a8aa	-0.09700139
45	0x3d3cb23e	0.046068422
46	0x3d1c16cf	0.03810769
47	0x3db6b31e	0.08920883
48	0x3d0a84b5	0.033817966
49	0xbd99f96d	-0.07518277
50	0xbdd3e238	-0.10345882
51	0xbd64162c	-0.055685207
52	0x3d62eb07	0.05539992
53	0x3d48a206	0.048982643
54	0xbd5c4b96	-0.053783022
55	0xbdbaacc3	-0.09114983
56	0x3d014189	0.03155664
57	0x3ce5afe6	0.028037976
58	0xbdb81713	-0.08988776
59	0xbd7d8a4d	-0.061899472
60	0x3c666bba	0.01406377
61	0x3d067207	0.03282359
62	0xbd4d9a54	-0.050196007
63	0x3ce6962c	0.02814778
64	0x3d1cada9	0.038251553
65	0x3cbc67c6	0.022998702
66	0xbd3b708e	-0.045761637
67	0xbd32b97a	-0.043633915
68	0x3db71949	0.0894037
69	0x3d458039	0.048217986
70	0xbd329872	-0.043602414
71	0xbda244ef	-0.07923304
72	0xbdedfa4d	-0.11620007
73	0xbdc32f14	-0.09530464
74	0xbcf3d763	-0.02976579
75	0xbe02f945	-0.12790401
76	0xbd53ab0c	-0.051676795
77	0xbddf00dd	-0.108888365
78	0xbbb4a4fd	-0.005512832
79	0xbdfdf4f1	-0.124002345
80	0x3d7d9a09	0.061914477
81	0xbd9b2eea	-0.075773075
82	0x3ce88b48	0.028386727
83	0xbd0fb1b0	-0.035081565
84	0xbdd27ca5	-0.1027768
85	0x3d0b2145	0.033967275
86	0x3c8b3b5d	0.01699608
87	0x3db1dfa1	0.08685232
88	0x3b6a2966	0.0035730242
89	0x3c306f24	0.0107686855
90	0x3d62bd6a	0.05535642
91	0xbc3ccf34	-0.01152401
92	0x3d793f73	0.060851526
93	0x3dda7055	0.10665957
94	0x3d95cdc2	0.07314636
95	0x3d2197df	0.039451476
96	0xbd63d93c	-0.055627093
97	0xbda5a427	-0.0808795
98	0xbdf01745	-0.11723188
99	0xbda3be25	-0.079952516

third_cons3_filterlist.0.weight f4 [1, 4, 5, 5]
0	0x3dd6e42b	0.10492738
1	0xbcf70052	-0.03015152
2	0xbddc16c2	-0.10746528
3	0xbd2dad76	-0.042401753
4	0x3d0bfc06	0.034175895
5	0xbc892a7d	-0.016743893
6	0xbdccd466	-0.10001449
7	0xbc8bad00	-0.017050266
8	0xbde8e765	-0.1137226
9	0x3d23d131	0.039994422
10	0x3de7c063	0.11315992
11	0xbd93dd5c	-0.07219955
12	0xbd9192a3	-0.07108047
13	0xbc585efd	-0.013206241
14	0xbd76ab08	-0.0602217
15	0xbd8850c7	-0.06656032
16	0xbc59874b	-0.013276885
17	0xbdafe3f6	-0.08588402
18	0x3d987e59	0.07445974
19	0xbb043661	-0.0020174014
20	0x3a274cd0	0.00063819904
21	0xbc881ebb	-0.016616216
22	0xbd3e23fe	-0.046421044
23	0x3d04e3ca	0.0324438
24	0xbc9b84b0	-0.018984169
25	0x3d2c1c16	0.042018972
26	0xbc48eb9a	-0.012263203
27	0x3c13c61b	0.0090194
28	0x3d927c20	0.07152581
29	0x3dbc7be7	0.0920332
30	0x3dc98666	0.098400876
31	0xbdd785c4	-0.10523561
32	0x3d0cad95	0.03434523
33	0xbd68a0b0	-0.05679387
34	0xbc665282	-0.014057757
35	0xbd13eb0e	-0.036112837
36	0xbd7a032b	-0.061038177
37	0xbc8e117e	-0.017342325
38	0x3ce29649	0.027659552
39	0x3dd03600	0.1016655
40	0x3cea3acf	0.028592495
41	0x3d8104a5	0.06299714
42	0x3d9e1e8b	0.07720669
43	0xbdcd88a1	-0.100358255
44	0xbc471807	-0.012151725
45	0xbc8501bb	-0.016236177
46	0x3dacd2c5	0.084386386
47	0x3daaa67f	0.08332538
48	0x3dc27601	0.09495164
49	0xbd8b8894	-0.068131596
50	0xbda7c831	-0.0819248
51	0xbc26b06c	-0.010173898
52	0x3d6fabd2	0.05851347
53	0x3cc100c0	0.023559928
54	0x3dce358c	0.10068807
55	0xbcfd8a02	-0.030949596
56	0xbdc3b043	-0.09555104
57	0x3de842ac	0.11340842
58	0x3cab8ca5	0.020941088
59	0x3de903e0	0.11377692
60	0xbdee0c87	-0.11623483
61	0x3da9d9bb	0.08293482
62	0xbd62706b	-0.05528299
63	0x3cdb6091	0.026779445
64	0xbb3ddc67	-0.0028970481
65	0xbd1a333d	-0.03764652
66	0x3d7c943c	0.061664805
67	0x3dc00471	0.09375847
68	0x3de674e8	0.11252767
69	0x3dc26abe	0.09493016
70	0x3d3c42bf	0.04596209
71	0x3d580e0e	0.05274778
72	0xbccefe9f	-0.025267897
73	0xbddbb649	-0.107281275
74	0xbb46787d	-0.003028422
75	0xbd299ede	-0.041411273
76	0x3d8e0bd5	0.069358505
77	0xbd943c3a	-0.0723805
78	0x3db1f9af	0.086902015
79	0x3dea056a	0.11426814
80	0x3d244619	0.040105913
81	0xbd073447	-0.03300884
82	0xbda9f94f	-0.08299505
83	0xbd135cf9	-0.035977338
84	0xbccc9107	-0.024971498
85	0x3d7e23cf	0.06204587
86	0xbd2b663a	-0.041845538
87	0xbd4cfe79	-0.05004737
88	0xbca06227	-0.019578053
89	0x3d8d46aa	0.06898244
90	0xbd9ddb30	-0.07707822
91	0xbdc61fde	-0.09674047
92	0x3d4d8711	0.050177637
93	0xbdda35ef	-0.10654818
94	0x3cde00b4	0.027099945
95	0xbdc3dedd	-0.09563992
96	0x3c511731	0.012761877
97	0x3d7966b7	0.060888972
98	0xbdaf9e22	-0.08575083
99	0xbd252531	-0.04031867

third_cons3_filterlist.1.weight f4 [1, 4, 5, 5]
0	0xbd9df16d	-0.07712064
1	0xbcf913b7	-0.030404909
2	0xbd8da335	-0.06915895
3	0x3d35ca80	0.044382572
4	0x3d4bdad7	0.04976925
5	0xbdb2c51e	-0.08729003
6	0x3d6ced3e	0.05784344
7	0xbd100d41	-0.03516889
8	0xbdb74f99	-0.08950729
9	0xbd9d4f24	-0.076811105
10	0xbd2e8222	-0.042604573
11	0xbdc1d2f7	-0.094640665
12	0xbcd12849	-0.025531905
13	0x3cd57fae	0.026061859
14	0x3c89cbb2	0.016820762
15	0x3d9aae89	0.07552821
16	0xbd0cebd8	-0.034404606
17	0xbb66eb78	-0.0035235565
18	0xbcf37cdb	-0.029722622
19	0xbddd0577	-0.10792058
20	0xbd64d83a	-0.055870272
21	0xbd91d518	-0.071207225
22	0x3de215ae	0.11039291
23	0xbd8282c7	-0.063726
24	0x3d8f1120	0.06985688
25	0x3c7cf0ab	0.015438239
26	0x3cbf22a6	0.023331951
27	0x3d878c64	0.06618574
28	0xbd4dc6c1	-0.050238375
29	0xbd83b044	-0.064301044
30	0x3d79859e	0.060918443
31	0xbda33bb0	-0.07970369
32	0xbcbeb932	-0.023281667
33	0xbdcc8497	-0.09986227
34	0xbcb8922e	-0.022530641
35	0x3d9e8dd1	0.07741893
36	0x3daad6f7	0.083417825
37	0x3d50732d	0.05089109
38	0x3db92655	0.090405144
39	0x3abe3d80	0.0014514178
40	0x3d421a30	0.047388256
41	0x3dd6778f	0.10472023
42	0x3d198087	0.03747609
43	0x3d9966f7	0.07490342
44	0x3de09d05	0.10967449
45	0x3cd9a7f9	0.026569353
46	0x3d45738e	0.048205905
47	0xbd4a9925	-0.049462456
48	0x3dad2849	0.084549494
49	0xbd2919da	-0.04128442
50	0xbcb6b5d2	-0.022303496
51	0x3cda84bd	0.026674623
52	0x3db63142	0.08896114
53	0xbc8aa32f	-0.016923515
54	0x3ddecd47	0.10878997
55	0x3ce7d284	0.028298624
56	0xbd076bd2	-0.03306181
57	0x3c2e9b2d	0.010657114
58	0x3d0bcc81	0.034130577
59	0x3e0c61ad	0.13709135
60	0x3da0e0ef	0.07855403
61	0xbc9bea01	-0.01903248
62	0xbb92a7f7	-0.0044755894
63	0x3dbe11dc	0.0928075
64	0xbd6fe38a	-0.058566608
65	0x3d64d0ad	0.05586307
66	0xbda930d1	-0.08261264
67	0xbdbd2788	-0.092360556
68	0xbd3014de	-0.04298865
69	0xbbbec0be	-0.0058213165
70	0xbcb88346	-0.022523534
71	0xbb386351	-0.002813537
72	0x3a915c09	0.0011090051
73	0xbdfa2aa7	-0.122151665
74	0xbd83bd9a	-0.06432648
75	0x3d267c74	0.04064603
76	0x3da99b80	0.082816124
77	0x3d0fc150	0.035096467
78	0x3d9e0ea2	0.07717635
79	0xbcdd6ddc	-0.027029924
80	0xbdba588b	-0.090989195
81	0xbd741698	-0.05959186
82	0xbd2284ec	-0.039677545
83	0x3db94fb7	0.090484075
84	0xbcb07edc	-0.021544866
85	0x3d642fed	0.055709768
86	0xbc94ae24	-0.018149443
87	0x3b3915ef	0.0028241833
88	0xbd67c471	-0.056583825
89	0x3dbd1899	0.09233207
90	0xbcec17be	-0.028819915
91	0xbcb6db89	-0.02232148
92	0xbd914a71	-0.07094277
93	0xbce3850a	-0.027773399
94	0xbd66b2e8	-0.056322962
95	0xbd086daa	-0.03330771
96	0xbd7eb025	-0.062179703
97	0x3af027fd	0.0018322464
98	0x3bb39daa	0.0054814415
99	0xbdab6dba	-0.08370538

third_cons3_filterlist.2.weight f4 [1, 4, 5, 5]
0	0x3da2473d	0.07923744
1	0xbb938d0d	-0.0045028985
2	0x3d81e798	0.06343001
3	0xbd74d0a0	-0.059769273
4	0xbda73f14	-0.08166328
5	0xbcfcea28	-0.030873373
6	0x3d094670	0.03351444
7	0xbc9c21a2	-0.019059006
8	0xbcf7bd2f	-0.030241577
9	0x3befd2b0	0.007318817
10	0xbd8ae9a6	-0.06782846
11	0x3db07a25	0.08617047
12	0x3d9992ae	0.0749868
13	0xbd770156	-0.06030401
14	0xbd377251	-0.044786755
15	0x3d54ea69	0.051981363
16	0x3cb4001e	0.021972712
17	0xbca1f074	-0.019767977
18	0xbdc830d2	-0.09774937
19	0x3d89e0a5	0.06732301
20	0x3c4d620a	0.012535581
21	0x3dc30fc4	0.095244914
22	0x3db043c8	0.08606678
23	0xbdc54345	-0.09631971
24	0x3c638a35	0.013887932
25	0xbc990e90	-0.018683702
26	0xbddc4b22	-0.10756518
27	0xbd792038	-0.06082174
28	0xbd060c4e	-0.03272658
29	0x3d413444	0.047168985
30	0xbd3d2572	-0.04617829
31	0x3d800ab9	0.06252045
32	0xba88081f	-0.0010378397
33	0x3da9ea9b	0.082967006
34	0xbc5f7fcd	-0.01364131
35	0xbd3e239c	-0.04642068
36	0x3cabbab2	0.020963047
37	0x3daab588	0.083354056
38	0x3d1900a4	0.037354127
39	0x3dfea005	0.12432865
40	0x3d6c955f	0.05775964
41	0x3d29c0a2	0.041443475
42	0x3c4258b2	0.011861967
43	0xbd3ea660	-0.046545386
44	0xbdab70e9	-0.08371145
45	0xbd135ab1	-0.035975162
46	0x3d132335	0.035922248
47	0xbddde2e6	-0.10834293
48	0xbdb7abfc	-0.0896835
49	0xbd697bf5	-0.05700298
50	0x3d199f3d	0.037505377
51	0x3ca2710c	0.019829296
52	0x3d1477a2	0.036246903
53	0xbd8f875e	-0.07008241
54	0xbcba1376	-0.022714358
55	0xbd794e6f	-0.060865816
56	0xbdefd16d	-0.11709867
57	0xbd47cf3d	-0.048781622
58	0x3d559752	0.052146263
59	0x3d8dfe32	0.069332495
60	0xbd503c6f	-0.050838884
61	0x3d5e4f82	0.054275043
62	0x3bd242c4	0.0064166505
63	0x3dd8cfbc	0.10586497
64	0x3d65c986	0.05610039
65	0x3d1b02a6	0.037844323
66	0xbd73d668	-0.059530646
67	0x3c9be400	0.019029617
68	0x3c3ea7da	0.011636699
69	0x3cc0f31c	0.023553424
70	0xbbfdf56d	-0.0077502043
71	0xbc8e25d8	-0.01735203
72	0x3b5fc1c7	0.00341426
73	0xbc61fe47	-0.013793535
74	0xbda773b3	-0.08176365
75	0xbdaca8bf	-0.08430623
76	0x3dca42cd	0.098760225
77	0xbb92262b	-0.0044601164
78	0xbdcdc703	-0.10047724
79	0xbda1ef3e	-0.0790696
80	0x3da3c45f	0.07996439
81	0xbd4a3012	-0.04936225
82	0x3d8235de	0.063579306
83	0xbc22f946	-0.009947127
84	0x3d809970	0.06279266
85	0xbcb7a12f	-0.022415726
86	0x3d2bc090	0.04193169
87	0x3e048d5c	0.1294455
88	0x3c83b603	0.016078
89	0x3dc77d85	0.09740738
90	0x3ba17fcb	0.004928564
91	0x3c929f93	0.017898357
92	0xbbd56709	-0.006512527
93	0x3dc77f7a	0.09741111
94	0xbd7c221f	-0.061555978
95	0x3c9c7f3c	0.019103639
96	0x3da092f2	0.078405276
97	0x3c44a64a	0.012002537
98	0xbbddbd8a	-0.0067669796
99	0x3d453c77	0.048153367

fourth_last1_filterlist.0.weight f4 [1, 6, 5, 5]
0	0x3d869f26	0.06573324
1	0xbd881bed	-0.066459514
2	0xbd58bd45	-0.052914876
3	0xbb2f4697	-0.0026744956
4	0x3cbfc7d8	0.023410723
5	0xbd917083	-0.07101538
6	0x3d22d60e	0.03975492
7	0x3d397757	0.045279827
8	0xbd781619	-0.06056795
9	0x3d772da1	0.06034625
10	0x3bf2f57b	0.0074145175
11	0x3c446ce6	0.011988854
12	0xbd8f5948	-0.06999451
13	0x3d138f96	0.036025606
14	0x3d336bea	0.043804087
15	0x3d4e9fdc	0.050445423
16	0xbcbe7184	-0.023247488
17	0xbd764420	-0.060123563
18	0xbd86eca1	-0.06588102
19	0x3d458c9d	0.048229802
20	0x3db4d189	0.08829028
21	0x3d1494a4	0.036274567
22	0x3d9bf443	0.076149486
23	0xbc72bb7d	-0.0148152085
24	0xbcdcdc9d	-0.026960665
25	0x3d6e54a7	0.0581862
26	0xbd44a940	-0.048012972
27	0x3d216263	0.03940047
28	0xbd8c40d8	-0.068483055
29	0xbd8883ff	-0.06665801
30	0x3d18db25	0.037318368
31	0x3d1cb604	0.03825952
32	0xbdd36cf6	-0.10323517
33	0xbdc13855	-0.094345726
34	0xbdc32e55	-0.095303215
35	0xbcb30479	-0.021852719
36	0x3d2ddfb2	0.04244966
37	0xbda56158	-0.080752075
38	0xbd75d490	-0.06001717
39	0x3d4495ee	0.047994547
40	0xbc7fdf27	-0.0156171685
41	0x3d71b6e8	0.059012324
42	0xbc9963e0	-0.018724382
43	0x3d8b9ce8	0.06817037
44	0x3c39d06f	0.011341198
45	0x3d8eec38	0.06978649
46	0x3d8eba21	0.06969095
47	0xbd88a2d6	-0.066716835
48	0x3d2bcc86	0.041943096
49	0x3d9750bc	0.07388446
50	0x3dd42d34	0.10360184
51	0xbc100f7d	-0.008792755
52	0x3c16464a	0.009172032
53	0xbd3a3e19	-0.045469377
54	0x3d4311f8	0.04762456
55	0x3da8521b	0.082187854
56	0x3d970658	0.07374257
57	0x3bce075d	0.006287499
58	0x3d85b478	0.06528562
59	0x3a833f9b	0.0010013463
60	0x3d07ebb5	0.033183772
61	0x3d4e62d7	0.05038723
62	0xbccc1d15	-0.024916211
63	0xbd6530c8	-0.055954725
64	0x3c852d11	0.01625684
65	0xbd6b95d6	-0.05751594
66	0x3ca97432	0.020685289
67	0x3c1d205f	0.009590237
68	0xbd3abe0e	-0.045591407
69	0xbbf60d6d	-0.0075089247
70	0xbd23c243	-0.039980184
71	0xbd964274	-0.07336894
72	0x3bd32422	0.0064435164
73	0xbca14d69	-0.019690232
74	0xbdb2fa33	-0.08739128
75	0x3d750bb6	0.05982562
76	0x3d1714d7	0.03688511
77	0xbb4614b6	-0.0030224747
78	0x3c15b8cf	0.0091383
79	0x3d398d2b	0.045300644
80	0x3dbcf380	0.092261314
81	0x3d73439c	0.05939065
82	0x3db66e36	0.0890774
83	0x3d9119e3	0.070850156
84	0xbd44395e	-0.047906272
85	0x3d20ef64	0.0392908
86	0xbd2d99ca	-0.042382993
87	0xbc80c187	-0.015717281
88	0x3d2c1c3c	0.042019114
89	0x3d608a7d	0.054819573
90	0xbcb33cc7	-0.021879567
91	0xbc6df0ec	-0.014522772
92	0x3badb2ed	0.0053008706
93	0x3cb91daf	0.022597162
94	0xbd31116e	-0.043229513
95	0x3d284024	0.041076794
96	0x3d9cd37f	0.07657527
97	0x3d6f7549	0.05846146
98	0xbd895a98	-0.067067325
99	0xbd940c5e	-0.07228921
100	0x3d3826ed	0.044958998
101	0x3bef43bd	0.007301776
102	0x3d8b083f	0.06788682
103	0x3db3412d	0.08752666
104	0x3cada91e	0.021198805
105	0x3d8a7291	0.06760133
106	0x3ce77a8e	0.02825668
107	0x3c25fea2	0.01013151
108	0x3d87d3a2	0.06632163
109	0x3d168311	0.03674609
110	0xbd800a6b	-0.06251987
111	0x3b0eca95	0.0021788229
112	0xbd271894	-0.040794924
113	0x3d2f7b36	0.042842112
114	0xbc84cb37	-0.016210182
115	0x3cf2e19a	0.02964859
116	0x3d035e06	0.03207209
117	0x3d02c75e	0.031928413
118	0x3d8d24c2	0.068917766
119	0xbdb3dcef	-0.08782374
120	0xbdae2ac6	-0.08504252
121	0xbc28b0dc	-0.010296073
122	0x3d5f353b	0.054494124
123	0x3d2c2c96	0.042034708
124	0x3cfd7a92	0.030942235
125	0xbce94be4	-0.02847857
126	0x3ca56c1c	0.020193152
127	0x3d4025eb	0.04691116
128	0xbd2d4e6b	-0.042311113
129	0xbc91a007	-0.017776502
130	0xbc952ec6	-0.01821078
131	0xbcc8e94b	-0.024525305
132	0x3c847cce	0.016172793
133	0x3d45d347	0.048297193
134	0xbdc85fa9	-0.09783871
135	0x3b51e35c	0.0032026386
136	0xbd1384b9	-0.036015246
137	0xbd54535e	-0.051837318
138	0xbdc544a3	-0.09632232
139	0xbd9a1d58	-0.07525128
140	0x3d582db6	0.05277797
141	0x3d6856a5	0.056723256
142	0x3ce0477c	0.027377836
143	0xbcab1e11	-0.02088836
144	0xbc8b5e2b	-0.017012676
145	0xbd1438e9	-0.036187086
146	0xbdd86f00	-0.105680466
147	0xbda9d6dc	-0.08292934
148	0xbd35f30f	-0.044421252
149	0xbd0e1124	-0.034684315

bn2.weight f4 [16]
0	0x3f800000	1.0
1	0x3f800000	1.0
2	0x3f800000	1.0
3	0x3f800000	1.0
4	0x3f800000	1.0
5	0x3f800000	1.0
6	0x3f800000	1.0
7	0x3f800000	1.0
8	0x3f800000	1.0
9	0x3f800000	1.0
10	0x3f800000	1.0
11	0x3f800000	1.0
12	0x3f800000	1.0
13	0x3f800000	1.0
14	0x3f800000	1.0
15	0x3f800000	1.0

bn2.bias f4 [16]
0	0x00000000	0.0
1	0x00000000	0.0
2	0x00000000	0.0
3	0x00000000	0.0
4	0x00000000	0.0
5	0x00000000	0.0
6	0x00000000	0.0
7	0x00000000	0.0
8	0x00000000	0.0
9	0x00000000	0.0
10	0x00000000	0.0
11	0x00000000	0.0
12	0x00000000	0.0
13	0x00000000	0.0
14	0x00000000	0.0
15	0x00000000	0.0

bn2.running_mean f4 [16]
0	0x00000000	0.0
1	0x00000000	0.0
2	0x00000000	0.0
3	0x00000000	0.0
4	0x00000000	0.0
5	0x00000000	0.0
6	0x00000000	0.0
7	0x00000000	0.0
8	0x00000000	0.0
9	0x00000000	0.0
10	0x00000000	0.0
11	0x00000000	0.0
12	0x00000000	0.0
13	0x00000000	0.0
14	0x00000000	0.0
15	0x00000000	0.0

bn2.running_var f4 [16]
0	0x3f800000	1.0
1	0x3f800000	1.0
2	0x3f800000	1.0
3	0x3f800000	1.0
4	0x3f800000	1.0
5	0x3f800000	1.0
6	0x3f800000	1.0
7	0x3f800000	1.0
8	0x3f800000	1.0
9	0x3f800000	1.0
10	0x3f800000	1.0
11	0x3f800000	1.0
12	0x3f800000	1.0
13	0x3f800000	1.0
14	0x3f800000	1.0
15	0x3f800000	1.0
