models/3.pth (torch_old, 252400 bytes, 36 tensors)

c1.weight f4 [6, 3, 5, 5]
0	0x3debc3e6	0.11511974
1	0xbd0d4132	-0.034486003
2	0x3cf9337d	0.03042006
3	0x3d7a0e1a	0.061048605
4	0xbdc0c8fb	-0.09413334
5	0x3cde5f19	0.027144955
6	0xbd4edcfa	-0.05050371
7	0xbda70dfa	-0.08156963
8	0xbd635a51	-0.055506054
9	0xbe06d3aa	-0.13166681
10	0x3d269ab9	0.0406749
11	0x3d0b8a1d	0.034067262
12	0xbe02b7b2	-0.12765387
13	0xbd4fe3b9	-0.050754283
14	0xbd895d49	-0.06707246
15	0xbd5ffbf6	-0.054683648
16	0xbd26ec71	-0.04075283
17	0xbdacfb45	-0.08446363
18	0x3cf579b5	0.029965261
19	0xbb427c27	-0.0029676051
20	0xbdbc3947	-0.09190612
21	0xbcdf0774	-0.027225234
22	0xbcb397f4	-0.021923043
23	0xbd234990	-0.039865077
24	0x3d756362	0.059909232
25	0x3e02eefa	0.12786475
26	0x3dbe9e54	0.093075424
27	0xbd8d90e6	-0.06912403
28	0x3da8829b	0.08228036
29	0xbdd97d86	-0.10619645
30	0xbdc65623	-0.09684398
31	0xbd93b778	-0.07212728
32	0xbdfd24f5	-0.123605646
33	0x3cf435a7	0.02981074
34	0xbce10924	-0.027470179
35	0x3dac6a68	0.08418733
36	0x3d8ce9f6	0.06880562
37	0x3d04b1a3	0.03239597
38	0xbde416e2	-0.11137177
39	0x3dc21234	0.09476128
40	0xbd047263	-0.03233565
41	0xbdf3e1d1	-0.119083054
42	0xbe181701	-0.14852525
43	0xbcbfcf36	-0.023414236
44	0xbcea16fb	-0.028575411
45	0x3cc401ee	0.023926701
46	0x3da9600e	0.08270274
47	0x3e00740e	0.12544271
48	0x3dcb75d7	0.099345855
49	0xba95342e	-0.0011383349
50	0x3c7d7765	0.01547036
51	0xbd4bd6b9	-0.049765322
52	0xbde98a0c	-0.114032835
53	0xbdc0e505	-0.09418682
54	0x3cad9e1d	0.021193558
55	0xbb559fb2	-0.0032596407
56	0xbd200e3c	-0.039076075
57	0x3d899beb	0.06719192
58	0xbb36ae61	-0.0027874934
59	0xbd1b105e	-0.037857406
60	0x3b1f3886	0.0024295165
61	0xbd1ffab1	-0.039057437
62	0xbe193227	-0.14960538
63	0x3d828d60	0.063746214
64	0xbdfe6dd1	-0.124232896
65	0xbd464882	-0.048408993
66	0x3db6e4c3	0.089303516
67	0xbe10c5f7	-0.14138018
68	0x3da2ae32	0.07943381
69	0x3d892eb0	0.06698358
70	0x3dd926dc	0.10603115
71	0x3d27fa6e	0.041010313
72	0xbd431e33	-0.047636222
73	0x3dbb4426	0.09143858
74	0xbd8aa10d	-0.06768999
75	0x3ddc6952	0.10762276
76	0x3e175c96	0.14781412
77	0x3dcb2ab1	0.09920252
78	0x3d89d05b	0.06729194
79	0xbc9ca927	-0.019123627
80	0x3debcd53	0.11513772
81	0xbba75aa7	-0.005107242
82	0x3e054744	0.13015467
83	0x3d6b253a	0.05740855
84	0xbd941f91	-0.07232583
85	0x3dd82992	0.10554804
86	0x3d5677ec	0.05236046
87	0xbccea53e	-0.025225278
88	0x3c0b26c9	0.008493134
89	0xbd6b49b6	-0.057443343
90	0xbdcef6bc	-0.101056546
91	0x3d8d63f6	0.06903832
92	0xbd093419	-0.03349695
93	0x3dd9e5e3	0.106395505
94	0xbda53389	-0.0806647
95	0xbd8183b3	-0.06323948
96	0xbd979e35	-0.074032225
97	0xbc100adf	-0.008791654
98	0x3d726a38	0.05918333
99	0xbd897cbd	-0.06713245
100	0xbda73d97	-0.08166044
101	0x3d334a9a	0.043772317
102	0x3d3db8b6	0.046318732
103	0x3e068463	0.13136439
104	0xbd36ba30	-0.044611156
105	0xbdb802dc	-0.089849204
106	0x3dc91d0a	0.09819992
107	0xbc5168f3	-0.0127813695
108	0xbdae9f1c	-0.085264415
109	0x3c0402b9	0.00805729
110	0x3d66766e	0.056265287
111	0xbdc439c5	-0.09581331
112	0xbd99bd92	-0.07506861
113	0xbd75902b	-0.059951942
114	0xbdc385b5	-0.09546987
115	0xbd776fd0	-0.060409367
116	0x3d085e84	0.033293262
117	0xbb201888	-0.0024428684
118	0x3cd6a33d	0.026200885
119	0x3cfb83e7	0.030702544
120	0xbde4916d	-0.1116055
121	0xbe0db762	-0.13839486
122	0x3c33666a	0.01094971
123	0xbce9a4dd	-0.028520996
124	0xbd629d9f	-0.0553261
125	0xbd7804bd	-0.060551394
126	0x3d3765c9	0.044774804
127	0xbd114a7c	-0.035471424
128	0x3d7cb072	0.06169171
129	0xbd946bf9	-0.07247157
130	0x3dcf29c4	0.10115388
131	0x3d2bed49	0.04197434
132	0x3d4cde20	0.050016522
133	0xbd49303a	-0.049118258
134	0x3c09e58e	0.0084165465
135	0x3cca36b7	0.024684293
136	0xbd989670	-0.07450569
137	0xbbd9e6e9	-0.006649841
138	0xbd3edc5c	-0.04659687
139	0x3d55ee09	0.05222896
140	0x3d88b057	0.06674259
141	0xbda6a201	-0.081363685
142	0x3d89d637	0.06730311
143	0x3ce31a07	0.027722372
144	0x3c301649	0.010747501
145	0xbcf39762	-0.02973527
146	0xbd5d8909	-0.054085765
147	0x38b6da80	8.719135e-05
148	0x3dd74812	0.10511793
149	0xbcdb57d7	-0.026775284
150	0x3cb6981a	0.022289325
151	0xbdbed907	-0.093187384
152	0x3d9565b6	0.072947904
153	0xbd04cecd	-0.032423783
154	0xbd376332	-0.044772334
155	0xbab07664	-0.0013463018
156	0xbda532ae	-0.08066307
157	0xbdaef7a8	-0.085433304
158	0xbdb00b47	-0.08595901
159	0x3da320f7	0.07965272
160	0x3dec6925	0.11543492
161	0xbd59731e	-0.0530883
162	0xbc5219e8	-0.012823559
163	0xbdada338	-0.08478397
164	0x3d8a454e	0.067515
165	0xbdb6b926	-0.08922033
166	0xbd0d9035	-0.034561355
167	0xbd050c3b	-0.032482367
168	0xbd9e5a6a	-0.07732089
169	0x3d68db3e	0.05684971
170	0x3d048f51	0.03236324
171	0x3cddc161	0.02706975
172	0xbdd114e7	-0.10209065
173	0xbdbbdd5d	-0.09173081
174	0xbdca8c41	-0.098900326
175	0x3d9a2ad3	0.07527699
176	0xbc08b4f2	-0.008343922
177	0xbd55d80c	-0.05220799
178	0x3d6f4a93	0.05842073
179	0xbc8045f7	-0.015658362
180	0x3d069032	0.03285236
181	0xbc24af0f	-0.010051503
182	0xbbb640ab	-0.0055619082
183	0xbd881e72	-0.06646432
184	0xbd1a31ca	-0.03764514
185	0x3c3ee93f	0.01165229
186	0xbce0ff9f	-0.02746564
187	0xbe1b8482	-0.15187266
188	0x3dd44d55	0.103663124
189	0x3b7c313e	0.00384815
190	0xbc5d7215	-0.013515969
191	0xbd52a975	-0.051431138
192	0xbdc0bc37	-0.09410899
193	0xbdab80f5	-0.08374206
194	0x3d8af37f	0.067847244
195	0x3d881d2d	0.0664619
196	0xbd82c62b	-0.06385454
197	0xbd83b2d4	-0.06430593
198	0xbd67e6b5	-0.056616504
199	0x3cacd835	0.02109919
200	0xbc145dd7	-0.009055576
201	0x3d8ca8c4	0.06868127
202	0xbd9b41f1	-0.07580937
203	0x3cdbe69b	0.02684336
204	0x3c4c59e8	0.012472607
205	0xbccdc650	-0.025118977
206	0x3e13bb4c	0.14426917
207	0x3c541ec1	0.012946785
208	0xbc83e096	-0.016098302
209	0xbcc3e365	-0.023912141
210	0x3d06408a	0.032776393
211	0x3d27b4bb	0.040943842
212	0x3dea4a6b	0.11439975
213	0x3e0f1ce0	0.13975859
214	0xbac2fd3f	-0.0014876499
215	0xbc6dde57	-0.014518342
216	0xbc4d3873	-0.012525666
217	0xbd52f4f9	-0.051503155
218	0x3db1cb41	0.08681346
219	0xbcd7dc94	-0.026350297
220	0xbda9c878	-0.082901895
221	0xbc3edfca	-0.011650035
222	0x3d7cfe93	0.06176622
223	0xbd8b594e	-0.06804143
224	0xbb895126	-0.004190582
225	0x3c065134	0.008198071
226	0xbcf798ff	-0.030224321
227	0xbc8e343d	-0.017358894
228	0xbd84c968	-0.06483728
229	0xbe08681a	-0.13320962
230	0xbdd4955f	-0.10380053
231	0xbcb032e7	-0.021508647
232	0x3d784b0f	0.060618456
233	0x3da60c65	0.08107833
234	0xbdac17ac	-0.084029526
235	0x3dc35458	0.09537572
236	0xbc2a1f41	-0.010383428
237	0x3cc29f1c	0.02375751
238	0x3dea2a0d	0.11433802
239	0xbd5fe975	-0.054666
240	0x3de29cea	0.11065085
241	0xbbf00f55	-0.0073260465
242	0xbdea38f7	-0.114366464
243	0xbd7ecbd3	-0.0622061
244	0x3ba3a112	0.0049935663
245	0xbda4c1e6	-0.08044796
246	0x3bb2e90f	0.0054599117
247	0x3dae0fe4	0.08499125
248	0x3dc418ab	0.095750175
249	0x3dc1ca87	0.09462457
250	0xbde5f1b3	-0.11227741
251	0x3bca9d8a	0.006183331
252	0xbd526f29	-0.05137554
253	0x3d3db499	0.04631481
254	0xbd4a4692	-0.049383707
255	0x3dcc8e72	0.09988107

c1.bias f4 [6]
0	0xbd51e410	-0.051242888
1	0xbd711d32	-0.058865733
2	0x3c8539e5	0.016262958
3	0xbde1753d	-0.110086896
4	0xbb62f5f2	-0.0034631458
5	0xbd186404	-0.037204757

bn1.weight f4 [6]
0	0x3f800000	1.0
1	0x3f800000	1.0
2	0x3f800000	1.0
3	0x3f800000	1.0
4	0x3f800000	1.0
5	0x3f800000	1.0

bn1.bias f4 [6]
0	0x00000000	0.0
1	0x00000000	0.0
2	0x00000000	0.0
3	0x00000000	0.0
4	0x00000000	0.0
5	0x00000000	0.0

bn1.running_mean f4 [6]
0	0x00000000	0.0
1	0x00000000	0.0
2	0x00000000	0.0
3	0x00000000	0.0
4	0x00000000	0.0
5	0x00000000	0.0

bn1.running_var f4 [6]
0	0x3f800000	1.0
1	0x3f800000	1.0
2	0x3f800000	1.0
3	0x3f800000	1.0
4	0x3f800000	1.0
5	0x3f800000	1.0

first_cons6_filterlist.0.weight f4 [1, 3, 5, 5]
0	0x3c9cf735	0.019160846
1	0x3c87a0a2	0.016556088
2	0xbd18ec0a	-0.03733448
3	0x3e03218d	0.12805767
4	0xbcc38d4b	-0.023871085
5	0x3e14ffba	0.14550677
6	0x3e0ea06d	0.13928385
7	0xbdcd4a8d	-0.10023985
8	0xbdb5b769	-0.08872873
9	0x3e1c671a	0.15273705
10	0xbd87085c	-0.06593391
11	0x3d685ce0	0.056729198
12	0x3d9aaa0b	0.07551964
13	0x3da0a363	0.078436635
14	0x3d33e9af	0.04392403
15	0xbb81d888	-0.00396258
16	0xbd763aef	-0.060114797
17	0xbdc03f92	-0.09387125
18	0x3da09de8	0.07842618
19	0x3d4a3541	0.049367193
20	0xbdc2ab9f	-0.095053904
21	0xbd9a5bd1	-0.07537044
22	0xbd70b28d	-0.05876403
23	0x3d69654a	0.056981362
24	0xbd347f7b	-0.044066887
25	0x3d994608	0.074840605
26	0xbd630a91	-0.05543
27	0xbdecb535	-0.11558
28	0x3d2302ac	0.03979747
29	0x3df7295c	0.120684355
30	0x3d794cd7	0.060864296
31	0x3d66b232	0.056322284
32	0xbd3236fa	-0.04350946
33	0xbd0aa666	-0.033850096
34	0xbe02aabe	-0.12760445
35	0xbd904986	-0.070452735
36	0xbcb02d30	-0.021505922
37	0x3d5dc590	0.05414349
38	0xbd785f37	-0.06063768
39	0xbde7af0f	-0.11312687
40	0xbdae4852	-0.08509888
41	0xbcf28ef8	-0.029609188
42	0xbd9e88e9	-0.07740957
43	0x3debd1de	0.11514638
44	0xbcbfdb83	-0.023420101
45	0x3c9aec0c	0.018911384
46	0xbddc82e0	-0.1076715
47	0xbdadf2a1	-0.084935434
48	0xbc861998	-0.016369626
49	0x3d2287b8	0.039680213
50	0x3dc1c164	0.094607145
51	0x3d40441a	0.046939947
52	0x3dbd35f6	0.09238808
53	0x3de4a5ce	0.11164437
54	0x3e17272c	0.14761037
55	0x3ca5cceb	0.020239314
56	0x3dc46339	0.09589238
57	0xbc17c018	-0.009262107
58	0xbd9e9f7e	-0.077452645
59	0x3ded4178	0.11584753
60	0x3da2f58a	0.07956989
61	0x3d3bbbd0	0.04583341
62	0xbda17cea	-0.078851536
63	0xbd7f4c7a	-0.062328793
64	0x3e03ae74	0.12859517
65	0x3da36dac	0.079799026
66	0xbdeed623	-0.11661937
67	0xbdf6bfed	-0.12048326
68	0x3d6117e2	0.054954417
69	0xbdb37491	-0.08762468
70	0xbc8d1773	-0.017223096
71	0x3d87bf3a	0.066282704
72	0x3c0c2fe9	0.008556345
73	0xbb5a355a	-0.003329596
74	0x3dcb6c67	0.099327855

first_cons6_filterlist.1.weight f4 [1, 3, 5, 5]
0	0x3d14600f	0.03622442
1	0xbdb1ec2d	-0.08687625
2	0xbd2c3775	-0.042045075
3	0xbdaf04c9	-0.085458346
4	0xbda2f1a7	-0.07956248
5	0x3d0b70fb	0.034043293
6	0xbdde32db	-0.10849544
7	0xbca851f9	-0.0205469
8	0xbdb17a6e	-0.0866593
9	0x3d678a69	0.056528483
10	0x3cadbab0	0.021207184
11	0x3e005340	0.12531757
12	0x3c05445c	0.008133974
13	0x3c306df5	0.010768403
14	0xbd979a28	-0.0740245
15	0x3df5067c	0.119641274
16	0x3e00c109	0.12573637
17	0x3d8f8025	0.070068635
18	0xbcb0f7e8	-0.021602586
19	0xbcf8627f	-0.030320404
20	0x3dd57dc2	0.10424377
21	0xbdb32bad	-0.08748565
22	0xbda5fd55	-0.0810496
23	0x3d820ebf	0.06350469
24	0x3c51f719	0.01281526
25	0xbdac5117	-0.08413904
26	0xbdb35782	-0.08756925
27	0xbd2572b8	-0.040392607
28	0xbaac1197	-0.0013127801
29	0xbd5c9456	-0.0538524
30	0xbd08850d	-0.033330012
31	0xbda0b2c5	-0.078465976
32	0xbc5e90fd	-0.013584373
33	0xbb4bb6f0	-0.003108438
34	0xbdad850c	-0.08472642
35	0xbdcbd781	-0.099532135
36	0x3d9bf98d	0.076159574
37	0x3db22581	0.086985596
38	0xbdebc7c8	-0.115127146
39	0x3d95a501	0.073068626
40	0x3c2f5eaf	0.010703727
41	0xbdc863b2	-0.0978464
42	0xbd513080	-0.051071644
43	0xbdf12e47	-0.11776405
44	0xbdb9bf3a	-0.09069677
45	0x3df3d2ac	0.11905417
46	0xbde64f17	-0.11245554
47	0xbcb09c63	-0.021558946
48	0x3cddd74e	0.027080204
49	0x3d92df3a	0.07171483
50	0xbdc361e7	-0.09540158
51	0x3dbe75d8	0.09299821
52	0x3c1114f7	0.008855096
53	0x3e18d82e	0.14926216
54	0xbbb2b579	-0.005453762
55	0x3c08f69e	0.008359579
56	0xbc91fde1	-0.017821254
57	0xbdb42188	-0.08795458
58	0xbabf6e65	-0.0014605044
59	0x3dddbfb6	0.108275816
60	0x3cdccbf2	0.026952717
61	0x3cc806f8	0.024417385
62	0x3d1b666a	0.037939467
63	0xbd96e8df	-0.073686354
64	0x3da9df32	0.08294524
65	0x3d5fa23c	0.054598078
66	0x3dc3dc03	0.09563448
67	0x3c4386c2	0.011933984
68	0x3d930070	0.07177818
69	0xbbdc2306	-0.0067180423
70	0x3d248d76	0.04017397
71	0xbc8af957	-0.016964598
72	0x3d12719f	0.03575289
73	0xbdc5bcb3	-0.09655132
74	0xbddfb3fd	-0.10923002

first_cons6_filterlist.2.weight f4 [1, 3, 5, 5]
0	0xbd9e5357	-0.077307396
1	0x3dc2ff76	0.095213816
2	0x3d00891c	0.031380758
3	0xbe11f28f	-0.14252685
4	0xbe0da9f3	-0.13834362
5	0xbe209075	-0.15680106
6	0xbdeb3b50	-0.11485922
7	0xbe0172f7	-0.12641512
8	0xbb0f63ef	-0.0021879633
9	0x3d3ead92	0.04655225
10	0xbd5c80f3	-0.053833913
11	0xbd8fe4a3	-0.07026031
12	0xbc6957af	-0.014242097
13	0x3d4682aa	0.048464455
14	0x3da41073	0.0801095
15	0xbda96a36	-0.08272211
16	0x3d696975	0.056985337
17	0xbd3c35a8	-0.045949608
18	0x3db10fb3	0.086455725
19	0x3da08432	0.07837714
20	0x3d7e86e8	0.062140375
21	0x3d57e0fa	0.05270479
22	0x3d8dfa16	0.06932466
23	0x3d364b78	0.044505566
24	0x3de0f50c	0.10984239
25	0xba0db160	-0.0005405154
26	0xbdc126b2	-0.09431209
27	0x3d9ba074	0.075989634
28	0x3cf0a3c3	0.029374963
29	0xbda5b668	-0.08091432
30	0x3b92f747	0.004485044
31	0xbd7a1393	-0.061053824
32	0x3cdc872f	0.02691993
33	0xbc6ff4a8	-0.014645733
34	0xbd920a8b	-0.07130917
35	0xbe0e5468	-0.13899386
36	0x3c5ec8c0	0.013597667
37	0x3dd1ba42	0.10240604
38	0xbce5e8a1	-0.028065028
39	0x3d1f0bb6	0.038829528
40	0x3d103a84	0.035212055
41	0xbdeba30e	-0.115057096
42	0xbdb232a3	-0.087010644
43	0xbcf1b1f2	-0.029503796
44	0x3da963c2	0.082709804
45	0xb9b2c34b	-0.0003409631
46	0x3d4f2da7	0.050580647
47	0xbded3316	-0.115820095
48	0x3c37c1a2	0.011215599
49	0xbd8cc042	-0.06872608
50	0xbcb4a2a2	-0.022050206
51	0x3dac5453	0.08414521
52	0x3d70fad0	0.058832943
53	0x3e00656b	0.12538688
54	0xbd92ff70	-0.07177627
55	0x3d4c45c7	0.049871232
56	0x3a9f148e	0.0012136863
57	0x3cc4ee82	0.02403951
58	0x3d472dd2	0.048627682
59	0x3d8a2c77	0.06746762
60	0xbdc55956	-0.0963618
61	0x3cecb558	0.028895065
62	0x3cc7ecc5	0.024404893
63	0xbbc51dbe	-0.0060155084
64	0x3da6246f	0.08112418
65	0xbcb27cb2	-0.021787975
66	0xbd8b8274	-0.06811991
67	0x3d58c9e5	0.052926917
68	0xbd5454eb	-0.051838797
69	0xb9d69e1a	-0.00040935056
70	0xbd80dbb5	-0.06291906
71	0x3dbddee9	0.09271032
72	0xbdf6b5e7	-0.12046414
73	0xbddccf3d	-0.10781715
74	0xbe002dc4	-0.12517458

first_cons6_filterlist.3.weight f4 [1, 3, 5, 5]
0	0x3dbd89ec	0.09254822
1	0x3dd2448f	0.10266983
2	0x3d8b0b5b	0.06789275
3	0xbdff556e	-0.12467466
4	0xbd9636c0	-0.073346615
5	0xbcccd6b3	-0.02500472
6	0x3c5331f5	0.012890329
7	0x3d3ec7fe	0.046577446
8	0xbdcffe2f	-0.101559035
9	0x3daeae74	0.08529368
10	0x3cbba92d	0.022907818
11	0x3ccbed71	0.024893494
12	0x3de74279	0.112919755
13	0xbddebc86	-0.10875802
14	0x3d91a875	0.07112209
15	0xbdcf6d06	-0.101282164
16	0xbddf6b45	-0.10909132
17	0xbc8f65ba	-0.017504562
18	0x3d7a5131	0.061112586
19	0xbcc9238c	-0.024553083
20	0xbe17ff98	-0.14843595
21	0x3a4e6302	0.00078730297
22	0xbd8695c3	-0.065715335
23	0xbdc84cc3	-0.09780266
24	0x3c70bf0d	0.014693988
25	0xbd4fe75b	-0.050757747
26	0x3dcd91ed	0.10037599
27	0xbde41ed0	-0.111386895
28	0x3ddb1d7f	0.10698985
29	0xbd813165	-0.063082494
30	0xbd960e8f	-0.073269956
31	0x3dce9b92	0.100882664
32	0xbdf11d99	-0.117732234
33	0xbdf44d76	-0.11928837
34	0xbe063d2e	-0.13109276
35	0x3de060d3	0.10955968
36	0x3cfaeb08	0.03062965
37	0xbbb65588	-0.0055643953
38	0xbd33a425	-0.043857712
39	0x3dde080a	0.10841377
40	0x3df356de	0.11881803
41	0x3d33e676	0.043920957
42	0xbd856fa3	-0.06515434
43	0xbca3cf94	-0.019996442
44	0x3cdf4115	0.027252713
45	0x3d26c49f	0.040714856
46	0x3c16a0a7	0.009193576
47	0xbda5ce26	-0.0809596
48	0xbe0ca3b6	-0.13734326
49	0xbe08f31e	-0.13373992
50	0x3dbd92c1	0.09256507
51	0xbdd5f76c	-0.104475826
52	0xbcb4e1a3	-0.022080248
53	0xbd3b3d66	-0.04571285
54	0x3dc04402	0.093879715
55	0xbd81c87f	-0.0633707
56	0x3c813fde	0.015777525
57	0x3ba6a5f8	0.005085703
58	0x3c140291	0.009033815
59	0xbd63daf9	-0.05562875
60	0xbdb41f70	-0.08795059
61	0x3d94234d	0.072332956
62	0x3dbdf9a6	0.09276132
63	0x3d83432e	0.06409298
64	0xbd83cc65	-0.064354695
65	0x3dab4d8a	0.08364399
66	0x3c7e2e95	0.015514036
67	0xbdc2290d	-0.09480486
68	0xbc407c37	-0.011748365
69	0xbdc40088	-0.09570414
70	0xbe2b567a	-0.16732207
71	0xbe14323b	-0.14472286
72	0x3d8aa144	0.0676904
73	0x3cd19e05	0.025588045
74	0x3ca46ac0	0.020070434

first_cons6_filterlist.4.weight f4 [1, 3, 5, 5]
0	0xbd5f5aac	-0.05452983
1	0xbc04d9b7	-0.008108548
2	0xbcd76df0	-0.02629754
3	0xbe01a43b	-0.12660305
4	0x3d1cd10b	0.038285296
5	0xbc9c1c1a	-0.019056369
6	0x3c72d2d5	0.014820774
7	0xbd3d36f8	-0.046195
8	0xbd64385b	-0.055717807
9	0xbd772bb6	-0.06034442
10	0xbd894b59	-0.067038245
11	0x3da937f3	0.082626246
12	0x3de38935	0.111101545
13	0x3b5d8b90	0.003380511
14	0x3cd089ee	0.025456395
15	0x3cf6b6e7	0.030116512
16	0x3d318392	0.043338366
17	0x3d99fe20	0.075191736
18	0x3dbce3c6	0.09223132
19	0x3d902537	0.07038348
20	0xbb84985a	-0.004046482
21	0xbdbb18ac	-0.09135565
22	0xbd174d96	-0.036939226
23	0x3c852524	0.016253062
24	0xbcb6f6a9	-0.022334414
25	0x3dec405b	0.11535712
26	0x3c05096e	0.008119924
27	0x3cf63b2c	0.030057512
28	0x3de523c9	0.11188466
29	0x3deb96cf	0.11503374
30	0xbd66d09b	-0.056351285
31	0xbae349ef	-0.001734076
32	0x3ccc40eb	0.024933299
33	0xbccbe771	-0.024890633
34	0xbd533111	-0.051560465
35	0xbda1951d	-0.07889769
36	0xbcbd6a61	-0.023122014
37	0xbddf5cd7	-0.1090638
38	0x3d8f34ba	0.06992479
39	0xbda56d55	-0.08077494
40	0x3ce5765a	0.028010536
41	0x3e0a59b7	0.13510786
42	0x3db2092b	0.08693155
43	0xbd5d86b5	-0.054083545
44	0xbdb7b5c5	-0.08970217
45	0xbd43c811	-0.04779822
46	0x3e1443b0	0.14478946
47	0xbd6f31da	-0.05839715
48	0x3cb5220a	0.022110958
49	0x3d7b8cfd	0.061413754
50	0xbcc6287f	-0.024189232
51	0xbc56bfca	-0.0131072495
52	0x3c02d55d	0.00798544
53	0x3da079f5	0.078357615
54	0x3dba6c67	0.09102707
55	0xbdf39dab	-0.11895307
56	0xbda6862a	-0.081310585
57	0xbda7ee71	-0.08199776
58	0xbdbdc6f9	-0.09266467
59	0x3d994ffd	0.0748596
60	0x3ccd3fc6	0.025054824
61	0x3c2cd184	0.010547999
62	0xbda9f717	-0.08299082
63	0xbde3a2f8	-0.11115068
64	0x3dc64a08	0.09682089
65	0xbdbf287d	-0.093338944
66	0xbdcf4f7a	-0.10122581
67	0xbde5c2c5	-0.1121879
68	0xbc85b00d	-0.0163193
69	0xbdbdd164	-0.09268454
70	0xbdf53466	-0.11972885
71	0xbdc8d3e7	-0.09806042
72	0xbcf3a7ac	-0.029743038
73	0xbe02a851	-0.1275952
74	0x3d944a85	0.07240776

first_cons6_filterlist.5.weight f4 [1, 3, 5, 5]
0	0xbd3c712d	-0.04600637
1	0x3de24562	0.1104839
2	0xbd3243ab	-0.043521564
3	0x3d837d08	0.06420332
4	0x3dde1aa4	0.10844925
5	0xbd152035	-0.03640767
6	0x3d916160	0.07098651
7	0xbd425a84	-0.047449604
8	0xbdc940f3	-0.09826841
9	0xbd9dba30	-0.07701528
10	0xbdb9af2e	-0.09066616
11	0x3d6d2511	0.057896677
12	0xbdd728cc	-0.10505828
13	0x3d6e8e99	0.05824146
14	0xbc49b627	-0.012311495
15	0x3d36bdc8	0.044614583
16	0x3ba0ceb4	0.0049074534
17	0x3d8d0fe1	0.06887794
18	0xbdbb03ea	-0.09131606
19	0x3ccef890	0.025265008
20	0x3db98abb	0.09059664
21	0x3c08aa45	0.008341377
22	0x3db73c71	0.08947075
23	0xbbe275fc	-0.0069110375
24	0xbdcb5574	-0.09928408
25	0x3d7d24d1	0.06180269
26	0xbd0ac686	-0.033880733
27	0xbd762e14	-0.060102537
28	0xbe128194	-0.14307243
29	0xbd176ed0	-0.036970913
30	0xbb9d3102	-0.004797102
31	0xbd51a0ff	-0.05117893
32	0x3d614e36	0.05500623
33	0xbdd19af7	-0.10234635
34	0x3d4ca872	0.04996533
35	0x3dde27c8	0.108474314
36	0xbd949896	-0.07255666
37	0x3d384f83	0.044997703
38	0xbdb88940	-0.09010553
39	0xbcce0ad2	-0.025151644
40	0x3d59de70	0.05319065
41	0xbd1c7165	-0.03819408
42	0x3d080795	0.033210356
43	0x3db3cdad	0.08779464
44	0x3d62b854	0.05535157
45	0x3c919360	0.01777047
46	0x3d28a927	0.04117694
47	0x3d202675	0.039099175
48	0xbd7cf053	-0.06175263
49	0xbc5eaf70	-0.013591632
50	0xbd9cca3c	-0.07655761
51	0xbdaa62ca	-0.08319624
52	0xbdd20388	-0.1025458
53	0xbc232f13	-0.009959954
54	0x3d3097f6	0.04311367
55	0xbd63c9a8	-0.055612236
56	0xbd3fdc29	-0.04684082
57	0xbcc89c6b	-0.024488648
58	0xbdc1dab2	-0.09465541
59	0xbc8b3406	-0.01699258
60	0xbccb814f	-0.024841933
61	0xbd5fa447	-0.054600026
62	0xbd0f93e6	-0.035053156
63	0x3d578a24	0.052621976
64	0x3d76fac3	0.06029774
65	0x3d9dc3fd	0.077033974
66	0x3d846f42	0.06466533
67	0x3d3e2a60	0.04642713
68	0x3cee08b5	0.029056886
69	0x3d28e7b1	0.041236583
70	0xbb802019	-0.0039100763
71	0xbd76d9ea	-0.060266413
72	0x3d76f7f5	0.060295064
73	0xbd59da0e	-0.05318647
74	0x3d2fa372	0.042880483

second_cons6_filterlist.0.weight f4 [1, 4, 5, 5]
0	0xbdc55393	-0.09635081
1	0xbd6d40fa	-0.057923295
2	0x3cb336e6	0.021876764
3	0xba0a001e	-0.00052642997
4	0x3d8bf3b0	0.06833589
5	0x3dc62abf	0.09676122
6	0xbbcfb059	-0.006338161
7	0xbd9641f1	-0.07336796
8	0x3c4228c2	0.011850538
9	0x3d7ae32d	0.061251808
10	0xbb46eb80	-0.0030352771
11	0xbdb8b9ea	-0.09019835
12	0x3d49f601	0.049306873
13	0x3ba007ea	0.004883756
14	0xbddf80dc	-0.1091325
15	0x3d806226	0.0626872
16	0x3d90140e	0.07035075
17	0xbb67650f	-0.0035308038
18	0x3daf2af6	0.08553116
19	0x3d9d491b	0.076799594
20	0xbd23f8bc	-0.040032133
21	0xbd8ef9f0	-0.069812655
22	0x3db3e4c2	0.087838665
23	0x3d158f27	0.036513474
24	0x3c0a18da	0.008428777
25	0x3db487af	0.08814942
26	0xbda6300f	-0.08114635
27	0x397fe645	0.00024404477
28	0x3bae748f	0.0053239535
29	0xbda396ab	-0.07987722
30	0x3da2ccc5	0.07949213
31	0x3d069cdb	0.032864433
32	0xbd94bbac	-0.07262358
33	0xbd558591	-0.052129332
34	0x3d07ab51	0.033122364
35	0xbc92e1ce	-0.017929938
36	0x3d9655a1	0.07340551
37	0x3cf8eb7a	0.030385721
38	0x3cbbd253	0.022927439
39	0xbd28518c	-0.041093394
40	0xbdf01d99	-0.11724395
41	0xbd1e04be	-0.03857874
42	0xbca43de2	-0.02004904
43	0x3d558955	0.052132923
44	0x3bb0ba90	0.0053933337
45	0xbd55f718	-0.0522376
46	0x3d0863d3	0.033298325
47	0xbd09990c	-0.033593222
48	0xbcd81c2e	-0.026380625
49	0xbdf0474f	-0.11732351
50	0x3cb96f5f	0.022636114
51	0x3d7ccf06	0.06172087
52	0xbdc6a6e5	-0.09699801
53	0xbdb1a0e6	-0.08673267
54	0x3d1ea381	0.03873015
55	0xbdbc7a23	-0.09202983
56	0xbd676a8e	-0.056498103
57	0xbde02ba9	-0.109458275
58	0xbcf95848	-0.030437604
59	0xbe027c16	-0.12742648
60	0xbdc86f17	-0.09786814
61	0x3da563b3	0.08075657
62	0xba450ba1	-0.00075166865
63	0x3d9298f1	0.071580775
64	0xbd583c4d	-0.052791882
65	0xbcb3a269	-0.02192803
66	0xbbefb6bc	-0.007315485
67	0x3b76c7b7	0.003765566
68	0x3dc458b8	0.09587234
69	0x3dbea6bd	0.093091466
70	0x3cef71d1	0.029229077
71	0x3cc5abaa	0.024129707
72	0x3d6d03b3	0.057864856
73	0xbdae587d	-0.085129716
74	0x3d11829c	0.03552495
75	0xbc954f27	-0.01822622
76	0x3d50f779	0.05101726
77	0xbd2f9815	-0.042869646
78	0xbdae0675	-0.08497325
79	0xbc190e30	-0.0093417615
80	0xbdc1122e	-0.094272956
81	0xbcde8aa4	-0.027165718
82	0x3d8f0e0e	0.069851026
83	0xbccaec62	-0.02477092
84	0x3ba0c3d5	0.0049061575
85	0xbd3c2012	-0.045929022
86	0xbceb2cb7	-0.028707845
87	0xbd1ae959	-0.037820194
88	0x3d3a4d93	0.045484137
89	0xbe184236	-0.14869007
90	0xbd9ef87b	-0.07762238
91	0xbdf9bd45	-0.121943034
92	0x3d0aae12	0.033857413
93	0xbcb2e5b4	-0.021838047
94	0xbe08ab70	-0.13346648
95	0xbbcedb0d	-0.006312734
96	0xbb1c1190	-0.002381418
97	0x3de69bba	0.11260171
98	0x3d389563	0.04506434
99	0x3c7d191f	0.015447884

second_cons6_filterlist.1.weight f4 [1, 4, 5, 5]
0	0xbb384394	-0.0028116452
1	0x3d810cfa	0.06301303
2	0xbd032d81	-0.032025818
3	0x3ac79783	0.0015227649
4	0xbd8de191	-0.06927789
5	0xbd4c5260	-0.049883246
6	0x3d8c4a85	0.06850151
7	0xbd1a3e7a	-0.03765724
8	0x3d8e8c74	0.06960383
9	0xbd716f6e	-0.05894416
10	0x3db231c1	0.08700896
11	0xbcb7d9eb	-0.022442779
12	0x3d2a0fbb	0.041518908
13	0xbdbdc372	-0.09265794
14	0xbc72ee5f	-0.01482734
15	0xbcaa1c2b	-0.020765385
16	0x3d895f38	0.06707615
17	0x3da07389	0.078345366
18	0x3da2a521	0.07941652
19	0x3d7b45c6	0.061345838
20	0x3d353313	0.04423816
21	0x3dbae1e8	0.091251194
22	0x3d391217	0.045183267
23	0x3b6a3ea5	0.0035742905
24	0x3d1e0c0b	0.038585704
25	0xbaf7eccd	-0.0018915177
26	0xbd5b65fa	-0.05356405
27	0xbd800972	-0.062518016
28	0x3dd3c3e9	0.10340101
29	0x3d5f7f4e	0.054564767
30	0xbd8bf202	-0.06833269
31	0xbd8d5d98	-0.06902617
32	0x3d3de9cc	0.046365544
33	0x3db2d51d	0.087320544
34	0x3dbac5ff	0.09119796
35	0x3d27b231	0.04094142
36	0xbc4cab14	-0.01249196
37	0xbd3e179f	-0.046409246
38	0x3d08b2e2	0.03337372
39	0xbd986390	-0.07440865
40	0x3d06ebd0	0.032939732
41	0xbdd8f0c6	-0.10592799
42	0x3cde33dc	0.027124338
43	0x3d8f0dd8	0.06985062
44	0xbdb4e3cf	-0.088325135
45	0x3d0f85e2	0.03503979
46	0x3cd64fe2	0.026161138
47	0xbdc9fff8	-0.09863275
48	0xbce4f084	-0.027946718
49	0x3c9450b3	0.018104887
50	0xbda5224a	-0.08063181
51	0x3d7c3430	0.061573207
52	0xbcd81a85	-0.026379833
53	0xbd9a6971	-0.075396426
54	0xbdf9df61	-0.12200809
55	0xbd524d43	-0.051343214
56	0xbd2a1dc6	-0.0415323
57	0x3cecc7f4	0.028903939
58	0xbd3d01db	-0.046144348
59	0x3d42d04e	0.047561936
60	0x3bc508df	0.0060130204
61	0x3dbacf9e	0.09121631
62	0xbd93d558	-0.072184265
63	0x3c4735cd	0.012158823
64	0x3cc086ad	0.023501718
65	0xbd9a50d8	-0.07534951
66	0xbd897b42	-0.06712963
67	0x3d9c6349	0.07636125
68	0x3d9c9703	0.07645991
69	0x3d6351db	0.055497985
70	0x3d723efe	0.059142105
71	0xbda71078	-0.08157438
72	0xbcb7bdc6	-0.022429358
73	0x3c3cf6a1	0.01153341
74	0xbd896293	-0.06708255
75	0x3d951eb6	0.07281248
76	0xbcb350e0	-0.02188915
77	0x3bdcc815	0.006737719
78	0x3db808a3	0.08986022
79	0xbdcaf17b	-0.0990934
80	0x3d111cbc	0.035427794
81	0xbd35ab70	-0.04435295
82	0xbdd0515c	-0.10171768
83	0xbdf84e18	-0.1212427
84	0xbd29f92f	-0.041497406
85	0xbde132f6	-0.10996048
86	0xbca66f1a	-0.02031665
87	0x3c51db78	0.012808673
88	0xbd8213fd	-0.06351469
89	0xbdb89395	-0.09012524
90	0x3cb04131	0.02151546
91	0xbd4035c3	-0.04692627
92	0xbd3086c1	-0.04309726
93	0xbd3f718a	-0.04673914
94	0x3cc8c526	0.02450807
95	0x3d65719a	0.056016542
96	0xbdbe8d64	-0.09304312
97	0xbc68179c	-0.014165785
98	0xbccd883a	-0.025089372
99	0x3d5787a6	0.0526196

second_cons6_filterlist.2.weight f4 [1, 4, 5, 5]
0	0x3d79283e	0.060829394
1	0xbd8df0ee	-0.06930719
2	0x3d704a62	0.058664687
3	0xbd40fa1f	-0.047113534
4	0x3d8ae211	0.067814
5	0x3d7a800e	0.06115728
6	0xbd407bcd	-0.046993066
7	0x3d3cf6c3	0.046133768
8	0xbcd09e86	-0.025466215
9	0x3d9c7697	0.07639807
10	0xbbc38d72	-0.0059677893
11	0x3dba3fc5	0.09094194
12	0xbd07a9fd	-0.033121098
13	0xbd29726f	-0.041368898
14	0x3ca2e7e2	0.019885961
15	0xbdcbe683	-0.09956076
16	0x3dbcf799	0.09226913
17	0xbc68b3a8	-0.01420299
18	0xbaded12d	-0.0016999595
19	0xbdc4e462	-0.09613873
20	0x3c6fbbec	0.014632206
21	0xbd2c08f1	-0.042000715
22	0xbd10983c	-0.035301432
23	0x3d379ba7	0.044826176
24	0x3d95f0d4	0.07321325
25	0xbc966c0c	-0.018362068
26	0x3d523945	0.051324148
27	0x3cdfe698	0.027331635
28	0x3d8656ec	0.06559548
29	0x3c980b66	0.018560123
30	0x3d6ac195	0.05731352
31	0x3cc9f64a	0.024653573
32	0xbca6decc	-0.02036991
33	0x3dd31f26	0.103086755
34	0x3c4eba21	0.012617619
35	0xbc53226e	-0.012886627
36	0xbd2b633a	-0.041842677
37	0x3db6f116	0.08932702
38	0xbc5a2723	-0.013314995
39	0x3c2db95f	0.010603278
40	0x3b73d283	0.0037204332
41	0x3dab4086	0.08361916
42	0x3de05f4d	0.10955677
43	0x3cc8a71e	0.02449375
44	0x3d2d6195	0.04232939
45	0xb83060b1	-4.205172e-05
46	0xbda566da	-0.08076258
47	0x3cf8674d	0.030322695
48	0x3cbce715	0.023059407
49	0xbda0d2bc	-0.078526944
50	0xbc95cd36	-0.018286329
51	0x3d658403	0.0560341
52	0x3d3374b1	0.043812457
53	0x3db54315	0.088506855
54	0x3d7bc8ec	0.06147091
55	0xbb32bcd4	-0.0027273195
56	0x3dc6a490	0.096993566
57	0x3d81a956	0.063311264
58	0x3d60d93f	0.054894682
59	0x3d180fd9	0.03712449
60	0xbc43a34e	-0.01194079
61	0x3d69f8db	0.057122093
62	0x3d78a67e	0.060705654
63	0x3d1039a7	0.03521123
64	0xbd9f58ad	-0.077805854
65	0xbd65fe59	-0.056150768
66	0xbd61ac3b	-0.055095892
67	0xbd3eede5	-0.046613593
68	0x3d17734f	0.0369752
69	0x3d5ebdf4	0.054380372
70	0xbd98f2ec	-0.07468209
71	0x3da45438	0.08023876
72	0x3cca0ba9	0.024663763
73	0xbcbcf8fd	-0.023067946
74	0x3d54d1d6	0.051957928
75	0xbd15e93d	-0.036599386
76	0xbb6971b6	-0.0035620756
77	0xbdac8870	-0.08424461
78	0xbde060ef	-0.109559886
79	0xbd872938	-0.06599659
80	0x3db08fbb	0.086211644
81	0xbdc38671	-0.09547127
82	0xbc93b4dc	-0.018030576
83	0xbd22be7f	-0.039732452
84	0xbc259d6e	-0.010108335
85	0x3d71f015	0.05906685
86	0xbe08ed83	-0.13371854
87	0x3d1b7e14	0.037962034
88	0xbdb07e9b	-0.08617898
89	0xbd03f38d	-0.03221469
90	0x3ced3b09	0.028958814
91	0xbe0a9f68	-0.13537371
92	0xbce55274	-0.027993418
93	0xbd9624a7	-0.0733121
94	0xbbaef2d0	-0.005339004
95	0x3cd24128	0.025665835
96	0x3d5bc0a6	0.05365052
97	0x3d258456	0.04040941
98	0xbdc6cec6	-0.09707408
99	0x3ca7e0a9	0.020492868

second_cons6_filterlist.3.weight f4 [1, 4, 5, 5]
0	0xbd9e8caa	-0.07741673
1	0xbd85fd48	-0.0654245
2	0xbcf53536	-0.0299326
3	0x3dea91c5	0.114535846
4	0x3d44f72a	0.048087277
5	0x3bd17ff3	0.0063934266
6	0x3d09e962	0.033669837
7	0x3d184b6c	0.037181303
8	0xbd86c0fd	-0.06579778
9	0xbcea53be	-0.028604385
10	0xbcf1de5f	-0.02952498
11	0xbd8f0e00	-0.06985092
12	0xbdc23fc0	-0.094848156
13	0x3d1e9d7f	0.03872442
14	0xbcb56a7a	-0.022145499
15	0x3dc890cf	0.09793245
16	0x3d99c5fa	0.07508464
17	0xbcb1b798	-0.02169399
18	0xbd315360	-0.043292403
19	0xbcbb3d30	-0.022856325
20	0x3cddc4ed	0.02707144
21	0xbd9de89c	-0.07710382
22	0xbda8c820	-0.08241296
23	0x3d8ebaf6	0.06969254
24	0x3d9f27fa	0.07771297
25	0x3ba36764	0.0049866904
26	0xbd2135fd	-0.039358128
27	0x3b6f8404	0.0036547193
28	0xbdb51286	-0.08841424
29	0xbd5da62a	-0.054113545
30	0xbd064ffe	-0.03279113
31	0xbd8b95b5	-0.06815664
32	0x3bdec55c	0.0067984294
33	0x3d9c844f	0.07642423
34	0xbdd57232	-0.10422172
35	0x3d30d8e7	0.043175604
36	0xbdc846f0	-0.09779155
37	0x3db4311d	0.0879843
38	0x3cd63ae3	0.026151126
39	0x3b1d8968	0.00240382
40	0x3d7804a6	0.060551308
41	0xbdf0f173	-0.11764803
42	0xbd20dc6d	-0.039272714
43	0xbd7db248	-0.0619376
44	0x3db22a3d	0.086994626
45	0xbd641c3d	-0.055690993
46	0x3d7d23f6	0.061801873
47	0x3ddff0ba	0.10934587
48	0x3d580649	0.05274037
49	0xbc7d8cce	-0.015475465
50	0xbdae1c11	-0.08501447
51	0x3c8d9a03	0.017285353
52	0xbcefcfa7	-0.029273821
53	0xbdc2ed72	-0.09517945
54	0xbdd2cbc4	-0.102927715
55	0x3daf22a0	0.08551526
56	0x3dbffcc3	0.09374382
57	0x3d0a22b3	0.033724498
58	0xbd307b46	-0.043086313
59	0xbd20418c	-0.03912501
60	0x3d8fc359	0.070196815
61	0xbd4b340b	-0.04961018
62	0xbdbc1468	-0.0918358
63	0xbd531bdd	-0.051540244
64	0x3d23f248	0.04002598
65	0xbda00399	-0.07813186
66	0xbcd73b93	-0.026273524
67	0x3c06a2f5	0.008217563
68	0x3d3ae306	0.045626663
69	0x3c2064f4	0.009789694
70	0xbd97f0ee	-0.074190006
71	0xbd2cebd5	-0.042217094
72	0xbd82d979	-0.06389136
73	0x3ba99a40	0.0051758587
74	0x3dbfe59a	0.09369965
75	0xbdb39ca4	-0.08770111
76	0xbdb40d23	-0.08791568
77	0x3c962a09	0.01833059
78	0xbd86fde3	-0.06591394
79	0x3bd25939	0.0064193276
80	0x3d87f1c5	0.06637911
81	0x3ca85b7c	0.020551436
82	0x3dc1380e	0.0943452
83	0xbd49e093	-0.049286436
84	0xbdc6d1a8	-0.097079575
85	0x3d6f3af3	0.058405828
86	0x3dcd2a1f	0.100177996
87	0x3a8c8e96	0.0010723646
88	0xba8cd221	-0.0010743776
89	0xbd80ac4d	-0.06282864
90	0xb7e8daed	-2.77585e-05
91	0x3d8dec29	0.069298096
92	0xbd092684	-0.033483997
93	0x3d29e8b3	0.041481685
94	0x3d1a9741	0.037741903
95	0xbdbf41e3	-0.09338739
96	0xbcc7671e	-0.024341162
97	0xbdadb830	-0.084823966
98	0xbc86ecd1	-0.016470345
99	0xbd4109b7	-0.047128405

second_cons6_filterlist.4.weight f4 [1, 4, 5, 5]
0	0x3cd72625	0.026263306
1	0xbbd4d22b	-0.0064947805
2	0x3dab557d	0.08365915
3	0x3dc96023	0.0983279
4	0x3d3151c2	0.04329086
5	0x3d9b8f6b	0.07595714
6	0x3a56384a	0.000817184
7	0xbd51e188	-0.051240474
8	0x3da3d2a0	0.07999158
9	0xbda1c3a0	-0.07898641
10	0x3d00cbc2	0.03144432
11	0xbdcc9b1a	-0.09990521
12	0xbde2ab80	-0.11067867
13	0xbda7acf4	-0.08187285
14	0xbde1060c	-0.109874815
15	0xbd9df88b	-0.077134214
16	0xbda11878	-0.07865995
17	0xbc806328	-0.015672281
18	0xbdadbe4f	-0.08483564
19	0xbcae85c7	-0.021304024
20	0x3d42e852	0.04758484
21	0x3d3846bb	0.04498933
22	0xbbe1fa17	-0.006896268
23	0x3e02a9e9	0.12760128
24	0x3cdba4c8	0.026811972
25	0x3ac8cfea	0.0015320752
26	0x3d7bf1e9	0.06151
27	0xbd1ab58a	-0.037770785
28	0xbdc2680a	-0.094925
29	0xbde1771d	-0.11009047
30	0x3d89a500	0.067209244
31	0xbdcd85fd	-0.10035322
32	0x3c9d0be6	0.019170713
33	0x3d5cc775	0.053901155
34	0xbd9345f3	-0.07191076
35	0xbbee1e7d	-0.007266818
36	0x3cb5ee74	0.02220843
37	0xbe0bddf5	-0.13658889
38	0xbddea681	-0.10871602
39	0x3da7e158	0.08197278
40	0xbc3f974c	-0.011693787
41	0x3deb707b	0.11496063
42	0xbd71dc5a	-0.059048034
43	0x3d1a6aca	0.0376995
44	0x3bdafb6d	0.0066828043
45	0x3d081632	0.033224292
46	0x3c9a34bb	0.018823972
47	0x3ddce7e3	0.107864164
48	0xbb316c11	-0.002707247
49	0xbd37fcbd	-0.044918764
50	0x3bdcb098	0.006734919
51	0xbdb1067d	-0.08643816
52	0xbc98ac58	-0.018636867
53	0x3dbf9158	0.09353894
54	0x3dd06f9e	0.10177539
55	0xbc83cece	-0.016089823
56	0x3d676f31	0.056502525
57	0x3d8782fc	0.0661678
58	0x3ca40c86	0.020025503
59	0x3c1fbae2	0.009749146
60	0xbb59f415	-0.0033257056
61	0x3c090eec	0.008365374
62	0x3dbf8244	0.09351018
63	0x3d1f796e	0.038934164
64	0xbb464eda	-0.0030259402
65	0x3d676fb3	0.05650301
66	0x3b98decf	0.0046652327
67	0x3daaf889	0.083481856
68	0xbcea0a37	-0.028569324
69	0xbdd2c8ea	-0.102922276
70	0x3d659077	0.056045976
71	0xbd068194	-0.03283842
72	0xbdd0b784	-0.10191253
73	0x3d7c97ed	0.061668325
74	0xbdbba2a1	-0.091618784
75	0x3d01445e	0.03155934
76	0xbd5b25f8	-0.053503007
77	0x3c47f564	0.012204502
78	0x3d97b94c	0.074083894
79	0xbc69bd3f	-0.014266311
80	0xbda412b1	-0.080113776
81	0x3db6b542	0.08921291
82	0xbdbf07b7	-0.09327643
83	0xbd1a2bee	-0.03763955
84	0xbd371150	-0.044694245
85	0x3d85eb91	0.06539071
86	0x3c01333d	0.007885751
87	0xbc6574e2	-0.014004918
88	0xbdbfb1a7	-0.09360056
89	0x3cc7fee2	0.02441353
90	0xbdb8f09d	-0.09030268
91	0xbdec777d	-0.11546228
92	0xbc93d670	-0.018046588
93	0x3ca2bf62	0.019866649
94	0xbd532d39	-0.0515568
95	0xbcce86da	-0.025210787
96	0x3d1acb56	0.037791573
97	0x3d25ca47	0.04047611
98	0xbd10fad5	-0.035395462
99	0xbb998fa1	-0.0046863114

second_cons6_filterlist.5.weight f4 [1, 4, 5, 5]
0	0xbd50f729	-0.05101696
1	0x3db90bed	0.09035478
2	0xbd12e4f0	-0.035862863
3	0x3cddec8a	0.02709033
4	0x3cb8ff19	0.022582578
5	0xbd3c130a	-0.045916595
6	0xbd4fe632	-0.05075664
7	0x3de59b4b	0.112112604
8	0xbd1c082b	-0.038093727
9	0x3dc90d4b	0.098169886
10	0x3bd13a8d	0.0063851536
11	0x3df7f69c	0.12107584
12	0xbd8ea684	-0.06965354
13	0xbdb508aa	-0.08839543
14	0xbd5f76c1	-0.054556612
15	0x3d4e1f16	0.050322615
16	0x3d104ac8	0.035227567
17	0x3cc9e206	0.02464391
18	0xbd11aba5	-0.035564084
19	0xbd990664	-0.07471922
20	0xbd1dfa0b	-0.038568538
21	0x3c48dc7c	0.012259599
22	0xbd695f1e	-0.056975476
23	0x3da929af	0.08259904
24	0x3d813b81	0.063101776
25	0x3ded2935	0.11580125
26	0xbb854617	-0.0040671933
27	0xbd4915c8	-0.049093038
28	0xbdc7438d	-0.09729681
29	0x3d5c3e68	0.053770453
30	0xbc0344e1	-0.0080120275
31	0xbdb3bd14	-0.08776298
32	0xbe014726	-0.12624797
33	0xbe026638	-0.12734306
34	0xbcc19f22	-0.02363545
35	0x3db8560b	0.090007864
36	0xbdaaaf4d	-0.08334217
37	0xbc98fd00	-0.018675327
38	0xbcdc3cd8	-0.026884481
39	0x3dbce054	0.09222475
40	0x3dec8a52	0.1154982
41	0x3dc68a4a	0.09694345
42	0x3d94081e	0.07228111
43	0xbd51a19b	-0.05117951
44	0xbd3ea754	-0.046546295
45	0xbd6e903e	-0.05824303
46	0xbcce0e6b	-0.02515336
47	0xbda3dd0f	-0.08001148
48	0xbdc186e1	-0.09449554
49	0xbcb22c59	-0.021749662
50	0x3d9b56f8	0.07584947
51	0x3cdcd47f	0.026956795
52	0xbc0ad06b	-0.008472542
53	0x3c8ea0e9	0.017410712
54	0x3d7acd69	0.06123105
55	0x3d2479dd	0.04015528
56	0x3c824b07	0.015904916
57	0x3d9fbf97	0.07800215
58	0xbdacc48c	-0.08435926
59	0xbd38eece	-0.045149617
60	0xbda70df0	-0.08156955
61	0x3d85c453	0.065315865
62	0x3d1ab8c8	0.037773877
63	0xbd9b803c	-0.07592818
64	0xbd59562f	-0.053060707
65	0x3d540751	0.05176479
66	0x3de54ed5	0.11196677
67	0xbcb415c4	-0.021983035
68	0xbdce294d	-0.10066471
69	0x3d97ce3c	0.07412383
70	0xbda16f63	-0.078825735
71	0x3d62a1f6	0.05533024
72	0xbd6a7bb3	-0.057246875
73	0x3d9b2293	0.07574954
74	0xbdca8041	-0.09887744
75	0xbc8077d3	-0.015682137
76	0xbd290da8	-0.04127279
77	0xbd25b835	-0.040458877
78	0x3cf040c5	0.02932776
79	0xbb9b1246	-0.004732403
80	0xbadcaf0a	-0.0016836834
81	0xbd066aed	-0.032816816
82	0xbdbb7a0f	-0.0915414
83	0xbc9d6a80	-0.019215822
84	0x3d8b15b5	0.0679125
85	0x3d54a0ff	0.05191135
86	0x3d5036a5	0.050833363
87	0xbdcb4735	-0.09925691
88	0xbde2fdef	-0.1108359
89	0x3b292cf2	0.0025814143
90	0xbc016028	-0.007896461
91	0x3d711fba	0.058868147
92	0xbd6767f9	-0.05649564
93	0x3c3d53ac	0.011555593
94	0x3ddf1a8c	0.10893735
95	0xbc21dab9	-0.009878808
96	0x3d11bc24	0.035579816
97	0x3d0c4c27	0.034252312
98	0x3cfc8cee	0.03082892
99	0x3dde10c2	0.1084304

third_cons3_filterlist.0.weight f4 [1, 4, 5, 5]
0	0x3d18131a	0.03712759
1	0x3dd9c51d	0.106332995
2	0xbdb2f406	-0.0873795
3	0x3d82b6bd	0.06382511
4	0xbcde8717	-0.027164025
5	0x3d8f37e2	0.06993081
6	0x3dac4242	0.08411075
7	0x3bd0a65a	0.006367487
8	0xbd12aad1	-0.035807434
9	0xbd27bfbf	-0.040954348
10	0x3dc75409	0.09732825
11	0x3daec34c	0.08533344
12	0x3dc78831	0.09742773
13	0x3ca6ee0c	0.020377181
14	0xbd9cd4b9	-0.07657761
15	0x3d70e33b	0.058810454
16	0x3d1f1e56	0.03884729
17	0x3db468ee	0.08809076
18	0xbdae7060	-0.085175276
19	0xbdab67f1	-0.083694346
20	0xbab1ee19	-0.0013574987
21	0x3d574cb9	0.052563403
22	0x3cfad7e2	0.03062052
23	0x3d3309f4	0.043710664
24	0x3d3a7d4b	0.045529645
25	0xbd592558	-0.05301413
26	0xbda3989e	-0.07988094
27	0xbd12f6cd	-0.0358799
28	0xbc531317	-0.012882969
29	0x3da6511b	0.081209384
30	0x3c7a2a68	0.0152688995
31	0x3cb21a10	0.021740943
32	0x3d3a3f09	0.04547027
33	0x3be19bbd	0.0068850205
34	0x3d315673	0.043295335
35	0x3d129bb0	0.035793006
36	0xbd3cbaef	-0.04607671
37	0x3d678ee2	0.056532748
38	0x3c3ddf51	0.011588887
39	0xbddaef38	-0.106901586
40	0x3d60fc0b	0.054927867
41	0xbd4aa1d3	-0.049470734
42	0xbdb528ea	-0.08845694
43	0xbd52dad1	-0.05147821
44	0xbcfeaaa3	-0.031087225
45	0x3d2df6ba	0.042471625
46	0xb928cc62	-0.00016097867
47	0xbd4cc93d	-0.049996603
48	0x3c77dbd4	0.015128095
49	0x3d583b97	0.052791204
50	0x3d530ef4	0.051527932
51	0xbc19521c	-0.009357955
52	0x3dafdac1	0.08586646
53	0x3d72e06a	0.05929605
54	0xbdc19b67	-0.09453469
55	0x3cde7bd0	0.027158648
56	0xbd9fbcb0	-0.07799661
57	0xbd7fcb28	-0.062449604
58	0xbd96d733	-0.07365265
59	0xbc1e0b7d	-0.009646294
60	0xbde3a56f	-0.11115538
61	0xbdfec06d	-0.12439046
62	0x3df337d1	0.118758805
63	0xbde45953	-0.1114985
64	0x3d836570	0.06415832
65	0xbd6f410f	-0.058411654
66	0xbd1ba4ec	-0.03799908
67	0xbdc94a0f	-0.09828579
68	0xbb8171b8	-0.003950324
69	0x3dd552f7	0.10416215
70	0x3d602c27	0.054729607
71	0x3d720213	0.05908401
72	0xbde1a2b5	-0.11017362
73	0x3d9fae36	0.077969
74	0xbdaa8ef1	-0.08328045
75	0x3db18260	0.08667445
76	0x3d24ee2b	0.040266197
77	0xbd5ac502	-0.053410538
78	0x3dc25b85	0.09490112
79	0x3dcc9e06	0.09991078
80	0xbd859685	-0.0652285
81	0x3df3af56	0.11898677
82	0x3dbb6ff7	0.09152215
83	0x3d13c0a1	0.036072377
84	0xbdb37255	-0.087620415
85	0xbd92b2be	-0.071629986
86	0xbced112b	-0.02893885
87	0x3d962c5e	0.07332681
88	0xbd96bc4f	-0.07360136
89	0x3dc009c7	0.09376865
90	0x37ed6220	2.8298295e-05
91	0xbdb7329f	-0.08945202
92	0xbdae730f	-0.085180394
93	0x3d4a9545	0.04945876
94	0xbc96f752	-0.018428478
95	0xbd85a2c9	-0.065251894
96	0xbd42e5ba	-0.047582366
97	0x3d9ba2fa	0.07599445
98	0xbdb57f03	-0.08862116
99	0x3d979b82	0.07402708

third_cons3_filterlist.1.weight f4 [1, 4, 5, 5]
0	0xbd2cb717	-0.042166796
1	0xbd8c9706	-0.06864743
2	0xbdab313c	-0.08359
3	0xbe0bb045	-0.1364146
4	0xbc966634	-0.018359281
5	0xbc687c66	-0.014189815
6	0xbd250a28	-0.04029289
7	0x3d421dbb	0.047391634
8	0x3d9639d0	0.073352456
9	0x3da7de44	0.08196691
10	0x3db10b89	0.08644778
11	0xbc5818b8	-0.013189487
12	0xbd1d239a	-0.03836403
13	0x3ccfe0ea	0.025375802
14	0x3d90d40c	0.07071695
15	0xbc31d02a	-0.010852853
16	0xbddd76e9	-0.10813696
17	0x3d21835f	0.039431926
18	0x3d8845f8	0.066539705
19	0x3ccc691b	0.024952462
20	0xbdafc29c	-0.08582041
21	0xbbd3cb92	-0.0064634765
22	0xbdaceee3	-0.084440015
23	0xbe2795ed	-0.16365786
24	0xbc885585	-0.016642341
25	0xbda7e1cd	-0.08197365
26	0x3d9c03a1	0.0761788
27	0x3d86eeec	0.065885395
28	0x3aed6eca	0.0018114683
29	0xbde79451	-0.11307586
30	0x3ba7b2ee	0.0051177656
31	0xbd98e26e	-0.07465063
32	0xbdadc2e8	-0.08484441
33	0x3d2cbca1	0.042172078
34	0xbdbaa297	-0.09113043
35	0x3ccc2942	0.024922017
36	0xbdbbae8a	-0.0916415
37	0xbd9537f7	-0.07286065
38	0xbd086f61	-0.033309344
39	0xbd8c659a	-0.068553165
40	0xbd3826ab	-0.04495875
41	0xbdd5d62c	-0.10441241
42	0x3d99e4c2	0.07514335
43	0x3db388c1	0.08766318
44	0xbd2b7d2d	-0.041867424
45	0xbde313c4	-0.11087754
46	0xbc55fe6e	-0.013061149
47	0x3c1c5daa	0.009543816
48	0x3d4e411b	0.05035506
49	0x3dbd580a	0.09245308
50	0x3dda5db5	0.106624044
51	0x3e099061	0.13433982
52	0x3b8076af	0.003920398
53	0xbcc8edb9	-0.024527417
54	0xbd8efd55	-0.06981913
55	0x3de8728f	0.11349975
56	0x3d9257d7	0.0714566
57	0x3dc203a4	0.09473351
58	0x3c5bfd5d	0.013427106
59	0xbd44ae89	-0.048018012
60	0xbdbb4335	-0.09143678
61	0xbdd9af56	-0.10629146
62	0x3bb8d3dc	0.00564049
63	0xbae438a8	-0.0017411904
64	0xbd5c01d6	-0.05371269
65	0x3c9c9975	0.019116143
66	0xbddd9b47	-0.108206324
67	0x3a2ed8bb	0.00066698686
68	0xbcc232ca	-0.023705859
69	0xbdde9cc0	-0.108697414
70	0xbb11b712	-0.0022234363
71	0x3d43b8fb	0.047783833
72	0x3e03bc6c	0.12864846
73	0x3d020640	0.03174424
74	0x3e111ee5	0.14171942
75	0xbd9f489e	-0.077775225
76	0xbd2051f3	-0.039140653
77	0xbd06f2ad	-0.032946277
78	0xbd6e36d2	-0.05815775
79	0x3d636070	0.05551189
80	0x3d3ab2f1	0.045580808
81	0xbd75ffcd	-0.060058404
82	0xbcec815c	-0.028870277
83	0x3de1bcac	0.110223144
84	0x3c47b0de	0.0121881645
85	0xbd8e565d	-0.06950066
86	0xbde80326	-0.113287255
87	0x3c83a6c3	0.01607073
88	0xbbcc45e5	-0.006233918
89	0x3ce90bb2	0.02844796
90	0xbd127d62	-0.035764106
91	0x3c1e1664	0.009648893
92	0x3d1eb006	0.038742088
93	0x3ddf2c49	0.108971186
94	0xbce2b4d0	-0.027674109
95	0x3d3ce30a	0.04611496
96	0xbd60aedc	-0.05485426
97	0x3b35cf8d	0.0027742118
98	0xbdcdb77a	-0.10044761
99	0xbceee763	-0.029163068

third_cons3_filterlist.2.weight f4 [1, 4, 5, 5]
0	0xbd38d423	-0.045124184
1	0xbd0100f9	-0.03149507
2	0xbda32d41	-0.07967616
3	0x3d79fd2c	0.06103246
4	0x3d92100d	0.07131968
5	0xbd5d8314	-0.054080084
6	0x3dcd0647	0.10010963
7	0x3cf2b9d8	0.029629633
8	0x3d24af6d	0.04020636
9	0xbdf94c34	-0.12172738
10	0xbde37f03	-0.1110821
11	0x3d634e65	0.055494685
12	0x3ce2d0a4	0.027687378
13	0xbd25f018	-0.040512174
14	0xbd543733	-0.051810455
15	0x3d720b7e	0.05909299
16	0xbd1c72e8	-0.03819552
17	0xbd9215b7	-0.07133048
18	0x3d033905	0.0320368
19	0xbd02a49c	-0.031895265
20	0xbe031e68	-0.12804568
21	0xbcad6ccc	-0.021170042
22	0x3cda7f35	0.026671985
23	0xbdc85106	-0.09781079
24	0xbde26519	-0.11054439
25	0xbdb40d53	-0.08791604
26	0xbcc64d24	-0.024206705
27	0x3d1e7809	0.038688693
28	0x3d2870bb	0.041123133
29	0x3d18a7b2	0.0372693
30	0xbdf6d2c3	-0.12051918
31	0x3cf11ee2	0.029433671
32	0xbd8b9ce1	-0.06817032
33	0x3c062fab	0.008190076
34	0x3d2a7888	0.041618854
35	0xbd92811c	-0.07153532
36	0xbda6252b	-0.08112558
37	0x3d9fd5db	0.078044616
38	0x3cdae423	0.026720112
39	0xbd24cb9d	-0.040233243
40	0xbdd84e27	-0.105617814
41	0xbd832413	-0.06403365
42	0x3dbb41bc	0.09143397
43	0xbc55ef0f	-0.013057484
44	0x3ce4a435	0.027910331
45	0xbd8e0e47	-0.06936317
46	0xbdc91037	-0.09817546
47	0x3ccdb51f	0.02511078
48	0x39a1cb78	0.0003085991
49	0xbe064eb4	-0.1311596
50	0xbdf6fd14	-0.120599896
51	0xbc81f339	-0.015863048
52	0x3e0349f1	0.12821175
53	0x3de5abaa	0.11214383
54	0xbd056305	-0.032565136
55	0xbd102607	-0.035192516
56	0x3d963bc4	0.07335618
57	0xbb0f3651	-0.0021852443
58	0xbd61983a	-0.055076815
59	0x3dad88be	0.08473347
60	0xbe09fce2	-0.13475373
61	0x3d8df1f9	0.06930918
62	0xbdf5d6b3	-0.12003841
63	0x3d45f2df	0.048327323
64	0x3d8bbf5a	0.06823607
65	0x3c58043c	0.013184603
66	0xbd99dea7	-0.07513171
67	0xbce90de1	-0.028449
68	0xbc255862	-0.010091873
69	0xbcc9db54	-0.024640717
70	0xbd171bef	-0.036891874
71	0x3dbe9642	0.09306003
72	0xbd712aa2	-0.05887855
73	0xbdb5dc13	-0.088798665
74	0xbd4b15b2	-0.049581237
75	0xbc5728fe	-0.013132332
76	0x3c80e253	0.01573292
77	0xbdbc8a4a	-0.09206064
78	0xbcdcdc1e	-0.026960429
79	0xbcb1f21a	-0.021721888
80	0x3dc6b939	0.09703297
81	0x3da24466	0.07923202
82	0x3dad62f8	0.084661424
83	0x3dc85d4a	0.097834185
84	0x3db0f8ae	0.08641182
85	0xbd335399	-0.043780897
86	0x3d2481b3	0.040162753
87	0x3cc9e7f0	0.02464673
88	0x3d693acc	0.05694084
89	0x3e082196	0.13294062
90	0x3dc703db	0.09717532
91	0xbddf4062	-0.10900952
92	0xbcdba3f5	-0.02681158
93	0x3db4a2c4	0.088201076
94	0x3d0c13a1	0.034198407
95	0x3d46bbd7	0.04851898
96	0xbde12c84	-0.10994819
97	0x3d493ae9	0.049128447
98	0x3d5353f7	0.051593747
99	0x3d53133d	0.05153202

fourth_last1_filterlist.0.weight f4 [1, 6, 5, 5]
0	0xbd2b5324	-0.041827336
1	0x3bcdf10f	0.00628484
2	0x3da83480	0.082131386
3	0x3c8f1f2c	0.017470919
4	0x3dc63a7c	0.09679124
5	0xbc5b6699	-0.01339116
6	0xbd4f736c	-0.050647184
7	0x3d6f8736	0.058478557
8	0x3dc06ecd	0.093961336
9	0xbcbc8022	-0.023010317
10	0xbdbbbf5b	-0.091673575
11	0x3c3017a5	0.010747825
12	0x3d52ef99	0.05149803
13	0x3ccf4bbb	0.025304666
14	0xbda6c140	-0.08142328
15	0xbcf296b7	-0.029612882
16	0xbda4cc9d	-0.080468394
17	0xbd0eb475	-0.034840066
18	0x3d73b7b3	0.05950136
19	0x3d1c0112	0.03808696
20	0x3cb49fcc	0.022048853
21	0x3d2abfbb	0.041686755
22	0xbca93982	-0.020657305
23	0x3da9edfa	0.082973436
24	0x3d81242f	0.063057296
25	0xbd9697e9	-0.07353193
26	0x3ca04ed1	0.019568833
27	0xbd7601ff	-0.060060497
28	0x3dc365eb	0.09540924
29	0x3dc22f5a	0.09481688
30	0xbd4524cb	-0.04813079
31	0xbdb53f69	-0.08849985
32	0x3d8c7691	0.06858552
33	0x3da2b66f	0.07944953
34	0x3c851d82	0.016249422
35	0xbcbe90ff	-0.023262499
36	0x3d2ead9f	0.042646047
37	0x3d8661c6	0.065616176
38	0xbc494b2b	-0.012285988
39	0xbdc22344	-0.09479383
40	0xbd625ff5	-0.055267293
41	0xbd1508bf	-0.036385294
42	0xbd3867be	-0.04502081
43	0xbdb01217	-0.085972
44	0xbcf15f0a	-0.029464263
45	0x3d376a93	0.04477937
46	0xbcc6cf61	-0.024268808
47	0xbb0e56b5	-0.0021719162
48	0xbd02c9cb	-0.031930726
49	0xbd6d2cdc	-0.05790411
50	0x3d97838b	0.07398137
51	0x3d2eb591	0.042653624
52	0x3d8e9d48	0.06963593
53	0x3de4cc83	0.1117182
54	0x3d3b09cd	0.045663644
55	0x3d5734ae	0.052540474
56	0x3d8b32c3	0.067967914
57	0x3ab2a60f	0.0013629812
58	0x3ded3aba	0.11583467
59	0xbd2493ef	-0.040180143
60	0x3d5b0ab9	0.053477023
61	0x3bea511c	0.0071507823
62	0x3ca330b1	0.019920679
63	0x3dd28d35	0.10280839
64	0x3dcbea60	0.09956813
65	0x3c2f11d2	0.010685401
66	0x3ca81e44	0.020522244
67	0x3c2926fe	0.010324238
68	0x3d37dd29	0.04488865
69	0x3a627af5	0.0008639538
70	0x3ce4e865	0.027942846
71	0xbd244edb	-0.040114265
72	0xbd69c944	-0.057076707
73	0xbd85b4e6	-0.06528644
74	0xbbabe1af	-0.0052454094
75	0xbcffc2eb	-0.031220874
76	0xbc909603	-0.017649656
77	0x3cef41ea	0.029206235
78	0xbdd78683	-0.10523703
79	0xbdc52fd0	-0.0962826
80	0xbce8db24	-0.028424807
81	0xbc69339c	-0.014233496
82	0xbdacb487	-0.0843287
83	0xbc1e5a4f	-0.009665086
84	0xbd408a74	-0.04700704
85	0x3ceb657d	0.028734917
86	0x3cf1ac08	0.029500976
87	0xbc7d6992	-0.015467064
88	0x3c9faa00	0.019490242
89	0xbd872dcf	-0.06600534
90	0xbd007468	-0.031361014
91	0x3d285210	0.041093886
92	0x3c3084b8	0.01077383
93	0x3ca7fabc	0.020505302
94	0x3dc31ec3	0.09527352
95	0x3dc641ec	0.09680542
96	0xbc8787c0	-0.016544223
97	0x3d7ed2fe	0.062212937
98	0xbc228a59	-0.00992068
99	0xbb26b8e3	-0.002543979
100	0xbd29a15b	-0.041413646
101	0xbd5a8aa8	-0.05335489
102	0xbd6e2cf9	-0.058148358
103	0xbd1e9758	-0.03871855
104	0xbdab1d93	-0.0835525
105	0xbd5fa36d	-0.054599214
106	0xbd4443f7	-0.04791638
107	0xbd9a3df2	-0.075313464
108	0x3d215228	0.03938499
109	0xbdb2080b	-0.0869294
110	0xbd404e9d	-0.04694997
111	0x3d6b8005	0.057495136
112	0x3d7bbc56	0.061458908
113	0xbbb976c2	-0.005659909
114	0x3899c1ba	7.331693e-05
115	0x3c4a8686	0.012361174
116	0xbd23123c	-0.03981231
117	0xbd86d111	-0.06582845
118	0x3d45bdbc	0.048276648
119	0xbda7c759	-0.081923194
120	0xbd6ee177	-0.05832049
121	0x3d88d1fe	0.06680678
122	0xbdbb499e	-0.09144901
123	0x3d0ea0de	0.034821384
124	0xbde3fe0f	-0.11132442
125	0xbcda9ce3	-0.026686138
126	0x3d3b845e	0.045780532
127	0xbd9b5523	-0.07584598
128	0xbc7ac2a5	-0.015305196
129	0xbcf7feb0	-0.030272812
130	0x39ebc101	0.00044966492
131	0x3d053f6f	0.032531198
132	0xbdc580d5	-0.096437134
133	0xbe05974f	-0.13046001
134	0xbd3f96bf	-0.046774622
135	0x3d6f9046	0.0584872
136	0xbd337fa5	-0.043822903
137	0xbd41edc1	-0.04734588
138	0x3d2ca2a2	0.042147286
139	0xbd0dbb28	-0.034602314
140	0xbd4a5c16	-0.049404226
141	0xbd86ca98	-0.065816104
142	0x3d0f044e	0.034916215
143	0xbe03ee8e	-0.1288397
144	0xbd8bb6e5	-0.06821994
145	0xbd82f9f8	-0.06395334
146	0x3c8e4b29	0.017369824
147	0x3d163d34	0.03667946
148	0x3905e52a	0.00012769239
149	0x3dcce5af	0.10004746

bn2.weight f4 [16]
0	0x3f800000	1.0
1	0x3f800000	1.0
2	0x3f800000	1.0
3	0x3f800000	1.0
4	0x3f800000	1.0
5	0x3f800000	1.0
6	0x3f800000	1.0
7	0x3f800000	1.0
8	0x3f800000	1.0
9	0x3f800000	1.0
10	0x3f800000	1.0
11	0x3f800000	1.0
12	0x3f800000	1.0
13	0x3f800000	1.0
14	0x3f800000	1.0
15	0x3f800000	1.0

bn2.bias f4 [16]
0	0x00000000	0.0
1	0x00000000	0.0
2	0x00000000	0.0
3	0x00000000	0.0
4	0x00000000	0.0
5	0x00000000	0.0
6	0x00000000	0.0
7	0x00000000	0.0
8	0x00000000	0.0
9	0x00000000	0.0
10	0x00000000	0.0
11	0x00000000	0.0
12	0x00000000	0.0
13	0x00000000	0.0
14	0x00000000	0.0
15	0x00000000	0.0

bn2.running_mean f4 [16]
0	0x00000000	0.0
1	0x00000000	0.0
2	0x00000000	0.0
3	0x00000000	0.0
4	0x00000000	0.0
5	0x00000000	0.0
6	0x00000000	0.0
7	0x00000000	0.0
8	0x00000000	0.0
9	0x00000000	0.0
10	0x00000000	0.0
11	0x00000000	0.0
12	0x00000000	0.0
13	0x00000000	0.0
14	0x00000000	0.0
15	0x00000000	0.0

bn2.running_var f4 [16]
0	0x3f800000	1.0
1	0x3f800000	1.0
2	0x3f800000	1.0
3	0x3f800000	1.0
4	0x3f800000	1.0
5	0x3f800000	1.0
6	0x3f800000	1.0
7	0x3f800000	1.0
8	0x3f800000	1.0
9	0x3f800000	1.0
10	0x3f800000	1.0
11	0x3f800000	1.0
12	0x3f800000	1.0
13	0x3f800000	1.0
14	0x3f800000	1.0
15	0x3f800000	1.0
