models/4.pth (torch_old, 252406 bytes, 36 tensors)

c1.weight f4 [6, 3, 5, 5]
00000000: 8ed0 463c 9e19 083e 5975 39bc 87e7 df3d
00000010: 75c9 03bc 5d64 42bd 85da df3d 0294 1ebc
00000020: bc09 bf3d 3710 85bc 6131 d43c 6f51 53bd
00000030: 9d93 59bd ab73 ebbc f208 28bd d1ab d9bd
00000040: 47f9 aa3d 0893 d23d 0199 61bd 6547 09bb
00000050: 7065 2e3d b073 3c3d 155f b6bd 6fbc 1e3d
00000060: d4e8 32bc 5831 113d 33d2 56bd 6d79 d9bd
00000070: b2b1 d63d 9300 ea3d 3af7 58bd 6e60 f5bd
00000080: 957b 7a3c 7aad 68bb 0f0c 5a3d a335 36bc
00000090: 539a 6c3d 2f66 5abd dd03 a93d e310 25bd
000000a0: ee8b 30bd e708 6a3d 8cb3 51bd d58b 22bb
000000b0: 1718 ddbd 8f04 bd3d cc7e 92bc c837 aabd
000000c0: e891 afbd bc47 94bd 03a3 c3bd 8b51 9bbd
000000d0: 05da b8bd 9283 933d ae83 6d3c 14ac dabd
000000e0: f8e0 c8bc ef1c ba3d 6cdb efbc 15e9 0bbd
000000f0: a676 dfba 08a9 c53c db0a 9d3d a224 4e3c
00000100: df04 07be dfcf 933d 2211 4ebc 2736 eb3d
00000110: 7fa1 7bbd f669 efbd dec4 4439 5d48 913d
00000120: 0833 223d eba6 e23d a33a ce3c 6585 0abd
00000130: e1ae d63c 89a1 b3bd 830a 0abd e2c6 2e3d
00000140: 5bab adbd 3f48 06bd 9309 cd3d 0fca 2bbd
00000150: 95cf 0c3d be33 063e d722 fa3d 8a26 9b3c
00000160: ba7c d93d bcf4 08bc 5d63 003d c3c8 b13d
00000170: 3c9a e3bc 4014 edbc e6ce 3cbd fe90 ba3d
00000180: 527f 50bd da16 d43d e13a ae3d 739a d7bd
00000190: aa2d 24bc 24ed cabd 2a9e 8d3d af2d d9bd
000001a0: 81c8 8cbd 4401 633d 46b3 d83c f0b1 893d
000001b0: a8b7 9dbd f5b8 c7bd f8d4 ddb8 c759 08bc
000001c0: edbe b6bd 73f6 d6bc 2734 8bbb 99fb 25bd
000001d0: 5e08 cbbc 0d65 64bd b850 88bd 8043 cdbc
000001e0: ca0f 613d 1044 373d 8769 c3bc eb85 183d
000001f0: 3780 00be d38f 9b3d 65a2 83bc b5a6 04bb
00000200: 1e21 c33b db31 14bd 99de 6a3b c57b d3bc
00000210: 51be 013c af64 9b3c 7d12 bbbd 1dbf 4d3d
00000220: fe07 053e f5dc 3e3d 7d69 e13c eddd 14bd
00000230: f3ad 9b3d 809e 16bd 806a c8bd fa12 4abc
00000240: eadc 4d3d f430 a6bd 3eb0 b9bd 0e5f 423d
00000250: b168 9fbc 5dca a63c bcf9 c93c 6c41 a53d
00000260: 32cf 5fbb f714 903d 10e1 e5bd 0277 79bd
00000270: 1247 b0bd 443d bebd 1665 e4bd 413e 893c
00000280: c7ac 59bd d18f c83d 3628 233c 1794 d03d
00000290: 1254 113b 74d2 c63d 7ab9 58bc 8081 bfbd
000002a0: b24f b6bb aae0 8d3d 6f46 323d 51a0 1bbd
000002b0: 39f9 533d cbce 6f3c 674f 4ebc 25eb 223d
000002c0: e683 39bd 8f7f 5abd cc3d 48bd ae38 9ebd
000002d0: 10d5 57bc ce57 313d 28a2 fa3a ed8d bc3d
000002e0: 5160 70bd f5ff 673d d799 80bd 0b5a 12be
000002f0: 224c 7bbc beab cb3d 5fd0 f5bd ac1e 843d
00000300: 3dbb 01bd c2e8 d03d 5c66 ed3c ee8c e4bd
00000310: 127f 36bd 10bc cbbd 9764 b13d 316f 083c
00000320: de1b 85bd e72f 44bd 7926 1ebd 662b 9dbc
00000330: 35df b7bd 2d6f 963c 5cbe ef3d a47b 71bd
00000340: 4566 cfbd 0743 d43d 624b a63d b5c8 34bd
00000350: 9697 e9bd c832 ae3d 1835 083e 72c2 8dbd
00000360: 578d 8bbd bd81 f3bd a3f1 013e c2b4 00bd
00000370: 75f7 e43d 7e97 bf3d ee9a a13d 4717 c2bd
00000380: be1b 0abb b4d5 9fbd b482 db3d 4396 3abd
00000390: 9e9b a93d 2cc1 a33b 0585 b1bc 630e 67bd
000003a0: 50ac acbd aebf 2d3b 23de 893c b9c7 22bc
000003b0: 8cb1 ccbd a0c0 9ebd b96d ae3d 1ce1 983a
000003c0: 8beb e0bb d2d8 ffbd 2809 e5bd 4f44 70bd
000003d0: 38d8 4d3d d3d3 b4bd eead 3f3d 3639 05be
000003e0: 733f 75bd d77e b7bc 0b34 cc3d 43b0 afbd
000003f0: ecb2 8bbc d054 613b 2b84 a93d c8ae f8bd
0.012134684 0.13291022 -0.011319482 0.10932832 -0.008043637 -0.047458995 0.10930351 -0.0096788425
0.093280286 -0.016243083 0.025902452 -0.051591333 -0.05311929 -0.028741678 -0.041024156 -0.106284745
0.08348327 0.1028195 -0.055077557 -0.0020947095 0.042577207 0.046008766 -0.08904854 0.038753923
-0.010919768 0.03544745 -0.052446555 -0.10618863 0.104831114 0.11425891 -0.05297015 -0.11981283
0.015288253 -0.003550379 0.053234156 -0.011121186 0.057764363 -0.053320106 0.0825269 -0.040299308
-0.043102197 0.057137396 -0.05119662 -0.0024802585 -0.107956104 0.09229385 -0.017882727 -0.08311421
-0.08572751 -0.07240245 -0.095525764 -0.075839125 -0.09025959 0.072028294 0.014496727 -0.106773525
-0.024521336 0.0908755 -0.029279433 -0.03415783 -0.001704891 0.024128452 0.07668086 0.012581976
-0.13185452 0.07217383 -0.012577327 0.11484938 -0.06143331 -0.11690132 0.00018765355 0.0709388
0.03959945 0.11066993 0.025174445 -0.03381862 0.026206436 -0.08771045 -0.03370143 0.04267014
-0.08479949 -0.032783743 0.10011592 -0.041940745 0.034377653 0.13105676 0.122136764 0.018939275
0.10619493 -0.0083591305 0.03134476 0.086808704 -0.027783506 -0.02894032 -0.04609575 0.09109686
-0.050902672 0.10355921 0.08507324 -0.10527506 -0.010020653 -0.09908512 0.06914933 -0.106044166
-0.068741806 0.05542113 0.026452672 0.06723392 -0.07701045 -0.09752075 -0.0001057777 -0.008322186
-0.08923135 -0.026240563 -0.0042481604 -0.040523145 -0.024784263 -0.055760432 -0.06656021 -0.0250566
0.0549467 0.044742644 -0.02385403 0.03723709 -0.1254891 0.07595792 -0.016068647 -0.0020240967
0.0059548756 -0.03618036 0.0035838245 -0.025815854 0.00791891 0.018968908 -0.09134386 0.050231088
0.1299133 0.04659744 0.027516121 -0.036344457 0.076015376 -0.03677225 -0.09785938 -0.012333626
0.05025951 -0.08114806 -0.09066819 0.047453932 -0.0194591 0.020360166 0.024655215 0.08069119
-0.0034150598 0.07035249 -0.11224568 -0.06090451 -0.086073056 -0.09289029 -0.11152093 0.016753318
-0.05314329 0.09793056 0.0099583175 0.10184496 0.0022175354 0.097081095 -0.013227815 -0.09350872
-0.0055636996 0.06927617 0.043524202 -0.037994687 0.05175135 0.014636706 -0.012592173 0.039775033
-0.045291804 -0.053344306 -0.04888706 -0.077256545 -0.013173357 0.043296628 0.0019121813 0.09206758
-0.058685604 0.056640584 -0.062793426 -0.14292161 -0.015337976 0.099448666 -0.12002634 0.06451163
-0.031672705 0.10200645 0.028979473 -0.11159693 -0.044554777 -0.099479795 0.08661764 0.008327291
-0.06499456 -0.047897246 -0.03861091 -0.019185733 -0.0897812 0.01836356 0.1170623 -0.058955804
-0.10126928 0.10364347 0.08119847 -0.04413672 -0.11405866 0.085057795 0.13301504 -0.06921853
-0.06814068 -0.1188998 0.12689833 -0.031422384 0.11180011 0.09355067 0.078908786 -0.09477096
-0.0021073665 -0.078044325 0.10718289 -0.045553457 0.08281635 0.004997393 -0.021669874 -0.056410205
-0.084313035 0.0026511955 0.016829556 -0.009935313 -0.09994802 -0.07751584 0.08517022 0.0011663768
-0.0068640164 -0.12492527 -0.11183387 -0.058658894 0.05025503 -0.08829465 0.04679673 -0.13010105
-0.059874963 -0.02239935 0.09970864 -0.08578541 -0.01705309 0.0034382828 0.08277162 -0.12142712

c1.bias f4 [6]
00000000: 68ff fe3c af14 05bd 4aeb 0a3d df3d eabd
00000010: 9824 23bb 366a 07bd
0.031127647 -0.03249043 0.033915795 -0.11437582 -0.0024893638 -0.033060275

bn1.weight f4 [6]
00000000: 1b51 803f f798 803f 4aac 813f b46c 7c3f
00000010: 803f 843f 5596 7e3f
1.0024751 1.0046681 1.0130703 0.9860337 1.0331879 0.9944814

bn1.bias f4 [6]
00000000: d50c ee3c 6ec0 2b3d 0ea8 bc3a 345c d3bb
00000010: 0d7d a53c 61e0 c0bc
0.029058853 0.041931562 0.0014393346 -0.0064502005 0.02020123 -0.023544492

bn1.running_mean f4 [6]
00000000: 9b93 7e3e 655e 7a3e 5236 773e 47d2 193e
00000010: 7f7c 493e 9504 bf3d
0.24860995 0.24450071 0.24141815 0.1502162 0.19676398 0.09327046

bn1.running_var f4 [6]
00000000: 3295 0f3e 9c2f 733e e874 6b3e ef9e 983f
00000010: a6cf 4f3e 8eed 533e
0.14021757 0.2374863 0.22993815 1.1923503 0.20294055 0.20696089

first_cons6_filterlist.0.weight f4 [1, 3, 5, 5]
00000000: 40eb bc3c c837 603d a211 e03d c5e9 ac3c
00000010: c30a f1ba 1e3c 61bd 04e3 a5bd 3639 c9bd
00000020: bbd3 0cbe 0c87 a4bc 0d70 d33d 9b5e 093d
00000030: 4c74 0dbd f6ce e6bc b6f2 783d 8b1e 7fbd
00000040: f73c e43d bb9c 35bd 12c3 9b3b f683 fc3d
00000050: ea2b e6bd c648 d53c dd4a a73c 7c3d 27bc
00000060: 41f2 a43c d5a9 ee3c 8314 b7bd c138 a03c
00000070: 8279 e93d 8ca3 b8bc b393 a0bd e4d0 25bd
00000080: 4d4c 89bc 5c8c 2a3a 0f8e 9c3c 6385 8a3d
00000090: c046 163d 85dd a0bb e333 693d 4357 a93d
000000a0: a528 37bd e4b1 e33d ad24 98bd 8904 1bbd
000000b0: 01fa 80bd 9588 94bd a757 303d efce 4bbd
000000c0: 9829 27bd a2d3 66bd 1a31 ff3d 1721 6b3d
000000d0: 0d94 dabc 6e01 533d e006 91bd 23df c9bd
000000e0: 1008 efbd 84ba bb3d 3a9e dc3d 21d7 7f3c
000000f0: 5a14 84bd 84e4 9a3d 74cf 0ebd 2edd 3e3c
00000100: d1cf 79bd 6243 76bd dce6 b83d d4c1 0abd
00000110: 0386 f3bd 5516 aabd e652 013e 66ca 3a3d
00000120: 6478 c9bd adfd 75bd de7f d8b8
0.023061395 0.054740697 0.10940863 0.021107564 -0.0018390048 -0.054988973 -0.080999404 -0.09825365
-0.13752644 -0.020083927 0.10324106 0.03353749 -0.034534737 -0.028174859 0.060778342 -0.062284987
0.111444406 -0.044338923 0.004753479 0.12329857 -0.11238845 0.026035678 0.02042144 -0.01020753
0.020135047 0.029133717 -0.08939459 0.019558312 0.11400129 -0.022538923 -0.078406714 -0.040482417
-0.016760016 0.00065059005 0.019110708 0.06763723 0.036688566 -0.0049092197 0.05693425 0.08268597
-0.044716496 0.11117914 -0.0742887 -0.037846122 -0.062976845 -0.072526135 0.04305234 -0.049757894
-0.04081115 -0.056354173 0.12460537 0.057404604 -0.026681924 0.051515035 -0.070813894 -0.09857013
-0.1167146 0.091664344 0.10772367 0.015615256 -0.06449194 0.07563117 -0.03486581 0.011649413
-0.060989205 -0.060122855 0.09028408 -0.033876255 -0.11890795 -0.08305041 0.1262928 0.04560318
-0.09837416 -0.060056377 -0.000103235

first_cons6_filterlist.1.weight f4 [1, 3, 5, 5]
00000000: 56f1 84bd 9846 503d 313a e0bd 59b0 22bd
00000010: 1266 01be adac d83d f9af 7c3d 3dbe c3bd
00000020: b32f aabd f095 25bd 0fef c5bd 3443 353c
00000030: f8b3 eabc 0430 dabd f10c f73d b448 3cbd
00000040: 7357 40bd 63c8 1ebd a181 edbd 572a 173b
00000050: d11a 953d 659d 1b3c 98b2 12bd 1200 84bd
00000060: a6c3 763d fa81 4bbd 0d56 a4bc fac4 e5bb
00000070: 2686 0d3d 7f5a c0bc 1cd9 76bc 41b3 243d
00000080: 6947 45bd 7eee 393d 739a 0a3d 28be 663c
00000090: 7457 f8bc 30aa dc3d 78b6 23bb 3fed c23d
000000a0: c695 30bd 0810 fdbd b051 2cbd a683 cdbb
000000b0: 685b 9ebd 4d22 883d 8c64 31bd 0aab 1e3b
000000c0: 8550 f13b def4 ec3d a8bd 323b 48d7 edbc
000000d0: 99ef d0bd b486 84bd 2eb5 cb3d b945 44bc
000000e0: c875 f7bd be70 d9bc eed0 77bc cea2 07bd
000000f0: 9160 553d 237b d4bd e537 15bc 60a5 fabd
00000100: 389d d73d f6ec 7a3d 7129 393d b93a cc3c
00000110: 6210 27bc 1cf9 9cbd bd6d 7f3d 20f6 0f3d
00000120: ff03 c73d c1a4 643d b2ad 1a3d
-0.06491344 0.050848573 -0.10948599 -0.03971896 -0.12636593 0.1057981 0.061691258 -0.095577694
-0.08309879 -0.040426195 -0.096647374 0.011063386 -0.028650269 -0.106536895 0.12063015 -0.045967773
-0.046958398 -0.038765322 -0.115969904 0.0023066008 0.072805054 0.009497975 -0.03581485 -0.06445326
0.06024518 -0.049684502 -0.020060563 -0.007012007 0.034551762 -0.023480652 -0.015066411 0.040210012
-0.048163805 0.04539346 0.0338387 0.014083423 -0.030315138 0.10774648 -0.0024980586 0.09517907
-0.043111585 -0.12356573 -0.04207009 -0.006271797 -0.07732278 0.06647167 -0.04330878 0.0024210834
0.007364335 0.11570142 0.0027273688 -0.029033318 -0.102019496 -0.06471005 0.09946667 -0.011979514
-0.12083012 -0.026543017 -0.015125496 -0.033114247 0.052094046 -0.10375049 -0.009107565 -0.12238574
0.10528034 0.06126114 0.045205537 0.024930345 -0.010196777 -0.07664701 0.062360514 0.035146832
0.09717559 0.055821184 0.037763305

first_cons6_filterlist.2.weight f4 [1, 3, 5, 5]
00000000: 8fbf d8bd 77b2 f2bd 8df6 b9bd 1576 02be
00000010: 443d 49bd 444d 02bd ef57 d43d 94e3 033d
00000020: bfd9 87bd f1d7 a23d c2f0 54bc 0845 653c
00000030: f045 e53c ceb6 d0bd efb5 3c3d d22e e53d
00000040: 2b5b e8bc edda c7bd 6799 ee3b ff47 da3c
00000050: 60cb 593b 90cd a4bd 88cd 693d 3d7c 883c
00000060: 7844 243d 0d53 91bd 8aef afbd 9e06 bfbd
00000070: 5cbc 52bc cfd3 403c 5e71 71bd ac0c ec3d
00000080: 1e19 e1bd 6b51 6e3d 6c22 30bb 065d 043d
00000090: 9807 0dbd de5f e63d f263 b53d 0431 a83d
000000a0: 8038 91bc cb6a 6dbd c3d0 e53c 48b0 cf3c
000000b0: 35a4 d33d e079 ad3d 4fda 77bd 3553 b3bb
000000c0: c6d3 a33c f29e 85bd 5268 e73d 60bb 06bd
000000d0: 9a85 103c 64e3 6dbd f003 983c c966 08bd
000000e0: 324a ccbb 8548 8d3c 2a75 dfbd 4b0f 87ba
000000f0: 075a 8fbc b3c7 d03d d46b 0a3e f688 67bc
00000100: bd9a 68bd 5354 debd f955 c33c 061a ec3d
00000110: 6925 013d b7cd 0d3d c409 9fbd a0e9 a6bc
00000120: 9cb8 0e3e aa08 6cbd f89c 1f3d
-0.10583412 -0.11850446 -0.09080229 -0.12740357 -0.049130693 -0.031811967 0.103683345 0.032199457
-0.06633329 0.07951344 -0.012996854 0.013993509 0.02798745 -0.10191117 0.046071943 0.11190571
-0.028363785 -0.09758554 0.0072814706 0.026645659 0.0033232793 -0.080470204 0.057080775 0.016660804
0.04010436 -0.07095919 -0.0859061 -0.09327434 -0.012862291 0.011769249 -0.058946006 0.115258545
-0.10991119 0.058183115 -0.0026875986 0.032315277 -0.03443107 0.11248754 0.08856954 0.08212474
-0.017727137 -0.057963174 0.028053647 0.025352612 0.103340544 0.084705114 -0.06051093 -0.0054725655
0.019998442 -0.06524457 0.112991944 -0.03289354 0.008820916 -0.058078185 0.018556565 -0.03330115
-0.0062344307 0.017246494 -0.10911019 -0.001030424 -0.017498983 0.101943396 0.13517696 -0.014131775
-0.056788195 -0.10855927 0.023844706 0.11528401 0.031529818 0.034620013 -0.077655345 -0.020375073
0.1393761 -0.05762545 0.038968056

first_cons6_filterlist.3.weight f4 [1, 3, 5, 5]
00000000: 3069 843d 8836 a3bb 52d0 b1bd e357 333d
00000010: 3fc6 b5bd e075 5b3d a392 aebc a0b5 bdbd
00000020: 1bf9 4e3d a797 b0bd 6e05 1a3d 5c53 cfbd
00000030: 9070 323d 2221 603d 5a6a b83d 246a d5bd
00000040: fac6 333c 598e edbd ef0a e4bc 6e48 ee3d
00000050: 41e6 043d 0b38 db3c 3799 8abd c04f 4c3d
00000060: 1f9b 603d 7dc5 e0bc d856 2abd a3af c8bb
00000070: fbbe 4b3d fcb2 66bd 1d5f 7fbd 19e0 bebd
00000080: 5423 393d a931 babd da76 de39 38e9 c03d
00000090: 81ec a5bd e132 db3c 93f2 8bbc c34b d13b
000000a0: b56d 7abc 90df c83d c9de bc3d 542d fbbc
000000b0: 18b7 c13d a69f 813d 9799 60bd a087 d23d
000000c0: 8596 38bd 38bd 3f3d f313 5f3d dc07 9a39
000000d0: fb37 c43c fb86 ad3d 62cc 2bbd fe9d 3cbc
000000e0: 4c24 dbbd 96ca e4bc 811f 283c ef93 40ba
000000f0: 7ac6 3ebc 5cb5 b8bd b8f3 d63d 0308 81bd
00000100: db60 e13d fa75 abbd 3bce 52bd 426f a0bd
00000110: 699a e7bc 7402 093d fd5b 843c e324 9abd
00000120: 2cbe bc3c 5fb4 4dbd a22f 913d
0.064653754 -0.004980866 -0.08682312 0.043784987 -0.08875703 0.05357921 -0.021310156 -0.09263158
0.050530534 -0.086226754 0.037602834 -0.101233214 0.04356438 0.054719098 0.0900466 -0.10420635
0.010972733 -0.11599416 -0.027837245 0.116349086 0.03244615 0.026760122 -0.06767505 0.049880743
0.054835435 -0.02743792 -0.041586727 -0.006124453 0.04974268 -0.056323037 -0.062346566 -0.09320087
0.045199707 -0.09091503 0.0004243169 0.09419483 -0.0810175 0.02675766 -0.017083442 0.0063872053
-0.015284945 0.09808266 0.092221804 -0.030661263 0.094587505 0.06329279 -0.054833975 0.10279775
-0.04506542 0.046811312 0.054462384 0.00029379025 0.023952475 0.08473011 -0.04194296 -0.011512278
-0.107002825 -0.027928632 0.010261417 -0.00073462626 -0.011644 -0.090189666 0.104957044 -0.06300356
0.11004802 -0.083721116 -0.051466208 -0.07833721 -0.02827187 0.033449605 0.016157145 -0.07526567
0.0230399 -0.050220843 0.07089163

first_cons6_filterlist.4.weight f4 [1, 3, 5, 5]
00000000: c227 683d f1e6 fdbd eb84 98bd 04f9 b93d
00000010: d090 863d 474b e2bd 4683 8d3d ef8e c33d
00000020: b7fa a93d 5d6b 5ebd 3428 033d 3db8 a93c
00000030: 4048 c23d 61c8 55bd 602a 413d 1640 e1bb
00000040: f02d 06be c325 8a3c b07a 5ebd fb47 86bd
00000050: 1d5f dfbd b376 f73d 32e0 c1bd b6e8 e4bd
00000060: 5458 a4bd 83ae cdbd 9ae3 113e 514a 9ebd
00000070: 9a2e a6bc 7ca1 d9ba fa67 cfbd 384d 4cbd
00000080: a3ed 903c e218 a13d 8dc0 83bd 5e81 093d
00000090: 9799 7f3c 6eb9 b0bd 6dce 023d ddaf c83d
000000a0: 9af9 293d 2e3e c83c c469 c1bd 8aa7 063d
000000b0: 08fc 1a3d c39d a23d 5a1d 823c 4b3c 223d
000000c0: cd80 393d 3ba9 87bb f223 04be 36c4 a5bd
000000d0: d5aa d6bd 5a7e 723d 8524 2fbd 2032 873c
000000e0: 311a e83d ca54 2cbc 83cc 13bd ebb0 d3bc
000000f0: 3b43 a3bd 783f c6bd 5ae5 a6bd 62e5 d9bd
00000100: c9bd 2d3d ce5f ebbb 52c5 3f3d 764a fb3d
00000110: 4aa5 ad3d f206 bfbc 9ffe 9f3d 28d8 2c3d
00000120: 062f e83d fee9 0e3d d049 95bd
0.05667854 -0.12397564 -0.07447227 0.09080699 0.065705895 -0.11049514 0.06909804 0.09548747
0.08299773 -0.05430161 0.032020763 0.020717734 0.09486437 -0.05219305 0.047159553 -0.0068740947
-0.13103461 0.01686371 -0.054316223 -0.06556698 -0.10906813 0.12083187 -0.0946659 -0.111771986
-0.0802466 -0.10043051 0.1424698 -0.077290185 -0.020285893 -0.0016603912 -0.10127254 -0.04987833
0.017691439 0.07866074 -0.064332105 0.03357064 0.0156005835 -0.08629118 0.031935144 0.09799168
0.041497804 0.024443712 -0.09444001 0.03287462 0.037838012 0.07940247 0.015883137 0.03960828
0.04528885 -0.004140047 -0.12904337 -0.08094065 -0.104818024 0.05920253 -0.042759437 0.016503394
0.113331206 -0.010518262 -0.03608371 -0.025841197 -0.079718076 -0.096800745 -0.08149214 -0.106394544
0.04241732 -0.0071830517 0.04681904 0.12270062 0.08478792 -0.023318741 0.07812237 0.04219833
0.11337094 0.03489112 -0.07289469

first_cons6_filterlist.5.weight f4 [1, 3, 5, 5]
00000000: 218a 80bc 5fc1 053e e20d b5bd f9f8 ccbd
00000010: 66a5 bc3c 917a db3d b67f e33d b004 7fbc
00000020: 786b 403d 0fde a5bd 1a5f 5ebc 9ea7 a73d
00000030: 1222 cd3b b5c5 ab3c 873b d1bd 0e72 a43d
00000040: dcfb 713d d7bf a3bd 0844 4dbd e5a2 54bc
00000050: 1d15 87bd 11ac c9bd 1099 fc3c de2d d8bc
00000060: 1382 24bd 3109 6ebd 9687 dcbd 6023 df3c
00000070: eb5f afbd 5c29 b23b c21c 6a3d acbc 2abc
00000080: 4e31 00be 6a44 803d e0a9 e53d 63e9 e63b
00000090: cbb6 b9bd 083f b63d 55e5 74bd 6ed2 5abc
000000a0: c5fa 943d 0aa9 d3bb 1453 28bb 8f64 083d
000000b0: 6a3c 4cbd 42d5 ef3d 478c 9abc db72 2cbd
000000c0: 6300 4fbd 76d6 0e3e 2a9a c83d 1e87 9fbc
000000d0: aa83 19bc 83cb a2bb 12a5 99bd 4ace 04bd
000000e0: 6d58 a73d d979 c4bd 04b8 253d f619 b1bc
000000f0: e0b1 bdbd fd6c c4bd 93c9 183d 882d 9ebd
00000100: 8b65 18bd f6f5 403d 2d8a c5bd 9ee9 c1bd
00000110: c8e3 263c 69c8 8fbd 51b7 9abd 7d5d 4dbd
00000120: 37e5 473c 1f95 603d 6a31 dcbd
-0.015690865 0.13062046 -0.088405386 -0.10008425 0.023028087 0.10716737 0.11108343 -0.015565082
0.04697749 -0.08098995 -0.013572479 0.08186267 0.006260165 0.020968297 -0.10216432 0.08029567
0.059078082 -0.07995575 -0.050113708 -0.01297829 -0.06595824 -0.09847272 0.030834705 -0.026389059
-0.04016311 -0.058114234 -0.107680485 0.027238548 -0.08563217 0.0054370593 0.05715633 -0.010420959
-0.12518808 0.06263049 0.11214042 0.007046865 -0.09068068 0.08898741 -0.05978902 -0.013355834
0.07274393 -0.00645936 -0.0025684284 0.033299025 -0.049862303 0.117105976 -0.018865718 -0.042101722
-0.05053748 0.13948998 0.097950295 -0.019473609 -0.00936977 -0.004968108 -0.07502188 -0.032423295
0.08171163 -0.09593553 0.040458694 -0.021618824 -0.092624426 -0.095911 0.03730161 -0.07723528
-0.037206214 0.047109567 -0.096454956 -0.09468387 0.010186143 -0.07020647 -0.07554496 -0.050137985
0.012200645 0.054829713 -0.107516125

second_cons6_filterlist.0.weight f4 [1, 4, 5, 5]
00000000: 7891 adbd ba7b a3bd 2e79 89bd 9119 b8bd
00000010: 1811 8ebc 6aa5 583d a6fd d9bc d6e3 a5bd
00000020: 8be4 8e3d ea82 d03d 7ed0 913d d052 3a3d
00000030: a296 96bd b17e 9e3d 58ac 5b3c 3b1f b33d
00000040: e44a 333d a5e4 7bbc 7f95 4e3d c18d f3bd
00000050: 59c5 30bd 1651 ed3d 5f00 14bd 9ab4 be3c
00000060: bd4e c3bc ada1 c9bd 9feb 6d3a 42ba 72bc
00000070: 5436 583d 7801 0d3d a220 803d 0a6e b2bd
00000080: f587 793d 0ea8 983d 2843 6abd ed56 03be
00000090: 657e 453d 1fed 873d c10c a6bd 5325 d2bd
000000a0: 656e a63c 5a82 b63d 71ed 75bd ba62 4ebd
000000b0: 5147 9bbd 9889 ac3d 65b3 4ebd d309 dc3d
000000c0: 54fe 3cbd 6f07 253c e618 4a3d 3808 6e3b
000000d0: abc7 203c 43a6 d93d 198a 9cbc 1235 273c
000000e0: 8972 493c 8249 9c3d 188e 49bd 4177 6abd
000000f0: 34d0 993d c6f9 82bc 451b 99bd 0373 993d
00000100: a0b5 523d 94c8 b03c d600 c1bc 5880 9ebd
00000110: 7365 ac3d 1437 b0bd 8ed4 913d 3f7c 3bbd
00000120: ede2 79bd b9e8 833d b419 163d b503 c13c
00000130: eaa1 e6bd 0779 02bd c65d 993d 32cc 2c3d
00000140: 7eb0 743d 53ff 113d c884 d6bd 3204 96bd
00000150: 0b5c 6d3d fb18 c9bd 6535 403c 0225 ba3d
00000160: 3769 a2bd 8abc b0bc 22de 0a3d b816 cdbd
00000170: 7abf d93d 8e14 c9bd 6e73 713c dc3a dfbc
00000180: b298 82bd 3170 39bd e0fb 923b be66 77bd
-0.084750116 -0.07982583 -0.06712566 -0.089892514 -0.017342135 0.052892126 -0.026610207 -0.08100097
0.06977185 0.1018122 0.07119845 0.045489132 -0.0735295 0.07739008 0.013407789 0.08746191
0.043772593 -0.015374337 0.05043554 -0.11892272 -0.043156955 0.115877315 -0.036133166 0.023279477
-0.023841256 -0.0984529 0.0009075943 -0.014814915 0.052786186 0.03442523 0.06256224 -0.087123945
0.060920674 0.07453929 -0.05719295 -0.12826128 0.048216242 0.06637024 -0.08107901 -0.10261025
0.020316312 0.08911581 -0.060040895 -0.05038712 -0.07581962 0.084246814 -0.050464053 0.10744061
-0.046140984 0.010072573 0.04934015 0.0036320817 0.00981323 0.10627415 -0.019108819 0.010205524
0.012295374 0.07631208 -0.049207777 -0.057242636 0.07510415 -0.015988242 -0.074759044 0.0749264
0.051442742 0.021580018 -0.023559969 -0.077393234 0.084177874 -0.08604255 0.0712062 -0.045772787
-0.06100743 0.06440873 0.036645606 0.023561338 -0.112613514 -0.031853702 0.07488589 0.042186923
0.05973863 0.035643887 -0.10474545 -0.07325019 0.057949107 -0.09819218 0.01173148 0.0908909
-0.079302244 -0.021574277 0.03390325 -0.10014099 0.106322244 -0.098183736 0.014736993 -0.027249746
-0.063767806 -0.04527301 0.0044855922 -0.060400717

second_cons6_filterlist.1.weight f4 [1, 4, 5, 5]
00000000: ee20 763c be6d 8fbd b3f4 093d dde3 f93c
00000010: 307a 9ebd e808 943d 3843 703c 2d1d 873c
00000020: bb3b a3bd 6e6a 653d 6281 493c bcd7 0c3c
00000030: eeea 5cbd 5060 7ebd 2f0b 1c3d 1fdf 03bd
00000040: e62a 69bd 89e5 4bbd ccbd 833d 90db 953d
00000050: 2157 87bd d292 a5bd 0901 82bd bc11 9e3d
00000060: fbe4 b8bc 7a4a e8bc 918c abbd ad0b 94bd
00000070: d5d6 733d 1100 fdbd d960 9f3d e3a9 5038
00000080: 9b9c fc3c baf5 733d bbee a0bd 8bca 663d
00000090: 0d44 e9bc e4c1 15bd 5fa8 4dbd 105d 7ebd
000000a0: b044 19bd eb78 74bd 75f0 bc3d bd1b f03c
000000b0: 7090 47bd 9930 a63d a4b1 aebd 5499 cfbd
000000c0: 1655 d3bb 9404 a23d 64a6 0d3c 7e85 99bd
000000d0: d389 0e3c cdc4 a63c cf53 5ebd f012 14bd
000000e0: a70c 2f3d aedb 2f3c 2cbd 0dbd da95 d23b
000000f0: 0731 5cbc df9c a4bd 0003 b33d 68a4 0c3d
00000100: 8ad7 933d 1135 703d 8647 99bd adb7 69bc
00000110: b81c 18bd 3175 6dbd 1129 bdbd 2c35 0bbc
00000120: 338b 8ebc 8e52 cc3d 0c20 733d 0718 39bc
00000130: 5fe6 65bd a100 0fbd 3d6e bebd b667 d63c
00000140: 6df3 77bd 774a 02bd b2ed 933d 00cb 9a3d
00000150: a140 223d 9bda 993d 3c6d 5f3d 9006 c93c
00000160: 74ca d7bb 8014 77bd de80 94bd 6083 e6bc
00000170: 9f7a a2bb aae3 c8bd d661 b73d 5ff0 343d
00000180: 065d dd3b 29ae 153d 242a 833d 38dc ecbc
0.0150224995 -0.070033535 0.03368063 0.030504161 -0.07738149 0.07228261 0.014664464 0.016493404
-0.07970377 0.056009702 0.012298914 0.008596357 -0.053934984 -0.06210357 0.038096603 -0.032195207
-0.056925677 -0.04977945 0.06432685 0.07317269 -0.066084154 -0.080846444 -0.06347854 0.07718226
-0.022570124 -0.028355826 -0.0837642 -0.072287895 0.05953105 -0.12353528 0.07782144 4.9749284e-05
0.030836394 0.059560515 -0.07858034 0.056345504 -0.028474832 -0.03656186 -0.0502094 -0.06210047
-0.03741902 -0.05968563 0.09225551 0.029310102 -0.04872173 0.08114738 -0.08529976 -0.10136667
-0.006449352 0.079110295 0.008645628 -0.07496165 0.008699852 0.020357514 -0.054279145 -0.036150873
0.042736676 0.010733528 -0.034604236 0.006426555 -0.013439423 -0.08037733 0.087408066 0.034336478
0.07218845 0.058644358 -0.07484345 -0.014264983 -0.037136763 -0.05797309 -0.092363484 -0.008496564
-0.01740036 0.099766836 0.059356734 -0.0112972325 -0.056127902 -0.03491271 -0.0929837 0.0261725
-0.060534883 -0.031809296 0.07223071 0.075582504 0.039612416 0.07512399 0.054547533 0.024539262
-0.0065854136 -0.060322285 -0.07251142 -0.028138816 -0.004958465 -0.098090485 0.089542076 0.04417455
0.006755474 0.036543045 0.06404522 -0.028913602

second_cons6_filterlist.2.weight f4 [1, 4, 5, 5]
00000000: 0e3b 6e3d ef12 ae3d c4ee 383d 6e4c 8fbc
00000010: caa6 7cbd 1a7e 40bd e6be b93d c9d0 40bd
00000020: 62b4 a2bd ef33 843d eada dabd dd1a 70bd
00000030: ab26 0f3d 1e38 0cbc 4eae 27bd 6d68 b6bd
00000040: a0d1 a4bd ba44 2e3c 629e b6bb d1ef 44bd
00000050: 8da3 c23d 6c55 8b3d 09bf 3dbd d5d9 7cbd
00000060: b2ad ad3c 85e7 ab3d 0231 393d f0ed 123d
00000070: 2a85 b7bd 0bde 113c 5cfc 253b d733 373d
00000080: 5620 4dbc 96ce 2d3d 15f8 03be 244b 87bd
00000090: 7627 083d 3f00 e8bc da1a c73c 02d1 e2bc
000000a0: f5e9 2d3d f41d 163d cdf7 033c 039c 20bd
000000b0: f728 42bd 4bcc 053d 9e8e 16bd 2a55 b13d
000000c0: bf86 7e3d 83d3 ec3c e0e1 a3bc ebb2 a2bd
000000d0: 799a c43d d468 df3c 53bd 9d3d dc25 2d3d
000000e0: 18f4 0c3c 7a9c a6bc 0a6a fe3c 834e a83d
000000f0: 3e53 fdbc 79a3 99bc 04eb ed3c 8a94 bdbd
00000100: d978 99bb e253 a73d 43b6 c7bd bd0b 8a3d
00000110: 1e6e e0bc 2e16 1c3c 6199 b83b efc6 2fbd
00000120: 0119 b2bc c91a 55bd efa6 9b3c 6071 cb3d
00000130: 6ea4 d5bd 247f dfbd 8a38 9ebd 7900 c33d
00000140: 64f3 1abd 2c51 e6bb d9f6 c93c c798 42bc
00000150: a26f caba c37b 703c bb47 d53b 7807 a4bd
00000160: 17c2 1c3b a4d8 b13c 331b 993b d204 bf3d
00000170: 1234 d1bc fdbe 0bbc 4043 7e3d 8f97 053e
00000180: 3d5a bc3c 4eba 9c3d 1dcc e1bd e3bc a3bd
0.058161788 0.08499705 0.04514958 -0.0174925 -0.0616825 -0.04699526 0.09069614 -0.047074113
-0.079445615 0.06455218 -0.10686286 -0.05861937 0.034948986 -0.008558301 -0.040937714 -0.089066364
-0.08047795 0.010636503 -0.00557308 -0.04808027 0.09503851 0.06803402 -0.046324763 -0.06173118
0.021200988 0.08393768 0.045212753 0.035871446 -0.08960946 0.008903037 0.002532742 0.044727173
-0.0125199165 0.042433344 -0.12887605 -0.06606129 0.033240758 -0.02832043 0.024304796 -0.027687553
0.042459447 0.03664966 0.008054686 -0.039211284 -0.04740235 0.032665532 -0.036757104 0.08658822
0.062140223 0.02890945 -0.020005167 -0.07944282 0.09599776 0.027271666 0.07702126 0.042272434
0.008603118 -0.020338286 0.031056423 0.082181 -0.030923482 -0.018754708 0.029042728 -0.09256847
-0.0046835956 0.08170296 -0.097515605 0.0674052 -0.027396258 0.009526772 0.0056335186 -0.042914327
-0.021740438 -0.052027497 0.019000499 0.09933734 -0.10431753 -0.10912922 -0.07725628 0.095215745
-0.03782977 -0.0070287194 0.024653839 -0.011877245 -0.0015444646 0.014677945 0.006508795 -0.08009237
0.0023919397 0.021709748 0.004672432 0.09327091 -0.025537524 -0.008529422 0.062075853 0.13046096
0.022992248 0.07652722 -0.1102526 -0.07995012

second_cons6_filterlist.3.weight f4 [1, 4, 5, 5]
00000000: 84ce c7bc 0a27 5abd bc7b bebd f9fe 963d
00000010: 2f44 113d 430a 99bd 10af b33c 1ccb 75bd
00000020: 2a96 d23c 5eb6 863d 2838 993d 0fbe 033c
00000030: cc17 b3bc ce44 b5bd c1bb 123d e892 d4bc
00000040: ad61 4bbd 7092 9bbd 0c14 113d b914 b2bd
00000050: 9581 7abc f348 39bd be6f 8c3d caf5 053c
00000060: 6e86 ae3c 17ac 603d 2755 68bd 9e60 3fbc
00000070: cda0 8cbd 8893 773d 1a2e bfbd 0a3e 1abd
00000080: 73be a2bd 8919 4ebd 1fce 98bd 20ef 8a3d
00000090: 28a1 7fbd 8599 96ba 01ec 833d 6139 833d
000000a0: 1b2c 9c3d e84e bfbc cd48 ebbc c8ff b73d
000000b0: fc8e 54bd b22d dfbc af92 6c3d b2bb 683d
000000c0: 6495 4bbd 35b9 b9bd a1ae 723d 3395 bb3d
000000d0: cce6 913b c32b a4bc bea1 0fbd e5f5 853d
000000e0: 3744 85bd 2c7b 493d a264 f1bd 9cc2 debd
000000f0: 89a9 a1bc 0124 943d 3d8b 873d 9e16 56bd
00000100: a07d 68bd cddc 6fbd 4bff 8dbd e15b 893d
00000110: f55c 5abd 04ee 023b c509 96bd 6bfb 0ebd
00000120: 068a be3d 2ab3 47bd c376 a2bb e403 f43c
00000130: 47c6 253d d8f1 7dbd f1fa 7dbd 1a13 87bd
00000140: 093a 83bd 2964 8abd 4bab 883d 5c58 513b
00000150: ec9d 403d b390 be3d 9eb8 a43c d8ab 2e3d
00000160: 90f7 b43d 7b63 91bd 43ba 80bc e500 9b3c
00000170: 2f04 93bd bb91 afbd 7bc2 a03b e625 953d
00000180: 2e6a 48bc 7137 c23d 4c86 c03d 5080 013d
-0.024390467 -0.053259887 -0.09300944 0.07372851 0.035465416 -0.074726604 0.021934062 -0.060008153
0.02570637 0.065777525 0.07481414 0.008040919 -0.021861933 -0.08851014 0.035823587 -0.025948957
-0.049653698 -0.0759629 0.03541951 -0.08695359 -0.015289684 -0.045235585 0.06857251 0.008176276
0.021304335 0.054851618 -0.056721833 -0.01168075 -0.06866608 0.06044343 -0.09334965 -0.03765682
-0.079464816 -0.05031732 -0.074611895 0.06783891 -0.06240955 -0.0011489844 0.064414985 0.064074285
0.076256 -0.023353055 -0.028721238 0.08984333 -0.051894173 -0.027243469 0.057757076 0.056819625
-0.049703017 -0.090685286 0.05924857 0.09159317 0.004452562 -0.020040398 -0.03506636 0.06541041
-0.065071516 0.04918973 -0.11786772 -0.108769625 -0.019734161 0.0723343 0.066183545 -0.052267663
-0.05676043 -0.05856018 -0.06933459 0.06706978 -0.053311307 0.0019978294 -0.07326082 -0.03490774
0.0930367 -0.04875485 -0.004958005 0.029787011 0.040472295 -0.06199822 -0.062006894 -0.0659544
-0.06407554 -0.06757385 0.066732965 0.0031943535 0.047025606 0.09304943 0.020107564 0.04264435
0.08836281 -0.070990525 -0.015713817 0.018921325 -0.07178532 -0.08572718 0.0049059964 0.07282619
-0.012232346 0.09483231 0.09400615 0.03161651

second_cons6_filterlist.4.weight f4 [1, 4, 5, 5]
00000000: bf4b 65bd 8f42 1dbd 5807 91bd ddef b33d
00000010: b7d2 8cbd 65bc 553d 28aa 733d 7a84 c93c
00000020: c62a 50bd cc06 09bd 11bc bd3d 9af5 c73d
00000030: 9832 a63d e716 f1ba 1d3d ac3d a3b1 b2bd
00000040: 220a 47bd 2b80 343d cd6d 743d c251 86bd
00000050: 3020 5cbc 1eb5 20bd 6de6 c03c d0cf e73a
00000060: 53be 2dbd 9174 9b3d e7eb 0d3d 863e 2cbd
00000070: 436d c5bc ce05 423c f677 49bd 5757 a83d
00000080: e7d6 b33b 1dd9 9dbd 10d7 833c 5561 5c3d
00000090: 87ac 9ebd f722 2abc 3fab 663d 5a94 b73b
000000a0: 1bea 0dbb 7800 213c 65ef 22bd d66e 58bc
000000b0: f455 9cbd 4d01 f0bd d9fe e03c d83f e73c
000000c0: c6e8 7ebd 5ab2 70bc 0386 06bd ef58 f9bd
000000d0: b2ff 7abd dac2 d83c 41f5 f9bd a9d6 9f3d
000000e0: b0ee c83d f12a 9ebd 0fea a93c e366 493c
000000f0: 7dba 863d 647b 3bbd a65a b93d 3c1a 423d
00000100: c6d8 42bd 694f 6abd a09d 97bc affc 74bd
00000110: d5ad d33d 18df 02bd 9701 fabc 6d5b 503d
00000120: bd3b dabd aff1 27bd d9ee 80bd 840a b73c
00000130: c078 cebd dd11 7bbd 9f13 573d ac46 513d
00000140: ca75 863d e0a3 5abd 4086 723c e111 c6bd
00000150: b349 45bd 7203 683d 287a a3bd a982 893d
00000160: 7468 e9bc 9b6e 0bbd 6c4d 09bd d85c 32bd
00000170: f29e 9dbd a727 da3c 2439 58bd ec4f 0d3d
00000180: ce8e 1b3d 02f7 64bd cda6 54bd 12ca 803d
-0.05598044 -0.038393553 -0.07081479 0.08785985 -0.06876128 0.05218162 0.059488446 0.024599303
-0.050822042 -0.033453748 0.092643864 0.09763642 0.08115119 -0.0018393666 0.08410094 -0.08725288
-0.048593648 0.044067543 0.059675027 -0.06558563 -0.0134354085 -0.039235227 0.023547376 0.0017685834
-0.042417835 0.07590593 0.034648802 -0.042051814 -0.024099952 0.011842204 -0.04918667 0.08219784
0.005488265 -0.07707427 0.01609376 0.05380376 -0.07747751 -0.010384313 0.056315657 0.0056024017
-0.002165443 0.009826772 -0.039779086 -0.013210019 -0.07633582 -0.11718998 0.02746527 0.028228685
-0.06223371 -0.01469096 -0.032842647 -0.12175166 -0.061279006 0.0264601 -0.122049816 0.07804615
0.09811151 -0.07723034 0.02074149 0.0122925965 0.065785386 -0.04577197 0.09050493 0.0473883
-0.047570013 -0.057204638 -0.018507779 -0.05981129 0.1033589 -0.03195104 -0.030518336 0.05086844
-0.106559254 -0.04100197 -0.062955566 0.022343881 -0.10081625 -0.061296333 0.052508947 0.05109279
0.06565435 -0.05337894 0.0148025155 -0.09671379 -0.04816599 0.05664391 -0.07982284 0.067143746
-0.02849219 -0.03404103 -0.0335211 -0.043545574 -0.07696332 0.026630236 -0.05278887 0.034500048
0.037977986 -0.055899628 -0.051916886 0.06288542

second_cons6_filterlist.5.weight f4 [1, 4, 5, 5]
00000000: 0ebc b13d 10b0 6ebd dfde 1abb 61e9 593d
00000010: bb0d 41bd 9f17 dc3b 1ce7 98bd 5275 2c3d
00000020: fd6a 5e3b 3ab0 a6bd 6df2 c03c 6a7d f5bd
00000030: 4499 83bd 5ae0 abbd 0c49 48bd 8d49 8f3d
00000040: 960a 953c 3b05 a23d 5c5b 8c3c ad4e b7bb
00000050: fb30 30bd 9296 bfbc bbf2 04bd a9b6 e3bc
00000060: 9d50 d83d 837c 5a3d 6ae8 63bd 120f 333d
00000070: 64f7 5f3c dd23 a5bd 4aae dd3d 84da d83c
00000080: e827 7abd 429a 6ebd 74d9 8cbd e5ef 833d
00000090: 51d6 b73d 9893 453c 0425 fabc af38 c03d
000000a0: fb8b d4bd e1d9 06be e8ce 653d 05b5 96bd
000000b0: 1507 853c e570 aabd 9b37 afbd f258 8dbd
000000c0: c173 673d 81e7 bdbd 6036 eebd 822c 623d
000000d0: 520e 88bc 7881 84bd b8b8 c03c 9434 2cbd
000000e0: eabe 963d 3b2b 883d 62bb 12bd bd61 d7bc
000000f0: 4924 2e3d b049 c23d 19df a6bd 646e 51bd
00000100: 3d73 d5bd b97f 633d b469 bebb 80df 623d
00000110: a87e a43d 72fc 6cbd f2c4 ac3d 4b14 673d
00000120: ea4b 913d 195e 6fbc 6c3f 333d 2328 ba3d
00000130: fc2e c03d 0080 f8bb 5abb 543d b1f8 113d
00000140: 955b 7b3d 5ed7 bd3c 3923 b1bd b57a 6fbb
00000150: e9b0 93bd 22a4 b63d 6cdd abbd cc0f 12bd
00000160: 15d5 5e3c 33ab 86bb cd1a b63d d105 4fbc
00000170: 2029 8b3d e68c cdbb 0569 6abd 20b9 7a3d
00000180: d237 9a3d c665 123b 9463 d5bc 1076 753c
0.08678447 -0.058273375 -0.0023631377 0.053201083 -0.047132235 0.006716683 -0.074659556 0.042104073
0.0033938282 -0.08139081 0.023553098 -0.119868115 -0.064257175 -0.08392401 -0.048897788 0.069964506
0.018193524 0.07911154 0.017133407 -0.0055940957 -0.04301546 -0.023387227 -0.03245805 -0.02779706
0.10562251 0.0533414 -0.05564157 0.043715544 0.013669822 -0.08063481 0.108242586 0.026471384
-0.061073214 -0.05825258 -0.068774134 0.064422406 0.089764245 0.012059115 -0.030535229 0.093858115
-0.10378262 -0.13169052 0.056105524 -0.073587455 0.016238729 -0.08322314 -0.08555528 -0.069017306
0.056506876 -0.092726715 -0.11631465 0.055218227 -0.016608391 -0.06470007 0.02352558 -0.04204233
0.07360633 0.066488706 -0.035823233 -0.026291722 0.042515073 0.09486711 -0.08148021 -0.051130667
-0.104223706 0.055541728 -0.0058109406 0.055388927 0.0803197 -0.057857938 0.08436002 0.056415837
0.070945576 -0.014609837 0.043761656 0.09089687 0.093839616 -0.007583618 0.051936485 0.03563756
0.061366636 0.023173984 -0.08649296 -0.0036541645 -0.07211477 0.089180246 -0.08391842 -0.035659596
0.013600607 -0.004109764 0.088918306 -0.012635664 0.06794953 -0.0062729 -0.05722906 0.061211705
0.07530178 0.0022338494 -0.02604846 0.014981762

third_cons3_filterlist.0.weight f4 [1, 4, 5, 5]
00000000: f2d2 a53c d9ce c7bd 457e 043d 5260 df3c
00000010: f381 73bd dc74 b23c a0a0 1cbd e95e 6b3d
00000020: 866b 42bd f5e1 243d 8220 a13c 866b efbc
00000030: a472 17bd 59a2 61bc ec08 5f3d b49a 013c
00000040: 7b55 b73d 1d37 9f3b 699d 2ebd 8582 733d
00000050: 74fc cbbd 46a5 76bd 0491 c63d 0464 97bd
00000060: 0e6c 41bc 3786 4fbd 4e27 9cbd 3329 163a
00000070: 6ffa adbc 3132 81bc defa ca3d d401 2cbc
00000080: dbb0 193d 3837 673d 413c 173d 9322 44bd
00000090: 5af8 8d3c 5c40 763d b984 31bc 7aaa a03c
000000a0: 501e 83bd c8b1 afbd 458e 80bd c74c edbd
000000b0: dc78 603b 1bf9 4c3d a78b 1a3d 7c42 9a3d
000000c0: 5229 9cbd 4ad8 4cbd 45cb 75bd 3945 f83b
000000d0: 8528 233d 4c79 b6ba b38f 483d 8a10 89bd
000000e0: e72b af3d 707c 19bd 87c7 82bd 0411 69bd
000000f0: 91d8 de3c c767 aebd 2fe4 1a3d ccba 453d
00000100: 4ca1 de3d 46a5 523d 7938 843d 5a93 a1bd
00000110: 405d 6bbd c53d c93b 24fe 9a3d 6f88 963d
00000120: eeb2 45bd e765 a639 cbd8 3a3d 7a1b 9e3d
00000130: 770c 37bd f8ab 273d d08f 0c3d d694 8bbc
00000140: 6c8b 29bd adb7 883d 3e2f d1bd 3fc6 1d3c
00000150: 0151 01bd a0cd b8bd 3cb2 4abd 76e3 babb
00000160: 29d7 9fbd 3569 d8bb b513 cdbd 74cc b9bd
00000170: eb88 ff3d c90b 3d3d ad4c 293c dff7 f33c
00000180: df01 b13b 51b4 843d a08f 9bbd 648b 05bd
0.020242188 -0.0975625 0.032346983 0.027267609 -0.0594501 0.021784239 -0.03823912 0.05746356
-0.047465824 0.040254552 0.019668821 -0.029226076 -0.036974564 -0.013771617 0.054451868 0.007910419
0.08951851 0.004858865 -0.042630587 0.059450645 -0.09960261 -0.06021621 0.09695628 -0.07392123
-0.011805547 -0.050665107 -0.07624684 0.0005728185 -0.02123758 -0.015771003 0.0991113 -0.010498483
0.03752218 0.056449145 0.036922697 -0.047884535 0.017330337 0.06011997 -0.010834866 0.01961254
-0.06402266 -0.08578831 -0.06277136 -0.1158691 0.0034251725 0.050042253 0.03773084 0.07532212
-0.07625069 -0.050010957 -0.060008306 0.0075766114 0.039833564 -0.0013921647 0.048965167 -0.06692608
0.085532956 -0.03747219 -0.06385713 -0.056900993 0.027202876 -0.08515888 0.03781527 0.048273847
0.10870609 0.05142715 0.06456084 -0.07889433 -0.057461977 0.0061413967 0.07568005 0.073502414
-0.048266344 0.0003173791 0.045616906 0.077200845 -0.04468962 0.040935487 0.034316838 -0.017038744
-0.04139273 0.066756584 -0.10214089 0.009629785 -0.031571392 -0.09023595 -0.049486384 -0.005703385
-0.078047104 -0.0066043385 -0.100135244 -0.090721995 0.12477287 0.046153817 0.010333222 0.02978128
0.0054018344 0.06479705 -0.07595754 -0.032603636

third_cons3_filterlist.1.weight f4 [1, 4, 5, 5]
00000000: 3a54 b4bd 6c1e de3d 90eb b23d 8542 c4bb
00000010: 81cd 4f3d e65b 6cbd f8e7 45bd 0b8f afbd
00000020: 2bdb 91bd 08af 91bd c956 113d ec0a 703d
00000030: 1132 46bc ce6e 9cbd 869f 0dbd 2c84 46bd
00000040: a0ec 243d 74e7 c63d 87c6 8e3d f610 19bd
00000050: d257 33bd 0a96 c2bb fc26 173d ae0f acbd
00000060: 5c5d 2ebd 231a fd3d c1a0 933d 7e79 3cbc
00000070: 0140 5cbd 4cab 02bd 2ad2 b73c aebe 4a3c
00000080: b2fd 20bd b3e4 d73d 03bb 5a3c 7ac0 9d3d
00000090: 875b ac3c 71c3 8ebd 090a e63d 275b c4bd
000000a0: 3d71 5a3d 9d21 bdbd 2b0a bebd 5259 823d
000000b0: 2991 33bd 30c2 933d 5efd f5bd 01e9 543b
000000c0: 4218 a9bc d952 743d f941 993d 3dd8 0ebd
000000d0: 71d1 853c e082 4e3d ec80 6fbd 5695 8e3d
000000e0: 7a7a 96bd 3c4d 5fbd 722a 06bd 7329 c73d
000000f0: aae7 5a3d f8c2 68bd 754a 9abd 3f3b 953d
00000100: 0b5c 44bd 6e7b ca3d b727 a1bd 7361 c33d
00000110: dfaa 39bc be9f ee3d 90d6 f53c e17c a03c
00000120: 19a5 0bbb 84a3 043d 6b63 143d 5765 493d
00000130: 0387 df3d 22ad b6bc 6be9 af3b 86e1 f8bd
00000140: 3b6b 6ebc b6d4 9b3d da09 1cba e0e2 273d
00000150: 80e0 bbbc 66ea c0bc f0ae f23d 460e ebbc
00000160: 9818 433d 81d2 2b3d 5abd 92bd 37d2 a3bd
00000170: 4b64 62bd 1526 dcbd fa9d b93c b8e2 89bc
00000180: 5e3a 6ebd cb4a 4d3c 6b41 8cbd 2981 ad3d
-0.088051274 0.10845646 0.08736336 -0.005989375 0.050733093 -0.05770483 -0.048316926 -0.08572205
-0.07121881 -0.07113463 0.035483155 0.058604166 -0.012096898 -0.07638322 -0.03457596 -0.048465893
0.040264726 0.09712115 0.0697146 -0.03736969 -0.043784924 -0.005938296 0.036902413 -0.08401428
-0.042569503 0.12358501 0.07208396 -0.011503575 -0.053771976 -0.031901643 0.022439081 0.012374563
-0.039304443 0.10541668 0.013350251 0.077027276 0.021039737 -0.06970871 0.11232383 -0.095876984
0.05333065 -0.09234927 -0.09279283 0.06364693 -0.043839607 0.07214773 -0.120112166 0.0032487514
-0.02064145 0.059649322 0.074832864 -0.03487419 0.016335221 0.05041778 -0.05847256 0.06962077
-0.07347579 -0.054517016 -0.032755323 0.09724703 0.05344359 -0.05682656 -0.07533733 0.07286691
-0.04793934 0.098868236 -0.07868903 0.09540071 -0.011332243 0.11651562 0.030009538 0.019590797
-0.0021308123 0.032382503 0.036227625 0.04916891 0.10914423 -0.022299353 0.0053684018 -0.1215239
-0.014551933 0.07608931 -0.0005952396 0.04098785 -0.022934198 -0.02354927 0.11849773 -0.02869333
0.047630876 0.0419488 -0.07165022 -0.0799908 -0.055271428 -0.10749451 0.022658337 -0.01683174
-0.058161132 0.012530039 -0.06848415 0.08471901

third_cons3_filterlist.2.weight f4 [1, 4, 5, 5]
00000000: b7f4 9dbd fc85 8a3d 383d 1fbd 3992 a63d
00000010: 7247 4c3c 18a9 ac3d 9136 6dbd e23b 0bbd
00000020: 147f f63c b584 b73d 5f05 86bd 04c9 fe3c
00000030: 856b 8dbc 5c46 9a3c c995 b13d f254 8b3d
00000040: 4aa4 c9bc 263b d4bd 242e 2e3d f49d 663c
00000050: 87d1 903d 9e30 17bd d8dc d2bd 88af f1bc
00000060: cea4 cebd 204f 033d cee5 293d cd0a cd3c
00000070: a06d f5bd dc56 b6bd 33f8 8dbd 146d 433c
00000080: 93ef c5bd 539e b8bd f275 413d 36f7 63bc
00000090: ca48 afbd 78e0 75bd 616c c23d da5e c33d
000000a0: b2ab 7dbd 564d 963d d86f a1bd d913 8c3d
000000b0: fa83 90bd 0e91 b5bb 227f c2bd 5d5d 0b3d
000000c0: 91e1 fa3c 1215 853d b4b8 42bd 0799 0a3b
000000d0: 15bc c73c 5cd6 7abd 79c0 41bd eac4 d2bd
000000e0: b10f ff3c da31 43bd 7543 5f3c f516 be3c
000000f0: 8c7c 313d 78a3 5fbc 0c8c 0dbd 2bd7 413d
00000100: 38e5 4e3d 407c 2ebd e1ee 50bd d943 7fbd
00000110: 1903 5bbd 9031 913d 5c7d 5dbd 0866 3e3c
00000120: d263 863d f2f0 97b8 e574 a83c ea33 63bd
00000130: 99b4 da3a 7de9 c5bc 64f7 f1bc fc18 ddbc
00000140: 3821 c7bd 5645 eeb8 de0b a9bd f1d3 bb3d
00000150: 4186 b43d 8553 5b3d 35a3 153d c936 b43d
00000160: b1dd 18bd 7a57 673d 043f 2cbd f52c 35bd
00000170: 1eab 8cbd fc6b 983a fca8 04bd b902 c83d
00000180: 56d1 913d 9e79 a2bd 1910 d93d 9713 84ba
-0.07712691 0.06763837 -0.038876742 0.081333585 0.012468206 0.084306896 -0.057913367 -0.033992656
0.030089892 0.08960859 -0.06543993 0.031101711 -0.017263183 0.018832378 0.086711474 0.068033114
-0.024614472 -0.10362844 0.042524472 0.014075745 0.07071214 -0.0369116 -0.10296029 -0.029502645
-0.10090028 0.03205788 0.041478924 0.025029564 -0.119838 -0.08903286 -0.06932106 0.011927862
-0.09664836 -0.09014573 0.047231622 -0.01391392 -0.08558805 -0.060028523 0.09493328 0.09539576
-0.06193132 0.073389694 -0.078826606 0.06839723 -0.070564225 -0.0055409735 -0.09496905 0.034024585
0.030625137 0.064981595 -0.047539428 0.002114834 0.024381677 -0.061239585 -0.047302697 -0.102914646
0.031135412 -0.047654964 0.013626923 0.023204306 0.043331668 -0.013649814 -0.034557387 0.04732434
0.05051157 -0.042598963 -0.051009063 -0.062320564 -0.05346975 0.070895314 -0.05407463 0.011621006
0.06562008 -7.245121e-05 0.020563552 -0.05546943 0.0016685902 -0.024159187 -0.02953691 -0.026989453
-0.09723133 -0.00011361639 -0.082542166 0.09171284 0.088146694 0.053546447 0.0365326 0.08799512
-0.037320796 0.05647991 -0.042052284 -0.044232327 -0.068685755 0.0011628862 -0.03238772 0.09766144
0.07120006 -0.07933353 0.105987735 -0.0010076639

fourth_last1_filterlist.0.weight f4 [1, 6, 5, 5]
00000000: 6bcb 9b3d 6089 9fbd bc3f 53bd dfa6 a2bd
00000010: 7166 423d 84aa 893d 94b7 a53d b5e2 9f3d
00000020: a16f 9d3c 6322 ad3d cf51 6b3d 57a3 09bb
00000030: dbe2 39bc 70e1 f43c 58bf 57bc 88c7 703d
00000040: 7895 88bb c58e e13c 9e6c 03bd 385c 1ebd
00000050: f549 8abd 7f71 3fbc f393 0abd 0d1a 663d
00000060: 9fff c4bd 153f 6a3c 194b b13d 9284 d03d
00000070: f66c 6b3d f579 073e 9001 6abc 4273 93bc
00000080: 4206 0cbd 9435 7cbc e43a 663d 8dd0 503d
00000090: 06ca 27b9 b940 cabd 3a1d 89bc d363 363d
000000a0: 0fac ba3d 392f b7bd 365c 013d e58e 91bd
000000b0: 26d3 b4bd 4988 713d 3c67 14bd 4823 903c
000000c0: 6a92 8d3d 9c01 1cbd dc6b 32bc 0964 a2bc
000000d0: 458a e23c cc6f 703d 02f4 a43d f90b a8bc
000000e0: b87a 0cbd dd27 53bd 6463 be3c ea82 363d
000000f0: 6d15 09bd a877 acbc 969f 86bd 0872 14bd
00000100: f8ef 8d3d 148c 07bd 538f 2f3c ed0f 333d
00000110: 4070 c0bd 4911 2abc 9428 0fbd a29c 22bd
00000120: 17d3 32bd cfe0 2d3d bdd6 ea3b a66f 583b
00000130: bcee e3bb c9a5 993c fc5a 15bc 1f2c 93bd
00000140: 442d 083d 4b26 b1bb d5e5 93bd 95ef f5bc
00000150: 765e d6bc 035c 5dbc 3872 243c 6579 1d3d
00000160: 4f4f a73b 2bf9 853c 01eb 29bc f5eb 8fbd
00000170: 5a49 323d 4abc 1d3d 8fb9 e9bc 6eb4 693d
00000180: b263 8dbd 0c71 18bd 5fc6 4bbd 5c33 babd
00000190: a119 66bc feee fcbc 1817 97bd dd18 61bd
000001a0: fe3f c63d db54 ab3d c929 af3d 445b 963d
000001b0: 3b39 343c b4c2 b2bc b945 cabc 8e8f 5abd
000001c0: a254 8b39 fcca e23c 027d c7bc 3000 613c
000001d0: 695b e0bd 73c4 853d 11de 973d d76f 8e3d
000001e0: d947 a1bd 0486 0ebd d9d5 98bd dd71 113d
000001f0: b4b5 143c d443 e83c 9a81 63bd 6440 cd3b
00000200: 3d51 df3c 8292 ce3c b12f aa3d b408 633d
00000210: c4e8 25bd 4da3 6dbd 6597 6c3d 54bb a4bb
00000220: b740 f93c 2c93 313d c8a4 eabc 175d e63c
00000230: 18b7 7ebd 91dd 443d b6ab e23c 4297 8cbd
00000240: 2986 263d e3df f03c 4322 093d 420f ba3c
00000250: c09e 85bc 57bf 70bd
0.07607158 -0.07789874 -0.051574454 -0.079419844 0.047460977 0.067219764 0.080916554 0.07806913
0.019218268 0.08453824 0.057451066 -0.00210019 -0.01134559 0.029892653 -0.0131681785 0.058784038
-0.0041682087 0.027533898 -0.032086007 -0.038662165 -0.067523874 -0.011684774 -0.0338325 0.056177188
-0.09619068 0.0142972665 0.08656902 0.10181536 0.05747696 0.13230117 -0.014282599 -0.017999295
-0.034185655 -0.015393633 0.056208506 0.05098014 -0.0001600162 -0.09875626 -0.01673757 0.044528794
0.09114849 -0.08944554 0.03158208 -0.07107333 -0.08829336 0.058967862 -0.036231264 0.017594948
0.06912692 -0.038087472 -0.0108899735 -0.019823091 0.027653823 0.058700368 0.08054353 -0.020513522
-0.03429672 -0.05155169 0.023240753 0.044558443 -0.0334677 -0.02105315 -0.06573407 -0.03624156
0.06930536 -0.033092573 0.0107153235 0.04371636 -0.0939641 -0.010380098 -0.034950808 -0.039700158
-0.043658342 0.042450722 0.007166712 0.0033025532 -0.0069559496 0.01875581 -0.009115931 -0.0718615
0.033246294 -0.005406176 -0.07221571 -0.030021468 -0.02616809 -0.013510707 0.0100369975 0.03844585
0.00510589 0.016354164 -0.010370971 -0.07027427 0.043526985 0.038509645 -0.028530864 0.057056837
-0.06903781 -0.037217185 -0.04974973 -0.09091827 -0.014044196 -0.03087568 -0.07377452 -0.054955352
0.09680174 0.08365794 0.08552892 0.07341626 0.010999973 -0.021821357 -0.02469145 -0.05335956
0.00026575202 0.027684681 -0.0243516 0.013732955 -0.10954935 0.0653161 0.07415403 0.069549255
-0.07875032 -0.034795776 -0.07462663 0.03550898 0.0090765245 0.028352655 -0.05554352 0.0062637795
0.027260417 0.025216345 0.08309878 0.05542822 -0.040505186 -0.058017064 0.05776157 -0.005027214
0.030426366 0.043353245 -0.028643027 0.02812056 -0.06218633 0.048062865 0.027669769 -0.06864788
0.04065529 0.029403633 0.03347994 0.022712354 -0.01631105 -0.058776226

bn2.weight f4 [16]
00000000: 62d3 803f e8e7 7a3f b3d4 853f dccd 863f
00000010: 245d 873f 5ea9 833f b45a 863f 03ab 833f
00000020: 1a1f 823f 0f11 7e3f a353 853f d780 7a3f
00000030: 6daa 6f3f 3508 7e3f 1c6a 833f 64c6 7d3f
1.0064509 0.9801011 1.0455536 1.0531573 1.0575299 1.0286062 1.049643 1.0286564
1.0165741 0.9924478 1.0416149 0.97852844 0.93619424 0.9923127 1.0266757 0.99130845

bn2.bias f4 [16]
00000000: 279c f5b9 3b83 81bd 3bf4 92bc 67b7 103b
00000010: 7f82 95bc ce16 70bc 0fa8 323d a864 253c
00000020: a4c7 f73c ea40 d2bc 29a6 7a3b 3edb a83c
00000030: 8282 153d 0bd1 c9bc 492b 3e3b 38d2 51bb
-0.00046846384 -0.06323858 -0.017938724 0.0022081973 -0.018250702 -0.014653875 0.043617304 0.010094799
0.030246563 -0.025665719 0.0038246012 0.020612355 0.036501415 -0.024635812 0.00290175 -0.003201617

bn2.running_mean f4 [16]
00000000: 484f 803e 4118 143e 4d5e 573e a3c2 163e
00000010: 37b0 363e 3165 be3e 5b3f 753e 1c41 903e
00000020: 6dfb 2c3e 9278 803e 3787 7c3e 688f 563e
00000030: eee4 8d3e 6e32 b83e 9ed2 b33e 5f76 693e
0.25060487 0.14462377 0.21032067 0.14722686 0.17840658 0.37186578 0.2394995 0.28174675
0.16892786 0.25091988 0.24660955 0.20953143 0.27713722 0.35975975 0.35121626 0.22799061

bn2.running_var f4 [16]
00000000: e379 8d3d f9d0 9b3d 4361 b63d 53d0 5d3d
00000010: ba78 4a3d 389f ac3d 2e5a 673d a0f0 313d
00000020: 3214 bc3d 40de 663d 3f0b 643d 747d 2f3e
00000030: cbb5 8a3d 44d7 ed3d 7408 cb3d 2494 cc3d
0.06908014 0.07608218 0.0890527 0.05415375 0.04943154 0.08428806 0.056482486 0.04344237
0.091835395 0.056364298 0.055674788 0.171377 0.067729555 0.11613324 0.09913722 0.09989193
