models/5.pth (torch_old, 252432 bytes, 36 tensors)

c1.weight f4 [6, 3, 5, 5]
0	0x3cd95f94	0.026534833
1	0xbc9e5e7e	-0.019332167
2	0xbd586ebe	-0.052839987
3	0x3dfca3ea	0.123359516
4	0x3c934262	0.01797599
5	0x3d7b6ece	0.06138497
6	0xbce7978b	-0.028270504
7	0xbd892c00	-0.066978455
8	0xbcc031c3	-0.023461228
9	0xbddccac1	-0.1078086
10	0xbca2ac18	-0.019857451
11	0xbda39b7f	-0.07988643
12	0xbd0549e3	-0.032541167
13	0x3ded41a9	0.11584789
14	0x3dc9999c	0.09843752
15	0xbdc61166	-0.09671287
16	0xbe0188e3	-0.12649874
17	0xbd2caa37	-0.042154517
18	0xbd482c57	-0.04887041
19	0x3d3a57a2	0.04549373
20	0xbdf87512	-0.121317044
21	0xbce74966	-0.028233241
22	0xbbb40aad	-0.0054944367
23	0xbd750508	-0.05981925
24	0xbdd066aa	-0.101758316
25	0xbd6dab93	-0.058024954
26	0xbdbac7f3	-0.091201685
27	0x3b9b3c5f	0.0047374214
28	0xbd9e2a22	-0.0772288
29	0x3dfd550b	0.12369736
30	0xbd841cdc	-0.06450817
31	0xbc0fdf70	-0.008781299
32	0x3e054025	0.1301275
33	0x3c9875e9	0.018610911
34	0xbd25032f	-0.04028624
35	0xbd9fbc52	-0.07799591
36	0x3d1e7807	0.038688686
37	0x3d8b924c	0.06815013
38	0x3da03592	0.07822718
39	0x3d9c4aca	0.076314524
40	0xbd475927	-0.048669007
41	0x3d10ea73	0.03537984
42	0xbd755b1e	-0.05990135
43	0xbcee13b2	-0.029062126
44	0xbc609edd	-0.013709751
45	0xbd67bcdf	-0.056576606
46	0x3d01d9b6	0.031701766
47	0x3dd08f1b	0.10183545
48	0xbb9a50c7	-0.0047093364
49	0x3c44a48d	0.012002123
50	0xbd986f95	-0.074431576
51	0xbd67a6b5	-0.05655547
52	0xbdb27c46	-0.087151095
53	0xbdecdfc9	-0.11566121
54	0x3d85bd13	0.06530204
55	0x3d97da44	0.07414678
56	0x3daa4fab	0.08315977
57	0xbcc64e35	-0.024207214
58	0x3c8f9734	0.017528154
59	0xbc96b748	-0.018397942
60	0xbce3ead4	-0.027821936
61	0xbdc1af15	-0.09457222
62	0x3c05dd8d	0.008170498
63	0x3b0ccde7	0.0021485032
64	0x3caf7fe8	0.021423295
65	0x3d690205	0.05688669
66	0xbd7d0f86	-0.061782382
67	0xbde338ab	-0.11094793
68	0xbd0b34af	-0.03398579
69	0xbdfe5933	-0.12419357
70	0xbd80a4c2	-0.06281425
71	0x3c47be5d	0.012191382
72	0xbd421086	-0.04737904
73	0xbddb6421	-0.107124574
74	0xbc348cee	-0.011019928
75	0x3c97bc24	0.01852233
76	0x3d90d37f	0.0707159
77	0x3d84d56d	0.0648602
78	0x3c77b146	0.015117949
79	0x3dc85b23	0.09783008
80	0x3df0fd07	0.11767011
81	0x3dc898d4	0.09794775
82	0xbd7dc92b	-0.061959427
83	0xbdba957e	-0.091105446
84	0xbd2205cd	-0.039556313
85	0x3cc4f88f	0.024044303
86	0x3d9ac099	0.07556266
87	0x3d0dc2cf	0.034609612
88	0xbd559ad7	-0.05214962
89	0xbd08f83f	-0.03343987
90	0x3e05893c	0.13040632
91	0xbdadb39d	-0.08481524
92	0x3dda76bb	0.10667177
93	0x3c64b6b8	0.013959579
94	0xbc3b6c43	-0.011439386
95	0x3daa7c5c	0.08324501
96	0x3d992214	0.07477203
97	0xbde7ecd0	-0.11324465
98	0x3cfc4b89	0.030797737
99	0x3c610a52	0.013735371
100	0xbd4ba35b	-0.049716335
101	0xbc642d88	-0.013926871
102	0xbd76519a	-0.060136415
103	0x3d41ce5f	0.04731595
104	0x3d3cac4c	0.046062753
105	0x3d942f2b	0.07235559
106	0xbd09b49a	-0.0336195
107	0x3d642cd8	0.05570683
108	0x3ca85cad	0.020552004
109	0x3dc1da3b	0.09465452
110	0x3d43e4dd	0.047825683
111	0x3dbb94d7	0.09159248
112	0x3cfafb16	0.030637305
113	0xbdde978a	-0.108687475
114	0x3de4b587	0.11167436
115	0x3da866c2	0.082227245
116	0x3dd02a7b	0.101643525
117	0xbddd8877	-0.10817044
118	0xbcd2c708	-0.025729671
119	0xbd6c33a0	-0.05766642
120	0x3dd490a5	0.10379151
121	0x3d1828c9	0.03714827
122	0x3dd20709	0.10255248
123	0xbe005a06	-0.12534341
124	0xbcd1095d	-0.02551716
125	0xbd49d4fe	-0.04927539
126	0x3d858056	0.06518619
127	0xbcb38d5e	-0.021917995
128	0x3da60452	0.08106293
129	0xbd89edc0	-0.067348
130	0x3d289f78	0.041167706
131	0x3ba7f276	0.005125339
132	0x3dddb74e	0.10825978
133	0xbcb53315	-0.022119084
134	0xbdbf6370	-0.09345138
135	0xbcafd5d2	-0.021464262
136	0x3dbdf2eb	0.092748486
137	0xbbd1d33b	-0.0064033545
138	0x3da28c3a	0.07936902
139	0x3c8b8728	0.017032221
140	0x3c56bf19	0.013107085
141	0x3d93f986	0.07225327
142	0xbc00caa9	-0.007860818
143	0xbdce536f	-0.100745074
144	0x3d6d4bf9	0.05793378
145	0x3db17ac9	0.086659975
146	0xbb65242d	-0.003496419
147	0x3b83cd57	0.004022281
148	0xb8c45056	-9.360972e-05
149	0xbb9c8f7d	-0.0047778473
150	0xbd9d56a1	-0.07682539
151	0xbbf00dc3	-0.0073258593
152	0x3da61388	0.08109194
153	0x3de47234	0.11154595
154	0x3d3e9943	0.04653288
155	0xbc1ffeca	-0.009765336
156	0xbd248a27	-0.040170815
157	0x3d532f85	0.05155899
158	0x3b5c584c	0.0033621965
159	0xbcb9ee09	-0.022696512
160	0xbccd917c	-0.025093786
161	0x3d253d7d	0.040341843
162	0x3d37f0dd	0.04490744
163	0xbcd7c97f	-0.026341198
164	0x3bf3f096	0.0074444516
165	0x3db5c09a	0.088746265
166	0x3bc125d0	0.0058944
167	0x3d4b974d	0.04970484
168	0x3dc6213b	0.09674307
169	0xbcf858f2	-0.03031585
170	0x3d424f38	0.04743883
171	0x3d8ce49a	0.0687954
172	0xbc145bdc	-0.009055104
173	0xbd366421	-0.044529084
174	0x3d6d9631	0.05800456
175	0x3d89e536	0.06733172
176	0x3c32de4d	0.010917258
177	0x3c540a03	0.01294184
178	0xbe01fc69	-0.12693943
179	0xbd0a6c78	-0.03379485
180	0x3d83108d	0.06399641
181	0x3ca2a562	0.019854251
182	0xbbb15226	-0.005411404
183	0xbdd8d884	-0.10588172
184	0x3ca33dad	0.01992687
185	0xbdafabf8	-0.08577722
186	0xbccc1c25	-0.024915764
187	0x3d63e87e	0.055641644
188	0x3bcb6dfe	0.0062081804
189	0x3d6bb171	0.05754227
190	0x3d354cf4	0.04426284
191	0xbdac6a61	-0.08418728
192	0xbd057660	-0.032583594
193	0xbb5e0168	-0.003387535
194	0xbd464967	-0.048409846
195	0xbdcb5d93	-0.09929957
196	0xbde5e311	-0.1122495
197	0xbd92ae5b	-0.07162162
198	0xbd1eccab	-0.038769405
199	0x3ccbb77f	0.024867771
200	0x3dc3db7b	0.09563347
201	0x3e2704e0	0.16310453
202	0x3d5d20fd	0.05398654
203	0x3d1cf46c	0.038319036
204	0xbd56fe92	-0.05248887
205	0x3d0cf710	0.034415305
206	0x3daada59	0.08342428
207	0x3d5a7938	0.05333826
208	0xbbf002e4	-0.0073245633
209	0xbc9da1b0	-0.019242138
210	0xbd93ceb1	-0.07217158
211	0x3da14db4	0.07876149
212	0xbd8ad6a2	-0.06779219
213	0x3c83c1b1	0.01608357
214	0xbd75efe6	-0.060043238
215	0x3d87914a	0.066195086
216	0xbd62b6e1	-0.05535019
217	0x3e0e6ade	0.13907954
218	0xbd0114fb	-0.03151415
219	0x3e0f87ba	0.1401662
220	0xbdddc981	-0.108294494
221	0xbc39a72e	-0.011331363
222	0x3d6dc1fa	0.05804632
223	0x3c44a846	0.01200301
224	0x3cb4c06b	0.022064408
225	0x3d8ddbe7	0.06926709
226	0xbd860dae	-0.06545578
227	0x3ddfb480	0.109230995
228	0xbdad235d	-0.08454011
229	0x3ddec6dc	0.10877773
230	0xbd836bbc	-0.06417033
231	0xbcd365ff	-0.025805471
232	0x3d78ba86	0.060724758
233	0xbc962c88	-0.018331781
234	0x3d9a8d3c	0.075464696
235	0x3db05660	0.08610225
236	0x3a546f2f	0.0008103726
237	0xbdc01868	-0.09379655
238	0x3cce31b0	0.025170177
239	0xbc86e703	-0.016467577
240	0x3dc51ed4	0.096250206
241	0xbdf377aa	-0.118880585
242	0xbca514e6	-0.020151567
243	0x3d42a710	0.047522604
244	0x3cc54e62	0.024085227
245	0x3deb5010	0.1148988
246	0x3b029c27	0.00199295
247	0x3dc4d65f	0.096112005
248	0x3c7887f2	0.015169131
249	0x3d83fafb	0.06444355
250	0x3ca688f8	0.020328984
251	0xbd38efa5	-0.045150418
252	0x3cf50631	0.029910179
253	0xbcfbd807	-0.030742658
254	0xbd179f61	-0.03701723
255	0xbd2a8b59	-0.0416368

c1.bias f4 [6]
0	0x3d881dd3	0.066463135
1	0x3cb9eacc	0.022694968
2	0xbde6ad37	-0.11263507
3	0xbd7cd507	-0.061726596
4	0x3da5ac5d	0.08089516
5	0x3d2bbceb	0.041928213

bn1.weight f4 [6]
0	0x3f76e6b6	0.96445787
1	0x3f84fc4b	1.0389494
2	0x3f86fbcb	1.0545591
3	0x3f7e2083	0.9926836
4	0x3f77237f	0.9653854
5	0x3f80fbb6	1.0076816

bn1.bias f4 [6]
0	0xbc812b84	-0.01576782
1	0x3d61c264	0.055117026
2	0xbcb4b575	-0.022059182
3	0x3bd888da	0.006608111
4	0xbbb35700	-0.0054730177
5	0x3cdf9da0	0.027296841

bn1.running_mean f4 [6]
0	0x3e7218dd	0.23642297
1	0x3e889203	0.26673898
2	0x3dca9429	0.098915406
3	0x3d5ecefb	0.05439661
4	0x3e8a75e3	0.27043065
5	0x3e2bac62	0.16764978

bn1.running_var f4 [6]
0	0x3f8d7fd0	1.105463
1	0x3f7b99b6	0.9828142
2	0x3e2d54e8	0.1692692
3	0x3e1f83dc	0.15577644
4	0x3ed7a655	0.4211909
5	0x3ef5852c	0.47953165

first_cons6_filterlist.0.weight f4 [1, 3, 5, 5]
0	0x3d817a1f	0.06322121
1	0xbcd7acc0	-0.02632749
2	0xbccbba7a	-0.024869192
3	0xbdac7b1b	-0.08421918
4	0x3d86c627	0.06580763
5	0x3b154ffa	0.0022783265
6	0xbd48a00f	-0.04898077
7	0x3d79e8de	0.061013095
8	0xbdb929c8	-0.09041172
9	0xbd8f6cde	-0.07003187
10	0x3d8b7826	0.06810026
11	0x3d8512fa	0.0649776
12	0x3d93c6c3	0.07215645
13	0x3d748c66	0.059704207
14	0x3d814f22	0.063139215
15	0x3d90a53f	0.07062768
16	0xbdf17f93	-0.11791911
17	0x3d98f0a1	0.07467771
18	0xbbbd1a94	-0.0057709906
19	0x3d4c4743	0.049872648
20	0x3d17b1ec	0.037034914
21	0xbc797469	-0.015225508
22	0x3dc0a0b3	0.09405651
23	0xbdab021b	-0.08350011
24	0xbcedb941	-0.029019
25	0x3dd0f9ac	0.10203871
26	0x3d047e08	0.032346755
27	0xbdad23d5	-0.084541
28	0xbdfa3e73	-0.122189425
29	0xbd447809	-0.047966037
30	0x3b2ced23	0.0026386462
31	0x3d59f3d0	0.053211033
32	0xbde961fe	-0.11395644
33	0x3de35b6d	0.111014225
34	0x3db87487	0.09006601
35	0x3c6ac504	0.014329199
36	0xbdc2e021	-0.095154054
37	0xbc69c8e0	-0.014269084
38	0xbc488c19	-0.012240433
39	0xbd2f3781	-0.042777542
40	0x3d3d2c01	0.046184544
41	0xbdd04c54	-0.101708084
42	0x3d946585	0.07245926
43	0x3e0f5dcf	0.14000629
44	0xbdadd500	-0.08487892
45	0x3d12ea3a	0.035867907
46	0x3defe93a	0.11714406
47	0xbd297f13	-0.041380953
48	0x3d0be909	0.034157787
49	0xbd9c42ab	-0.076299034
50	0xbd9c936e	-0.076453075
51	0xbda535aa	-0.08066876
52	0xbd760d29	-0.060071144
53	0xbcd8f201	-0.026482584
54	0xbdd38a61	-0.10329128
55	0x3d321709	0.043479
56	0xbd935ecd	-0.07195816
57	0x3bb612e3	0.0055564507
58	0xbd55f0f9	-0.052231763
59	0x3da27c94	0.07933918
60	0xbda328fa	-0.079668
61	0xbd13e3aa	-0.03610579
62	0x3cdcbaf8	0.026944622
63	0x3e01dcc3	0.1268187
64	0x3e1333fe	0.14375302
65	0x3c65f62d	0.014035744
66	0x3cd10105	0.025513181
67	0xbd6f29c1	-0.05838943
68	0x3de3f8b0	0.11131418
69	0xbd157b4b	-0.036494534
70	0xbd22ced9	-0.039748047
71	0xbcd8d916	-0.026470702
72	0x3def4c20	0.116844416
73	0xbd24efca	-0.040267743
74	0x3daa925e	0.083286986

first_cons6_filterlist.1.weight f4 [1, 3, 5, 5]
0	0xbda4eb00	-0.08052635
1	0xbdc3a079	-0.09552092
2	0xbc96483a	-0.018344987
3	0xbd9cd72f	-0.076582305
4	0x3cfe153c	0.031015985
5	0x3cc3ffb6	0.023925643
6	0xbd1f0c0d	-0.038829852
7	0x3dcbc0bb	0.0994887
8	0xbd984d18	-0.074365795
9	0xbbade9b6	-0.0053074015
10	0xbd634553	-0.055486035
11	0xbd7fce5e	-0.062452666
12	0xbc8937b5	-0.016750196
13	0xbca95bf0	-0.020673722
14	0x3db08f1d	0.08621047
15	0x3ba60d20	0.0050674826
16	0x3cc4f884	0.024044283
17	0x3d81709e	0.06320308
18	0xbe0880a1	-0.13330318
19	0x3d0ff3b0	0.035144508
20	0xbd478042	-0.0487063
21	0xbdda69e7	-0.106647305
22	0x3cdf313b	0.027245155
23	0xbe02dbb0	-0.12779117
24	0x3d73c252	0.05951149
25	0x3d9727a8	0.07380611
26	0xbb921285	-0.004457774
27	0xbcc018d6	-0.023449343
28	0x3dc3e9df	0.09566092
29	0xbd51b099	-0.051193807
30	0xbde50305	-0.111822166
31	0x3c813677	0.015773041
32	0x3be15337	0.006876375
33	0x3cc990a4	0.024605103
34	0xbda10c78	-0.07863706
35	0x3d9d5631	0.07682455
36	0x3d51ffa3	0.051269185
37	0xbd609b84	-0.05483581
38	0x3d361e8d	0.04446273
39	0xbd2d547e	-0.042316906
40	0xbdba67cf	-0.09101831
41	0xbd01c8f8	-0.0316858
42	0x3c9b4cb4	0.018957473
43	0xbc60af9a	-0.013713742
44	0xbdacd57e	-0.08439158
45	0x3cffaf36	0.031211477
46	0x3dbfa820	0.09358239
47	0x3d838a58	0.06422871
48	0xbdf904a9	-0.12159092
49	0x3c533278	0.012890451
50	0x3d1e1596	0.038594805
51	0x3dac87a5	0.0842431
52	0x3d8ff17c	0.07028481
53	0xbd7086e9	-0.05872241
54	0x3d4e7a62	0.050409682
55	0xbbca2497	-0.0061689126
56	0xbd4f9f97	-0.050689306
57	0x3cb3b4dc	0.021936826
58	0xbc9da4fc	-0.01924371
59	0xbc6db60b	-0.014508734
60	0x3dc65376	0.09683888
61	0xbd9e4eb6	-0.07729857
62	0xbd11c51b	-0.035588365
63	0x3b695450	0.0035603233
64	0x3d983e47	0.074337535
65	0xbd910abd	-0.07082126
66	0x3d42034e	0.047366433
67	0x3cf8cf17	0.030372186
68	0xbd536206	-0.051607154
69	0xbdfc6521	-0.12323976
70	0xbe0d0ddf	-0.13774823
71	0xbd6ed997	-0.05831298
72	0x3cda6fbd	0.02666461
73	0xbdc3a46f	-0.095528476
74	0xbdf0660a	-0.117382124

first_cons6_filterlist.2.weight f4 [1, 3, 5, 5]
0	0x3d4744d6	0.04864963
1	0xbdf8d94e	-0.121508226
2	0x3dc29827	0.09501677
3	0x3da1592c	0.07878336
4	0x3d2d1d7f	0.042264458
5	0x3d03b73c	0.032157168
6	0xbde483c7	-0.11157947
7	0xbc22872a	-0.009919921
8	0x3d1ec361	0.038760547
9	0x3d4253f4	0.047443345
10	0x3da43c77	0.08019345
11	0x3d7ff883	0.06249286
12	0xbda75b68	-0.08171731
13	0x3de31774	0.11088458
14	0xbd5734f7	-0.052540746
15	0xbd3841ae	-0.044984512
16	0xbc80e725	-0.015735218
17	0xbdb2abd5	-0.087241806
18	0xbdb090df	-0.08621382
19	0x3de78b49	0.113058634
20	0x3dc7c4b1	0.09754313
21	0x3de51ccb	0.111871324
22	0x3ddde851	0.108353265
23	0xbd50900d	-0.050918628
24	0xbc229352	-0.009922819
25	0x3d299fbe	0.041412108
26	0x3dd007d4	0.10157743
27	0xbd9c1111	-0.07620443
28	0x3d2c420e	0.042055182
29	0xbdb20185	-0.08691696
30	0x3cc0dfc5	0.023544202
31	0x3d84fd5d	0.06493638
32	0x3cb28511	0.021791967
33	0x3cf29aab	0.029614767
34	0x3d0c91ce	0.034318738
35	0xbd299ad6	-0.04140743
36	0x3e19ede6	0.15032157
37	0x3db2ab51	0.08724082
38	0x3d1aada8	0.037763268
39	0xbd1c17c6	-0.03810861
40	0xbd83f28e	-0.06442748
41	0x3de7be45	0.11315588
42	0x3dd79c04	0.105278045
43	0xbdd4752c	-0.10373911
44	0x3c124f55	0.008930047
45	0xbcc4245e	-0.023943122
46	0xbcb0c9e8	-0.021580651
47	0xbcefea43	-0.02928651
48	0xbd52721c	-0.051378354
49	0xbd2f5dc0	-0.042814016
50	0x3d94ae05	0.07259754
51	0x3dc02d47	0.09383636
52	0x3d89e470	0.06733024
53	0xbd123f24	-0.035704747
54	0xbdab8b2a	-0.08376153
55	0xbd796662	-0.060888655
56	0x3ca45863	0.020061677
57	0xbadec18e	-0.001699494
58	0xbdba786a	-0.091049984
59	0xbc07f714	-0.008298654
60	0x3ce79d8e	0.02827337
61	0xbd7e6663	-0.062109362
62	0xbd51262f	-0.051061805
63	0x3dec87c2	0.11549331
64	0x3cd1ad27	0.02559526
65	0x3d889d36	0.066706106
66	0xbd6f946f	-0.058491167
67	0xbde3c980	-0.111224174
68	0x3de24f9c	0.110503405
69	0xbd1c87f1	-0.03821558
70	0xbdd2ce92	-0.102933064
71	0xbb3afdd3	-0.0028532639
72	0x3da6b4c3	0.08139946
73	0xbdafcf15	-0.0858442
74	0xbbcb0b85	-0.0061964416

first_cons6_filterlist.3.weight f4 [1, 3, 5, 5]
0	0x3cb47a86	0.02203108
1	0x3d296acd	0.04136162
2	0x3c61df75	0.013786186
3	0x3e1ca541	0.15297414
4	0xbcdc83fb	-0.026918402
5	0x3d545437	0.051838126
6	0x3d8fc67d	0.070202805
7	0x3d9bb78c	0.07603368
8	0x3df6bad8	0.12047356
9	0xbc99e9c2	-0.018788222
10	0x3e03cf59	0.12872066
11	0x3d97cea4	0.074124604
12	0x3e118bac	0.14213437
13	0xbca6fd5d	-0.020384485
14	0xbe08fa97	-0.13376842
15	0xbda6ecd1	-0.08150638
16	0x3cb2ca65	0.021825025
17	0xbd82c002	-0.06384279
18	0x3db206bd	0.086926915
19	0xbd69260b	-0.056921046
20	0xbd1f1228	-0.038835675
21	0x3d5b1adc	0.053492412
22	0x3d475a8c	0.048670337
23	0x3c6593bb	0.0140122725
24	0xbdad48a3	-0.0846112
25	0x3d2fb30a	0.042895354
26	0xbbe65319	-0.007028949
27	0xbd86944a	-0.06571253
28	0xbd45f080	-0.04832506
29	0xbddab7ce	-0.10679589
30	0xbdd50fe8	-0.104034245
31	0x3d969fc3	0.07354691
32	0xbb9ed929	-0.004847665
33	0xba61d8bf	-0.00086153665
34	0xbcb9ce94	-0.022681512
35	0xbd78ab85	-0.06071045
36	0xbd5134b5	-0.051075656
37	0xbd79b01c	-0.060958967
38	0xbd8e58c5	-0.06950525
39	0x3c0d1463	0.008610818
40	0xbd9ffb7a	-0.07811637
41	0x3b010f73	0.0019693046
42	0xbd89a586	-0.06721024
43	0x3d674087	0.056458022
44	0xbd1e8c64	-0.038708106
45	0x3d719ceb	0.05898754
46	0xbc83ad4c	-0.016073845
47	0x3ca6f80c	0.02038195
48	0x3d4a7b67	0.049434092
49	0xbd3d97ab	-0.04628722
50	0x3a9e2267	0.0012064696
51	0x3dd4d0ad	0.10391364
52	0xbc065bf5	-0.008200635
53	0xbcfee8bd	-0.031116838
54	0xbd2b8f0f	-0.04188448
55	0x3c609a4f	0.013708665
56	0xbd4d1985	-0.050073165
57	0x3d16c774	0.036811307
58	0xbdb7417a	-0.089480355
59	0xbdcb495e	-0.09926103
60	0x3dba802f	0.0910648
61	0x3b3c8cd6	0.0028770468
62	0xbc8dbc1a	-0.017301608
63	0x3e0349ef	0.12821172
64	0xbdb1a045	-0.08673147
65	0x3da3c9b0	0.07997453
66	0x3e0c0f9a	0.13677827
67	0xbcded401	-0.0272007
68	0xbd3ea7bc	-0.046546683
69	0x3cfa1bc8	0.030530825
70	0xbd579965	-0.052636523
71	0x3d3f1c8b	0.04665808
72	0xbcfe4039	-0.031036483
73	0xbd8a6815	-0.06758133
74	0xbde64ca6	-0.11245088

first_cons6_filterlist.4.weight f4 [1, 3, 5, 5]
0	0xbc985e82	-0.018599752
1	0x3a04a5a8	0.0005060085
2	0x3ddf249b	0.10895654
3	0x3dbc3187	0.09189134
4	0x3d816608	0.06318289
5	0x3dbc26fc	0.09187123
6	0xbd0c0954	-0.034188583
7	0xbd8f3f13	-0.06994452
8	0x3d022ca9	0.031780872
9	0xbd7477b0	-0.059684455
10	0x3dc32980	0.095294
11	0xbc137181	-0.008999229
12	0x3d548517	0.051884737
13	0x3d55b9b1	0.052179042
14	0x3ba802f5	0.0051273056
15	0xbced7481	-0.028986217
16	0xbcb15d9d	-0.021651084
17	0x3d65e57b	0.056127053
18	0xbb57ac0c	-0.0032908944
19	0x3dd63d06	0.10460858
20	0x3daa139b	0.08304521
21	0x3d7fa3dd	0.06241213
22	0x3e0db14a	0.13837162
23	0x3dc6e00b	0.097107016
24	0x3d500ab2	0.05079145
25	0x3d7689aa	0.06018988
26	0x3c7f5dd7	0.015586338
27	0xbae63d7f	-0.0017565935
28	0x3d81cdff	0.06338119
29	0xbd0d0aa7	-0.034433987
30	0xbda0bf71	-0.078490146
31	0xbda6a9f7	-0.08137887
32	0xbcd2b7b7	-0.025722368
33	0xbd1c097a	-0.038094975
34	0x3db97ca5	0.09056977
35	0x3d18d410	0.037311614
36	0x3cfad888	0.030620828
37	0xbda8e04e	-0.08245908
38	0x3d33c68a	0.043890513
39	0xbc8e809e	-0.017395314
40	0x3c0e191c	0.008672979
41	0x3dc7dddc	0.09759113
42	0xbde1b189	-0.1102019
43	0x3d4fbf56	0.05071958
44	0xbca81ebc	-0.020522468
45	0x3d743b23	0.05962671
46	0x3d37dae5	0.04488649
47	0xbbc38d16	-0.0059677465
48	0xbd1361ee	-0.035982065
49	0xb921acb8	-0.00015418499
50	0x3dfe63f1	0.12421406
51	0x3d8baad0	0.06819689
52	0xbd573645	-0.05254199
53	0xbd0c3eb7	-0.034239497
54	0x3da7da3a	0.0819592
55	0x3d0f939c	0.03505288
56	0xbda8228f	-0.082097165
57	0xbd991227	-0.074741654
58	0xbd054b3f	-0.032542463
59	0xbd896845	-0.06709341
60	0xbdd07033	-0.1017765
61	0xbd9e4d45	-0.07729582
62	0xbd8c7644	-0.06858495
63	0x3ca714c8	0.020395651
64	0xbd3acdbc	-0.04560636
65	0x3c61e0e8	0.013786532
66	0x3e138850	0.14407468
67	0x3c9b3710	0.018947154
68	0x3d099ce5	0.033596892
69	0xbc9c3375	-0.019067505
70	0x3c19acd5	0.009379585
71	0xbd0b6631	-0.034033004
72	0x3bbfae95	0.005849669
73	0x3d8d80e5	0.0690935
74	0xbd15013d	-0.036378134

first_cons6_filterlist.5.weight f4 [1, 3, 5, 5]
0	0x3dca23d9	0.09870119
1	0xbdaf62a4	-0.08563736
2	0xbd69fbb0	-0.057124794
3	0x3dbbf4a0	0.09177518
4	0xbd017b73	-0.03161187
5	0xbdbffd2b	-0.0937446
6	0x3d48246e	0.048862867
7	0xbcd520b6	-0.026016574
8	0xbde25c21	-0.110527284
9	0xbd09a62a	-0.033605732
10	0xbcde32c3	-0.027123814
11	0x3d386fff	0.045028683
12	0xbd8feb63	-0.07027318
13	0xbd548b82	-0.051890858
14	0xbad72d5a	-0.0016416714
15	0xbd2120de	-0.039337985
16	0x3d8dc5a8	0.069224656
17	0xbd82295f	-0.06355547
18	0x3c621d6e	0.013800962
19	0x3d16c2cc	0.036806867
20	0x3c3199ec	0.0108399205
21	0xbbf85694	-0.0075786803
22	0x3d17af70	0.037032545
23	0xbd0c20d1	-0.034210984
24	0x3d5cd3e7	0.053913023
25	0xbd614bb3	-0.055003833
26	0x3d69f188	0.057115108
27	0x3db30404	0.08741
28	0xbdad1df4	-0.08452979
29	0x3d5a5e2f	0.053312477
30	0x3d1ae172	0.037812658
31	0xbe0de0ce	-0.13855287
32	0xbcbe252b	-0.023211082
33	0x3d332078	0.043732136
34	0x3c91898d	0.017765785
35	0x3d4a0312	0.049319334
36	0xbdf1dc43	-0.1180959
37	0x3d8d1273	0.068882845
38	0xbd820163	-0.06347921
39	0xbbe3949c	-0.006945206
40	0x3d87898f	0.06618034
41	0xbdf5bc9e	-0.119988665
42	0xbdd6de19	-0.104915805
43	0xbcae1bbc	-0.02125346
44	0xbddff480	-0.109353065
45	0xbcf32567	-0.02968092
46	0xbe0d31fe	-0.13788602
47	0x3cf30c66	0.029668998
48	0xb93cc948	-0.0001800406
49	0xbd8a0c30	-0.06740606
50	0x3d007049	0.031357083
51	0x3c8e7682	0.017390493
52	0xbbdaa8b5	-0.0066729435
53	0xbdfd0210	-0.12353909
54	0xbdc494a0	-0.095986605
55	0x3df56132	0.11981429
56	0x3d879eb3	0.06622066
57	0x3e083da9	0.13304771
58	0xbd9f3623	-0.07773998
59	0xbe07a62c	-0.13246983
60	0xbd929f25	-0.07159261
61	0x3c754b99	0.014971637
62	0x3d47f05a	0.0488132
63	0x3d451e7a	0.048124768
64	0x3d98bc14	0.07457748
65	0xbd069c34	-0.03286381
66	0x3dd333b0	0.10312593
67	0x3d22a9f6	0.03971287
68	0x3c873c76	0.016508322
69	0x3c1428d6	0.009042939
70	0x3ccc858c	0.024966024
71	0x3d6eb945	0.058282156
72	0x3d9299ac	0.07158217
73	0xbd77f3c6	-0.060535215
74	0xbda466ea	-0.08027442

second_cons6_filterlist.0.weight f4 [1, 4, 5, 5]
0	0xbd9dbd5e	-0.077021345
1	0xbdc5d7cb	-0.096603
2	0xbde0b93f	-0.10972833
3	0x3db67c3e	0.08910416
4	0xbcb525e8	-0.022112802
5	0xbce3bc9f	-0.027799902
6	0xbabd38a3	-0.0014436435
7	0xbd0318e6	-0.032006167
8	0x3ce6bc1a	0.028165866
9	0x3ddf2aab	0.1089681
10	0x3a95406c	0.0011386997
11	0x3d87029c	0.065922946
12	0xbd1bde22	-0.03805364
13	0xbdf09331	-0.117468245
14	0xbda4c939	-0.08046193
15	0xbde46a8f	-0.11153137
16	0x3d53d1ee	0.051713876
17	0xbdc95875	-0.09831325
18	0xbda64789	-0.08119113
19	0x3dd32fbc	0.10311839
20	0xbdcc0629	-0.099621125
21	0x3d1e6bb3	0.03867693
22	0xbddea4c3	-0.108712696
23	0xbce085b4	-0.027407505
24	0x3d7f352f	0.06230658
25	0xbdb78a35	-0.08961908
26	0x3aeef43f	0.001823075
27	0xbc4cd3c5	-0.012501662
28	0x3d4f49f6	0.050607644
29	0xbdd01d41	-0.1016183
30	0xbdc014b9	-0.093789525
31	0x3dd37b81	0.10326291
32	0xbc7128ed	-0.01471923
33	0xbbcd7285	-0.0062697553
34	0xbd21243f	-0.039341208
35	0xbca216ad	-0.019786203
36	0x3db30474	0.08741084
37	0x3d994138	0.074831426
38	0x3d866cba	0.06563707
39	0x3ca65894	0.02030591
40	0xbd935f73	-0.0719594
41	0x3dc59d7c	0.096491784
42	0xbd06b586	-0.032887958
43	0x3d4c8c75	0.049938638
44	0xbdc15c9c	-0.09441492
45	0x3dc87b41	0.09789134
46	0x3c65b7f2	0.014020907
47	0x3d947624	0.07249096
48	0xba337b5d	-0.00068466907
49	0xbd03cf10	-0.032179892
50	0xbc9089cd	-0.017643834
51	0xbcc48821	-0.023990693
52	0xbd99e519	-0.075144
53	0xbda6e47b	-0.08149048
54	0xbcf58f76	-0.029975634
55	0x3dc6d240	0.09708071
56	0xbd9ade52	-0.075619355
57	0x3db4bb44	0.088247806
58	0x3d9af71c	0.075666636
59	0xbdc23628	-0.09482986
60	0xbc8a6d65	-0.016897867
61	0x3d906650	0.070507646
62	0xbb786838	-0.0037903916
63	0x3bd09ce7	0.0063663605
64	0x3d749203	0.05970956
65	0x3dc00d45	0.09377531
66	0x3d408c82	0.047009
67	0xbd71a5cb	-0.058996003
68	0x3dbffa79	0.09373946
69	0x3d44c2a0	0.04803717
70	0x3da1841f	0.07886528
71	0xbbe4f272	-0.0069869095
72	0x3cf6d5be	0.030131217
73	0xbd4edb0e	-0.050501876
74	0x3d45f53d	0.04832958
75	0x3d255e17	0.040372934
76	0x3ce8cc7f	0.028417824
77	0x3d11a72f	0.03555983
78	0xbdbcc654	-0.092175156
79	0x3d2d92c1	0.042376284
80	0xbdb6069d	-0.0888798
81	0xbdfa95aa	-0.122355774
82	0x3d591065	0.05299415
83	0xbcbc8c33	-0.023016071
84	0xbd594d59	-0.05305228
85	0xbd97aaa2	-0.074055925
86	0x3d5a07cf	0.053230103
87	0xbd963c3c	-0.073357075
88	0x3cb2943e	0.021799203
89	0x3df251fa	0.11832042
90	0x3da6973b	0.08134314
91	0x3d7cf6cb	0.061758798
92	0xbd23b697	-0.039969053
93	0xbc1de7ac	-0.009637754
94	0x3ddf33a9	0.10898525
95	0x3be85f44	0.0070914347
96	0x3d3c3712	0.045950957
97	0xbcb586b4	-0.022158958
98	0xbda64a92	-0.08119692
99	0xbd877c84	-0.06615546

second_cons6_filterlist.1.weight f4 [1, 4, 5, 5]
0	0xbda185b3	-0.07886829
1	0x3d73db11	0.05953509
2	0xbd125a2f	-0.035730537
3	0xbdc0db56	-0.09416835
4	0xbd5c347e	-0.053760998
5	0xbd14a2c0	-0.036288023
6	0x3db868a8	0.090043366
7	0x3d0c752a	0.034291424
8	0xbdab5884	-0.083664924
9	0x3cbdf022	0.023185793
10	0xbca8f53e	-0.020624753
11	0x3db432b6	0.08798735
12	0xbd4b93a6	-0.049701355
13	0xbdcba746	-0.09944014
14	0x3cec383c	0.028835408
15	0xbc26bbde	-0.010176627
16	0xbb0566b7	-0.0020355412
17	0x3d91fb9b	0.07128068
18	0x3db0fe6c	0.08642277
19	0x3d4b8045	0.049682874
20	0xbc7bb5b3	-0.015363145
21	0x3d8522db	0.06500789
22	0x3d8f036d	0.06983075
23	0x3d9b616d	0.07586942
24	0x3da1f727	0.07908469
25	0xbd524663	-0.051336657
26	0xbacf30c7	-0.0015807383
27	0x3d3ad755	0.045615513
28	0x3dae59da	0.085132316
29	0x3c0cbd0b	0.008589993
30	0x3d93f69e	0.07224773
31	0x3c9a3e04	0.0188284
32	0xbd93b1f4	-0.07211676
33	0xbd7f18fc	-0.062279686
34	0x3aa0db32	0.0012272357
35	0xbd8006f7	-0.062513284
36	0x3d3e0d29	0.04639927
37	0xbd9ae97e	-0.07564066
38	0x3dd48254	0.103764206
39	0x3b84f338	0.0040573142
40	0xbd0e9282	-0.03480769
41	0xbd700eb4	-0.058607772
42	0x3da07f00	0.07836723
43	0x3c7fe5c2	0.015618743
44	0x3e22366e	0.15841076
45	0xbcc3aa4f	-0.02388492
46	0xbd7a8645	-0.061163206
47	0xbd4ff0bf	-0.050766703
48	0x3cfc0235	0.030762771
49	0x3dc909e6	0.09816341
50	0x3d8663f0	0.0656203
51	0x39b46ec8	0.00034414814
52	0x3d0ee0de	0.03488242
53	0xbd80c0b5	-0.06286756
54	0xbdb89673	-0.09013071
55	0x3db44a9a	0.088032916
56	0xbd6534c3	-0.05595852
57	0x3bf13bcc	0.0073618647
58	0x3df0e27e	0.1176195
59	0x3d046aa8	0.032328278
60	0xbdf5fb97	-0.120108776
61	0xbdd28e03	-0.10280993
62	0xbcbde6e2	-0.023181383
63	0x3d4bf365	0.049792666
64	0xbe04c5a6	-0.12966022
65	0xbba3171c	-0.00497712
66	0x3d948da4	0.07253578
67	0xbd923bc8	-0.071403086
68	0x3d20bb4b	0.039241116
69	0x3cf2acf5	0.029623488
70	0xbc430867	-0.011903859
71	0x3d256a47	0.040384557
72	0x3d9fc525	0.07801274
73	0xbc828132	-0.015930746
74	0x3c9d7c53	0.019224321
75	0x3d4845f3	0.048894834
76	0xbd1b6d87	-0.03794625
77	0xbd3f7f32	-0.046752162
78	0xbdeb5d83	-0.11492445
79	0xbd84ed38	-0.064905584
80	0x3d7c8f04	0.061659828
81	0xbd791575	-0.06081148
82	0xbd7d3a64	-0.061823264
83	0xbb14378c	-0.0022616116
84	0x3d76392e	0.060113125
85	0x3b852cb3	0.0040641665
86	0x3ddafab2	0.106923476
87	0x3d8a85d5	0.06763808
88	0xbd5653b4	-0.05232592
89	0x3d1d87e0	0.03845966
90	0xbaf610df	-0.0018773339
91	0x3b69e1ed	0.003568764
92	0x3db1a6f4	0.08674422
93	0xbd9c904e	-0.076447114
94	0x3d684bba	0.056712843
95	0x3c97d54c	0.018534325
96	0x3d13c8ca	0.03608016
97	0x3d9d132e	0.07669674
98	0x3d426623	0.047460686
99	0xbcfb0f14	-0.030646838

second_cons6_filterlist.2.weight f4 [1, 4, 5, 5]
0	0x3d3b65a6	0.045751236
1	0x3d406e53	0.046980213
2	0xbc728b46	-0.014803713
3	0x3ddfe7cb	0.10932883
4	0xbd872a28	-0.065998375
5	0x3cbcf1c8	0.023064509
6	0xbd05cd75	-0.032666642
7	0x3dc14749	0.09437425
8	0xbdbffbf1	-0.09374226
9	0x3b77da24	0.003781923
10	0x3dc26466	0.09491806
11	0x3d9eac42	0.07747699
12	0xbd97c96b	-0.07411464
13	0xbdf6a0dc	-0.120424
14	0xbdd7897d	-0.10524271
15	0xbd186529	-0.03720585
16	0xbd8db0db	-0.06918498
17	0x3ce41ebc	0.027846687
18	0xbc65cc98	-0.01402583
19	0xbae8df5e	-0.0017766764
20	0xbd9004d4	-0.07032171
21	0x3ae79459	0.0017668112
22	0xbdbd196a	-0.09233363
23	0x3d61cce9	0.05512706
24	0xbd38c137	-0.04510614
25	0xbcb06ef0	-0.021537274
26	0x3dea105b	0.11428901
27	0xbc58f1e3	-0.013241264
28	0xbcfe41d8	-0.031037256
29	0xbbf2a5cb	-0.007405018
30	0x3d1577ef	0.03649133
31	0x3d901575	0.070353426
32	0xbdeff903	-0.11717417
33	0x3da85835	0.08219949
34	0x3d25381e	0.04033672
35	0xbc0bf4b1	-0.008542226
36	0x3d73f9bb	0.059564333
37	0x3dc193fc	0.09452054
38	0x3d230473	0.039799165
39	0x3c93d8ff	0.018047808
40	0xbd802221	-0.062565096
41	0x3d43d6d8	0.047812313
42	0x3bcecbe2	0.006310926
43	0x3ba38e77	0.0049913484
44	0xbc325481	-0.010884405
45	0xbcfa0ef8	-0.030524716
46	0x3d9a4c65	0.07534102
47	0xbd493533	-0.049123
48	0x3d1f4047	0.03887966
49	0x3d4929b7	0.049112048
50	0x3d4016f4	0.04689689
51	0x3dc58707	0.09644895
52	0x3ddc4b12	0.10756506
53	0xbda1c5cd	-0.07899056
54	0xbbb1b6e8	-0.0054234155
55	0x3c2d74d2	0.010586934
56	0xbd8af956	-0.06785838
57	0xbce4d329	-0.02793272
58	0x3d096325	0.033541817
59	0xbdd3ce78	-0.10342115
60	0x3ccbc27b	0.024873009
61	0xbdb2e4c0	-0.08735037
62	0x3ba52943	0.005040319
63	0x3d529e81	0.051420692
64	0x3c89b2e7	0.01680894
65	0x3ddd5f15	0.10809151
66	0x3d0fc18f	0.0350967
67	0x3d11cef3	0.035597753
68	0x3d24f6ba	0.04027436
69	0x3db31093	0.08743396
70	0xbc61c33a	-0.013779456
71	0xbae8460d	-0.0017721072
72	0x3ccfc30c	0.02536156
73	0xbd4a3ab9	-0.04937241
74	0x3d0d2eb4	0.034468368
75	0xbbf2a9b2	-0.007405483
76	0xbc9e499e	-0.019322213
77	0x3c25adef	0.01011227
78	0xbd912ca7	-0.07088595
79	0x3c40e633	0.011773634
80	0x3de304d3	0.110849045
81	0xbd5f0487	-0.054447677
82	0x3ce7c424	0.02829177
83	0x3da3f271	0.080052264
84	0xbd6d51ab	-0.057939213
85	0xbbcd6434	-0.0062680487
86	0x3d1074de	0.035267703
87	0x3b75a5e0	0.0037482902
88	0xbb8581c5	-0.0040743076
89	0x3da74e17	0.08169191
90	0xbb97db7a	-0.004634318
91	0xbd390139	-0.04516718
92	0xbc67e1dc	-0.01415297
93	0x3c9de178	0.019272551
94	0x3d02743a	0.031849124
95	0xbda9ddc8	-0.082942545
96	0xbce242d2	-0.027619753
97	0xbd756b54	-0.05991681
98	0xbddc3900	-0.107530594
99	0xbd7c7cfa	-0.061642624

second_cons6_filterlist.3.weight f4 [1, 4, 5, 5]
0	0x3d1e4072	0.03863568
1	0x3d69a8a8	0.05704561
2	0x3cc774f3	0.024347758
3	0xbcd3a33b	-0.02583467
4	0xbcd03bc9	-0.025419133
5	0x3d4b2420	0.049595
6	0x3d0f13a3	0.034930836
7	0x3ca9b3af	0.020715563
8	0x3de5477b	0.111952744
9	0xbd9d7719	-0.07688732
10	0x3c7f9426	0.015599286
11	0xbc66b92b	-0.014082233
12	0xbbb9c1c5	-0.005668851
13	0x3d9981b3	0.07495441
14	0xbdcf06de	-0.10108732
15	0x3ccde8dd	0.025135452
16	0xbdc183a6	-0.09448938
17	0x3d347867	0.044060137
18	0x3d953286	0.07285027
19	0xbdd8269a	-0.10554238
20	0x3d0c6384	0.034274593
21	0xbcc7e9bb	-0.024403444
22	0x3d5dce1c	0.05415164
23	0x3d8b3cda	0.06798716
24	0x3cbd77d3	0.023128426
25	0xbdb3fff5	-0.08789054
26	0x3d6544a3	0.05597366
27	0xbd44f0dc	-0.048081264
28	0xbb6d5714	-0.0036215233
29	0x3cb43ecd	0.022002602
30	0x3db3e89c	0.08784601
31	0x3db83805	0.0899506
32	0xbc57d1fe	-0.013172625
33	0x3d3b8689	0.0457826
34	0xbd820f36	-0.063505575
35	0xbcfa81fa	-0.030579556
36	0xb8f88176	-0.000118496755
37	0xbc4d2f60	-0.012523502
38	0xbcce37a0	-0.025173008
39	0xbd1b2a91	-0.03788239
40	0xbd0da09f	-0.03457701
41	0x3d86dc54	0.06584993
42	0x3d8e43e3	0.06946542
43	0xbc0d77ae	-0.008634491
44	0xbd76ff65	-0.060302157
45	0x3ca79c2c	0.02046021
46	0x3d8560e7	0.06512623
47	0xbd3b030d	-0.045657206
48	0xbc4a8236	-0.012360146
49	0x3dcf84de	0.10132764
50	0x3db28d3c	0.087183446
51	0x3d17bc04	0.03704454
52	0xbc50b6d8	-0.012738906
53	0xbc9146d0	-0.017733961
54	0xbb32f5e9	-0.0027307218
55	0x3e07914d	0.13239022
56	0x3cf635e8	0.030055001
57	0x3dd97b6b	0.10619243
58	0x3d2ac161	0.041688327
59	0x3d0dadd7	0.034589615
60	0xbcbc418e	-0.022980478
61	0xbd547e55	-0.051878292
62	0xbd8e50cd	-0.06949005
63	0xbd9a42c8	-0.07532269
64	0x3d7ec478	0.062199086
65	0xbb8a4b50	-0.0042204037
66	0xbdcb83fe	-0.09937285
67	0x3d433f78	0.04766795
68	0xbc9aeebc	-0.018912666
69	0xbc020bae	-0.007937355
70	0x3d723105	0.05912878
71	0xbd431361	-0.047625903
72	0xbb020453	-0.0019839003
73	0xbc7fdb31	-0.015616224
74	0xbc9546f7	-0.018222315
75	0xbc56a38d	-0.013100517
76	0x3df2f72e	0.11863552
77	0xbdd14dcb	-0.10219916
78	0x3b2a100e	0.002594951
79	0xbd074891	-0.03302819
80	0x3da9cf4e	0.08291493
81	0x3cd5356a	0.026026446
82	0x3c0c044a	0.0085459445
83	0xbdc818d4	-0.097703606
84	0xbc815913	-0.015789544
85	0xbd81126f	-0.06302344
86	0xbdef05d4	-0.116710335
87	0xbd92e4ee	-0.07172571
88	0x3da60663	0.08106687
89	0x3d7d631a	0.06186209
90	0xbd18a7ab	-0.037269276
91	0xbdd87fc1	-0.10571242
92	0x3b68f0bc	0.003554388
93	0x3d82712e	0.063692436
94	0x3c924480	0.017854929
95	0xbdc6538c	-0.09683904
96	0x3c04e5cf	0.008111431
97	0xbdb64474	-0.08899775
98	0xbdbc8dd7	-0.09206741
99	0xbd4c3cc1	-0.049862627

second_cons6_filterlist.4.weight f4 [1, 4, 5, 5]
0	0x3d8eb6df	0.06968474
1	0x3d0401a0	0.032228112
2	0x3c408f43	0.011752906
3	0xba5e6308	-0.0008483385
4	0x3dc09e37	0.09405177
5	0x3cb34fbb	0.021888604
6	0xbd56a8c2	-0.052407034
7	0xbd8d2a2d	-0.0689281
8	0xbd0c6f63	-0.034285914
9	0x3d7f0735	0.062262733
10	0xbd4da0c3	-0.050202142
11	0x3c42e358	0.011895023
12	0x3d47226f	0.048616823
13	0xbcfd7bcd	-0.030942822
14	0xbd1ab482	-0.037769802
15	0xbd9542b9	-0.07288117
16	0xbd6e2416	-0.058139883
17	0x3d1afa5a	0.03783641
18	0x3c6e7729	0.014554777
19	0x3d71c562	0.05902613
20	0x3d2c319c	0.0420395
21	0x3c488091	0.012237684
22	0x3a050f80	0.0005075857
23	0xbd4342d8	-0.04767117
24	0x3ce57b80	0.028012991
25	0xbdb5b7df	-0.08872961
26	0x3dac1322	0.08402087
27	0x3e194a48	0.14969742
28	0xbc0ab1b7	-0.008465222
29	0xbe11c72b	-0.14236133
30	0xbd858602	-0.065197006
31	0xbd13e78b	-0.03610949
32	0xbc56fdf3	-0.01312207
33	0x3b693c90	0.0035589077
34	0x3d867504	0.06565288
35	0xbd0e456b	-0.03473417
36	0x3d3d4ff4	0.046218827
37	0x3a57c712	0.0008231263
38	0x3d909042	0.07058765
39	0xbd32450a	-0.043522872
40	0xbd9f2319	-0.07770366
41	0x3db47e8e	0.08813201
42	0xbd7c6eb9	-0.06162903
43	0xbd8fbc0a	-0.070182875
44	0xbd389d99	-0.04507217
45	0xbd8f4a9e	-0.06996654
46	0xbb9d5d51	-0.004802384
47	0xbd9204d6	-0.07129829
48	0x3d07de76	0.03317114
49	0xbca9a551	-0.020708712
50	0xbad5d07e	-0.0016312746
51	0x3d540037	0.051758017
52	0xbc941132	-0.018074606
53	0x3cc28736	0.023746114
54	0x3db2ca18	0.087299526
55	0xbdb21d95	-0.086970486
56	0x3dabd878	0.083908975
57	0xbd65393b	-0.055962782
58	0xbd12faf5	-0.035883863
59	0xbdd1fea7	-0.10253649
60	0x3cb78d4c	0.022406243
61	0x3d9c3bb4	0.07628575
62	0xbc98085a	-0.01855867
63	0x3d30a7e6	0.04312887
64	0xbd690faf	-0.056899723
65	0x3c857d3c	0.016295068
66	0xbda8d2ec	-0.08243355
67	0x3d09fdd1	0.033689324
68	0xbce22c25	-0.02760894
69	0xbd55d8ec	-0.052208826
70	0xbd7a89c0	-0.061166525
71	0xbdabc2db	-0.08386775
72	0x3dae713a	0.0851769
73	0x3dc30406	0.09522252
74	0xbd61c3e8	-0.05511847
75	0x3d5af694	0.05345781
76	0x3d291f6e	0.04128974
77	0xbd7f41b8	-0.062318534
78	0xbc9f1976	-0.01942132
79	0xbd20ca84	-0.039255634
80	0xbcb055ae	-0.02152523
81	0x3d848ed0	0.06472552
82	0xbdc5028e	-0.09619628
83	0x3d1a16c7	0.03761938
84	0xbd94d7f0	-0.07267749
85	0x3dd0a601	0.10187913
86	0x3d5fe834	0.054664806
87	0x3d00258b	0.031285804
88	0xbddeeee9	-0.10885412
89	0x3dce3622	0.10068919
90	0x3c917256	0.017754715
91	0x3d831b07	0.064016394
92	0x3d89748d	0.067116834
93	0xbdbec46d	-0.09314809
94	0xbddcef73	-0.10787859
95	0x3dc24282	0.094853416
96	0x3c0058dd	0.007833687
97	0xbcb51e56	-0.022109192
98	0xbd9e4a3d	-0.077290036
99	0x3d8149d9	0.063129134

second_cons6_filterlist.5.weight f4 [1, 4, 5, 5]
0	0xb9b69750	-0.00034826482
1	0x3d68ac22	0.056804784
2	0xbd847b47	-0.06468826
3	0xbd87c204	-0.066288024
4	0x3dac45ad	0.08411727
5	0x3cf95ebb	0.030440679
6	0x3c18ec48	0.009333678
7	0xbcf0a5a2	-0.029375855
8	0xbd84cad8	-0.06484002
9	0x3d5aa73d	0.053382147
10	0xbd108d90	-0.035291255
11	0xbdb7eaae	-0.089803085
12	0xbcb3c41b	-0.021944096
13	0xbd85ce24	-0.06533459
14	0xbd861263	-0.06546476
15	0x3bce8101	0.0063019996
16	0xbdaa110e	-0.08304034
17	0x3db976ce	0.09055863
18	0xbd8676cf	-0.0656563
19	0x3b9051d5	0.0044042864
20	0x3d3c9c55	0.046047527
21	0xbdae4de6	-0.08510952
22	0xbd50a303	-0.05093671
23	0xbd474b6b	-0.04865591
24	0x3ba75af1	0.0051072766
25	0x3d866e08	0.065639555
26	0x3d204f24	0.039137974
27	0xbd9c5e2f	-0.076351516
28	0xba9c53e5	-0.0011926858
29	0xbd63936b	-0.05556051
30	0xbd7bcdff	-0.06147575
31	0x3dcfd703	0.10148432
32	0xbd61e3e2	-0.055148967
33	0xbdce0565	-0.10059623
34	0x3ce792b1	0.02826819
35	0x3d3d2326	0.0461761
36	0x3b94a104	0.004535796
37	0xb8e4f406	-0.0001091734
38	0x3bb522df	0.0055278386
39	0x3ca1a624	0.019732542
40	0x3cdd9fef	0.027053801
41	0x3d4034f7	0.04692551
42	0xbd98d607	-0.074626975
43	0x3c9debb6	0.019277435
44	0x3da34631	0.07972372
45	0x3d3dcb0b	0.046336215
46	0x3ad178bd	0.0015981417
47	0x3cec1251	0.028817328
48	0x3d24b4b1	0.040211383
49	0x3d641bb7	0.055690493
50	0x3bffbb83	0.0078043356
51	0xbd8ae859	-0.06782598
52	0x3b970934	0.0046092514
53	0xbd21a912	-0.03946788
54	0xbc85a411	-0.016313585
55	0xbda9aa03	-0.0828438
56	0xbe10e537	-0.14149939
57	0xbe1a8e80	-0.15093422
58	0xbd4b1bf6	-0.049587213
59	0xbddeae67	-0.10873108
60	0xbd3aef8e	-0.045638613
61	0xbdacceec	-0.08437905
62	0xbd017209	-0.031602893
63	0xbb8c82cb	-0.0042880527
64	0xbd694a05	-0.056955356
65	0x3d70c38b	0.058780234
66	0x3d4bce61	0.049757365
67	0x38c8aea6	9.569274e-05
68	0xbdf7417a	-0.120730355
69	0x3cc23ab3	0.02370963
70	0xbd186653	-0.03720696
71	0xbdaf5f16	-0.08563058
72	0x3c16b847	0.009199209
73	0xbd74c805	-0.059761066
74	0xbd31e37e	-0.043429844
75	0x3d6890b6	0.056778632
76	0x3db6dbab	0.08928617
77	0x3d9621ac	0.07330641
78	0x3d5aeeb1	0.05345029
79	0xbd00a19a	-0.031404115
80	0x3d23f2d0	0.040026486
81	0xbdb10784	-0.086440116
82	0xbdbbaa94	-0.091633946
83	0xbd4cddff	-0.0500164
84	0xbda68c2d	-0.08132205
85	0x3d6140f2	0.054993577
86	0x3ce0a4d1	0.02742234
87	0xbc42cdcf	-0.011889889
88	0x3dbc8552	0.09205116
89	0xbc9e3387	-0.01931168
90	0x3e07c84b	0.1326
91	0xbc7127ec	-0.014718991
92	0xbdac5da8	-0.08416301
93	0xbcbd0ef4	-0.02307842
94	0x3db65d6c	0.089045376
95	0x3d50fb94	0.051021174
96	0xbd2e1336	-0.04249879
97	0x3d224b07	0.039622333
98	0xbd21d774	-0.039512113
99	0x3dc1e655	0.094677605

third_cons3_filterlist.0.weight f4 [1, 4, 5, 5]
0	0xbcca4703	-0.024692064
1	0xbba812f0	-0.0051292107
2	0xbd797ccd	-0.060910035
3	0xbd54fdf5	-0.052000005
4	0xbdb84d97	-0.08999174
5	0xbc9fcd4e	-0.019507077
6	0xbdb40c04	-0.08791354
7	0x3d141d43	0.03616072
8	0xbdc4ad72	-0.096033946
9	0x3c2437c3	0.01002306
10	0xbd5e3699	-0.054251287
11	0x3d6116d9	0.05495343
12	0xbdaf379e	-0.0855553
13	0xbd57b042	-0.052658327
14	0xbcf6096e	-0.030033793
15	0xba53b509	-0.00080759876
16	0x3d040e20	0.032240033
17	0xbd6594aa	-0.05604998
18	0x3d80d38c	0.06290349
19	0xbd21e4af	-0.03952473
20	0x3da93351	0.08261741
21	0xbd570378	-0.052493542
22	0x3cca4e78	0.02469562
23	0x3d828ebb	0.0637488
24	0x3dd5837b	0.104254685
25	0xbba015ef	-0.004885427
26	0x3c2fb9bd	0.010725436
27	0xbd983d02	-0.07433511
28	0xbdb977e4	-0.090560704
29	0xbe1f98f0	-0.15585685
30	0xbda3f36b	-0.08005413
31	0xbd03e1a3	-0.032197606
32	0x3d3defe6	0.046371363
33	0x3d06192e	0.032738857
34	0x3d76619f	0.060151692
35	0xbd94ca94	-0.07265201
36	0x3c54a485	0.012978678
37	0xbdce0af6	-0.100606844
38	0xbd0b9a9b	-0.03408299
39	0xbd42b755	-0.04753812
40	0x3d83b1d4	0.064304024
41	0xbd65ffda	-0.056152202
42	0x3c320037	0.010864309
43	0xbb38d989	-0.0028205833
44	0xbd91e29b	-0.071233
45	0xbdbb9ed3	-0.09161153
46	0x3d51ff31	0.05126876
47	0xbdab3248	-0.083592
48	0x3d1e2479	0.038609
49	0x3cab0abd	0.020879144
50	0xbd86202a	-0.065491036
51	0x3dce5a49	0.10075814
52	0x3dacf875	0.08445827
53	0xbcb59242	-0.022164468
54	0x3dca10bd	0.09866474
55	0x3c85830b	0.016297838
56	0x3cd6528b	0.026162406
57	0x3cc19d31	0.023634525
58	0x3dcac4be	0.09900807
59	0x3ce771c7	0.028252495
60	0xbba291cf	-0.0049612294
61	0x3d222166	0.039582632
62	0xbcbfa550	-0.023394257
63	0x3d6fe9dd	0.05857264
64	0xbd0e353d	-0.03471874
65	0xbd8aa08f	-0.06768905
66	0xbcb34402	-0.021883015
67	0x3c934ccf	0.017980961
68	0xbd3caa1e	-0.046060674
69	0x3d123cfc	0.03570269
70	0xbdb0ab63	-0.086264394
71	0x3caf9695	0.021434108
72	0xbc99fab1	-0.018796297
73	0x3da40e90	0.0801059
74	0x3cf89f06	0.030349266
75	0x3cc5fb7c	0.024167769
76	0x3ca97124	0.020683832
77	0x3d657e7f	0.05602884
78	0x3d168e25	0.036756653
79	0x3d3d4ee5	0.046217818
80	0xbd276906	-0.040871643
81	0x3d376ee4	0.044783488
82	0x3cae33e8	0.021264985
83	0xbdb57927	-0.088609986
84	0xbdbe7c1d	-0.093010165
85	0x3cac1a96	0.02100877
86	0xbc5e1733	-0.013555336
87	0xbdec95a2	-0.11551978
88	0xbd8b8025	-0.06811551
89	0x3da3055c	0.079600066
90	0xbd7de6b0	-0.06198758
91	0x3ca86ac9	0.020558732
92	0xbd286f63	-0.04112185
93	0xbd095a1f	-0.03353321
94	0xbbfc6536	-0.007702495
95	0x3d2f4f4c	0.042800233
96	0x3cac8693	0.021060264
97	0x3d5a7c3e	0.053341143
98	0xbb960062	-0.0045776824
99	0xbdf4daf2	-0.11955823

third_cons3_filterlist.1.weight f4 [1, 4, 5, 5]
0	0x3d6e53be	0.05818533
1	0xbce832f3	-0.028344607
2	0xbd95603a	-0.072937444
3	0xbc9e40b4	-0.019317962
4	0xbda75232	-0.081699744
5	0x3a42e3cb	0.00074344565
6	0x3c1d6966	0.0096076485
7	0xbe1c8014	-0.15283233
8	0x3d2a94a9	0.04164568
9	0x3ab20a85	0.0013583457
10	0x3daa02ec	0.083013386
11	0xbcf2f0fe	-0.02965593
12	0xbdbaf4da	-0.09128733
13	0xbc6bf9c7	-0.014402813
14	0xbd94131a	-0.07230206
15	0xbccbd8b4	-0.024883606
16	0xbdc2a79a	-0.09504624
17	0xbe0a8d60	-0.13530493
18	0xbd85e9f0	-0.06538761
19	0xbde185da	-0.11011858
20	0xbd63831e	-0.055544965
21	0xbdc0b26d	-0.09409032
22	0xbd43cedf	-0.04780471
23	0x3d4e0bba	0.050304152
24	0x3d2c4f26	0.04206767
25	0xbc1320a3	-0.008979949
26	0xbdc9dc72	-0.098565
27	0x3dc1932d	0.094519
28	0xbd67cf97	-0.056594457
29	0xbd22b2e6	-0.039721392
30	0x3c7a8f94	0.015293021
31	0xbddd8812	-0.10816969
32	0xbcc6a54f	-0.024248747
33	0xbd7cd60b	-0.061727565
34	0xbc742fd0	-0.0149039775
35	0xbcf0d8de	-0.029400285
36	0x3d9c62e8	0.07636052
37	0xbda814aa	-0.08207066
38	0xbd96d04f	-0.073639505
39	0xbcba508d	-0.022743488
40	0xbda41466	-0.08011703
41	0xbd4e4d12	-0.05036647
42	0xbdbb8742	-0.09156658
43	0xbb4927ca	-0.0030693882
44	0x3b5bfe71	0.0033568407
45	0xbcd7f775	-0.026363114
46	0xbd69b3e8	-0.057056338
47	0xbdb6c82d	-0.08924899
48	0xbd8eb41f	-0.06967949
49	0x3da932a5	0.08261613
50	0xbda01e29	-0.078182526
51	0xbde50711	-0.111829884
52	0xbb91d4a7	-0.004450399
53	0x3d9324eb	0.07184776
54	0x3cab095c	0.020878486
55	0xbd4423c1	-0.04788566
56	0xbdaeed77	-0.085413866
57	0x3d02f33a	0.03197024
58	0x3d29e5bf	0.04147887
59	0x3b753e84	0.0037421295
60	0xbd0f1a46	-0.034937166
61	0xbd1bb7fa	-0.03801725
62	0xbaf902ef	-0.0018998067
63	0xbdb2ef71	-0.08737076
64	0xbd8e06b5	-0.06934873
65	0xbd8dddf1	-0.069270976
66	0x3d14cfae	0.03633087
67	0xbd2a007a	-0.04150436
68	0x3c9af98d	0.018917823
69	0x3d0de877	0.034645524
70	0xbcd2efa6	-0.025749039
71	0xbdad4245	-0.084599055
72	0x3d04aca9	0.032391224
73	0x3d9b9df8	0.075984895
74	0x3c8add48	0.016951218
75	0x3d3ea7f0	0.046546876
76	0x3c3131df	0.010815113
77	0xbd417a64	-0.04723586
78	0xbb9618bd	-0.0045805858
79	0x3bb0d0fd	0.005396007
80	0xbd8e85b1	-0.06959093
81	0x3c20aedc	0.009807315
82	0x3d462f01	0.04838467
83	0x3d3655fd	0.0445156
84	0xbe086a9a	-0.13321915
85	0x3d190e98	0.037367433
86	0xbc8b70dc	-0.017021589
87	0x3d74cd94	0.059766367
88	0x3ddb5408	0.10709387
89	0xbd3a7ff0	-0.045532167
90	0x3c8f512f	0.017494766
91	0x3d420a80	0.047373295
92	0xbc9f4626	-0.01944263
93	0x3b31fc3a	0.0027158395
94	0xbd63544e	-0.05550032
95	0xbcb6f8e7	-0.022335483
96	0xbddde91f	-0.1083548
97	0xbd83119d	-0.06399844
98	0xbc9b5b3c	-0.018964402
99	0xbd3fa7c6	-0.04679086

third_cons3_filterlist.2.weight f4 [1, 4, 5, 5]
0	0xbbf6add4	-0.007528046
1	0x3d532cb0	0.05155629
2	0x3d9b2676	0.07575695
3	0x3da0231a	0.07819195
4	0xbbb1fe2c	-0.005431911
5	0xbcf2c6a4	-0.029635735
6	0xbd87f154	-0.066378266
7	0xbd033517	-0.032033052
8	0xbd0dc4ac	-0.03461139
9	0x3db93f44	0.0904527
10	0x3bd703f8	0.0065617524
11	0x3cd04983	0.025425678
12	0x3d02d35c	0.03193985
13	0xbcf92390	-0.030412465
14	0x3d7d2c08	0.06180957
15	0xbc1a1e21	-0.009406597
16	0x3db2bd59	0.087275214
17	0x3d332fa5	0.04374661
18	0x3d8eb17c	0.06967446
19	0xbdb3ad19	-0.0877325
20	0xbd1b1b80	-0.037868023
21	0xbd60a5cf	-0.054845627
22	0x3cf5611e	0.029953536
23	0x3d66bd17	0.056332674
24	0x3cd5e147	0.026108397
25	0x3bee3017	0.0072689163
26	0x3da20782	0.07911588
27	0x3cf66ce7	0.030081226
28	0x3d1220ff	0.035676
29	0x3d457289	0.048204932
30	0x3d5bd832	0.053672977
31	0x3b84c1f4	0.0040514413
32	0xbd3c05c0	-0.04590392
33	0x3c773dfd	0.015090463
34	0xbc77f078	-0.015133016
35	0xbcbc2b4b	-0.022969862
36	0x3d2d7d40	0.042355776
37	0xbd579c39	-0.05263922
38	0x3d8ca75d	0.068678595
39	0xbd836673	-0.06416025
40	0x3cfc8b76	0.030828219
41	0x3d6188da	0.055062152
42	0x3d81f043	0.063446544
43	0xbd373630	-0.04472941
44	0x3d90738c	0.07053289
45	0x3d4c286f	0.049843248
46	0x3d972a66	0.07381134
47	0xbc274eb8	-0.010211639
48	0x3d49d0cc	0.04927139
49	0xbd8c1996	-0.06840818
50	0xbc522067	-0.012825108
51	0xba4a391e	-0.00077141996
52	0xbd0d794b	-0.034539502
53	0xbd580c96	-0.052746378
54	0xbc7b7081	-0.015346647
55	0x3d647e72	0.05578465
56	0xbc992221	-0.018693032
57	0x3d506733	0.05087967
58	0xbdca773d	-0.09886024
59	0xbb971530	-0.00461068
60	0x3ca19817	0.019725842
61	0xbdbc4ffc	-0.09194943
62	0x3d4f8c8c	0.050671145
63	0xbd4cad27	-0.04996982
64	0x3d990a80	0.07472706
65	0xbd049071	-0.032364313
66	0xbde38842	-0.111099735
67	0x3d4b7929	0.049676094
68	0xbd32ae3e	-0.0436232
69	0xbd4e3a80	-0.05034876
70	0x3d49ec96	0.04929789
71	0xbdb8f43b	-0.09030958
72	0xbd25bda1	-0.040464047
73	0x39c2ae7d	0.00037132567
74	0x3d680df7	0.056653943
75	0x3d4d8904	0.050179496
76	0x3d6e6aa7	0.05820718
77	0x3d5dc588	0.05414346
78	0x3cc4e8d2	0.024036799
79	0xbd223695	-0.039602835
80	0xbcee7d90	-0.029112607
81	0x3d15f153	0.036607098
82	0xbc86298b	-0.016377231
83	0xbdc5b800	-0.09654236
84	0xbd1aff0a	-0.03784088
85	0xbd923d10	-0.07140553
86	0x3dd3d78c	0.10343847
87	0x3d982488	0.07428843
88	0x3dc035f7	0.09385293
89	0x3da3be9d	0.07995341
90	0x3d8ab481	0.0677271
91	0x3ded914b	0.11599978
92	0x3de340d2	0.11096348
93	0x3d2e3fba	0.042541243
94	0x3dbba088	0.09161478
95	0x3dbe7a13	0.093006276
96	0x3d9ee015	0.07757584
97	0x3d903ed6	0.07043235
98	0x3bc0d5b5	0.005884851
99	0x3d5f7644	0.054556146

fourth_last1_filterlist.0.weight f4 [1, 6, 5, 5]
0	0xbb82d6cd	-0.0039928914
1	0x3d9a8860	0.07545543
2	0xbd09e260	-0.033663154
3	0x3d8f26ae	0.069897994
4	0xbce8572d	-0.028361881
5	0xbd553838	-0.052055568
6	0xbd2c26cb	-0.042029183
7	0xbcbefc35	-0.023313621
8	0xbc9caedb	-0.019126346
9	0xbdc28fe8	-0.09500104
10	0xbd34db88	-0.044154674
11	0x3d85dc52	0.065361634
12	0x3c0f559c	0.008748438
13	0x3d327ac5	0.043574113
14	0x3d6af222	0.057359822
15	0x3d631974	0.055444196
16	0xbccff3b0	-0.025384754
17	0xbd9774d5	-0.07395331
18	0x3d2126a2	0.039343484
19	0xbdb785e7	-0.08961087
20	0xbc9bb151	-0.01900545
21	0x3d3eb4e0	0.046559215
22	0x3cc7fded	0.024413073
23	0xbcafc396	-0.021455567
24	0xbd1fb88c	-0.038994357
25	0x3c8aeaeb	0.01695772
26	0x3c2913ba	0.010319645
27	0x3d5f2008	0.054473907
28	0xbd88cf17	-0.06680124
29	0xbd10b696	-0.035330378
30	0x3d581958	0.052758545
31	0x3d0f5d3d	0.03500103
32	0x3d6a65ff	0.057226177
33	0x3c42d6a8	0.011891998
34	0x3cd05cde	0.025434908
35	0xbd5d78d5	-0.054070313
36	0xbc7a98f9	-0.015295261
37	0xbd01dae3	-0.031702887
38	0xbdb3fa92	-0.08788027
39	0xbd8d785a	-0.06907721
40	0x3c126b43	0.008936706
41	0xbb467246	-0.0030280515
42	0x3d64bc0b	0.055843394
43	0x3cdd4bc9	0.027013676
44	0xbd75442c	-0.059879467
45	0xbc29f041	-0.010372222
46	0x3d06216c	0.032746717
47	0x3d2b8bb7	0.04188129
48	0xbda4ebdd	-0.080528
49	0x3d3d727c	0.04625176
50	0xbd87706d	-0.066132404
51	0xbe110dd6	-0.14165434
52	0x3d32a86d	0.043617655
53	0xbdddeac9	-0.10835797
54	0xbc74a6b4	-0.014932323
55	0xbdd0707b	-0.10177704
56	0x3c8530a7	0.01625855
57	0x3d86e1c9	0.06586034
58	0x3d8ec7aa	0.06971677
59	0xbd14b2f6	-0.036303483
60	0xbdbd0fe0	-0.092315435
61	0xbd9e5b26	-0.07732229
62	0x3d8826d8	0.06648034
63	0x3dbce2b5	0.092229284
64	0x3cc53756	0.024074238
65	0xbd5079eb	-0.05089752
66	0xbdd0959e	-0.10184787
67	0xbd4deadd	-0.05027281
68	0xbd81a653	-0.06330552
69	0x3d9bee35	0.07613794
70	0xbdf752f2	-0.120763674
71	0xbd8c2a4c	-0.06844005
72	0xbda44e6d	-0.08022771
73	0xbd91b89c	-0.071152896
74	0xbd099822	-0.03359235
75	0x3c9076d6	0.01763479
76	0x3d48a3f8	0.048984498
77	0x3da7b09c	0.081879824
78	0xbd2a389c	-0.041557893
79	0xbcd6c3f4	-0.026216485
80	0x3d2ab79d	0.041679014
81	0xbd9388bc	-0.072038144
82	0xbd093a2f	-0.033502754
83	0xbb29112e	-0.0025797593
84	0x3d6f86c6	0.05847814
85	0xbbdd9e04	-0.0067632217
86	0xbd6c1b96	-0.057643496
87	0xbd8b9e6c	-0.06817326
88	0xbd16d6ce	-0.036825947
89	0x3c9ae93f	0.018910049
90	0xbd0ab867	-0.033867266
91	0x3cb0c3fe	0.021577831
92	0x3c1f39aa	0.009718338
93	0x3be7d064	0.0070744026
94	0x3dc98db3	0.0984148
95	0x3d8ead43	0.06966641
96	0xbd5adf92	-0.05343587
97	0x3c377547	0.011197395
98	0xbd0c738b	-0.034289878
99	0x3da237fd	0.07920835
100	0xbd7dba0c	-0.061945006
101	0xbd6fd16d	-0.058549333
102	0x3d686797	0.056739416
103	0xbd21bb77	-0.03948542
104	0x3d847679	0.06467909
105	0xbcb7b242	-0.022423867
106	0xbd8836d7	-0.06651085
107	0xbd4a2064	-0.049347296
108	0x3ba0c289	0.004906003
109	0x3d312176	0.0432448
110	0x3d7bd79a	0.06148491
111	0xbd50cbac	-0.050975487
112	0x3d5ed088	0.05439809
113	0x3c0950fe	0.008381126
114	0xbca670ee	-0.020317521
115	0x3cad825a	0.02118032
116	0xbd70cabf	-0.058787104
117	0xbd0d391a	-0.034478284
118	0xbd7539b5	-0.059869487
119	0x3c128283	0.008942249
120	0xbc3ac04e	-0.011398388
121	0x3c9cde9e	0.01914912
122	0xbda91eef	-0.08257853
123	0x3d732dbf	0.0593698
124	0xbd60d09a	-0.054886438
125	0x3ccefda2	0.025267426
126	0x3d806cd2	0.06270756
127	0x3db89664	0.0901306
128	0xbd75a0dc	-0.05996786
129	0xbd565156	-0.05232366
130	0x3c955843	0.018230563
131	0x3c31556c	0.010823589
132	0x3d3e4c4f	0.046459492
133	0x3d293664	0.041311637
134	0xbd153ba1	-0.03643382
135	0x3d343edb	0.044005256
136	0x3c44fe99	0.012023591
137	0xbd000fdd	-0.03126513
138	0xbd3bc88a	-0.045845546
139	0x3c01bd52	0.007918673
140	0x3d6a2cd6	0.057171665
141	0x3c4c005d	0.0124512585
142	0xbd6fccd2	-0.05854494
143	0x3c8e81ca	0.017395873
144	0xbd136835	-0.03598805
145	0x3d25045a	0.040287353
146	0xbc970cfc	-0.018438809
147	0xb9bcc100	-0.0003600195
148	0x3c76ce56	0.015063843
149	0xbdb0d57e	-0.086344704

bn2.weight f4 [16]
0	0x3f778ccc	0.96699214
1	0x3f769645	0.96323043
2	0x3f7c3312	0.9851543
3	0x3f8243d5	1.0176951
4	0x3f772586	0.9654163
5	0x3f819cb4	1.0125947
6	0x3f75f8f7	0.96083015
7	0x3f8019d8	1.0007887
8	0x3f80504f	1.0024508
9	0x3f7c6f86	0.9860767
10	0x3f75a360	0.95952415
11	0x3f803c88	1.0018473
12	0x3f79a341	0.9751473
13	0x3f8d8e17	1.1058987
14	0x3f7ef748	0.9959607
15	0x3f843d4c	1.0331206

bn2.bias f4 [16]
0	0xbcf5430a	-0.029939193
1	0xbd11375a	-0.035453178
2	0xbcd68220	-0.026185095
3	0x3c31e54f	0.010857894
4	0xbd53a1d2	-0.051667996
5	0x3b3fb3a7	0.0029251368
6	0xbc7a0287	-0.015259392
7	0xbbf2e023	-0.007411973
8	0xbc69b7dc	-0.014265027
9	0xbc83ec4c	-0.016103886
10	0xbc8d16f7	-0.017222865
11	0xbca13e5e	-0.01968306
12	0xbd0b71e9	-0.03404418
13	0xbbc14f60	-0.005899355
14	0xbc47e500	-0.012200594
15	0x3c4d26cc	0.012521457

bn2.running_mean f4 [16]
0	0x3e59f4b8	0.21284759
1	0xbe3e5195	-0.18585809
2	0x3ea1a2e0	0.31569576
3	0x3e6ad47b	0.22932617
4	0x3ef3aca6	0.47592658
5	0xbe168cb7	-0.14702116
6	0x3d89f4c6	0.0673614
7	0x3ec6f370	0.38857603
8	0x3eadf440	0.3397541
9	0x3e52cf35	0.20586856
10	0xbcae6183	-0.021286732
11	0xbe015ace	-0.12632295
12	0xbdf02c2d	-0.11727176
13	0xbf38edcc	-0.7223785
14	0x3f220c81	0.6330033
15	0xbe9b85fa	-0.30375654

bn2.running_var f4 [16]
0	0x3d76de69	0.0602707
1	0x3d51f6c7	0.051260736
2	0x3dafe8ca	0.08589323
3	0x3e1c5242	0.15265754
4	0x3eb25e47	0.34837553
5	0x3cf1b472	0.029504988
6	0x3e0d6a14	0.13809997
7	0x3d94ae01	0.07259751
8	0x3e247e01	0.16063692
9	0x3e76a8d1	0.24087836
10	0x3d22ca01	0.039743427
11	0x3dbbb49b	0.09165307
12	0x3e0c75f5	0.13716872
13	0x3e29d056	0.1658338
14	0x3e161fc7	0.1466056
15	0x3d5297b4	0.051414207
