models/6.pth (torch_old, 252400 bytes, 36 tensors)

c1.weight f4 [6, 3, 5, 5]
0.02936692 -0.007449275 -0.0106042735 0.08082035 0.12028996 -0.09834807 -0.015167238 -0.013545629
-0.017382482 -0.078037366 0.022112494 0.017113551 -0.0483939 -0.04901409 0.077313416 0.045848344
-0.009982705 0.11081913 -0.08454384 0.0048154253 -0.018079638 0.0071458323 0.07882267 0.04513249
-0.016008912 0.078269936 -0.08173371 -0.090540364 -0.11356638 0.091799736 -0.10661194 -0.07674107
-0.023309903 0.08486239 0.06069537 -0.011823937 -0.09424648 0.09242743 0.082125 0.14240874
0.01780134 0.10848259 0.101450644 0.0259634 0.04322704 -0.078154005 0.0812332 0.04599784
0.099603295 -0.022834139 -0.09763635 -0.037827518 0.039260015 -0.023565715 0.008128288 -0.09853348
0.009148945 0.11699291 0.06058631 0.07878926 0.0741911 0.10531974 0.09283193 0.021875735
0.005439795 0.062308658 0.06937293 0.062808976 -0.044279713 0.036959488 -0.12072065 -0.03046414
-0.02431645 -0.025521325 0.0026767352 0.032137353 0.029832922 0.057186976 0.0878033 -0.015553935
0.07841732 0.07717937 0.090268634 0.015901241 -0.09550199 0.10281189 -0.08907607 0.087441884
0.133448 -0.04439744 -0.013899808 0.11005994 0.005944338 -0.06256532 -0.06805391 -0.09154067
0.051078875 -0.08798298 -0.07677254 -0.07868766 -0.077524774 0.023845764 0.0054696384 -0.07090437
0.06840151 0.084202066 0.10062326 0.01929211 -0.12448656 0.027471958 -0.10136955 0.07766965
0.006220109 0.014596268 -0.096407086 0.09982272 -0.0707287 -0.100191526 -0.02903078 0.04022596
-0.11738799 -0.030025193 -0.071103506 -0.024878517 -0.08407455 0.06493488 0.027672345 -0.021113124
-0.06165407 -0.071635045 -0.025009988 0.057806298 0.020916643 -0.12218271 0.03927687 0.038185522
-0.023532046 -0.0135781355 -0.11391791 -0.1044704 0.08330509 -0.06627819 -0.03554233 -0.10433531
0.07471721 -0.11617498 -0.11783003 -0.031585038 0.050115198 -0.054994244 -0.07345511 0.120297134
-0.013217459 -0.04198871 0.020500978 0.0394216 -0.053010218 -0.1331596 0.059747715 -0.12452929
-0.010723559 -0.05485388 -0.057097938 0.052593168 -0.08088651 -0.053264298 -0.023140047 0.06308347
0.017235065 -0.035914905 0.04886768 0.06521261 -0.080241285 0.07285291 -0.10667152 -0.043321602
0.111243755 -0.059483293 -0.040361915 0.040963426 0.005628236 -0.11900626 0.0023592026 0.06369561
-0.10173391 -0.096220866 -0.0027759564 -0.032349236 0.10254431 -0.07478811 0.061797105 -0.097239584
-0.06533324 0.11670306 0.008205583 -0.07789652 -0.089022025 0.10745631 -0.0685758 0.009995331
0.09587679 0.10993098 0.03478757 0.06491556 -0.031836692 0.0953842 0.09334317 -0.015696818
0.039490137 -0.10231696 0.084764354 0.09054936 -0.08222708 0.07361453 0.06975066 -0.089799
0.111162156 0.1240427 0.006160752 0.052069522 -0.09016879 0.058511913 0.10568563 0.015532147
-0.061322212 0.025680754 0.115273654 0.10120353 0.07669198 0.08219128 0.021369806 -0.014701609
0.08202357 0.08406906 0.01302258 -0.0074247513 -0.082384914 -0.053260557 0.012562898 -0.028186925
0.10112566 -0.025093969 0.042861804 -0.08035872 0.03664117 -0.07952043 0.01118664 0.07709508
0.115211956 -0.00020161469 0.06399034 0.004551748 0.071305245 -0.11066765 0.101330854 -0.010872797
00000000: e592 f03c 0c19 f4bb 8cbd 2dbc 2485 a53d
00000010: 955a f63d b76a c9bd 0280 78bc 7cee 5dbc
00000020: b565 8ebc 0ed2 9fbd 4325 b53c b831 8c3c
00000030: af38 46bd 00c3 48bd 7f56 9e3d 79cb 3b3d
00000040: 808e 23bc 24f5 e23d 5225 adbd b7ca 9d3b
00000050: c01b 94bc 9627 ea3b c86d a13d d9dc 383d
00000060: 1f25 83bc fd4b a03d 0164 a7bd 3a6d b9bd
00000070: 7e95 e8bd 8001 bc3d 5c57 dabd 6c2a 9dbd
00000080: 69f4 bebc 55cc ad3d b59b 783d 30b9 41bc
00000090: 4c04 c1bd 984a bd3d 2731 a83d 99d3 113e
000000a0: 1ed4 913c 1f2c de3d 5bc5 cf3d 32b1 d43c
000000b0: d60e 313d 350f a0bd 985d a63d 3b68 3c3d
000000c0: d0fc cb3d a90e bbbc 91f5 c7bd 07f1 1abd
000000d0: 1ccf 203d e30c c1bc 832c 053c eccb c9bd
000000e0: 75e5 153c fb99 ef3d 5a29 783d 435c a13d
000000f0: 81f1 973d e0b1 d73d ab1e be3d be34 b33c
00000100: 4f40 b23b 5d37 7f3d 6513 8e3d fea1 803d
00000110: a55e 35bd d562 173d 633c f7bd ef8f f9bc
00000120: 4b33 c7bc 1912 d1bc 2a6c 2f3b 75a2 033d
00000130: 2c64 f43c e43c 6a3d 37d2 b33d efd5 7ebc
00000140: 4399 a03d 3810 9e3d c3de b83d 5243 823c
00000150: 8c96 c3bd 0a8f d23d 846d b6bd bb14 b33d
00000160: 98a6 083e 17da 35bd 05bc 63bc 1b67 e13d
00000170: b9c8 c23b 3f22 80bd d95f 8bbd ad79 bbbd
00000180: 1538 513d 6c30 b4bd ec3a 9dbd ff26 a1bd
00000190: 4fc5 9ebd 3158 c33c a73a b33b 4f36 91bd
000001a0: 1716 8c3d 2272 ac3d 9113 ce3d 7d0a 9e3c
000001b0: cff2 febd df0c e13c d79a cfbd 4411 9f3d
000001c0: 0ed2 cb3b 2f25 6f3c 1471 c5bd db6f cc3d
000001d0: 35da 90bd 3731 cdbd f5d1 edbc fac3 243d
000001e0: 1d69 f0bd 65f7 f5bc b79e 91bd 08ce cbbc
000001f0: 472f acbd 94fc 843d 1db1 e23c 6ef5 acbc
00000200: fa88 7cbd 65b5 92bd bfe1 ccbc 4cc6 6c3d
00000210: 6159 ab3c ee3a fabd c9e0 203d 6c68 1c3d
00000220: 47c6 c0bc d476 5ebc cb4d e9bd 94f4 d5bd
00000230: dc9b aa3d dcbc 87bd d694 11bd c0ad d5bd
00000240: 5605 993d 26ed edbd df50 f1bd 505f 01bd
00000250: 9845 4d3d a541 61bd a26f 96bd 585e f63d
00000260: 0b8e 58bc 5bfc 2bbd abf1 a73c 8b78 213d
00000270: 3e21 59bd fd5a 08be 05ba 743d 3609 ffbd
00000280: deb1 2fbc 76ae 60bd 87df 69bd ef6b 573d
00000290: d4a7 a5bd aa2b 5abd 3290 bdbc e831 813d
000002a0: 8d30 8d3c 821b 13bd 7a29 483d 308e 853d
000002b0: 8b55 a4bd e833 953d 9976 dabd fe71 31bd
000002c0: c4d3 e33d c1a4 73bd 8952 25bd 44c9 273d
000002d0: 116d b83b 8eb9 f3bd da9c 1a3b d872 823d
000002e0: de59 d0bd 720f c5bd d2ec 35bb a280 04bd
000002f0: c002 d23d 822a 99bd f61e 7d3d 8c25 c7bd
00000300: 6fcd 85bd 0402 ef3d b670 063c 3688 9fbd
00000310: 2e51 b6bd 0e12 dc3d 7871 8cbd 75c3 233c
00000320: 0d5b c43d 7e23 e13d 697d 0e3d 73f2 843d
00000330: 3167 02bd cb58 c33d b42a bf3d 9d96 80bc
00000340: 69c0 213d 8e8b d1bd ef98 ad3d f171 b93d
00000350: ac66 a8bd 37c3 963d 6fd9 8e3d 8ae8 b7bd
00000360: fca8 e33d 190a fe3d 22e0 c93b da46 553d
00000370: 6aaa b8bd 30aa 6f3d b571 d83d 8c7a 7e3c
00000380: 002d 7bbd 7260 d23c 9814 ec3d cc43 cf3d
00000390: af10 9d3d e753 a83d bb0f af3c 04df 70bc
000003a0: f9fb a73d 662c ac3d a95c 553c 544b f3bb
000003b0: 6cb9 a8bd be27 5abd 9dd4 4d3c 44e8 e6bc
000003c0: f81a cf3d de91 cdbc dc8f 2f3d 1d93 a4bd
000003d0: 0d15 163d 9bdb a2bd 2b48 373c 06e4 9d3d
000003e0: 3ff4 eb3d 8868 53b9 5e0d 833d d426 953b
000003f0: 7c08 923d b9a5 e2bd 8d86 cf3d d123 32bc

c1.bias f4 [6]
-0.006691673 -0.040831275 0.041273255 0.120850444 0.0503177 -0.06107508
00000000: d245 dbbb b23e 27bd 250e 293d 7080 f73d
00000010: ef19 4e3d dd29 7abd

bn1.weight f4 [6]
0.99235064 0.99104226 0.9752822 1.0433477 0.9791872 1.0365797
00000000: b10a 7e3f f2b4 7d3f 18ac 793f 6b8c 853f
00000010: 03ac 7a3f a5ae 843f

bn1.bias f4 [6]
0.0009863107 0.02564275 -0.02775542 0.02113592 -0.02041959 0.017499665
00000000: 1847 813a bf10 d23c 565f e3bc 3d25 ad3c
00000010: fc46 a7bc 755b 8f3c

bn1.running_mean f4 [6]
0.19921377 0.27370107 0.24584717 0.33412042 0.17665204 0.0002056595
00000000: b2fe 4b3e 8c22 8c3e 5cbf 7b3e d511 ab3e
00000010: 46e4 343e 4da6 5739

bn1.running_var f4 [6]
0.5697647 0.7696472 0.27996218 0.31263316 0.15324591 0.55625856
00000000: 19dc 113f 9907 453f 3457 8f3e 7411 a03e
00000010: 7fec 1c3e f666 0e3f

first_cons6_filterlist.0.weight f4 [1, 3, 5, 5]
0.0039719995 -0.08463045 -0.058812097 0.026145661 -0.082620084 0.032369517 0.06397896 0.03726904
-0.010815819 -0.00041025568 -0.095327 -0.05242681 -0.048628885 0.04528287 0.08619307 0.076629415
0.061434466 0.057274852 0.04609274 0.02471578 -0.067867585 -0.0278297 -0.049492903 0.0073724673
-0.10328822 0.091029905 0.0739229 0.010900969 0.009958651 -0.103214055 -0.008571888 -0.022475677
0.07362506 -0.10746201 -0.081301026 -0.12266307 -0.002356809 -0.055275753 0.093138784 -0.0065328716
0.040936686 0.114116535 0.0018810807 0.10052328 0.117684804 0.033030815 0.064222254 -0.037943497
0.061732557 0.11723568 -0.09178856 0.025090372 -0.106671214 0.043220203 0.05398238 0.010242817
-0.048450466 -0.06210896 -0.05431706 -0.051189344 0.03855771 -0.026189124 0.0006082579 -0.10447198
-0.07825965 -0.07772259 -0.0927591 0.058761563 0.03981789 -0.09166417 -0.077306844 -0.010551908
-0.11569516 -0.14903836 -0.010437905
00000000: 8c27 823b bb52 adbd f4e4 70bd 6d2f d63c
00000010: b834 a9bd e695 043d 6707 833d 6ca7 183d
00000020: d534 31bc 9617 d7b9 cd3a c3bd 7fbd 56bd
00000030: 152f 47bd 887a 393d fe85 b03d e2ef 9c3d
00000040: b5a2 7b3d 0999 6a3d becb 3c3d bf78 ca3c
00000050: 29fe 8abd 1cfb e3bc 12b9 4abd bd94 f13b
00000060: c688 d3bd e36d ba3d e464 973d fa99 323c
00000070: 9c29 233c e461 d3bd 1b71 0cbc e91e b8bc
00000080: bcc8 963d 0b15 dcbd 2781 a6bd c736 fbbd
00000090: b274 1abb d468 62bd 8cbf be3d b311 d6bb
000000a0: 3aad 273d eeb5 e93d 988e f63a 26df cd3d
000000b0: bb04 f13d 524b 073d f586 833d a46a 1bbd
000000c0: 47db 7c3d 4319 f03d a4fb bbbd 538a cd3c
000000d0: 7076 dabd ab07 313d a11c 5d3d 7dd1 273c
000000e0: ff73 46bd f765 7ebd 917b 5ebd ebab 51bd
000000f0: b0ee 1d3d 938a d6bc 7f73 1f3a 68f5 d5bd
00000100: 9846 a0bd 052d 9fbd 7cf8 bdbd f7af 703d
00000110: 1518 233d 6dba bbbd 0d53 9ebd e9e1 2cbc
00000120: 96f1 ecbd 839d 18be bf03 2bbc

first_cons6_filterlist.1.weight f4 [1, 3, 5, 5]
-0.08232963 0.09522184 -0.032366354 -0.03589388 0.031744074 -0.037150357 0.10443542 -0.09020049
0.0840878 0.105230734 0.058008794 -0.089903176 0.0057643116 0.107072465 0.07829445 -0.06454457
-0.06809551 0.07508691 -0.051024072 -0.026107386 0.06321497 -0.030941853 -0.06733799 0.10247199
0.10006608 0.07405756 -0.09579871 0.05079759 0.018197736 -0.0123822475 0.03664447 0.008150048
-0.033663884 -0.017338416 0.014819749 -0.05329573 0.0865266 -0.027185027 -0.098271176 -0.08922396
0.044819582 -0.04534109 -0.09996472 -0.02019497 -0.09692978 0.088817455 -0.10626584 -0.040158104
-0.082924984 -0.083559886 0.103030615 -0.061903607 0.038838577 0.00087758456 -0.08134742 -0.06113423
-0.121537715 0.014946077 -0.032538876 0.03450925 0.013086337 -0.080404215 -0.07513989 0.10475887
0.120253876 0.09520939 -0.09225817 0.104336835 -0.07136352 0.00038956982 -0.050382953 -0.115632385
-0.023437815 0.08920778 0.114131965
00000000: 709c a8bd ab03 c33d 9592 04bd 7605 13bd
00000010: 1306 023d f92a 18bd 3de2 d53d 09bb b8bd
00000020: 3936 ac3d 3683 d73d a19a 6d3d 281f b8bd
00000030: 8de2 bc3b cf48 db3d d758 a03d f22f 84bd
00000040: a975 8bbd 2ac7 993d 9efe 50bd 28df d5bc
00000050: da76 813d c579 fdbc 80e8 89bd d6dc d13d
00000060: 72ef cc3d 7dab 973d 1d32 c4bd 2211 503d
00000070: 6b13 953c e9de 4abc 8318 163d c787 053c
00000080: 24e3 09bd 4b09 8ebc 88ce 723c a04c 5abd
00000090: dc34 b13d 22b3 debc 6642 c9bd 0dbb b6bd
000000a0: bd94 373d 94b7 39bd 4eba ccbd ec6f a5bc
000000b0: 1f83 c6bd ede5 b53d e8a1 d9bd d37c 24bd
000000c0: 93d4 a9bd 7221 abbd b701 d33d a38e 7dbd
000000d0: 3315 1f3d b40d 663a 7a99 a6bd e367 7abd
000000e0: c4e8 f8bd 64e0 743c 7c47 05bd 9259 0d3d
000000f0: 1368 563c f7aa a4bd f1e2 99bd d28b d63d
00000100: aa47 f63d 24fd c23d daf1 bcbd 8dae d53d
00000110: 0a27 92bd 2d3f cc39 5b5e 4ebd acd0 ecbd
00000120: a900 c0bc 92b2 b63d 05be e93d

first_cons6_filterlist.2.weight f4 [1, 3, 5, 5]
-0.024665164 -0.11323835 -0.02072509 -0.034798454 0.058656562 -0.03166918 -0.03812512 0.05474692
-0.10500804 0.013448475 -0.07666955 -0.11126881 -0.038991902 0.047050152 -0.031528044 0.08797411
0.021325087 0.062921196 -0.06360174 -0.071939975 0.0817345 -0.024835322 0.06920127 -0.028127419
-0.014313078 0.067867614 -0.0519823 -0.06410444 -0.12838988 -0.029434416 -0.061657805 -0.0528235
-0.12438375 -0.16883911 0.03494869 -0.004319447 -0.03567792 -0.09348515 -0.023853842 0.03841668
-0.02341996 0.016214544 -0.11933594 -0.13067022 -0.04304138 0.10510749 0.064902276 -0.0432174
0.024340548 -0.06857581 0.07793565 -0.08870859 0.024553962 -0.08787503 -0.053942658 -0.026762275
-0.05615908 -0.04018592 0.10765672 0.007131675 -0.03674352 -0.07544878 -0.057340186 -0.009988293
-0.097881064 0.05721805 0.0642046 -0.016969414 0.026604917 0.02569124 -0.08715959 -0.122935735
-0.056636952 0.10572241 -0.024573572
00000000: 990e cabc 82e9 e7bd aac7 a9bc d388 0ebd
00000010: dd41 703d 8bb7 01bd 1629 1cbd 4e3e 603d
00000020: 750e d7bd fe56 5c3c ed04 9dbd e7e0 e3bd
00000030: f9b5 1fbd a9b7 403d 8d23 01bd c52b b43d
00000040: f3b1 ae3c d4dc 803d a141 82bd 4455 93bd
00000050: 6b64 a73d 7273 cbbc 65b9 8d3d 796b e6bc
00000060: 6681 6abc 2dfe 8a3d 64eb 54bd 3049 83bd
00000070: a378 03be 7220 f1bc e58c 7cbd 745d 58bd
00000080: e8bc febd 29e4 2cbe 5c26 0f3d 268a 8dbb
00000090: 0323 12bd 2475 bfbd 2269 c3bc cf5a 1d3d
000000a0: 37db bfbc 5dd4 843c 6766 f4bd 6ace 05be
000000b0: 284c 30bd 9942 d73d 7ceb 843d ba04 31bd
000000c0: d465 c73c 7971 8cbd ba9c 9f3d d9ac b5bd
000000d0: 6425 c93c d3f7 b3bd faf2 5cbd 8f3c dbbc
000000e0: 1007 66bd fe99 24bd 207b dc3d d3b0 e93b
000000f0: 6080 16bd e484 9abd 8bdd 6abd f0a5 23bc
00000100: de75 c8bd 795d 6a3d b47d 833d 7103 8bbc
00000110: 8ef2 d93c 6f76 d23c ba80 b2bd bbc5 fbbd
00000120: 26fc 67bd fe84 d83d 844e c9bc

first_cons6_filterlist.3.weight f4 [1, 3, 5, 5]
-0.013942525 0.08253037 -0.049722414 -0.060685568 -0.062047277 -0.14217286 -0.10351435 -0.05454212
0.12403221 -0.046759248 0.038348865 0.053337615 0.045589186 -0.08624178 0.02483194 -0.03989585
0.084266774 -0.10601286 0.10038934 0.030458622 0.08194084 -0.014863065 -0.016752966 0.04447028
0.0936721 1.610445e-05 -0.039806746 0.029292502 0.0029987092 0.020896189 -0.04583787 0.075910576
0.0007390646 -0.08247658 -0.07899858 -0.04162966 -0.12155525 -0.070312105 -0.051098652 0.02795978
-0.04968885 0.011705009 0.0154135795 0.053775683 -0.014482272 0.08409746 0.04515248 -0.044066735
-0.046964243 0.09295868 -0.0613 -0.07309522 -0.016616689 -0.10995515 0.0034523876 0.000738631
0.053395495 0.110243276 0.066420496 0.022677688 0.05449267 0.0061426396 -0.012263259 0.019513497
0.0074996413 0.035587084 0.048210904 -0.07965128 0.08071596 -0.05765947 0.10693433 0.053735536
0.07448 0.02700843 0.107365176
00000000: 306f 64bc af05 a93d bba9 4bbd 6e91 78bd
00000010: 4925 7ebd c395 11be 55ff d3bd 8f67 5fbd
00000020: 9904 fe3d a086 3fbd b313 1d3d 8b78 5a3d
00000030: babb 3a3d 889f b0bd 5a6c cb3c d569 23bd
00000040: 0f94 ac3d 451d d9bd ed98 cd3d 5c84 f93c
00000050: 99d0 a73d 3784 73bc 843d 89bc 7826 363d
00000060: 28d7 bf3d 0b18 8737 660c 23bd d4f6 ef3c
00000070: fe85 443b 7c2e ab3c 7ec0 3bbd 0177 9b3d
00000080: c9bd 413a 7be9 a8bd 02ca a1bd dd83 2abd
00000090: f5f1 f8bd cbff 8fbd d24c 51bd e90b e53c
000000a0: 8986 4bbd 5ec6 3f3c 3d89 7c3c e443 5c3d
000000b0: 0d47 6dbc 4a3b ac3d cff1 383d 527f 34bd
000000c0: 945d 40bd 1f61 be3d b515 7bbd f2b2 95bd
000000d0: b91f 88bc 2a30 e1bd 7441 623b b0a0 413a
000000e0: 3cb5 5a3d 3ac7 e13d 7807 883d 8fc6 b93c
000000f0: b533 5f3d 3248 c93b d6eb 48bc c5da 9f3c
00000100: 8dbf f53b c3c3 113d cc78 453d 3620 a3bd
00000110: 694e a53d 562c 6cbd 6300 db3d cb19 5c3d
00000120: f888 983d c840 dd3c 46e2 db3d

first_cons6_filterlist.4.weight f4 [1, 3, 5, 5]
-0.023688288 0.06644729 0.09027643 -0.035623778 0.11301482 -0.12153592 -0.07271292 -0.11517676
0.0126234675 -0.05659672 0.07173638 0.08515298 -0.06434011 0.017022077 -0.01276317 -0.07547686
0.09706473 0.0054657552 -0.0015255318 -0.03993099 0.08824553 -0.06119345 0.052001476 -0.067931056
-0.015929196 -0.107561745 -0.08487437 0.011722099 0.016093824 -0.00041189697 0.09799829 0.05226092
-0.01232796 -0.09888971 0.05166327 -0.00055071386 -0.006895561 -0.07078549 0.04389385 -0.10542435
-0.10576893 0.08268759 -0.068658024 0.111505516 -0.03421579 0.113864474 0.02847477 0.10382585
-0.114804715 -0.055088915 0.00038561845 0.06617325 0.03768712 -0.007564313 0.052776806 -0.020469058
0.032316174 -0.00025645204 -0.11317827 -0.060564484 0.13328168 0.047179975 0.03613955 -0.07078333
-0.08651166 0.14378853 -0.053206097 0.021255523 0.068461694 0.112250715 0.081830636 0.02711506
-0.004058969 -0.10768456 0.086494334
00000000: f10d c2bc 8415 883d d9e2 b83d 3dea 11bd
00000010: 5074 e73d d3e7 f8bd 83ea 94bd cbe1 ebbd
00000020: a9d2 4e3c f6d1 67bd 86ea 923d b064 ae3d
00000030: bfc4 83bd e271 8b3c 9d1c 51bc 9d93 9abd
00000040: e0c9 c63d 141a b33b 5af4 c7ba ae8e 23bd
00000050: 13ba b43d fca5 7abd 80ff 543d 701f 8bbd
00000060: f27d 82bc 5549 dcbd 9dd2 adbd 0c0e 403c
00000070: 32d7 833c e0f3 d7b9 54b3 c83d 8c0f 563d
00000080: 36fb 49bc b086 cabd dd9c 533d c85d 10ba
00000090: 28f4 e1bb fcf7 90bd 0aca 333d b9e8 d7bd
000000a0: 619d d8bd 1c58 a93d 949c 8cbd 015d e43d
000000b0: db25 0cbd c731 e93d ec43 e93c a6a2 d43d
000000c0: bc1e ebbd eaa4 61bd d52c ca39 d785 873d
000000d0: cf5d 1a3d 0ede f7bb 7e2c 583d baae a7bc
000000e0: f75d 043d 6974 86b9 02ca e7bd 7712 78bd
000000f0: fe7a 083e ca3f 413d 1107 143d daf6 90bd
00000100: 062d b1bd 4d3d 133e a3ee 59bd 1020 ae3c
00000110: a535 8c3d b4e3 e53d d296 a73d 6720 de3c
00000120: 1a01 85bb b989 dcbd f123 b13d

first_cons6_filterlist.5.weight f4 [1, 3, 5, 5]
0.025821576 -0.04241743 0.023303708 -0.1271764 0.050663922 -0.022485184 -0.061031733 0.007952724
0.03560799 -0.06601474 0.03681157 0.12454483 0.01458904 0.10208868 0.0027849958 -0.10728753
-0.09908577 -0.07435915 -0.027687864 -0.08744946 -0.059481185 -0.10779356 0.058643855 0.09897541
-0.09002167 -0.08792058 -0.062011577 -0.08402739 -0.08051479 0.09011627 -0.016124867 -0.0006688967
-0.015438839 -0.096660234 -0.09098778 -0.100073464 -0.080014825 -0.007751964 -0.029899491 0.04888869
-0.113558225 -0.08615564 -0.077772215 0.09419446 0.115170054 -0.032000955 -0.09625381 -0.13450639
-0.082787015 0.13042945 0.028299514 0.011603664 0.016056864 0.04498592 0.07072008 0.07016049
0.10403766 -0.14708902 0.05197043 0.03558787 -0.013727676 0.0439421 -0.1339423 -0.092656024
0.07994928 -0.008064234 0.097021215 0.07385679 0.048582222 0.05948662 -0.03862724 -0.026882062
-0.060398705 0.022757452 0.068281226
00000000: c587 d33c e6bd 2dbd 6be7 be3c 883a 02be
00000010: f984 4f3d d932 b8bc 69fc 79bd 244c 023c
00000020: afd9 113d bc32 87bd bbc7 163d 5c11 ff3d
00000030: de06 6f3c df13 d13d 7a84 363b 91b9 dbbd
00000040: 7bed cabd 9c49 98bd a9d1 e2bc b418 b3bd
00000050: 8ba2 73bd dfc2 dcbd 8a34 703d 9fb3 ca3d
00000060: 485d b8bd b40f b4bd daff 7dbd 8d16 acbd
00000070: f0e4 a4bd e18e b83d 4c18 84bc e658 2fba
00000080: 2ff3 7cbc cdf5 c5bd cd57 babd 51f3 ccbd
00000090: d0de a3bd 3004 febb c7ef f4bc 823f 483d
000000a0: 3791 e8bd 5e72 b0bd 0a47 9fbd 06e9 c03d
000000b0: 47de eb3d 6f13 03bd b820 c5bd 0bbc 09be
000000c0: 3d8c a9bd 4c8f 053e 62d4 e73c 4b1d 3e3c
000000d0: af89 833c 2843 383d b0d5 903d 4eb0 8f3d
000000e0: b211 d53d 819e 16be f2de 543d 96c4 113d
000000f0: 0cea 60bc a2fc 333d 2c28 09be 71c2 bdbd
00000100: 73bc a33d d91f 04bc 0fb3 c63d 3b42 973d
00000110: 27fe 463d 3ea8 733d 9937 1ebd c537 dcbc
00000120: a264 77bd d66d ba3c 07d7 8b3d

second_cons6_filterlist.0.weight f4 [1, 4, 5, 5]
0.06583149 -0.0007737174 -0.029114312 -0.066433616 -0.112739645 0.0753798 0.08573871 0.0303095
0.06662078 -0.025067778 0.09832359 -0.06204114 -0.05884612 -0.09707532 -0.04349567 0.084965125
0.09346002 0.067384355 -0.048100565 0.010293777 0.08155296 -0.008369899 0.061830565 -0.052553255
-0.09303773 0.05421579 0.016663546 -0.09553474 -0.096518196 -0.06151348 0.003080884 -0.0037021935
0.0094943205 0.060702853 0.017124806 -0.02414746 0.08640271 0.03567797 -0.00271626 -0.06128955
0.040512484 -0.038570866 -0.11344693 -0.027326606 0.055482697 -0.057339035 0.04073506 -0.098099254
0.10166406 -0.044189278 -0.0072395913 -0.073725894 0.07536777 0.079404384 0.008543656 0.07736494
0.056191072 -0.05934812 -0.054294355 0.042535927 -0.04171428 -0.08356794 -0.011926694 0.029197726
-0.10930307 0.036589477 -0.06844974 -0.04437505 -0.008379476 -0.07854877 -0.07793014 -0.102546446
0.06448955 0.113077745 0.030347183 -0.0354981 0.088691495 0.08485407 0.07140477 0.11093455
0.03600335 -0.02620177 0.067027785 0.05945556 -0.037130382 0.09443892 -0.042819984 -0.023788823
0.0565723 0.026492164 -0.062265918 -0.088093996 0.06879669 -0.02337174 -0.050032333 0.015483358
0.009890458 0.044800308 0.022613743 -0.02694017
00000000: a9d2 863d 4cd3 4aba 2381 eebc 590e 88bd
00000010: 0be4 e6bd b960 9a3d c797 af3d a14b f83c
00000020: 7a70 883d f15a cdbc e15d c93d da1e 7ebd
00000030: a108 71bd 6dcf c6bd 8428 32bd 3202 ae3d
00000040: f867 bf3d cf00 8a3d 1905 45bd 3ba7 283c
00000050: 3d05 a73d e721 09bc 0c42 7d3d 1542 57bd
00000060: 918a bebd 6011 5e3d fd81 883c b8a7 c3bd
00000070: 55ab c5bd 8ff5 7bbd a8e8 493b 80a0 72bb
00000080: 118e 1b3c 8ea3 783d 5249 8c3c e5d0 c5bc
00000090: e7f3 b03d 1023 123d 4803 32bb c00a 7bbd
000000a0: 6bf0 253d 7cfc 1dbd dd56 e8bd 0cdc dfbc
000000b0: d341 633d 56dc 6abd ced9 263d 43e8 c8bd
000000c0: 3f35 d03d d1ff 34bd 183a edbb 9afd 96bd
000000d0: 6b5a 9a3d c49e a23d b1fa 0b3c 8271 9e3d
000000e0: 9c28 663d 0417 73bd c263 5ebd 273a 2e3d
000000f0: 98dc 2abd ab25 abbd 2e68 43bc 1230 ef3c
00000100: 4ada dfbd d9de 153d 612f 8cbd 9dc2 35bd
00000110: 124a 09bc 2dde a0bd d699 9fbd df03 d2bd
00000120: 1913 843d 4e95 e73d a89a f83c 7566 11bd
00000130: e3a3 b53d f8c7 ad3d aa3c 923d a731 e33d
00000140: 4078 133d 18a5 d6bc dd45 893d ac87 733d
00000150: 0716 18bd 3169 c13d 0264 2fbd c7e0 c2bc
00000160: 5bb8 673d 1806 d93c 8c0a 7fbd a06a b4bd
00000170: 47e5 8c3d 1776 bfbc b4ee 4cbd e9ad 7d3c
00000180: 960b 223c 8780 373d 7540 b93c a2b1 dcbc

second_cons6_filterlist.1.weight f4 [1, 4, 5, 5]
-0.021962833 -0.054225758 0.031006737 -0.063573085 -0.103960164 0.06270961 -0.062282078 -0.0363773
0.025895787 0.06199542 0.0249323 0.046176083 0.08203006 0.055529874 -0.004101521 -0.09404173
-0.05452072 0.034251627 0.014892769 -0.109814286 -0.07621902 -0.023805447 -0.0028571996 -0.05917098
-0.08706649 -0.05712239 0.05176437 -0.04413532 0.049184494 -0.10176972 -0.061135102 0.08610824
0.0021495968 0.0015846058 0.060596097 0.035059188 0.023719708 0.035569716 -0.07159674 -0.013620342
-0.019898036 -0.099334106 -0.062489163 0.00085271324 0.048068155 -0.047028687 -0.026962634 -0.09253039
-0.09656685 0.04306908 0.065415636 0.13582048 -0.01990464 -0.045616288 -0.018967872 0.08393135
-0.000718442 0.07437099 -0.08924965 0.10791684 0.043439742 -0.014880102 -0.035517793 -0.021881111
0.09673023 0.07609991 0.10344444 -0.10609398 0.014868771 -0.009404624 0.04391782 -0.10103272
-0.109461084 -0.10149988 0.08825761 -0.014209863 0.039166432 0.067380644 -0.045025248 -0.0076438743
-0.039037343 0.078202926 -0.02258457 0.057934765 0.0100887455 -0.0051050484 -0.05930104 -0.0054077236
0.00946875 0.09571517 0.015535337 -0.011954785 -0.0017039073 -0.0440102 -0.05893218 0.0752922
-0.010891806 -0.026451243 -0.066587195 0.042595632
00000000: 66eb b3bc d41b 5ebd d701 fe3c 9b32 82bd
00000010: 11e9 d4bd e56d 803d 7e1b 7fbd 5d00 15bd
00000020: 6723 d43c e9ee 7d3d d33e cc3c 2223 3d3d
00000030: 60ff a73d 4b73 633d 0d66 86bb f398 c0bd
00000040: 1e51 5fbd 6f4b 0c3d cd00 743c 50e6 e0bd
00000050: b818 9cbd a403 c3bc db3f 3bbb 455d 72bd
00000060: ea4f b2bd 2bf9 69bd e006 543d 3dc7 34bd
00000070: ae75 493d a56c d0bd cd68 7abd 8459 b03d
00000080: 40e0 0c3b 8cb2 cf3a 9d33 783d 399a 0f3d
00000090: d54f c23c 8db1 113d 50a1 92bd db27 5fbc
000000a0: 3501 a3bc ae6f cbbd a3f4 7fbd 9e88 5f3a
000000b0: 1de3 443d 27a1 40bd bee0 dcbc 9380 bdbd
000000c0: d7c4 c5bd 3469 303d a2f8 853d 8614 0b3e
000000d0: 0e0f a3bc 25d8 3abd 8362 9bbc 33e4 ab3d
000000e0: d455 3cba d14f 983d 85c8 b6bd 8103 dd3d
000000f0: dfed 313d accb 73bc 1b7b 11bd 0440 b3bc
00000100: 801a c63d 45da 9b3d aeda d33d cd47 d9bd
00000110: 259c 733c da15 1abc 2ce3 333d 3eea cebd
00000120: 222d e0bd 2bdf cfbd 68c0 b43d 7cd0 68bc
00000130: fb6c 203d ddfe 893d 656c 38bd 7779 fabb
00000140: 9fe5 1fbd db28 a03d 4703 b9bc 014d 6d3d
00000150: 444b 253c 4048 a7bb a6e5 72bd 4633 b1bb
00000160: d122 1b3c 5106 c43d ed87 7e3c 01de 43bc
00000170: a455 dfba 0a44 34bd df62 71bd cc32 9a3d
00000180: 8c73 32bc 47b0 d8bc de5e 88bd c278 2e3d

second_cons6_filterlist.2.weight f4 [1, 4, 5, 5]
0.05599602 -0.08388187 -0.030991778 0.00025261124 0.108128406 0.024153467 -0.1002478 -0.03903969
0.091219604 -0.0017995315 0.02534033 0.050751783 -0.020369578 -0.024393545 -0.038554534 0.074752025
0.041057892 0.04596912 -0.05029554 -0.06617158 -0.087993845 -0.038124956 -0.07344049 0.03196073
-0.09122814 0.04102856 0.0874233 -0.053111173 -0.007456456 0.04530116 -0.0038268575 0.035740674
0.04774029 0.06475663 0.05549446 0.06881785 0.038888052 -0.06733125 -0.066663936 -0.008845583
-0.08788396 -0.09057676 -0.007653269 -0.020482939 -0.09050764 0.056026876 -0.034572408 -0.06945993
-0.08905707 0.07327759 0.06581478 0.03966014 -0.059647977 0.041068044 0.029986454 -0.016443903
0.076583974 -0.048399296 0.13240473 -0.10394846 -0.06166861 -0.040132552 0.021016117 0.052079335
-0.025591424 -0.040369876 0.0065375306 0.03789382 -0.010204412 0.028560689 0.08065696 0.027518552
-0.046334185 -0.055805538 0.0594854 0.09552811 0.0907147 -0.027546033 -0.08307143 -0.05044286
-0.019022195 -0.046785783 0.10984606 0.08600542 0.14050232 0.077973396 0.086631395 0.09944754
-0.11203594 0.030075058 0.08816415 0.062793225 0.053485855 0.042803433 -0.003927737 -0.050524727
-0.042412877 0.037275236 -0.0667636 -0.001380223
00000000: 155c 653d 42ca abbd 78e2 fdbc e870 8439
00000010: 6d72 dd3d 7edd c53c b84e cdbd 15e8 1fbd
00000020: 58d1 ba3d 42de ebba 8696 cf3c 1ae1 4f3d
00000030: 1ade a6bc f9d4 c7bc 5ceb 1dbd 9717 993d
00000040: 522c 283d 1e4a 3c3d b202 4ebd f784 87bd
00000050: 1e36 b4bd ea28 1cbd f867 96bd 41e9 023d
00000060: d2d5 babd 900d 283d fd0a b33d 1a8b 59bd
00000070: 4955 f4bb b68d 393d 04cc 7abb d064 123d
00000080: 538b 433d 209f 843d 294e 633d 5ff0 8c3d
00000090: 1449 1f3d f7e4 89bd 1a87 88bd 10ed 10bc
000000a0: 81fc b3bd 4f80 b9bd 46c8 fabb d6cb a7bc
000000b0: 125c b9bd 707c 653d cc9b 0dbd 0241 8ebd
000000c0: 8e63 b6bd 9012 963d e6c9 863d ac72 223d
000000d0: 7051 74bd f736 283d 27a6 f53c 5db5 86bc
000000e0: 0fd8 9c3d 573e 46bd 1b95 073e eee2 d4bd
000000f0: 3998 7cbd 0862 24bd fe29 ac3c 2451 553d
00000100: 1ba5 d1bc e25a 25bd c838 d63b 8d36 1b3d
00000110: 6830 27bc 1bf8 e93c 7a2f a53d 966e e13c
00000120: eac8 3dbd 5994 64bd f6a6 733d 3ea4 c33d
00000130: a1c8 b93d 38a8 e1bc 5b21 aabd 2c9d 4ebd
00000140: 6fd4 9bbc 73a2 3fbd f9f6 e03d 9c23 b03d
00000150: d7df 0f3e 84b0 9f3d cd6b b13d 27ab cb3d
00000160: 1973 e5bd f85f f63c 688f b43d bc99 803d
00000170: fc13 5b3d a752 2f3d 3fb4 80bb 04f3 4ebd
00000180: 20b9 2dbd ebad 183d 5bbb 88bd 99e8 b4ba

second_cons6_filterlist.3.weight f4 [1, 4, 5, 5]
0.097167306 -0.09711782 -0.018652905 0.030544506 -0.10037073 -0.09333632 -0.07327331 -0.07493931
0.03126777 0.0008346203 -0.016111007 -0.09107186 -0.034096245 0.07048886 -0.036812067 0.065908864
0.05455461 -0.10346739 -0.05025932 -0.11184078 0.06800074 0.057897553 0.09093976 -0.09152073
-0.008626832 -0.044781823 0.051961564 0.028295118 -0.03666467 -0.018190347 0.09586753 -0.039650608
-0.021252126 -0.09980378 0.0011146097 -0.06277629 0.051768817 -0.025467478 -0.06692677 -0.06388542
0.01401571 0.05821815 -0.00435527 0.05275945 -0.030148039 0.009254688 0.044836 0.033686724
0.04189917 -0.056753047 -0.07393339 -0.0132081015 -0.049009196 0.035269935 -0.05268048 0.03038855
-0.029352497 -0.02577193 -0.05101889 -0.025451439 -0.012297227 0.04759704 0.04777751 -0.02787972
-0.045295414 -0.10632507 -0.09363401 0.037504893 -0.013825013 0.059160043 -0.10556067 0.074478745
-0.052286457 0.080639735 0.05937438 -0.04101026 0.030709127 0.08632112 -0.06999933 0.036033776
0.038643267 -0.10697417 -0.06441323 -0.06300903 -0.20913889 0.024423935 -0.114689164 -0.10912248
0.008838666 -0.03128952 -0.05666391 0.06199126 0.057652954 -0.0873647 -0.13600175 -0.0053575216
0.02633323 -0.007701327 -0.020621676 -0.06647221
00000000: a7ff c63d b5e5 c6bd facd 98bc 7938 fa3c
00000010: 2b8f cdbd 1d27 bfbd 5110 96bd c879 99bd
00000020: a212 003d 6cca 5a3a 3bfb 83bc e283 babd
00000030: 81a8 0bbd 775c 903d 40c8 16bd 3afb 863d
00000040: a874 5f3d b6e6 d3bd b7dc 4dbd c70c e5bd
00000050: f943 8b3d fc25 6d3d a03e ba3d 386f bbbd
00000060: 8e57 0dbc 256d 37bd a6d5 543d 2acb e73c
00000070: b12d 16bd ec03 95bc 3256 c43d ad68 22bd
00000080: f018 aebc ed65 ccbd 1818 923a db90 80bd
00000090: 8a0b 543d 2ca1 d0bc e710 89bd 5cd6 82bd
000000a0: 26a2 653c 2876 6e3d a7b6 8ebb 4b1a 583d
000000b0: 05f9 f6bc faa0 173c f4a5 373d 17fb 093d
000000c0: 779e 2b3d e275 68bd 646a 97bd cb66 58bc
000000d0: debd 48bd 3577 103d 7dc7 57bd 69f1 f83c
000000e0: a674 f0bc a81f d3bc 2ff9 50bd 897f d0bc
000000f0: 4f7a 49bc 1df5 423d 5ab2 433d 0364 e4bc
00000100: af87 39bd f5c0 d9bd 30c3 bfbd bb9e 193d
00000110: 4f82 62bc cd51 723d 3130 d8bd 5088 983d
00000120: 532a 56bd 7226 a53d 8d32 733d 60fa 27bd
00000130: b591 fb3c 21c9 b03d cf5b 8fbd 2798 133d
00000140: 6748 1e3d 4615 dbbd 15eb 83bd e10a 81bd
00000150: 8128 56be b414 c83c 27e2 eabd 9b7b dfbd
00000160: 0dd0 103c 7129 00bd 6b18 68bd 8cea 7d3d
00000170: 8125 6c3d 44ec b2bd 0b44 0bbe 268e afbb
00000180: c9b8 d73c 6a5b fcbb caee a8bc 9522 88bd

second_cons6_filterlist.4.weight f4 [1, 4, 5, 5]
-0.12140177 -0.09763066 -0.08501619 0.0747106 -0.019633733 -0.050863337 0.007149819 -0.10759232
-0.11650539 0.025317496 -0.036382712 0.082539156 -0.1067804 0.023961388 0.08067236 -0.1183542
0.005231121 -0.059611324 -0.08035852 -0.0073344675 0.053590026 -0.03400781 0.05058188 -0.10405217
0.07949503 -0.063400745 0.056485344 0.01291568 -0.10121601 -0.12871751 -0.0041053323 -0.022783644
-0.014664321 -0.037522186 -0.0057590017 0.0069993366 -0.07719898 -0.019515168 -0.018887145 -0.09935307
-0.025009539 -0.07949231 0.016191794 0.062063657 -0.01818998 0.042000614 0.029839538 0.016076695
0.0416304 -0.03048247 0.030455215 0.09606325 0.075468786 -0.007005977 0.042375624 -0.040849388
0.051797796 -0.099557124 -0.06430515 0.0724081 0.038690675 -0.08462247 0.063937984 -0.048177797
0.052105855 -0.07859137 -0.0462061 0.018507067 0.015401339 0.03775504 -0.068436526 -0.080446385
0.014321177 -0.03263423 -0.098434485 -0.13723539 0.049404137 -0.0060183755 -0.08787006 0.040106364
-0.05683285 -0.036906067 -0.023798538 -0.012742072 -0.048327737 -0.11357277 -0.05847638 0.054328654
-0.067952305 0.00798584 -0.030311024 0.06534413 -0.049912192 0.04073841 -0.0703781 -0.001143805
-0.079400934 0.12299194 -0.015341836 -0.037746776
00000000: 7ea1 f8bd 95f2 c7bd f81c aebd df01 993d
00000010: ecd6 a0bc 1356 50bd 0749 ea3b 5d59 dcbd
00000020: 619a eebd a366 cf3c 0a06 15bd 4a0a a93d
00000030: afaf dabd ac4a c43c 8d37 a53d b063 f2bd
00000040: d369 ab3b 012b 74bd 0293 a4bd f955 f0bb
00000050: 3781 5b3d c64b 0bbd f22e 4f3d 4e19 d5bd
00000060: 4ace a23d 40d8 81bd 2d5d 673d 4a9c 533c
00000070: 574a cfbd 86ce 03be 0686 86bb c4a4 babc
00000080: 9f42 70bc ddb0 19bd 02b6 bcbb b15a e53b
00000090: 801a 9ebd 46de 9fbc 37b9 9abc 9f79 cbbd
000000a0: cee0 ccbc ddcc a2bd a7a4 843c 7636 7e3d
000000b0: 2703 95bc d608 2c3d 0c72 f43c 46b3 833c
000000c0: a384 2a3d 5fb6 f9bc 377d f93c cfbc c43d
000000d0: 618f 9a3d 6592 e5bb 1092 2d3d b051 27bd
000000e0: ed29 543d 9be4 cbbd 6bb2 83bd b34a 943d
000000f0: 1d7a 1e3d 8c4e adbd ebf1 823d 1556 45bd
00000100: f36c 553d 83f4 a0bd 9c42 3dbd 229c 973c
00000110: e655 7c3c 07a5 1a3d 7328 8cbd 13c1 a4bd
00000120: 5fa3 6a3c 78ab 05bd 0598 c9bd 6f87 0cbe
00000130: fe5b 4a3d cb35 c5bb 38f5 b3bd 9246 243d
00000140: 90c9 68bd d12a 17bd 27f5 c2bc 20c4 50bc
00000150: 4ef3 45bd d798 e8bd ee84 6fbd b987 5e3d
00000160: 942a 8bbd 0ad7 023c d34e f8bc 25d3 853d
00000170: ba70 4cbd 52dd 263d 6522 90bd baeb 95ba
00000180: f59c a2bd 33e3 fb3d 535c 7bbc 5d9c 1abd

second_cons6_filterlist.5.weight f4 [1, 4, 5, 5]
-0.10502861 -0.082000844 0.09826361 -0.055261344 0.052033283 0.006248789 0.067473225 -0.109034725
-0.025862599 0.072864264 -0.0335922 0.06606749 0.013509617 -0.09511648 -0.027331205 -0.019161146
-0.064906426 -0.0969854 -0.10068465 -0.122162126 -0.10952774 0.05350952 -0.05680808 -0.009273826
-6.0416845e-05 -0.006201509 -0.09850334 -0.07092871 0.00906763 0.015079406 -0.090115406 -0.059640367
-0.024561867 -0.07209789 0.005213078 0.030909443 -0.036642063 -0.04468696 -0.084549434 -0.05986286
-0.08780811 -0.044061646 -0.07020045 -0.039142214 -0.023084477 0.08254916 0.08508064 -0.009460924
-0.040939074 0.08022878 0.0031598005 0.005188573 -0.00827255 0.07215281 0.078527234 0.056613356
-0.07986805 0.041761175 -0.03526977 -0.008117875 0.00072454085 0.02043688 -0.054088086 -0.0017029183
-0.039906703 -0.023602108 -0.0645278 0.035951745 0.06338421 0.04413161 -0.031186165 0.08268748
-0.031522613 -0.09571841 -0.06427167 -0.0061966437 -0.04614906 -0.02394207 0.04066402 0.058159806
-0.028363274 -0.0815905 0.062465448 0.055772565 -0.04120256 0.027712062 -0.028241348 0.03788399
0.017394025 0.053964432 -0.14108512 -0.06782029 -0.037549477 0.050802078 -0.09859873 -0.03764095
-0.15471004 -0.035046957 -0.019452186 -0.07933352
00000000: 3d19 d7bd 0ff0 a7bd 6e3e c93d b859 62bd
00000010: da20 553d a4c2 cc3b 672f 8a3d 994d dfbd
00000020: cddd d3bc dc39 953d fa97 09bd 644e 873d
00000030: 7157 5d3c 6ecc c2bd b1e5 dfbc d6f7 9cbc
00000040: a9ed 84bd 48a0 c6bd c133 cebd 2330 fabd
00000050: 1450 e0bd cc2c 5b3d 97af 68bd 3ff1 17bc
00000060: 1868 7db8 0736 cbbb 1ebc c9bd 1243 91bd
00000070: 6690 143c 9d0f 773c 6d8e b8bd 7549 74bd
00000080: f835 c9bc 0fa8 93bd 78d2 aa3b cd35 fd3c
00000090: fd15 16bd ac09 37bd 4128 adbd c232 75bd
000000a0: bdd4 b3bd fc79 34bd 41c5 8fbd 9653 20bd
000000b0: a81b bdbc 890f a93d c23e ae3d fe01 1bbc
000000c0: bbaf 27bd fd4e a43d a814 4f3b e804 aa3b
000000d0: 9789 07bc dac4 933d e3d2 a03d 68e3 673d
000000e0: dc91 a3bd c40d 2b3d 0977 10bd d600 05bc
000000f0: 1def 3d3a 3e6b a73c 788b 5dbd 7534 dfba
00000100: 3675 23bd 3559 c1bc 2727 84bd 2342 133d
00000110: 95cf 813d 59c3 343d 217a ffbc 0e58 a93d
00000120: db1d 01bd 0408 c4bd dea0 83bd 370d cbbb
00000130: cc06 3dbd 2922 c4bc 518f 263d fa38 6e3d
00000140: 195a e8bc ec18 a7bd c5db 7f3d c671 643d
00000150: 04c4 28bd 6804 e33c 665a e7bc 3e2c 1b3d
00000160: ea7d 8e3c cf09 5d3d 9e78 10be 5de5 8abd
00000170: 7bcd 19bd d715 503d 22ee c9bd 662d 1abd
00000180: 4f6c 1ebe 668d 0fbd 315a 9fbc 9d79 a2bd

third_cons3_filterlist.0.weight f4 [1, 4, 5, 5]
-0.048594102 -0.0031493965 0.07191073 -0.0508523 0.025248569 -0.03452609 -0.092144504 0.102458075
-0.09257697 0.03560447 0.052754983 0.019525817 -0.08022922 0.09662881 0.05508084 -0.044598114
0.05508388 -0.086238146 0.07596876 0.05724153 0.09647769 0.0068938932 -0.005651848 -0.045616705
-0.07236554 0.09764653 -0.07454424 0.02414858 0.07116048 0.03855813 0.06966178 0.042218868
0.0022144443 -0.052919477 -0.10319749 -0.040707085 -0.09566636 -0.04717989 -0.0775079 0.07271322
0.06242794 0.00023222098 0.013920036 0.013146392 0.070714705 -0.13492838 0.0674601 -0.095148556
-0.09843946 -0.10375316 0.03881161 0.008650474 -0.05703207 0.015496591 -0.04457274 -0.06614219
-0.06108253 -0.0155876 0.13082594 -0.100468434 0.065050125 0.11105944 -0.07321543 0.022155318
0.0042675594 0.077543 -0.09636983 0.04362359 -0.031051056 -0.061170865 0.069304734 -0.08378305
-0.060186993 0.10045116 -0.042555004 -0.015201861 0.084564626 -0.06218563 0.026793929 0.07971606
0.023393665 -0.027122853 -0.1022386 -0.10539203 0.08577019 -0.06423015 -0.113038585 0.025737938
0.069053516 -0.099733226 0.019067245 0.04785184 0.042016633 0.026137633 -0.104750976 0.031894643
0.03795442 0.038092606 0.072551735 0.05240566
00000000: 9c0a 47bd 1b66 4ebb ef45 933d 804a 50bd
00000010: 16d6 ce3c 3b6b 0dbd 42b6 bcbd 8ad5 d13d
00000020: ff98 bdbd fed5 113d 9c15 583d 9bf4 9f3c
00000030: 384f a4bd 53e5 c53d 729c 613d 83ac 36bd
00000040: a29f 613d a09d b0bd 8295 9b3d 1876 6a3d
00000050: 1896 c53d 2be6 e13b 2333 b9bb 95d8 3abd
00000060: 6234 94bd e7fa c73d a7aa 98bd 3ed3 c53c
00000070: 96bc 913d 21ef 1d3d d6aa 8e3d b1ed 2c3d
00000080: 3620 113b 18c2 58bd 3559 d3bd 79bc 26bd
00000090: b9ec c3bd b33f 41bd 76bc 9ebd abea 943d
000000a0: 71b4 7f3d 5880 7339 dd10 643c f763 573c
000000b0: dfd2 903d aa2a 0abe 8528 8a3d 3fdd c2bd
000000c0: a19a c9bd 897c d4bd ecf8 1e3d b8ba 0d3c
000000d0: 769a 69bd 6ae5 7d3c e891 36bd 8e75 87bd
000000e0: ad31 7abd 2263 7fbc 3cf7 053e 65c2 cdbd
000000f0: 0039 853d 2273 e33d f9f1 95bd 127f b53c
00000100: e2d6 8b3b ddce 9e3d 8c5d c5bd a6ae 323d
00000110: c95e febc 4d8e 7abd a4ef 8d3d 7396 abbd
00000120: a386 76bd 56b9 cd3d 284e 2ebd 3a11 79bc
00000130: 3830 ad3d 5cb6 7ebd f17e db3c 2c42 a33d
00000140: 12a4 bf3c bf30 debc 7962 d1bd c7d7 d7bd
00000150: 48a8 af3d 198b 83bd c680 e7bd 5ed8 d23c
00000160: ee6b 8d3d ef40 ccbd e932 9c3c 4a00 443d
00000170: a219 2c3d 971e d63c ae87 d6bd f5a3 023d
00000180: 1876 1b3d fe06 1c3d 0196 943d 51a7 563d

third_cons3_filterlist.1.weight f4 [1, 4, 5, 5]
0.027434133 0.001285418 0.06509439 -0.056683592 0.028139502 -0.017121593 -0.025751064 -0.029142372
0.039753765 0.0294518 -0.0063082553 -0.0031584522 0.09346547 0.039259132 -0.05772748 -0.08230871
-0.04976205 0.07000059 -0.028577657 0.03067344 -0.056276467 0.09130991 -0.03305693 0.009434165
0.12283927 -0.010414611 -0.015686931 -0.063690096 -0.018901087 -0.073849976 -0.06825883 -0.058196392
-0.06975942 -0.051799264 0.046572343 0.007269873 0.016790474 0.07483626 -0.010082861 -0.0011638725
0.03319921 0.017760472 -0.09166275 -0.0157201 -0.050187826 0.0026420453 -0.02802686 -0.029450247
-0.008332203 0.027679386 -0.025093049 0.080692716 -0.0024636032 -0.08478391 0.045683634 -0.06928972
-0.055430766 -0.0450341 -0.011135937 -0.032094102 -0.029314524 -0.11293212 0.10154046 0.003345223
-0.030169066 0.081750125 0.06211752 -0.0067918776 -0.10285783 0.03862945 0.1053034 0.025215236
-0.0104627535 0.08101842 0.07674096 -0.061179202 -0.10508576 -0.05000603 -0.12602249 0.09582182
-0.12626335 -0.039034 -0.07670003 -0.061130274 0.09129838 0.06504806 -0.044606972 -0.07963783
0.010034447 -0.008175416 -0.0013703778 -0.1048739 -0.09517371 0.006748644 -0.034278337 -0.019157495
-0.039928786 -0.024084033 0.07344109 -0.04689359
00000000: 8cbd e03c 797b a83a 3550 853d 0e2d 68bd
00000010: d084 e63c 9542 8cbc e5f3 d2bc fcbb eebc
00000020: d8d4 223d e744 f13c 7bb5 cebb 09fe 4ebb
00000030: d36a bf3d 2fce 203d a673 6cbd 7891 a8bd
00000040: 4bd3 4bbd 785c 8f3d b11b eabc de46 fb3c
00000050: 2782 66bd b100 bb3d b466 07bd c291 1a3c
00000060: 2893 fb3d 0ba2 2abc e181 80bc f46f 82bd
00000070: 74d6 9abc a83e 97bd 49cb 8bbd 575f 6ebd
00000080: 07de 8ebd 772b 54bd a4c2 3e3d 1d38 ee3b
00000090: 2d8c 893c c143 993d 9632 25bc 158d 98ba
000000a0: e5fb 073d 697e 913c aeb9 bbbd 70c7 80bc
000000b0: c091 4dbd 2a26 2d3b 9698 e5bc a541 f1bc
000000c0: cb83 08bc e1bf e23c f08f cdbc 3942 a53d
000000d0: 6774 21bb 30a3 adbd c31e 3b3d c5e7 8dbd
000000e0: 5f0b 63bd ad75 38bd 8173 36bc 1b75 03bd
000000f0: 0325 f0bc f548 e7bd 72f4 cf3d 873b 5b3b
00000100: 1e25 f7bc 9c6c a73d f16e 7e3d 668e debb
00000110: 20a7 d2bd ea39 1e3d 4fa9 d73d 2f90 ce3c
00000120: f86b 2bbc fcec a53d 5d2a 9d3d 0b97 7abd
00000130: 3437 d7bd 1fd3 4cbd 0a0c 01be 3b3e c43d
00000140: 2e4b 01be 1ee2 1fbd e814 9dbd bd63 7abd
00000150: a5fa ba3d eb37 853d cdb5 36bd 2919 a3bd
00000160: 8567 243c 2ef2 05bc 409e b3ba 21c8 d6bd
00000170: 6fea c2bd bb23 dd3b 7167 0cbd 2ef0 9cbc
00000180: 5e8c 23bd e14b c5bc 4868 963d 7e13 40bd

third_cons3_filterlist.2.weight f4 [1, 4, 5, 5]
0.049597356 0.0033503112 0.03422874 0.12804832 0.03692202 0.06894122 0.048520695 -0.10985229
-0.06372442 -0.019537505 0.11330406 0.08568464 -0.039602645 -0.04170513 0.09139705 0.042183306
-0.014897707 0.04110715 0.019795569 -0.0069499775 -0.047286272 -0.03116374 0.022073988 -0.02568381
0.047461547 0.042342614 -0.029256793 0.10705923 0.01899918 0.003870518 0.020616392 -0.06317469
-0.07626967 -0.01838437 -0.035070837 -0.05273081 -0.012160033 -0.07013918 -0.041697588 -0.048846137
-0.0256813 0.07564512 0.027446328 0.049747903 0.047995083 0.042505067 -0.053852867 -0.017339919
-0.08916998 -0.06291875 -0.061571833 -0.057334036 -0.0713718 0.08428713 0.011838542 0.12234583
0.02917081 -0.096873164 -0.11902469 -0.078997396 -0.048955247 0.0670193 0.09253343 -0.037800137
-0.04837166 -0.010713741 0.042269938 -0.08184904 0.038798787 -0.041308634 -0.029020136 -0.05295922
0.04047126 -0.018533532 0.02491718 -0.072397865 0.0074093007 -0.026978983 -0.056009687 0.02590659
-0.07279033 0.0039702216 -0.07759503 0.047177464 -0.012274263 0.044771537 -0.06702363 0.07726493
-0.055519886 -0.020195791 -0.04133955 0.09184718 0.030345082 -0.05941913 0.061884224 -0.051428035
0.00523782 -0.034720212 0.0057179206 -0.031949643
00000000: 9926 4b3d e590 5b3b 6f33 0c3d 191f 033e
00000010: 8b3b 173d 0e31 8d3d a3bd 463d 3dfa e0bd
00000020: f381 82bd 1e0d a0bc f60b e83d 6e7b af3d
00000030: 6236 22bd 00d3 2abd 602e bb3d 67c8 2c3d
00000040: 8315 74bc f95f 283d 512a a23c a3bc e3bb
00000050: 40af 41bd 1a4b ffbc 82d4 b43c da66 d2bc
00000060: 0a67 423d 736f 2d3d f1ab efbc df41 db3d
00000070: 2ba4 9b3c 84a8 7d3b b5e3 a83c bb61 81bd
00000080: 4633 9cbd d19a 96bc 70a6 0fbd 43fc 57bd
00000090: e03a 47bc 21a5 8fbd 17cb 2abd e312 48bd
000000a0: 9761 d2bc d4eb 9a3d 1fd7 e03c 75c4 4b3d
000000b0: 7e96 443d cb19 2e3d d394 5cbd 720c 8ebc
000000c0: c09e b6bd 8cdb 80bd bf32 7cbd 18d7 6abd
000000d0: 612b 92bd bb9e ac3d 72f6 413c 7390 fa3d
000000e0: 9ff7 ee3c 7065 c6bd 37c3 f3bd 63c9 a1bd
000000f0: 4c85 48bd 6a41 893d 2b82 bd3d 51d4 1abd
00000100: 5d21 46bd b088 2fbc 3e23 2d3d 78a0 a7bd
00000110: 7aeb 1e3d 3e33 29bd a3bb edbc c4eb 58bd
00000120: 31c5 253d a2d3 97bc 1d1f cc3c 5545 94bd
00000130: b8c9 f23b 0703 ddbc 6a6a 65bd 0f3a d43c
00000140: 1913 95bd a218 823b 25ea 9ebd 283d 413d
00000150: fe19 49bc 5c62 373d af43 89bd 133d 9e3d
00000160: d268 63bd a571 a5bc a953 29bd 601a bc3d
00000170: 4096 f83c 7961 73bd 507a 7d3d 34a6 52bd
00000180: 05a2 ab3b c836 0ebd 655d bb3b a1dd 02bd

fourth_last1_filterlist.0.weight f4 [1, 6, 5, 5]
-0.01826916 0.06869097 -0.0092548365 0.024850698 0.0337816 -0.0067498772 0.019736458 -0.034289222
-0.046848904 0.025011837 -0.018144712 0.025770903 0.05700503 -0.05368607 -0.090258464 0.022996403
-0.049310185 -0.0470285 -0.005297153 0.047650926 -0.07360656 0.057577044 0.104710124 -0.020741036
-0.0468616 -0.0069756242 -0.0012829849 -0.0873909 0.013169294 0.021670349 0.045772452 0.0010878618
0.0056272596 0.043007333 -0.06158722 -0.062390976 -0.061072655 0.036357936 -0.019036042 0.06469035
0.0057166526 -0.08006879 0.011532874 -0.032753743 -0.023019033 -8.574979e-05 -0.061129536 -0.0749822
-0.022116315 -0.032035474 0.06066478 -0.04285829 0.044377696 0.08119829 -0.07776823 0.042201944
0.038091913 0.0132978335 0.05241932 0.06909514 0.016310604 -0.018581243 0.0037543832 -0.008730023
-0.057439804 0.05160046 -0.010938814 -0.01079932 0.0020693075 0.051040336 0.013758321 0.0011051774
0.073802836 0.002543101 -0.056064848 0.008945538 -0.017985974 0.06477326 -0.06251576 0.09378967
-0.014301918 0.012010391 -0.016958712 -0.02165007 0.05000705 0.044118285 0.035585716 -0.020379167
0.034342594 -0.019990629 0.079349756 -0.01549916 -0.036977205 -0.02328135 0.017463949 0.03677843
-0.030586012 -0.09491127 -0.06776586 -0.054177213 0.025301972 -0.052111007 0.0053170365 0.06971999
-0.00739988 -0.037008114 -0.025149524 -0.035159286 0.0070618135 0.0049898103 -0.0863626 0.03204425
-0.039353188 -0.006669082 0.052102096 -0.06621407 -0.06439425 -0.08029735 0.07484071 0.0816373
0.06383817 0.043184526 -0.12160825 0.081680596 -0.029055085 -0.07635482 0.030908804 0.08681824
0.097515345 0.042485915 -0.11105413 -0.0949014 -0.037615232 0.044588014 -0.063957356 -0.084885575
-0.1076502 0.0017803281 0.087694705 0.023253346 0.024539756 -0.059546184 0.019077439 0.00048621613
-0.0029815957 -0.04048475 0.009177327 0.07183747 0.07473132 0.0008255508
00000000: 35a9 95bc daad 8c3d 99a1 17bc b193 cb3c
00000010: 935e 0a3d 132e ddbb 5aae a13c db72 0cbd
00000020: a3e4 3fbd a0e5 cc3c 38a4 94bc 801d d33c
00000030: 1b7e 693d ede5 5bbd 6ed9 b8bd f462 bc3c
00000040: 7af9 49bd f5a0 40bd bd93 adbb 9e2d 433d
00000050: 09bf 96bd e8d5 6b3d 4372 d63d 1be9 a9bc
00000060: f3f1 3fbd c793 e4bb d429 a8ba 00fa b2bd
00000070: 06c4 573c 0486 b13c e57b 3b3d 9696 8e3a
00000080: e064 b83b 7528 303d e142 7cbd ae8d 7fbd
00000090: 5227 7abd 0fec 143d 79f1 9bbc 607c 843d
000000a0: c252 bb3b 1bfb a3bd 61f4 3c3c ca28 06bd
000000b0: 6992 bcbc 91d4 b3b8 f762 7abd 4590 99bd
000000c0: 462d b5bc a137 03bd a27b 783d 2d8c 2fbd
000000d0: 63c5 353d 4a4b a63d f344 9fbd f2db 2c3d
000000e0: 4406 1c3d 28df 593c a4b5 563d c181 8d3d
000000f0: d19d 853c b137 98bc 190c 763b 5f08 0fbc
00000100: 0046 6bbd 015b 533d b638 33bc a2ef 30bc
00000110: 389d 073b ac0f 513d 956a 613c 9adb 903a
00000120: f125 973d 28aa 263b 41a4 65bd 4e90 123c
00000130: 5257 93bc d8a7 843d 4308 80bd cc14 c03d
00000140: 9852 6abc 3bc7 443c ffec 8abc 7d5b b1bc
00000150: 31d4 4c3d 60b5 343d 54c2 113d 36f2 a6bc
00000160: d2aa 0c3d 63c3 a3bc 2082 a23d 30f0 7dbc
00000170: 6975 17bd 88b8 bebc 8e10 8f3c fba4 163d
00000180: 848f fabc d760 c2bd d4c8 8abd ede8 5dbd
00000190: 1546 cf3c 5a72 55bd 893a ae3b 5bc9 8e3d
000001a0: b17a f2bb d295 17bd 6006 cebc 2f03 10bd
000001b0: c966 e73b 9081 a33b e0de b0bd d540 033d
000001c0: cf30 21bd 5188 dabb 0269 553d 3e9b 87bd
000001d0: 22e1 83bd f072 a4bd 1646 993d 7531 a73d
000001e0: 96bd 823d 42e2 303d bf0d f9bd 2848 a73d
000001f0: ee04 eebc ea5f 9cbd 7634 fd3c c3cd b13d
00000200: 20b6 c73d b605 2e3d 5970 e3bd aa5b c2bd
00000210: 6e12 1abd eca1 363d 13fc 82bd 7dd8 adbd
00000220: b577 dcbd e659 e93a 4899 b33d cd7d be3c
00000230: 9907 c93c b3e6 73bd 4a48 9c3c d3ea fe39
00000240: e066 43bb 56d3 25bd 805c 163c 861f 933d
00000250: bc0c 993d c769 583a

bn2.weight f4 [16]
1.0105606 1.0058676 1.0566112 0.9897941 0.9761618 1.016159 0.98537093 1.0309579
0.9810063 1.0060974 1.0037378 1.0139494 0.9531811 0.99010724 0.9665909 0.9891807
00000000: 0d5a 813f 45c0 803f 093f 873f 2563 7d3f
00000010: bde5 793f 8011 823f 4541 7c3f 6ef6 833f
00000020: 3b23 7b3f cdc7 803f 7b7a 803f 18c9 813f
00000030: ad03 743f ab77 7d3f 8072 773f f23a 7d3f

bn2.bias f4 [16]
-0.0074387654 -0.012027422 0.037274454 -0.031191736 -0.042128146 0.008131052 -0.006116599 0.024724657
-0.025770444 -0.01699914 -0.009220777 -0.0047093234 -0.06116921 -0.049183335 -0.036023695 -0.008900398
00000000: e3c0 f3bb aa0e 45bc 19ad 183d d085 ffbc
00000010: 908e 2cbd 1b38 053c c06d c8bb 5d8b ca3c
00000020: 8a1c d3bc c841 8bbc be12 17bc ab50 9abb
00000030: 918c 7abd 7774 49bd 958d 13bd fad2 11bc

bn2.running_mean f4 [16]
-0.051488116 0.1626927 -0.5065478 0.22614418 0.17007706 -0.14754228 0.22561288 0.048740625
0.35394624 -0.3052697 -0.3460055 -0.5739317 0.22880617 -0.24811599 -0.09486821 0.14677815
00000000: 34e5 52bd ea98 263e 1ead 01bf 5792 673e
00000010: ae28 2e3e 5315 17be 1007 673e 40a4 473d
00000020: 7138 b53e 4f4c 9cbe a227 b1be 30ed 12bf
00000030: 2a4c 6a3e 1e12 7ebe 444a c2bd 034d 163e

bn2.running_var f4 [16]
0.1671129 0.06959566 0.055136815 0.066104576 0.060025632 0.18282288 0.06699851 0.08974739
0.1200924 0.21622676 0.18607685 0.21725056 0.09475375 0.15297543 0.04205932 0.102314554
00000000: a51f 2b3e 2b88 8e3d 24d7 613d d661 873d
00000010: 70dd 753d ec35 3b3e 8436 893d 7bcd b73d
00000020: 01f3 f53d 8c6a 5d3e ee8a 3e3e ee76 5e3e
00000030: 410e c23d 97a5 1c3e 6546 2c3d 4b8a d13d
