models/7.pth (torch_old, 252400 bytes, 36 tensors)

c1.weight f4 [6, 3, 5, 5]
00000000: ad84 cd3c 25fb 83bd c744 7a3d 5d0b a13c
00000010: 2cdd bbbd 5dc7 2f3d 3283 76bd c070 8e3d
00000020: add8 b8bd 5e83 b23d a58b 43bd 5148 82bd
00000030: 8606 c7bc bb41 a7bd b89a 88bd bf0d 4f3d
00000040: 23aa d33d b3db d43d 31a8 3abc 3039 33bd
00000050: 9906 58bd b7a4 d73d afac 09bd c9f6 793d
00000060: c733 623c a054 b2bc 4afa abbc fe21 b23d
00000070: 0b05 b4bc 5d59 d23d 31b9 46bd dad0 f3bc
00000080: 7d38 3b3d 94a2 99bd 381a 89bd d304 dc3d
00000090: ddb7 e4bd 0ac2 15b9 18ba 92bd 5330 c0bd
000000a0: 60ee a33d 3c19 d73d c927 d4bd 3940 c4bd
000000b0: 39e3 0e3d fcb0 ca3d 3b9d d1bd 75b8 363b
000000c0: 328e c6bc e275 7dbd 1d9a 0dbc c3c9 fbbc
000000d0: 3fe2 e1bd 3008 a93d 73a4 b2bd c8d7 213d
000000e0: ee60 993d 6650 803c 275e d53d 7a68 1f3d
000000f0: 41e0 30bc d61b 8f3d 6b05 b33d b1ff 193d
00000100: 60a1 85bd a743 8bbd e193 01bd bae5 4c3d
00000110: 9c81 53bd 83b8 dc3d 9b86 bc3b df68 3e3c
00000120: 7477 ab3d d96b b43d 5d3a c6bc cbb0 933d
00000130: 0ad4 b1bc be6d 3ebd d22b 7cbd 8a73 cdbc
00000140: e9db 98bd 3d5c e53d f33f cbbd f4d4 55bd
00000150: 2aee e5bd 96c3 acbc 8e83 f1bc bbe2 78bc
00000160: 9e66 b8bd 0c3f 57bd 25be f3bc 1245 b73c
00000170: 9f37 a03d d6a3 a73d 0904 3c3d bfc7 b03d
00000180: 71e6 97bc b5a0 49bc 8f46 f63a e4d4 6e3c
00000190: 2b65 ab3d 1491 b93b f902 74bd 4e15 96bd
000001a0: 9e79 dabd 9343 5b3d a786 d83d da8f 213d
000001b0: d3c8 c63c 4097 f9bd 9a02 ef3d dd61 bdbd
000001c0: 679f aabc e7d6 74bd 67a2 14be 42a5 92bd
000001d0: de56 f2bc ca50 86bd 1faa 7f3d 8db2 5abc
000001e0: 94d6 efbc b418 743d 2866 d23d 87a0 8cbd
000001f0: 6bb8 25bd d9e1 b0bd 99cc 7e3b 6eb9 dabb
00000200: bc96 d5bd ad3f 2ebc f16e 2fbd f554 9cbd
00000210: acfc 14bc 9ab1 bcbd 0761 81bd a06c d63d
00000220: 9a91 d33d 832e e73d 9e10 f6bd b778 da3c
00000230: fee3 19bd 5da9 72bd 1a5f c9bc 8c9b d5bd
00000240: ad85 853d 575a 893d ad3a c83c 328f 853d
00000250: 3f83 2ebd 73c7 8cbc 97cd dcbd c715 943c
00000260: 78f1 b0bc 6ee3 febc 2f99 c13d 0379 7fbd
00000270: 39a2 cd3d 3fdc 813c 93b0 75bd 4a43 7d3d
00000280: 269c 88ba 7124 4dbd 61cc 27bd 94ca 023d
00000290: 2d20 f53d dd18 b7bd 3ccb c1bd 91c3 aabd
000002a0: 917c 3abc 0d7c c83d 0985 8cbd 8c7f 18bd
000002b0: b508 de3d bd15 babd 06a8 873d b5f5 143d
000002c0: a071 41bd f3a9 9abd de52 e63d 8c7d 9cbd
000002d0: 63ce 86bc d481 71bd bab0 d03b 5fae d1bd
000002e0: 197a eebd dd9b 903d 1d4a 963c f796 c23c
000002f0: a47d 5b3d 64a4 61bd 4523 873d 0253 8e3c
00000300: c09e bdbb b468 9e3c 04be 9d3d 4a1c 6ebc
00000310: 77dd 96bd 1459 1dbd 35f1 ed3c b863 b23d
00000320: 527d f6bd 9b8f abbd f4d8 9d3c be85 e03c
00000330: 86d1 25bc 2d99 dabc fb19 c13d 7c66 173d
00000340: 5ed8 2a3d c93c 02be 5d56 9dbd c8f9 c3bd
00000350: 50e3 5abd aae2 67bb 389b babd 9fa6 e53c
00000360: 76fa bdbd cbc1 cb3d 0bc7 f53d a721 993b
00000370: b902 cfbd 2f9d ffbc 4b66 7fbd 919e 063e
00000380: 10d8 8cbb 7fd5 eabc b10c ffbb 0797 67bd
00000390: b283 e0bc cd83 423d 314c a6bd 6fd6 89bb
000003a0: db15 b1bd 6459 9cbd 8205 493d 1058 813d
000003b0: ab43 81bd 632c b8bb 13a9 28bd 3ad6 0bbc
000003c0: 0861 913d 085d 03be f1be 79bd 4e07 4a3d
000003d0: c235 d6bc 073d 323d 8e91 2abd eacc 22bc
000003e0: c7fb 25bd 67db b9bd 2e00 1f3d fc6c 0c3d
000003f0: f071 06bd 4785 57bc 2e40 c6bd 3016 04bd
0.025087679 -0.064443864 0.061100747 0.019658739 -0.091730446 0.042914737 -0.06018371 0.06955099
-0.090257026 0.087164626 -0.047740597 -0.063614495 -0.024295103 -0.08166834 -0.06670135 0.05055022
0.103351854 0.10393467 -0.011392639 -0.04375571 -0.052740667 0.10529464 -0.03361195 0.06102637
0.01380629 -0.021768868 -0.02099337 0.0869789 -0.02197506 0.10270951 -0.048516456 -0.029762674
0.04570817 -0.075017124 -0.06694454 0.10743108 -0.11167882 -0.00014282032 -0.07164401 -0.09384217
0.08004451 0.1050286 -0.10359151 -0.09582562 0.034884665 0.09897038 -0.102350675 0.002788094
-0.024237726 -0.06188 -0.0086427005 -0.030735856 -0.11029481 0.08253515 -0.087227724 0.039512426
0.07489191 0.015663337 0.10418349 0.038917996 -0.010795654 0.06987731 0.08741268 0.037597362
-0.065249205 -0.06800013 -0.03163517 0.05002377 -0.051637277 0.1077738 0.005753351 0.011621683
0.08372393 0.08809633 -0.024197752 0.07211455 -0.021707553 -0.046491377 -0.061565228 -0.025079507
-0.074638195 0.11199234 -0.09924307 -0.05220504 -0.11227067 -0.021089356 -0.029481675 -0.0151907755
-0.09003948 -0.05255036 -0.029753754 0.022371802 0.07823109 0.08185546 0.045902286 0.086318485
-0.0185425 -0.012306382 0.0018789339 0.014577124 0.08368906 0.0056630466 -0.059573147 -0.07328282
-0.10667728 0.05353124 0.10572558 0.03944383 0.024265682 -0.12187052 0.11670418 -0.092471816
-0.020827962 -0.05977526 -0.14515077 -0.07160427 -0.029582437 -0.06558378 0.0624181 -0.013348234
-0.029277124 0.05959387 0.10273391 -0.06866556 -0.040459078 -0.08636827 0.0038879274 -0.006674937
-0.10429141 -0.010635299 -0.04283041 -0.07633392 -0.009093445 -0.09213562 -0.063173346 0.10469937
0.10330506 0.11288168 -0.12014888 0.02666889 -0.037570946 -0.05924355 -0.02458148 -0.10430059
0.06519637 0.06706684 0.024442041 0.06521453 -0.042605635 -0.017184949 -0.10781401 0.01807679
-0.021599516 -0.031114306 0.094530456 -0.062371265 0.10040707 0.015852092 -0.059982847 0.06183175
-0.0010422512 -0.05008358 -0.040966395 0.031931475 0.11969028 -0.08940289 -0.09462592 -0.083380826
-0.011382238 0.09789286 -0.06861312 -0.037231013 0.108415045 -0.090861775 0.06623845 0.036367137
-0.047227502 -0.075519465 0.112462744 -0.07641134 -0.016455835 -0.058961704 0.0063687237 -0.10238337
-0.11644382 0.070609786 0.018345887 0.023753626 0.053586617 -0.055088416 0.06598524 0.017373566
-0.0057867467 0.019337036 0.07702258 -0.014533112 -0.0736646 -0.03841503 0.02904568 0.08710426
-0.12035622 -0.08377 0.01926849 0.027407523 -0.010120755 -0.026684368 0.094287835 0.03696297
0.04171025 -0.127185 -0.07682488 -0.09569126 -0.05343944 -0.0035382905 -0.09111637 0.028033553
-0.09276287 0.099490725 0.12000855 0.004673201 -0.10107941 -0.03120288 -0.062353414 0.13146426
-0.0042982176 -0.028666256 -0.0077834954 -0.056540515 -0.027406547 0.047488976 -0.08120001 -0.0042064707
-0.08646747 -0.076342374 0.04907752 0.06315625 -0.06311735 -0.0056205257 -0.041176867 -0.008534962
0.07098585 -0.12828457 -0.06097311 0.049323373 -0.02614868 0.04351523 -0.041642718 -0.009936551
-0.040523317 -0.09075051 0.03881853 0.034283623 -0.032823503 -0.013154334 -0.0968021 -0.032247722

c1.bias f4 [6]
00000000: a9a4 9b3d 4ddd 973a c7d2 e03d 11bf 8a3d
00000010: b7aa a4bd b044 b43d
0.07599766 0.0011586339 0.109777026 0.06774724 -0.08040374 0.088021636

bn1.weight f4 [6]
00000000: ea74 823f 5e19 7b3f 4bd9 813f 8b7e 813f
00000010: 041f 823f c316 7f3f
1.0191929 0.9808558 1.0144438 1.0116743 1.0165715 0.99644107

bn1.bias f4 [6]
00000000: b30f 2b3c 4a7f 063c fe5b 373c c0b3 1a3d
00000010: 3a3f 783c 0e8b 8f3c
0.010440755 0.008209059 0.011191366 0.03776908 0.015151793 0.017522361

bn1.running_mean f4 [6]
00000000: e111 913e c310 963e ae04 963e 216f 4b3e
00000010: fe9f c53d a414 4b3e
0.28333953 0.29309663 0.29300445 0.19866611 0.09649657 0.19832093

bn1.running_var f4 [6]
00000000: 6b7a 333e d309 963f 8363 de3e 509c 003f
00000010: e87b b73e 172e 1b3e
0.17527167 1.1721748 0.43435296 0.50238514 0.3583672 0.151543

first_cons6_filterlist.0.weight f4 [1, 3, 5, 5]
00000000: 851b 773d 06a7 493d 5bbf d0bd 3690 b1bd
00000010: d1fa c93d 2ac3 bdbc 8028 f4bd 7ca5 2bbd
00000020: fbdd b43d 98ab c43d e336 2b3c 348a a03d
00000030: 02ad 8dbd 6aa5 d7bd 1fb9 9d3d eaae ca3d
00000040: 2aa8 ad3c 5477 b93d 16ca 8ebd 77e5 023d
00000050: 8605 c7bd 7873 9b3d eaec e5bb 36de f6bd
00000060: 2789 4ebd e4b4 dc3d 7196 89bd 2646 b93d
00000070: 3a57 c23d c5db 463d 6908 3abd 428b dfbd
00000080: fb6d aa3d e457 5ebd ce9f 5fbd 72a0 e63d
00000090: 8b33 5ebc 30ba 5ebd 02c6 f63c 8c3b 383c
000000a0: 153e 55bd 8c94 1d3d 48a8 72bd 54b7 313d
000000b0: 541c e3ba bf41 bbbd 7451 b1bd fdd6 b6bc
000000c0: d104 ddbd b0a2 27bc 7cb1 c03d 39d8 e93d
000000d0: a1e4 313d e445 a4bd c17d 21bd c2aa 273d
000000e0: e407 863d 7338 ddbc 0997 933d f18c 103b
000000f0: 8057 b6bc 73d6 53bd 75bb ad3d cc7e 8dbd
00000100: 385a 17bb 114a bd3c 94b6 a2bd ec71 c0bc
00000110: a460 c8bc 07a6 8c3d c31b 173c fbfc 44bd
00000120: 967b d5bd 6ee2 1cbd 4605 8bbd
0.06032898 0.04923155 -0.10192748 -0.08670084 0.098622926 -0.02316435 -0.11921787 -0.041905865
0.08831402 0.096030414 0.010450098 0.0783886 -0.06917764 -0.10529597 0.07701325 0.098966435
0.021198351 0.09055963 -0.069721386 0.031957116 -0.097178504 0.07590383 -0.0070167677 -0.12054102
-0.050423767 0.1077669 -0.067181475 0.09046583 0.094892934 0.048549432 -0.045418177 -0.10915233
0.08321758 -0.054283038 -0.05459576 0.11261071 -0.0135620935 -0.05437678 0.030123714 0.011244666
-0.05206116 0.038471743 -0.059242517 0.043387726 -0.0017327168 -0.091433994 -0.08658114 -0.022319311
-0.10791934 -0.010231659 0.094088525 0.11418194 0.04343093 -0.08021143 -0.03942657 0.04093433
0.06544474 -0.027004456 0.07206542 0.0022056664 -0.02225852 -0.051718187 0.0848302 -0.0690895
-0.0023094546 0.023106607 -0.0794498 -0.023491822 -0.024460144 0.06867605 0.0092229275 -0.048092823
-0.10423963 -0.038301878 -0.06788115

first_cons6_filterlist.1.weight f4 [1, 3, 5, 5]
00000000: 969b 4f3d 2dc4 b83a 4e27 073d b813 8ebd
00000010: c0b1 133c 3d60 793d e54c b7bd 61cf 75bd
00000020: d5f3 a8bd b7e8 84bc 8d26 493d 7fa1 a4bd
00000030: eea7 cbbd 3d86 973d f80f 5e3d 58bd 83bd
00000040: 0516 98bd c455 25bd cfef 64bd 2c5a 4c3d
00000050: 0514 82bd 85d0 34bd 8296 f83c 977c a73d
00000060: acfd 053d da46 a8bd 0f74 073d b138 8f3d
00000070: 4928 10bd 5c1e 013d 7496 78bd ee1a e43c
00000080: 12b0 c73d 7d13 a1bc 2a2e 86bc 3d11 4fbd
00000090: b8ec 26bd d04c eb3d 9dc6 723d 4a8e dabc
000000a0: d100 6b3d ee6c 373d 321b b23d 59b4 71bc
000000b0: 15aa 88bd 5fb6 fabd 17f5 65bc 46de a53d
000000c0: 03b8 dd3d b621 65bd aefa 99bd a5ea 023e
000000d0: 2334 463d f930 adbd bd30 a4bd 93c8 17bd
000000e0: 79eb 85bd bf2b 2a3d 626d 4cbd a2e4 e8bd
000000f0: 9615 f0bb 2bd2 573d cf03 953d 88c0 3fbd
00000100: f73a c83b 3923 4dbd 97d9 8c3b c952 3a3d
00000110: f824 b13d 71cc 94bc f365 94bd 8e70 dd3d
00000120: 322f e7bd 031e b13c fd31 e8bd
0.050685488 0.0014096551 0.03299647 -0.06937355 0.009014547 0.060882796 -0.08950213 -0.060012225
-0.08249632 -0.016224248 0.04910903 -0.080386154 -0.099441394 0.07398651 0.054214448 -0.06432599
-0.07426075 -0.040364996 -0.05589276 0.049890682 -0.06351475 -0.044144172 0.030345205 0.081780605
0.032712623 -0.08216639 0.033069666 0.06993235 -0.03519467 0.031523094 -0.06069036 0.027844872
0.097503796 -0.019662613 -0.016379435 -0.05055355 -0.040753096 0.1148926 0.059271444 -0.026679177
0.057373825 0.044781618 0.08696593 -0.014752471 -0.066730656 -0.12241816 -0.014035485 0.08099036
0.10826113 -0.055940352 -0.075185165 0.12784822 0.048389565 -0.084566064 -0.080171086 -0.037056517
-0.065390535 0.041545626 -0.049909003 -0.11371733 -0.007326792 0.052690666 0.07276117 -0.04681447
0.006110545 -0.05008242 0.0042983997 0.045489106 0.08649629 -0.018163892 -0.07246008 0.10812484
-0.11288299 0.021620756 -0.113376595

first_cons6_filterlist.2.weight f4 [1, 3, 5, 5]
00000000: c82b da3d 98c7 fdbd 8756 81bd dc54 18bd
00000010: 35ba c63d bdd7 173d c100 b33d fa72 6fbd
00000020: c3ee dc3d f473 80bd 8d05 983d bb96 e1bd
00000030: 12a9 af3c 0ead 6abc d436 ad3c f26d 423d
00000040: 481b 433d ba96 63bd 18a7 23bd dbc6 db3d
00000050: 1c1f 9d3c b82e 29bc 36b7 3dbd 01d1 97bd
00000060: 74f0 d8bd d01f b63c 95b5 9d3c 36a3 d0bd
00000070: f37d d13c 0ac7 afbd c33b c5bd 7278 a33c
00000080: ded9 b33c 2481 efbd 8044 6d3d e326 383c
00000090: 784c 8cbb b2a5 ea3c 76df a53c ff95 cbbd
000000a0: 5df1 d93c 2e57 88bd d3f5 8fbc 3674 633d
000000b0: 1a31 2e3d 118b 48bd 835f 6cbd 0d38 94bd
000000c0: 9409 bc3d c390 d4bd 4d23 96bd 08cf 12bb
000000d0: c7cc b3bc 618e ca3c feec 943d 2366 933a
000000e0: 9b8a bcbc 4b53 83bb 1134 eebd 4ef2 84bd
000000f0: dcf0 d33d f8d2 26bd 4c78 703d f1a7 803d
00000100: 186c dbbd 8869 a1bc c6d9 dd3b 3a2e d43d
00000110: 34bb 52bd 5a05 b33c 75c6 96bd d502 f5bd
00000120: 4aa2 fabc f027 89bd c236 ef3d
0.10652882 -0.12391585 -0.06315332 -0.037190303 0.09703485 0.03707098 0.08740378 -0.05845926
0.10787728 -0.06272116 0.07422934 -0.11015078 0.021442924 -0.014323486 0.021144308 0.047468133
0.04763344 -0.055563666 -0.039954275 0.10731288 0.019179873 -0.01032608 -0.0463173 -0.07412911
-0.10592738 0.022231966 0.019251624 -0.1018738 0.025572753 -0.085828856 -0.09630539 0.019954894
0.021954473 -0.116945535 0.057926655 0.01123974 -0.0042815767 0.028643463 0.020248156 -0.09940719
0.026604349 -0.06657253 -0.017573273 0.05553075 0.042527296 -0.04896075 -0.057708275 -0.07237253
0.091815144 -0.103791736 -0.07330952 -0.0022401232 -0.021948231 0.024726095 0.07271765 0.0011245649
-0.023015311 -0.004007732 -0.11631025 -0.064915285 0.10348675 -0.04072854 0.058708474 0.06282032
-0.107139766 -0.019703642 0.0067703454 0.103603795 -0.051448062 0.021853138 -0.073620714 -0.11963431
-0.030594964 -0.066970706 0.11680366

first_cons6_filterlist.3.weight f4 [1, 3, 5, 5]
00000000: 5416 493d b2bd d33d bf84 7dbc fc06 70bc
00000010: b0b7 cebd 9fb7 53bc b82e a33d f32b bebd
00000020: 8b68 8f3d bd54 3d3d e93d b83c 6ff9 90bd
00000030: f99f e4bc f1f6 b2bd 4ab9 dfbb 667c e8bd
00000040: 3666 abbd d722 34bd 1c99 853d 6c1f 5b3d
00000050: 46e0 c7bd 70d8 de3d aa24 f43d 4d8a 6f3a
00000060: 3449 4cbc 63d8 443d df99 a9bd b491 15bd
00000070: eaf2 943d d3ff 873d 7f94 263d ca75 85bd
00000080: 8a2f aebd bef2 393d b143 9d3d c2de d1bd
00000090: 2ade be3d e87d 55bd 615e 023d 43e0 453d
000000a0: c5ff 713d 62fb 193d 63b7 97bd d20a d7bd
000000b0: 2715 6e3d f37e 133d 680f 12bd a38c b1bc
000000c0: e754 14bc f318 b93d c137 1bbd e653 1bbd
000000d0: b4ef 51bd 398a 6f3d 0252 263d 04e7 bcbd
000000e0: 4502 f6bb 72fa 273d dead 1b3c 78d7 bc3c
000000f0: 6ef9 40bb 49f1 c5bd 051f 3bbd 64cf 02be
00000100: 75a1 88bc 6ffe 983b d14b b33d 499e d9bc
00000110: be59 b5bc e2d0 673c 31d5 89bd 93f1 d7bd
00000120: 7b94 e83d c622 473d 8283 2e3d
0.04909356 0.10338916 -0.015473544 -0.014650103 -0.10093629 -0.012922197 0.07967895 -0.092857264
0.07002362 0.04622339 0.022490459 -0.07078826 -0.027908312 -0.087385066 -0.006827508 -0.11351852
-0.083691046 -0.04397854 0.06523344 0.053496763 -0.09759574 0.10881126 0.119210556 0.0009137735
-0.012468625 0.048057925 -0.08281302 -0.036515906 0.07272895 0.066405915 0.04066896 -0.06516607
-0.08505161 0.045397513 0.07678927 -0.10247566 0.09319718 -0.052122027 0.031828288 0.048309576
0.05908181 0.037593253 -0.07408025 -0.10500111 0.05812564 0.03600974 -0.035659224 -0.021673506
-0.009053445 0.09037962 -0.037894968 -0.03792181 -0.05125399 0.05848143 0.040605552 -0.0922375
-0.007507595 0.041010328 0.009501902 0.023051962 -0.0029445547 -0.09665162 -0.04568388 -0.12774426
-0.016678551 0.0046690027 0.08754695 -0.026564734 -0.022137519 0.014148923 -0.06730116 -0.105441235
0.113564454 0.048617147 0.042605884

first_cons6_filterlist.4.weight f4 [1, 3, 5, 5]
00000000: b9f6 8d3c 9bea 0d3d 7e3d 293d c2eb c53c
00000010: 7dc1 533d 7d06 f3bc 8528 6fbc 3293 7ebd
00000020: 22b4 51bc c695 5dbd ab7e a5bd 07bc 363c
00000030: ca86 b8bb 32b9 de3a da0e bc3d ca5e 533d
00000040: fa87 a73d e7c8 a73d aaa9 77bd 910c 143d
00000050: b809 943d 09e0 d13d 8e88 853d 53bb 873d
00000060: 0d55 613d 923d 29bd 066d 87bc 6b46 d9bd
00000070: 38a2 6a3c 4156 9d3d 324f b93c d455 ed3d
00000080: 1290 a93d f3d2 f13b adb7 963d 4156 2cbd
00000090: 2988 ae3d 8ca2 df3d 0377 c9bb 43e1 c63d
000000a0: eea2 f63c e6ab 893c 6536 b63d 06d7 363d
000000b0: a309 08bd 5bc6 8bbd 598b 33bd 165a a1bd
000000c0: 9bd7 c43d 772a fd3c ba2d bebd 5521 793d
000000d0: edfd 50bd 8500 76bd 97e0 953c 2ec3 c93d
000000e0: d244 893c 9273 97bc 7c4c a6bd 53c3 77bd
000000f0: 8b3d 5a3b 5ac9 283c 00a4 98bd d7da 863d
00000100: 48c5 60bd beac 4c3d 4920 853c c639 aa3c
00000110: cba4 993d 95b9 6e3d c0f6 3a3d 7314 57bc
00000120: f30e b73d 327f 963d 8aa6 433c
0.01732956 0.034647565 0.04131841 0.02416027 0.051698197 -0.02966618 -0.014597063 -0.062152095
-0.012799295 -0.054097913 -0.080808006 0.011153228 -0.0056313025 0.0016992448 0.0918252 0.05160407
0.08180232 0.08192616 -0.06046454 0.036144797 0.07228416 0.102478094 0.06520186 0.06627526
0.05501275 -0.041318484 -0.016531479 -0.10609134 0.0143209025 0.07682467 0.022620771 0.11588636
0.08279432 0.0073798834 0.07359252 -0.042074446 0.08522064 0.10919675 -0.0061482205 0.09710934
0.030106988 0.0168056 0.08897094 0.044638656 -0.033212315 -0.06824943 -0.043834064 -0.07878511
0.09611436 0.030904038 -0.092860654 0.060822804 -0.051023412 -0.06005909 0.01829557 0.09851681
0.016756449 -0.018487725 -0.08120057 -0.06048901 0.0033300843 0.010301912 -0.074531555 0.06584709
-0.054875642 0.049969427 0.016250746 0.020779502 0.07502135 0.058282454 0.045645475 -0.013127434
0.08938398 0.07348479 0.0119415615

first_cons6_filterlist.5.weight f4 [1, 3, 5, 5]
00000000: 11e9 04bd 5f20 97bc fe8b db3c 29e3 993a
00000010: 9308 57bc 296f b4bd fe00 1a3d 7eaa 6bbd
00000020: 6a3b c33d 6f85 2fbc b103 063d d42b 173d
00000030: 242a b33d 0009 29bb a655 d2ba afc7 d7bd
00000040: 7d6c 57bc 6d9c d1bd 6608 e2ba b923 f93d
00000050: 705d 96bc e292 7dbd 1ca9 e1bd 074e f23d
00000060: 67c5 74bd c4f0 d83c e6b5 3539 5b9e 393d
00000070: 21cf a8bc 1ece 3abd 9465 c23d d8e8 a53d
00000080: 3627 3abd 22b0 d7bc a91e 853d 7d5c c4bd
00000090: 4074 22bd 2482 babd 5a1c 23bd 5f09 c13d
000000a0: d816 883d e0c9 df3c dd14 efbd be79 d33d
000000b0: 20b8 f43d 9a23 a33d 58ad 6c3d 1d76 51bd
000000c0: c151 ddbc b6c5 ee3c abab e93c 6264 97bd
000000d0: a81a 68bd 1dce a5bd c1b0 943d 606e 42bd
000000e0: 9471 d9bc 859e 823d 4316 a4bd 31c5 673b
000000f0: 7ca1 2f3d 5e80 9dbc daa7 843c 9408 92bd
00000100: 4d10 c3bd 8c04 86bc 9e19 bd3d e8d8 ce3d
00000110: 14d9 41bc 7cdf 56bd 396c 1a3d 44dd 423c
00000120: 2d44 053d fa0f 903c c5a6 663c
-0.032448832 -0.018448053 0.026800152 0.0011740673 -0.013124603 -0.088102646 0.037598602 -0.05753564
0.09532817 -0.010712965 0.032718364 0.036907032 0.08748272 -0.0025792718 -0.0016047254 -0.105361335
-0.013148424 -0.10234914 -0.0017244935 0.12165017 -0.018355101 -0.061907656 -0.11018583 0.11831289
-0.05975857 0.026481993 0.00017329268 0.045317035 -0.02060658 -0.045606725 0.09492031 0.08101052
-0.04544755 -0.026329104 0.064999886 -0.09587953 -0.039661646 -0.091068536 -0.03982196 0.094256155
0.06644982 0.027317941 -0.11673901 0.10325955 0.119491816 0.07965775 0.0577825 -0.051138032
-0.027016522 0.02914701 0.02852424 -0.073921934 -0.056666046 -0.080959536 0.07260276 -0.047468543
-0.026543416 0.063778915 -0.080120586 0.0035365338 0.042878613 -0.01922625 0.01619332 -0.071305424
-0.095245935 -0.01635959 0.09233402 0.10099965 -0.011831541 -0.052459225 0.037700865 0.011893574
0.03253572 0.017585743 0.014077847

second_cons6_filterlist.0.weight f4 [1, 4, 5, 5]
00000000: 7470 c83c 9889 7a3b b79b 97bd 79de 07bc
00000010: e403 2cbc ff01 86bd b187 ebbc cd97 8fbc
00000020: 2e3f 83bc c168 7f3d a94d ad3d 5fb0 bfbd
00000030: fb91 7d3d 2e4e 9a3d 99b2 0b3d 4f9f 7eba
00000040: 0036 a7bc 8254 31bc ff32 c23d 107c 2f3c
00000050: f25f 51bd 0dd6 ec3c ec47 88bd f7be cc3b
00000060: 6fb0 b8bb 1c06 143d 390e 8e3d 4850 b4bd
00000070: f34e a03d f97b 9a3d 533c 513d 9c79 793c
00000080: f95d 98bd 495a e0bb 913b 12bd 9c88 be3b
00000090: fc4c 323d 1ea2 c2bb 8238 91bd f3bb ce3d
000000a0: f9c8 85bc 4b4c bc3d 4a4a a5ba 3fc5 95bd
000000b0: 9db9 8b3d b0b9 1c3c 3d7f 53bd 51cc 813d
000000c0: 6204 46bd de52 cfbd dfd5 853d e7a3 98bd
000000d0: 0da9 e1bb 070a a13c 11d6 b23d aa9d f53c
000000e0: 27eb 64bd 725f 94bd e663 99bc b660 34bc
000000f0: aec6 7b3d 4825 c2bd 88c7 913d 769d 93bd
00000100: 9b23 b43d db74 13bd 6c39 9bbc 4814 29bd
00000110: 984b 93bd f785 6f3d b216 7ebd ee2e 443c
00000120: 2241 ff3c 8150 243d 22b4 99bd 9590 bdbd
00000130: cafe 32bd 2a00 0d3d 3240 87bd c09b 62bd
00000140: cf44 a13d 05b9 ac3b 6f22 933d 1730 b83c
00000150: c924 0bbd 52b0 2dbd aa8a 9f3c 4d76 d2b7
00000160: 8792 333d b46b 98bd bf74 b4bd 8945 063c
00000170: 8c96 a63d 40f9 3abc 3bde f23c 6fbc e9bc
00000180: 840d a23d 6513 f2bc fc41 84bd 4ab5 5c3c
0.024467684 0.0038228985 -0.07402747 -0.008292788 -0.0104989745 -0.065433495 -0.028751226 -0.017528439
-0.016021337 0.06235576 0.08462078 -0.09359812 0.061906796 0.07534443 0.03410587 -0.000971307
-0.020411491 -0.010823371 0.09482383 0.010710731 -0.05111689 0.028910661 -0.06654343 0.0062483507
-0.005636267 0.03613864 0.069363065 -0.08804375 0.07827558 0.07543177 0.05108292 0.015226748
-0.07439799 -0.0068467003 -0.03570134 0.005814625 0.04353045 -0.005939736 -0.07090856 0.10094442
-0.016331183 0.09194239 -0.0012610641 -0.07313012 0.06822512 0.009565756 -0.051635016 0.063377984
-0.048344024 -0.101232275 0.06534933 -0.07453137 -0.0068866075 0.019658102 0.08732236 0.029982407
-0.05588832 -0.07244767 -0.018724393 -0.011009386 0.061468773 -0.09479767 0.07118136 -0.07207768
0.08795854 -0.036000114 -0.01894828 -0.041279107 -0.07192153 0.05847737 -0.062033363 0.01197408
0.031158987 0.040115837 -0.07505061 -0.092560925 -0.043700017 0.034423985 -0.06604041 -0.055324316
0.07874452 0.0052710795 0.07184302 0.022483869 -0.033970628 -0.04240448 0.0194753 -2.5089039e-05
0.04384091 -0.07442418 -0.0881133 0.008195289 0.08134183 -0.011411965 0.029646983 -0.028532235
0.07912734 -0.029550264 -0.06457898 0.013470957

second_cons6_filterlist.1.weight f4 [1, 4, 5, 5]
00000000: 0d3b c9bc 2056 6b3c de3d 98bb 5b64 2dbc
00000010: 356e b13c 6de7 59bb bcef a2bd 31ad 993d
00000020: d220 99bc c7e3 1a3d 57e8 cb3d 0c9f 5b3d
00000030: 210e 0c3b f7ce 7bbd febf 8f3c 6481 96bd
00000040: 3c11 d63c 40b9 95bd b3c8 85bd 361e 3c3b
00000050: b1c6 6e3c c808 a53d cde7 34bc 0f6a 94bd
00000060: 7ecd 5dbc 9e62 a23d 3fac 5f3d 0f4d 443d
00000070: 3970 cc3d 3535 683d b10e b03d f4d8 2e3d
00000080: 723f c13c 4e3e babd 5d92 0c3c dd28 963d
00000090: 9015 bebd 021b fcbc 9099 ddbb ffe5 343d
000000a0: 6cac 243d 6628 bcbd b694 55bd cd0a 6dbb
000000b0: 948d a23d 4b67 a5bd 2b60 b3bd 4b34 253b
000000c0: e084 9dbd ec0c c83c 7ae9 58bd 0514 553d
000000d0: 9d06 11bd 63eb a6bd af45 93bd 0da9 bbbd
000000e0: 96a4 d83d b044 8ebc 41a2 903c 6ef9 363d
000000f0: bade 3abd a1e2 38bd 5acd 643d fbac c0bd
00000100: 8848 99bd c82d 783d c830 98bd bf4a 503d
00000110: dcff 343c 4581 2dbd 94f3 753d 5008 48bd
00000120: 659d 6abc 5cc6 d83d 4b60 a53c 35a5 bdbd
00000130: cb35 d1bd 0c44 eb3d fc1b cabd 7ad2 943d
00000140: 29e9 4abc b869 3f3c e4a2 cf3d c570 8abc
00000150: cff7 98bd 098c ad3d af45 07bc 3969 1c3d
00000160: 29b0 64bd e8f3 4cbd d29c f8bc d4eb 693d
00000170: 2a97 bb3d ae03 87bd fcfc abbc 3eb0 cfbc
00000180: ea37 a33d 18b8 2e3d cf15 a8bd a9c7 103d
-0.02456429 0.0143637955 -0.004646047 -0.010583009 0.021658996 -0.0033249513 -0.07955882 0.07503737
-0.018692408 0.03781488 0.09956425 0.053618476 0.0021370726 -0.061476674 0.017547604 -0.07348898
0.026131265 -0.07310724 -0.06532421 0.002870453 0.014573739 0.080583155 -0.011041594 -0.072467916
-0.013537763 0.07928966 0.054607626 0.04792505 0.09982342 0.056691367 0.08596552 0.04268737
0.023589823 -0.09093915 0.008579818 0.07332013 -0.092814565 -0.030774597 -0.006762691 0.044164654
0.040203497 -0.09187393 -0.052143775 -0.0036169768 0.0793716 -0.08076342 -0.08758577 0.002520817
-0.076913595 0.024420224 -0.052957036 0.052021045 -0.035406698 -0.08150365 -0.071910255 -0.09163103
0.10578267 -0.017366737 0.017655494 0.04467147 -0.045622565 -0.045138005 0.0558599 -0.094079934
-0.07484537 0.060590535 -0.07431179 0.050852533 0.01104733 -0.04235961 0.060046747 -0.048836052
-0.014319752 0.10584709 0.020187518 -0.09260026 -0.10215338 0.11487588 -0.09868619 0.07266708
-0.012384691 0.01168292 0.10138491 -0.016899476 -0.07469141 0.08473975 -0.00825636 0.038186286
-0.055832062 -0.050037295 -0.030348215 0.05710967 0.09159692 -0.06592499 -0.020994656 -0.025352594
0.07969649 0.042656034 -0.08207285 0.03534666

second_cons6_filterlist.2.weight f4 [1, 4, 5, 5]
00000000: acc6 593d 6e67 093c 021a bcbc 8042 edbc
00000010: 58b3 093d 2228 85bd 988a a1bd 2d4e 30bc
00000020: 20b2 913d 470e 993d e816 4fbd ec83 edbd
00000030: 5e4a 59bc 702e 5ebd 01b4 92bd f1f0 bfbd
00000040: 92ad 5b3d e330 9bbd 5991 c0bd 9349 b7bd
00000050: c090 2f3d 5c40 b83c 3ad9 33bb 23f2 513c
00000060: fd08 383d 574d 343c 970f 5c3d 1227 8e3d
00000070: 4c55 39bd e474 d8bc 6341 c23d 9569 9abd
00000080: ec64 aebd 28fb 3e3d 5ad9 89bc 07e0 b1bc
00000090: eec7 8dbd caa3 313d 77ed ed3a 448e 3d3d
000000a0: e769 773d 1729 773d 6118 7fbd faae 5e3d
000000b0: eb25 f4bc 5e07 4abd 06b4 eabc 1458 a73c
000000c0: be2b 523d a066 a6bd 8060 54bd 9757 b93d
000000d0: 95c7 d53d 5ccb 653d f89e 24bd cd96 31bd
000000e0: 6254 13bc f9e8 e9bc ef97 ff3c dd65 1b3d
000000f0: 4a50 1fbb 015d e7bc 6366 e13c 7295 a2bc
00000100: 2a06 0fbd 3808 cabd f3d4 c1bb 4385 2e3d
00000110: f847 43bd 9b9f b73d 9aab 213c 7555 423c
00000120: 29f2 16bd 14f3 643d 5b99 813d 4804 013c
00000130: ecf3 8f3d 703e adba cdd8 5d3d c547 7abd
00000140: 1802 4e3d 1583 293d 1707 b43d 432d 1b3b
00000150: 6479 17bd 2a81 01bd bb18 7ebd 855a 60bc
00000160: 2c85 1ebd 701d df3c 7599 a3bc f22b 6cbd
00000170: c4e4 b53d a6c8 99bc ea55 4e3d 2565 d23d
00000180: ca11 ba3d 8635 1f3d cbdc abbb 3739 adbd
0.053167984 0.008386476 -0.02296162 -0.028962374 0.0336183 -0.06501795 -0.07887763 -0.010760826
0.07114053 0.07473426 -0.050558954 -0.11597428 -0.013262359 -0.054243505 -0.07163239 -0.09372128
0.053632326 -0.07577684 -0.09402723 -0.0894958 0.042862654 0.022491626 -0.002744271 0.012814078
0.044930447 0.011004767 0.053725805 0.06941046 -0.04524736 -0.026422925 0.09485128 -0.075396694
-0.08515343 0.04662624 -0.016827274 -0.02171327 -0.06922899 0.043369092 0.0018152435 0.046278253
0.06040373 0.06034192 -0.06227911 0.05436609 -0.029803237 -0.049323432 -0.028650295 0.020427741
0.051311247 -0.08125043 -0.051849842 0.090499096 0.10438458 0.05610214 -0.040190667 -0.043356705
-0.008992286 -0.028553473 0.031200377 0.03793894 -0.002430933 -0.02824259 0.027514642 -0.019846652
-0.034917988 -0.09864849 -0.005915278 0.042607557 -0.047676057 0.08965989 0.009867573 0.011861195
-0.036852036 0.05589588 0.06328078 0.007874556 0.07028946 -0.001321746 0.054161835 -0.0611036
0.050294966 0.041384775 0.08790415 0.00236781 -0.036981 -0.03161732 -0.062035304 -0.013693457
-0.03870122 0.027235717 -0.019970635 -0.057659097 0.08881524 -0.018772434 0.050374903 0.10273198
0.09085424 0.038869403 -0.0052448264 -0.084581785

second_cons6_filterlist.3.weight f4 [1, 4, 5, 5]
00000000: 1d60 56bd 436e 563d a4dc 66bd c92e 993d
00000010: 6ae5 a5bd e176 0b3d d633 29bc d953 dcbd
00000020: d1c5 db3c 8cab 73bc 06c0 00bd 4869 f8bb
00000030: 0dbe ddbd 227b b73c 3bf1 d6bd 16bc 9ebc
00000040: 3aec 0a3c a428 09bd 45df 5cb9 a71e 19bd
00000050: 783f db3b 4f00 81bd 9f67 e93c abfd b3bd
00000060: 4c66 d0bd b325 35bd 8ece bb3d 1652 bc3d
00000070: edf7 813d bb9c 693d b98c 1f3b 5e90 243d
00000080: e4ab 6abc 5574 8bbd 3817 1b3d c2cd ee3c
00000090: cc3b c53d ede3 833d 20f6 a0bd aef1 acbc
000000a0: c89d bcbc c530 2f3d 8017 a63c a987 7d3d
000000b0: 576a 643d 888c 763d 2229 47bd 3461 a53c
000000c0: 6962 5d3d 9928 a5bd 1620 1dbd 580d c03d
000000d0: fab5 e83b 54ae d33d d3ca fdbc f188 ae3c
000000e0: 60e7 a63d 4bf2 083d 92a7 1c3b 6c2c b0ba
000000f0: 6754 1a3d 91a8 c43c 57a1 84bd 1504 3abd
00000100: 519f 9c3d 0183 88bd d0e4 dbbc 29f1 bf3d
00000110: a0dc aebd 2bf8 943d c178 613d 2b00 0d3d
00000120: 4f8b d8bd 56a1 aa3c 67be 003d 9ccc 883d
00000130: 1645 823a a681 c23d 6082 733c 1a50 92bd
00000140: 6c1d 063d 59ad 223d 983a 4cbd e6bb d83c
00000150: 7d69 89bd 5175 443d bf21 253d 8d46 8e3d
00000160: 2b20 2c3d 1e97 813b d1ab 4a3c 7d26 9d3d
00000170: 0f25 603d 9491 abbd b849 d1bd f862 08bd
00000180: 96f1 ccbd fda8 b2bd 5e9a f93c daa8 b8b9
-0.052337755 0.052351248 -0.056362763 0.07479627 -0.08100398 0.03404892 -0.0103273 -0.1075818
0.026827725 -0.014872443 -0.031433128 -0.00758091 -0.10827265 0.022397581 -0.1049523 -0.019376796
0.008479172 -0.033486024 -0.0002106401 -0.037382748 0.0066909157 -0.06298887 0.028491793 -0.08788618
-0.101757616 -0.044225406 0.091702566 0.09195344 0.06346116 0.057034235 0.0024345352 0.04017674
-0.0143232085 -0.06809298 0.03786394 0.029150847 0.09630546 0.06439958 -0.078594446 -0.021111336
-0.023024455 0.04277112 0.020274878 0.061896954 0.055765476 0.060192615 -0.04862321 0.020187952
0.05404893 -0.08064384 -0.038360678 0.09377545 0.0071017714 0.10335985 -0.030980503 0.021305533
0.081496 0.033434194 0.002390359 -0.0013440973 0.03767815 0.02400616 -0.06476086 -0.04541405
0.07647575 -0.06665612 -0.026842505 0.093721695 -0.08538175 0.07273897 0.0550468 0.03442399
-0.10573446 0.020828884 0.03143158 0.06679651 0.0009938802 0.09497385 0.014862627 -0.071441844
0.032742903 0.0397161 -0.049860567 0.026456784 -0.067095734 0.047963444 0.040315386 0.0694705
0.042022865 0.003954782 0.012370066 0.07673357 0.05472284 -0.08377376 -0.10219139 -0.03329751
-0.10007016 -0.08723638 0.030469116 -0.0003522102

second_cons6_filterlist.4.weight f4 [1, 4, 5, 5]
00000000: da38 913d aa06 9bbd 763b 64bd 5a67 d8bd
00000010: bcd5 8cbc d2bc c93d e1d7 953c 9eb1 debc
00000020: 5b0d 40bd 5921 2bbd 6912 4abd 2b74 003d
00000030: a315 353d b0d3 b9bd 04c4 d6bd ae3c 05bc
00000040: eff6 81bd 9e44 513c 252c 2ebd 2195 edbd
00000050: 4fe5 2fbd f30b 65bd 55a3 e33c 3dd9 3b3c
00000060: c486 d5bc a126 333d c915 5f3a dab8 b33d
00000070: b86f 9abd d381 ab3c e674 a8bc 4069 b3bc
00000080: f05a adbd ee0d 903d 72f2 a93d 8b05 8dbd
00000090: 4cf0 76bd b79e 2bbd f853 1dbd f3ae 4f3d
000000a0: 0271 c7bd dafc c83c d988 303d f315 91bd
000000b0: a5db 353d 034e 5fbc e0c8 b0bd ea3d b93c
000000c0: 26e3 51bc 8fd7 3e3c e3b5 ffbc 7af9 863a
000000d0: 7256 293d 9eef 823d 5ba1 8d3b 8aa3 d7bc
000000e0: c5f8 753d 7597 a83d 6ebb 83bb 1741 8f3d
000000f0: 4082 8cbd 6e9b e8bb 702d 25bd 46ba 713d
00000100: 8892 08bd 4a5d adbc 215d d33d 4d30 cdbc
00000110: 14cd 4aba 76dc 983d 5ae7 3ebd d2e8 c7bd
00000120: b474 c5bd 0530 52bd 8067 9c3d a009 8dbc
00000130: 4c54 d13a 7e44 febb 35f0 c03c 2278 d3bd
00000140: 1bb1 ba3c cad9 a93d efc0 953c 5a03 58bd
00000150: 9718 da3c 4bc8 b53d db4e 9b3d e4d0 233d
00000160: 6fe5 02bd 3615 61bd 1e51 b4bd ae27 273d
00000170: 4c68 8b3d a442 5bbb cfe8 a53d ba00 98bc
00000180: 9e85 d0bc 44bd 52bc 5517 ab3d 0224 553d
0.07090922 -0.075696304 -0.05572077 -0.10566588 -0.01719176 0.09850468 0.018291416 -0.027184304
-0.046887737 -0.04177985 -0.049333964 0.031360786 0.044210088 -0.09073579 -0.10486606 -0.008132143
-0.06345927 0.012772707 -0.04252257 -0.1160071 -0.042943295 -0.0559196 0.027787844 0.011465368
-0.026065238 0.04373801 0.0008510021 0.08775492 -0.0754084 0.020935928 -0.020563554 -0.021900773
-0.084646106 0.07033907 0.08298196 -0.06885823 -0.06028776 -0.04189941 -0.038410157 0.050703954
-0.097383514 0.024534632 0.043099258 -0.070842646 0.044398922 -0.013629439 -0.08632064 0.02261253
-0.012810504 0.011648073 -0.03121466 0.0010297738 0.041342206 0.063933596 0.0043222136 -0.026323099
0.0600517 0.08232013 -0.004020146 0.06994837 -0.06860781 -0.007098607 -0.040326536 0.059015535
-0.033342868 -0.021162648 0.10320497 -0.025047446 -0.00077362475 0.074639246 -0.046607353 -0.09761204
-0.096414 -0.051315326 0.076369286 -0.017216504 0.0015970557 -0.0077596297 0.02355204 -0.10325648
0.022789529 0.08293493 0.018280474 -0.05273757 0.026623053 0.088760935 0.075834 0.039994135
-0.031957086 -0.05495187 -0.088045344 0.040809326 0.068070024 -0.003345647 0.08101045 -0.018555034
-0.025454339 -0.012862507 0.083540596 0.052036293

second_cons6_filterlist.5.weight f4 [1, 4, 5, 5]
00000000: 67ab 1d3d c946 06bd a7cb 4ebd bcce b4bd
00000010: 2ba5 673d cd1b aabb f976 493d 5dde 35bd
00000020: c8fb 45bd fe38 b93d feff a13b 3435 7c3c
00000030: 0719 18bd e1a7 34bd 26ae a03d 6101 2ebd
00000040: 632b 743d 6e45 a1bd 91d4 d63a 3e59 3fbd
00000050: 00a5 c4bd 33cd b4bd 47af 793d 1d52 a93b
00000060: e09a 743d 4705 35bc 0056 ea3a e4ac 863d
00000070: a943 883d ee8c 85bd a14f 3c3d 3ac8 c53b
00000080: 85a5 adbd ae0c 563d fe46 2dbd d4a5 9bbc
00000090: c80d b33d 4c09 f7bb 0428 4abc dca0 2e3d
000000a0: 89d5 613d ef41 bb3d b40e ce3d 19f6 47bd
000000b0: 81f0 8dbd a7bf 6d3c 7665 93bd 5d1c 29bd
000000c0: ef24 b7bc 55cf 63bc c60b a03d 2772 df3c
000000d0: 1d6c c63d c724 883d 6d80 c23d 3d8f b2bc
000000e0: 1653 f9bc 9205 283d a65b 86bc a48c 3c3d
000000f0: 900c 943c f69c c0bd e0df 7ebd 1a65 a9bd
00000100: 8447 64bc 1268 96bd 6637 51bc 20de 54bd
00000110: 5cd9 0f3d e09b dabc 82a7 38bd 9368 02bc
00000120: 088e 943d a187 98bc 256e 383d a10f d03c
00000130: 4b4a 99bd 8036 a0bd 500e f7bc 1dc0 d93d
00000140: 1f91 c03c 2652 983d 192e 2c3d f24f 133d
00000150: 408e 5f3d 181a 90bd aab0 d5bd 3ec9 063d
00000160: 24fb 6ebd cfbb 93bd b9fc 82bc 41f7 7e3d
00000170: ca8e bfbd 9d18 90bd e5fa b93b 830c ffbd
00000180: 9759 a9bd 8d1d 2d3d 0bce a43d a1ca c3bd
0.03849354 -0.03278235 -0.050487187 -0.08828494 0.056554 -0.0051913024 0.049185727 -0.044401515
-0.04833582 0.090440735 0.0049438467 0.015393544 -0.037133243 -0.044105414 0.07845716 -0.042481784
0.05961169 -0.07874571 0.0016390254 -0.046715967 -0.09601784 -0.08828201 0.060958173 0.0051672594
0.059718013 -0.0110486215 0.0017878413 0.06575945 0.0665353 -0.06521021 0.045974378 0.0060358318
-0.08478836 0.052258186 -0.04230403 -0.018999971 0.08742863 -0.00753895 -0.012338642 0.042633876
0.055135284 0.09143435 0.10061398 -0.04881868 -0.06930638 0.0145110255 -0.071970865 -0.041286815
-0.022356478 -0.013904412 0.078147456 0.027276112 0.0968859 0.0664764 0.094971515 -0.021796817
-0.030435126 0.041020937 -0.016401123 0.046032563 0.018072397 -0.09404938 -0.062225223 -0.08271237
-0.013933066 -0.073440686 -0.012769556 -0.051969647 0.0351194 -0.026685655 -0.045081623 -0.007959503
0.07253653 -0.01861936 0.045026917 0.025398077 -0.074848734 -0.07822895 -0.030158192 0.10632346
0.0235067 0.074375436 0.04203615 0.035964914 0.05457902 -0.07036227 -0.104340866 0.032906763
-0.058344975 -0.07213556 -0.015989648 0.06224752 -0.09353407 -0.070359446 0.005675661 -0.12453558
-0.08269041 0.04226451 0.08047112 -0.09560133

third_cons3_filterlist.0.weight f4 [1, 4, 5, 5]
00000000: 0546 83bc df9c 543d 0ad6 cc3d 20f2 953d
00000010: e222 003d 0382 d23c 7581 393d 4491 943b
00000020: 2799 22bd d9c5 61bd 1335 a1bd 6fd8 733d
00000030: 0a4a 673d aa3c 533d f2a7 a5bd add6 dbbc
00000040: fd06 c3bd 82e7 70bd 26d8 88bc 7414 e4bc
00000050: 3dab c6bd a0cf cbbd c16f 313d 82a3 d7bc
00000060: 8b16 6ebd a3c6 29bd 7863 11bd aff6 2c3b
00000070: 2ced 6f3c 0034 f03b 5af0 90bc 29de 9a3d
00000080: 0be2 bc3d 671d 893d 12bf 433d a25a e23c
00000090: 347a a43d fbad 28bd 87d1 b1bd a5c5 953b
000000a0: 0384 d43c 1f70 813d 76fb cf3d cd42 cd3d
000000b0: 4839 8ebd 72f8 893d 40fe b9bd a6d9 74ba
000000c0: 2265 b3bd 1c3c d1bb b1e1 963d 597d adbd
000000d0: 61f0 c8bc cbfb 68bd bff1 6cbd 1282 e4bc
000000e0: 1f60 d1bd d356 a43d 03b5 d53d 14c6 a73c
000000f0: a46a fb3a 200b ccbd 748a a53d b1d1 493c
00000100: b166 a0bd 2dac 41bc 75ce 33bd 5eb2 713d
00000110: d732 b13d 14d4 3b3d 7730 6f3d 68c9 d3bd
00000120: edb3 103d 6506 3c3d abc9 533d c339 e93d
00000130: 61f4 29bd 2fa4 64bd f3c3 433c 216c ae3d
00000140: cce6 a3bd b0a2 a4bd 6e00 6bbb 87ed 85bd
00000150: ae65 a4bd 1a25 483d 3dbd 3abc 1a4a 88bd
00000160: 5994 6e3d 92b8 b7bb 9ad4 833d e3b5 4abd
00000170: dc89 fd3c e94a 41bd a792 9a3d 06da 0e3d
00000180: 6b9d 2ebc c117 983d dc0d 793d 81e4 823d
-0.016024599 0.051907416 0.10001762 0.07321572 0.031283267 0.02569676 0.045289475 0.0045339186
-0.03969684 -0.055120323 -0.07871451 0.05953258 0.056467094 0.051571526 -0.08088674 -0.026835764
-0.09522817 -0.058814533 -0.01670463 -0.027841784 -0.0970063 -0.09951711 0.043319467 -0.026323084
-0.058126967 -0.0414492 -0.03549525 0.0026392152 0.0146439485 0.0073304176 -0.017692734 0.07561905
0.09222802 0.06695061 0.04778964 0.027631108 0.08031121 -0.041181546 -0.08682542 0.00457068
0.025941854 0.063202135 0.10155384 0.10022507 -0.06944519 0.0673684 -0.090816975 -0.00093402935
-0.08759524 -0.0063853394 0.07367266 -0.08471174 -0.024528684 -0.056880753 -0.057847735 -0.027894054
-0.10223412 0.08024373 0.10434916 0.020480193 0.0019181562 -0.099630594 0.080830485 0.012318061
-0.07832087 -0.011820835 -0.043898065 0.059007995 0.08652275 0.04585655 0.05839583 -0.103411496
0.03532784 0.045904536 0.051705997 0.1138797 -0.041492824 -0.05582064 0.011948573 0.08516718
-0.080030054 -0.08038843 -0.003585841 -0.06539445 -0.08027206 0.048863508 -0.011397657 -0.06654759
0.058246944 -0.0056067193 0.06437035 -0.049489867 0.030949526 -0.04719058 0.07547503 0.034875892
-0.010657649 0.07426406 0.060804233 0.0639124

third_cons3_filterlist.1.weight f4 [1, 4, 5, 5]
00000000: 9ad8 363d c294 9f3d 7eb1 b4bd 85dd b23d
00000010: 9c06 30bc 72a1 d9bc c5f6 443b aaf8 5abd
00000020: f555 3fbd 698e 02bd b2f0 db3d b7e5 4fbd
00000030: e28b aebd 9edc 2c3d ce7b af3c 7c41 bb3d
00000040: f844 bebd 1582 85bd 464a 313d 68cb 84bd
00000050: db52 7c3d 44af bd3d 6293 ff3c 6ce5 b0bb
00000060: 296c 7abc fef4 913d cf5f 39bd 0205 073c
00000070: 0f45 9dbd 4d60 fc3c 31d1 77bc f9a0 9b3d
00000080: b4e5 ba3d ab8e 58bb 39ff 84bd 3aee bbbd
00000090: 3e0f 1b3d 332a 0e3d 39e8 d3bd 0af7 ab3d
000000a0: 9ccc a4bd 9ffc a2bc a7ed 04bd ba77 2f3d
000000b0: bd1b e33c 6f18 a2bc 0ec2 823c 625e ac3d
000000c0: a466 b43c a2ff 4f3d da72 2e3d 1b40 783c
000000d0: 2c11 9b3d f6dd 773c 9e09 07bd 5a2f 52bc
000000e0: fb93 b73c 3df5 51bd 100e b1bc e628 18bd
000000f0: 84ae 913c fc20 7fbd ad89 243d 3c2b 503d
00000100: 28ba 963d c8be a7bd 02cf cabc 5eab 653d
00000110: 5e1b b83d e847 063d 8cb6 1b3d 903f 84bd
00000120: 3890 5bbc 8b68 3cbd dd56 04bd 1332 8dbd
00000130: 6cde 9a3c b568 f93c 70a6 e43d ed52 91bd
00000140: 998c 643b 14b7 babd 567b 9abc 522f 2abd
00000150: 3080 d1bd c639 103d b0b9 9abd 32c0 b5bc
00000160: f965 633d 55fb 1dbc 7cb4 54bd a1e4 82bd
00000170: baa9 883d 4977 a1bd 04db 103d 703e 923d
00000180: 2c6b 04bd c5ce 0abd 488a 343d 9740 613d
0.04464016 0.07792045 -0.088229164 0.08733658 -0.010743763 -0.026566241 0.0030054313 -0.0534598
-0.046712834 -0.031874094 0.10739268 -0.050756183 -0.08522774 0.042202584 0.02142134 0.091433495
-0.092904985 -0.06518952 0.043283723 -0.06484109 0.061602455 0.09261945 0.031198207 -0.005398443
-0.015284576 0.07126807 -0.045257386 0.00824094 -0.076791875 0.030807639 -0.015125559 0.075990625
0.09125844 -0.003304402 -0.06493992 -0.091762975 0.037856333 0.034708213 -0.10347027 0.08396728
-0.08046839 -0.01989585 -0.032453205 0.04283879 0.027723188 -0.019787041 0.015961673 0.084164396
0.0220216 0.0507809 0.04259 0.015152003 0.07571635 0.015128603 -0.032968156 -0.012828672
0.02240943 -0.051259268 -0.02161315 -0.03714838 0.01778341 -0.062287316 0.04017036 0.05082248
0.07359725 -0.081906855 -0.024756912 0.05607163 0.08989595 0.03278342 0.038015887 -0.06457436
-0.013401084 -0.045998137 -0.0323094 -0.068943165 0.018904887 0.030445436 0.11164558 -0.07095895
0.0034873842 -0.09116951 -0.01885764 -0.041549034 -0.10229528 0.035211347 -0.07554948 -0.022186372
0.05551717 -0.009642442 -0.051929936 -0.06391264 0.06672998 -0.0788408 0.03536512 0.07140815
-0.03232877 -0.033888597 0.044077188 0.05499324

third_cons3_filterlist.2.weight f4 [1, 4, 5, 5]
00000000: 846d af3d 633c dbbb e317 3a3d 5d11 ad3c
00000010: 7bfd 8abd ee18 4ebc 9e00 6e3d 6de9 5b3c
00000020: 2be8 14bc a54a f4bc f7b5 d53d b26a 0fbd
00000030: bb21 373d 83af fa3c 4ef7 ad3c 8601 35ba
00000040: 2128 42bd 36c9 c03d ce70 c13c eb56 903d
00000050: cbd9 423d 4cd2 dabc d51c ba3d ec46 cdbc
00000060: 6f8b 953c 6d95 f9bc e977 caba 2fbf 153d
00000070: 6142 a83d cba0 d3bc 8a09 32bd 2469 90bd
00000080: 3492 3b3d c570 c63c 7a9e 06bb 4e95 943b
00000090: 2d27 27bd 4fd5 a03d a01a 49bd cb03 4a3d
000000a0: 7ee8 243d 0ffe 0fbd f241 ad3d bb10 bd3d
000000b0: ade7 02bc 2bd2 953d e15e 04bc 8d9b 873c
000000c0: c49b 8fbb 61ba e7bb ed8b 6d3b d229 85bd
000000d0: c54d 0d3d 8ae5 bf3c 320d 38bc c3c8 3c3c
000000e0: 516d ca3d ca46 98bd 689a 0d3d a00a dcbd
000000f0: a896 acbd fe9e b6bc 23fc f53c ad2c c5bd
00000100: 4af5 4f3d 51da 72bd 7fc1 b2bd c21c a83d
00000110: 3e9d b83d 5e3a 82bc df1f bf3d 1735 a3bd
00000120: 642d 8b3d d893 3abd bcb9 3b3c 1756 ecbc
00000130: 6e54 163d 9c45 0fbd ed86 37bd cd72 c43d
00000140: 0676 a6bd 83e7 67bd aaa9 8abd 5fb9 f33c
00000150: b599 bcbd 5c16 35bd ea58 8dbd 5d14 553c
00000160: 314a 05bd 1cf0 3dbd 38b3 04bd d037 d5bd
00000170: cb35 9cbb 0ecc 913d 5aec 28bc c0fd 143d
00000180: 32a5 9ebd bc9b acbd 604c 0c3c 0556 c13d
0.0856581 -0.0066905483 0.045432936 0.021126444 -0.06786629 -0.012579186 0.058106057 0.013422352
-0.009088556 -0.02982075 0.10435098 -0.035013862 0.044709902 0.030601269 0.021236088 -0.0006904829
-0.04740155 0.09413378 0.02361336 0.07047828 0.047570985 -0.026711605 0.090875305 -0.025058232
0.018254964 -0.03046676 -0.0015447113 0.03655928 0.08215786 -0.025833508 -0.04346613 -0.07051304
0.045793727 0.024223695 -0.0020541237 0.0045344 -0.040808845 0.078531854 -0.049097657 0.049320024
0.040260784 -0.0351544 0.08459844 0.09231707 -0.007989806 0.07315477 -0.0080792615 0.016553665
-0.0043825824 -0.0070717786 0.0036246732 -0.06502117 0.034497995 0.023424882 -0.011233615 0.011522475
0.09884132 -0.07435377 0.03457108 -0.10744214 -0.08427173 -0.02229261 0.030027455 -0.09627662
0.050771035 -0.059290234 -0.08728313 0.0820861 0.090143666 -0.015896972 0.09332251 -0.079691105
0.06795767 -0.04555115 0.011457857 -0.028849645 0.036701612 -0.034978494 -0.04480641 0.09592209
-0.0812798 -0.05661727 -0.06770642 0.029751478 -0.09209005 -0.044210777 -0.06901725 0.013005343
-0.032541458 -0.046371564 -0.03239748 -0.10411036 -0.004767155 0.071189985 -0.010310257 0.036374807
-0.07746352 -0.084281415 0.008563131 0.09440235

fourth_last1_filterlist.0.weight f4 [1, 6, 5, 5]
00000000: c27f 07bd 7fd9 e1ba 26ad 9a3d 6959 003c
00000010: ff11 0b3d 63e0 7ebd 5f4f 0eb8 2dfc 7a3d
00000020: ced0 f9bc 560e 043c 47df 0abd 35b4 f1bc
00000030: 49e0 223d f8d5 033d 1424 7b3d cbab 51bd
00000040: 80e7 413d f712 9a3d 3522 09bd 3dd1 933d
00000050: 39be 823c 737b 893d f2f6 1bbc 3d58 bdbc
00000060: 3fb1 3cbd 19b8 bf3a 1b99 35bd 329b 60bd
00000070: 9a5f 00bc 80c1 a2bc 11ae 253d 11a1 a5bd
00000080: d1c5 f0bc 93b3 26bb f2e3 f5bb 511f 68bd
00000090: 70fb 1e3d d880 8a3d 253c 523c 6599 3a3b
000000a0: 32a7 efbc 3404 9dbd bfd4 90bc 390d 973d
000000b0: 4a8a 36bd 1826 903d affd 4a3d b934 4ebd
000000c0: 3af0 d53c cd38 d93c 0ccf 34bc 5c30 49bd
000000d0: 314f 133d 9b89 093d dc01 a4bd 0b82 9bbd
000000e0: 6fd2 e2bc 6320 33bd 6444 813d 2a62 23bd
000000f0: 687d 73bb ba67 c9bc 0c4d 05bd 006e 493d
00000100: 95ab 92bd 6c59 bebd f350 4abd 49a9 383d
00000110: 574c 003d 3d3e 013d e89b 173d 0af5 893d
00000120: 84df 98bd 207e 5bbd f7d1 8fbc d029 3fbd
00000130: 5aba aa3d cc4c 313c f070 623c 68a8 95bd
00000140: 8dba 16bd 5bf4 6bbc 1dda 85bc 1d4a 783d
00000150: 81ce 82bd 5de0 963d 9ca1 913c a789 28bd
00000160: f9fa 64bd 0bd3 bcbc 8da6 b5bb 825e 2fbc
00000170: 71ce 943d d7ea 2fbc 5649 9cbb fe01 913d
00000180: 2ba6 923c c6c5 64bd 9aaf 16bd e624 f139
00000190: f195 973d 7c18 633d 88dc 743b 65e8 a2bd
000001a0: e542 b0bd f4a5 573d d87e 74bd 24a2 dbbc
000001b0: f4f0 75bd 4bb4 cfbd bc19 f93c 5872 8fbd
000001c0: a31d 383d 6120 a93d b125 65bd 670f 37bd
000001d0: 0a06 a03d 51ee 5abd fa4d 1cbd ff77 a2bd
000001e0: 26a5 8f3d b129 633d c91e 37bc 4b0b 473c
000001f0: 00f7 943c bbdd ef3c 1956 54bd 148a ddbc
00000200: 89f6 9bbd 2e77 983d d112 b83d 9b78 86bd
00000210: dd67 08bd cbd2 80bc e2f0 5e3d 1a88 9abd
00000220: 1328 2dbd 5e2d eabc 95a4 693d 5365 423d
00000230: 38a9 7a3d 371b 7f3d 93c7 99bd 1c4b 313d
00000240: 6840 9dbc beae 8cbc 797e 373d bbd6 91bd
00000250: b082 343d 2b95 563d
-0.033080824 -0.0017230957 0.07552557 0.007833817 0.03395271 -0.06222571 -3.392936e-05 0.06127565
-0.030495074 0.008060059 -0.03390434 -0.029504875 0.039764676 0.03218648 0.061313704 -0.051189225
0.047339916 0.075231485 -0.033479888 0.072176434 0.015959846 0.06712999 -0.009519326 -0.023113364
-0.046067473 0.0014627009 -0.044335466 -0.054835506 -0.007835293 -0.019867659 0.040449206 -0.080873616
-0.029391201 -0.0025436624 -0.00750398 -0.05667049 0.03881401 0.06762856 0.012831722 0.0028472778
-0.02925453 -0.07666817 -0.01767957 0.07375569 -0.044565476 0.07038516 0.049558338 -0.05034325
0.026115526 0.026516343 -0.011035692 -0.049118385 0.035964195 0.033578496 -0.08008167 -0.07593163
-0.027688233 -0.04373206 0.063118726 -0.03988854 -0.0037153605 -0.024585593 -0.03254418 0.04917717
-0.07161633 -0.092943996 -0.049393605 0.045083318 0.031322803 0.031553496 0.03701392 0.067361906
-0.07464507 -0.05358708 -0.017556174 -0.046670735 0.08336325 0.010821532 0.013820872 -0.073075116
-0.036799002 -0.014401521 -0.016339356 0.060617555 -0.06387044 0.07367013 0.017777257 -0.0411469
-0.05590341 -0.023049852 -0.005543536 -0.010703685 0.07265938 -0.0107371425 -0.0047694845 0.07080458
0.0179015 -0.055852674 -0.03678856 0.00045994594 0.07401646 0.055443272 0.0037362892 -0.07954482
-0.08606509 0.0526485 -0.05969128 -0.026810713 -0.060044244 -0.1014181 0.030407779 -0.07004231
0.04495014 0.08258129 -0.05594415 -0.044692423 0.07813652 -0.053449932 -0.0381603 -0.07933044
0.070139214 0.055459682 -0.011176773 0.012148689 0.018184185 0.029280534 -0.05183992 -0.02704338
-0.07615382 0.07444607 0.08987964 -0.065659724 -0.033302177 -0.015725514 0.054428943 -0.075454906
-0.042274546 -0.028586086 0.057041723 0.04745991 0.061196536 0.062281813 -0.07508769 0.04328452
-0.01919575 -0.017173167 0.044798348 -0.07121035 0.044069946 0.05238835

bn2.weight f4 [16]
00000000: c074 833f 5d3f 803f 7153 7b3f d5a2 823f
00000010: aa90 803f c824 7b3f 5dde 803f 8e8e 833f
00000020: ea30 833f 58c1 7d3f 5d16 813f ee7c 863f
00000030: caab 7a3f d222 7d3f 84db 7f3f 7d81 853f
1.0270004 1.0019337 0.98174196 1.0205942 1.0044148 0.98103 1.006786 1.0277879
1.0249302 0.99123144 1.008495 1.0506876 0.9791838 0.98881257 0.9994433 1.0430142

bn2.bias f4 [16]
00000000: 473e 3ebc d44e 5539 0eb3 9b3c df86 313d
00000010: 5c9d 70bc 2f03 6a3c 8e47 c73c daac 02bd
00000020: f2c7 1b3c 4fbc 63bc 84fa 243a 76ab b13b
00000030: 7752 a73c e128 973c 788e a83b a1ca ab3c
-0.011611528 0.00020342629 0.019006278 0.043341514 -0.014685955 0.014282986 0.024326112 -0.031903125
0.00950812 -0.013899877 0.0006293433 0.005422051 0.020425064 0.01845211 0.0051439367 0.020970644

bn2.running_mean f4 [16]
00000000: 952d 263e d0ce db3d 28ae f73d 5e9d 3d3e
00000010: d31b 7f3e cee8 ec3d 8d9e 323e ad27 e33d
00000020: 7e87 7d3e 0fb6 2a3e f632 923e 789c 8a3e
00000030: eb2f 873e 97ad 473e 9414 483e b840 c93d
0.16228326 0.10732806 0.120937645 0.18517062 0.24912958 0.115678415 0.17443295 0.11091552
0.24758717 0.16671012 0.28554505 0.270725 0.26403746 0.19499813 0.195391 0.09826797

bn2.running_var f4 [16]
00000000: d9ed ae3d acf5 7d3d 954e 263d a96a 7d3d
00000010: 990c 293e 73e2 7b3d 4e8e ec3c a3f3 3a3d
00000020: 5da3 0f3d 0bd1 d13d 4abc 9f3d e4e1 873d
00000030: 7173 c53d 75fc 7b3d 432f 7a3d 7bec 5a3d
0.085414596 0.06200187 0.040602285 0.061869297 0.16508712 0.061495256 0.02887645 0.045642506
0.035067905 0.1024495 0.07799585 0.06634882 0.09641159 0.06152006 0.06108023 0.05344818
