models/8.pth (torch_old, 252400 bytes, 36 tensors)

c1.weight f4 [6, 3, 5, 5]
00000000: 9f20 10bc 5f2d 16bc 2b1a aabb d59c 04bb
00000010: 8a79 13bc 0b55 043c c8d4 453b f200 3ab9
00000020: 7464 4d3a 32b6 383b bd1f 873a 0f8f dcba
00000030: 3c2e c83a a167 ce3b a8f8 abbb f6af 08bc
00000040: 01ff 4ebc 648d 30bc f45e d5bb 161a 3c3b
00000050: d7b5 fcbb f49c 77bc 5596 81bc 4540 36bc
00000060: 00a5 833a f2fa 2fbb 3b3d 0cbb 7102 32bb
00000070: e212 8f39 4542 b1ba a2a2 e93b bdc4 643b
00000080: b996 363b 1c92 b53b b3a2 9d3b c175 fb3b
00000090: cd55 6a3a a2d2 623b 52c0 af3a 9453 513b
000000a0: f24d 413a 4f46 87bb 53b4 52bb 6417 b5ba
000000b0: 933f 37ba 4185 edbb 2265 30bc bf7c 13bc
000000c0: 1f46 54bb 51f1 a2ba be47 2cbb 03e6 a3bb
000000d0: 936a 63bb bc7d 65b9 8869 cfba c43b 333b
000000e0: 885c c237 540e 133a e73d 323b 276e 0c3b
000000f0: e378 3b3b 6c5f f3ba b693 cbb9 8a34 ad39
00000100: b58f 4fb9 fdb7 5e3a f3e9 88bb 59c5 33bb
00000110: 3db1 6eba 0ae1 1cba 3a82 5ebb bd11 f2bb
00000120: 5acc a3bb 2b05 bcba 798d e8ba f3ef dcbb
00000130: b87d 483c 00b0 3c3b 759f 173c 6966 773c
00000140: 418f f7bb 7b11 ff3b f540 0c3c 739b e03b
00000150: c362 f63b aeea a83c 97cf 50bb 3e68 02bc
00000160: 039c d238 d14c 983c 8631 a9ba 3db8 8bbc
00000170: c2a0 ef3c 9575 c9b9 b2c7 59bb 1c1b e93c
00000180: 21bb 72bc 09b0 c93c 3f71 35bc 2044 943c
00000190: 1a42 83bc 189e ccb9 62d5 153a 3bdd afba
000001a0: efcc a73b 8d66 70bc 123f ce3a bf3a ee3a
000001b0: 54b2 06bc 4e31 aaba 1c3e 26bc 2c5a 02bc
000001c0: 6ccb 2ebb b03a afba d421 1bbb 4ecd 93bb
000001d0: 34e1 99bb bd36 f93b edc4 13bc 8234 fdbb
000001e0: 5763 febb 0a46 c7bc a9e3 02bc ff75 a5bb
000001f0: 8045 87bc 40a7 e03b b15e 2c3c 79e5 6b3c
00000200: d198 823c 7c45 b03c 4767 443b 52be 143c
00000210: 85d8 493c 3c40 023c b2b1 5a3c d15a 513b
00000220: c70a ce3b 132c 533c 05ee 1e3c b579 023c
00000230: 5f07 d338 c40a f5b9 8f84 7c3c 523b ca3b
00000240: 6cb3 ec3b 268a 11bb 8276 113c 9792 0b3c
00000250: 7653 213a 07ea 8039 823d 233c beef e93b
00000260: ac2a 45bc 130b d6bc 3f82 163c e91c 47bc
00000270: 3b12 393c c208 34bc b6b8 99bb e01b 17bb
00000280: 1690 6dbc 56db b4bc 4fb9 1bbc 5125 003b
00000290: 15a4 0bbc 36e0 663c dd9b eb3b 79e0 40bc
000002a0: 5c85 4b3c 6b3c ab3c 9dec acbb 2b34 583c
000002b0: d488 fabb 792b dd3b 6382 563c bd11 073c
000002c0: 0e11 da3b f2f7 52bc ca46 82bc 85b9 88bc
000002d0: 96c6 aab9 1207 813b 5ee7 683b 08b4 77bb
000002e0: f700 04bb 157d ebbb 90d8 b8bb 3724 b3bb
000002f0: 056d 11bb 6191 09bb 57d6 a1ba 8162 e63a
00000300: 2db2 93bb 0acb e3ba 28dd 463c dac0 c039
00000310: 79d9 d5bb 7215 7bbc 3234 4dbc 7dfe 383c
00000320: 1c55 af3b 5790 943b e54f e9bb 3be8 37bc
00000330: dcba 79bb 37ff 593a 9d73 523b ec57 50ba
00000340: 14cc 16bb cc57 07bb 8489 2cbb 3437 5cbb
00000350: 57ab 34bb 3876 58bb 769f 5bbb 5413 553a
00000360: 3f53 0dba a86d 75bb d261 20ba c11f dc3a
00000370: 9b2f 91b9 691a de39 4281 21bc c5af 30bb
00000380: a46e 9f36 d70d c73b d7b8 c13b f7ad 80bc
00000390: 0147 8d3c 8f31 02bd bf84 c1bc 9872 2c3c
000003a0: ca1f 49ba d652 80bb c39e 83bb 6fbc 64bc
000003b0: 49b7 06bc fb19 d3bc 74cd 833c 1888 503c
000003c0: 9399 483d 83da b43c 75d0 c8bc 5ff2 4ebb
000003d0: b41a 133d ee46 babc 3486 bebb 84cf e23c
000003e0: fd4b 43bc 141c 5a3c c9b3 6a3c aab0 c63b
000003f0: 1b01 d63c 26bf 7b3c f03e b6bc d334 473b
-0.00879684 -0.009166091 -0.0051911077 -0.002023508 -0.009001145 0.008076916 0.0030186642 -0.00017738694
0.0007835098 0.0028184769 0.0010309141 -0.0016827303 0.0015272568 0.0062989746 -0.005248148 -0.008342734
-0.01263404 -0.010775898 -0.0065115634 0.0028702072 -0.0077121067 -0.015113104 -0.015818754 -0.0111237215
0.0010043681 -0.0026852456 -0.00213988 -0.00271621 0.00027289154 -0.0013523778 0.007129983 0.0034907304
0.0027860834 0.0055410992 0.004810655 0.0076739495 0.0008939177 0.003461041 0.0013408756 0.0031940686
0.00073739805 -0.0041282545 -0.0032150939 -0.0013816175 -0.00069903693 -0.007248551 -0.010766299 -0.00900191
-0.0032390428 -0.0012431537 -0.002628788 -0.005001785 -0.0034700974 -0.00021885982 -0.0015824297 0.0027348856
2.316969e-05 0.000560974 0.0027197541 0.002142796 0.002860599 -0.0018567867 -0.0003882923 0.00033036276
-0.00019794593 0.00084960443 -0.0041782795 -0.002743086 -0.000910539 -0.0005984461 -0.0033952133 -0.0073873685
-0.004998726 -0.0014344802 -0.0017742357 -0.0067424714 0.012237005 0.0028791428 0.009254326 0.0151001
-0.007554919 0.0077840663 0.008560409 0.0068544685 0.0075190975 0.020619716 -0.0031862014 -0.007959424
0.0001004264 0.018591316 -0.0012908436 -0.017055625 0.02925146 -0.00038425313 -0.00332306 0.02845531
-0.014815123 0.024620073 -0.011074363 0.01809889 -0.01602273 -0.000390277 0.00057156954 -0.0013417372
0.0051208655 -0.0146728875 0.0015735349 0.0018175467 -0.008221228 -0.0012984665 -0.010146644 -0.007956069
-0.0026671542 -0.0013368931 -0.0023671286 -0.004510558 -0.0046960358 0.0076054023 -0.009019119 -0.0077272067
-0.007763307 -0.02432539 -0.007988849 -0.0050494666 -0.016512632 0.0068558753 0.010520623 0.014397972
0.01594201 0.021517508 0.0029968785 0.009078579 0.012319689 0.007949885 0.01334803 0.0031945
0.006287906 0.012888926 0.009700303 0.0079635875 0.00010062637 -0.00046738063 0.015412464 0.0061716223
0.007223537 -0.0022207587 0.008878352 0.008518836 0.0006154099 0.00024588426 0.009963395 0.007139175
-0.0120341 -0.026128327 0.0091863265 -0.012152889 0.01129585 -0.010988416 -0.0046912087 -0.0023057386
-0.014499685 -0.022077244 -0.00950463 0.0019553492 -0.008523007 0.014091542 0.007190211 -0.011772268
0.012421932 0.020902833 -0.00527723 0.013196032 -0.0076457057 0.006749567 0.01309261 0.008243975
0.006654865 -0.012876498 -0.015902895 -0.016690025 -0.00032572885 0.0039376104 0.0035538296 -0.0037796516
-0.0020142177 -0.007186542 -0.0056410506 -0.0054669636 -0.0022190225 -0.0020991194 -0.0012347203 0.0017576964
-0.004507324 -0.0017379236 0.012137689 0.0003676478 -0.006526169 -0.015324937 -0.012524651 0.0112911435
0.005350722 0.004533808 -0.00712012 -0.011224802 -0.0038105762 0.0008315923 0.0032112368 -0.00079476717
-0.0023009824 -0.0020651696 -0.0026327083 -0.003360224 -0.0027567947 -0.0033029448 -0.0033511794 0.0008128185
-0.0005391128 -0.0037449393 -0.0006118092 0.0016794131 -0.00027692024 0.00042362817 -0.009857478 -0.0026960236
4.7514495e-06 0.006074648 0.005911927 -0.015707953 0.017245771 -0.031785544 -0.023622869 0.010525368
-0.00076722784 -0.003916125 -0.0040167286 -0.013960942 -0.0082224095 -0.025769224 0.016089179 0.01272776
0.048974585 0.02207685 -0.024513463 -0.003157757 0.035914138 -0.0227389 -0.005814338 0.027686842
-0.0119199725 0.013312358 0.014325091 0.0060635405 0.026123574 0.015365398 -0.022246808 0.0030396476

c1.bias f4 [6]
00000000: 44c1 5c34 37d1 3a34 6dcf 0330 c57d c5b1
00000010: fc51 dfb4 e57e 13b6
2.0559406e-07 1.7398712e-07 4.795229e-10 -5.747753e-09 -4.1596638e-07 -2.197857e-06

bn1.weight f4 [6]
00000000: 8664 233f 0131 233f 1d3c 233f 9d66 233f
00000010: f39b 233f ac3e 233f
0.6382526 0.6374665 0.637636 0.6382845 0.63909835 0.63767505

bn1.bias f4 [6]
00000000: c1a0 00bc 9651 d0ba 1876 e4bb 291a c1bb
00000010: 3b46 253c a5bb c6bb
-0.007850827 -0.0015893455 -0.0069720857 -0.005893011 0.010087545 -0.0060648494

bn1.running_mean f4 [6]
00000000: b97a e73c 5088 693d b5f2 3b3d 2bae 0a3d
00000010: 25dc 833c 07d0 573d
0.02825676 0.057014763 0.04588576 0.033857506 0.016096184 0.052688625

bn1.running_var f4 [6]
00000000: deae f83c 569e 8a3c 323d 853c 8224 b93b
00000010: 0881 043c c078 753c
0.03035682 0.016921204 0.016264532 0.005650104 0.008087404 0.014982402

first_cons6_filterlist.0.weight f4 [1, 3, 5, 5]
00000000: 4a13 1e3c eed7 e53b 9126 6a3b fbb6 523a
00000010: a8a2 a637 7283 053c 4991 233c 7601 df3b
00000020: 7516 01bb 0168 a5bb e623 a6bb 8b98 0abc
00000030: 6541 f9bb eee4 17bc d105 47bc aa3b ed3a
00000040: 9de4 a43a 46e4 b139 d9a5 30bc cb4d 1abc
00000050: d4bc 0a3b 72e8 aa3a 3a4a ed39 fae7 d9bb
00000060: 612f 1bbc 9525 0b3c 3e8c 013b 31c7 50ba
00000070: 4850 0c3b 0586 9b3b 5985 02bb 8158 e8ba
00000080: 750f cd3a bae9 7f3b af65 743b 1a14 a0bb
00000090: 40be 4abb 97f1 443b baef c93b 4110 ccba
000000a0: 50b5 a5bb 9967 f4ba 2f29 f63a aea3 ac3b
000000b0: 0193 36bb 75f8 4bbb 648c 973a 1a3e 873b
000000c0: cc46 153c deda 7a3a ebba 15bb a360 b2bb
000000d0: e27f a0bb af94 ddbb f595 1ebc d594 21bc
000000e0: 915e b43a c8fe 2938 1e2a e9bb 1620 9abb
000000f0: ee4d 8a3b 7ad5 d63b b396 2d3c 4836 85bb
00000100: 6f57 cb3b 02ef e5bb 0329 0ebc 0315 c4b9
00000110: 7418 41bc b529 0fbc e932 383b a58e aabb
00000120: 14f5 813b 9bd7 16bc 0812 29ba
0.009648154 0.007014266 0.0035728554 0.00080381305 1.9864485e-05 0.008149015 0.009983369 0.006805594
-0.0019697223 -0.0050477986 -0.0050701974 -0.008459221 -0.0076066726 -0.00927089 -0.012147383 0.0018099446
0.0012580339 0.00033930148 -0.010781729 -0.009417961 0.002116968 0.0013039245 0.00045259466 -0.006649968
-0.009471745 0.008492847 0.0019767429 -0.0007964252 0.0021410156 0.004746201 -0.0019915907 -0.0017726572
0.0015644865 0.0039049224 0.0037292053 -0.004885209 -0.0030936152 0.0030051225 0.006162611 -0.0015568809
-0.0050570145 -0.0018646597 0.0018780584 0.0052685356 -0.0027858617 -0.0031123434 0.0011562225 0.004127276
0.009111118 0.0009569357 -0.0022847007 -0.005443649 -0.0048980573 -0.006762109 -0.009679307 -0.0098621445
0.0013761093 4.0530023e-05 -0.0071156165 -0.004703532 0.0042207157 0.00655621 0.0105950115 -0.0040653087
0.0062054913 -0.0070170173 -0.00867677 -0.00037399688 -0.011785615 -0.008737971 0.0028106517 -0.005204993
0.003965983 -0.009206678 -0.0006449525

first_cons6_filterlist.1.weight f4 [1, 3, 5, 5]
00000000: 705d 763b f138 0e3c aaab 9c3b 60d5 b73b
00000010: 9dd0 3f3b 570a 1a3b a26e 533a 03f0 5f39
00000020: 9920 053b 1927 a13b 8e87 f4ba 5bab 72b9
00000030: 9344 a33b e8ee 5a3b 1bf1 b33b 7352 433c
00000040: 5e08 3f3c adde 713c 5c50 e83b b95f d83b
00000050: ee65 de3b 1b83 843b 8ee1 963b c074 d83a
00000060: a131 09bb 838c 09bc 6cd1 993c 8a11 f0b9
00000070: d3db 043c 82bb 5bbc 936a d4b9 58bd 383c
00000080: 5475 9b3b 0ce2 273b e381 3c3b fd92 14bc
00000090: 5a0b 10bb fb48 66bb 723e 083b 7785 423b
000000a0: 0338 94bc 6d1a 573a c3d0 adbb cbff 9abb
000000b0: e22c cfbb 6a7d 8cbc 052c 933b db94 2fbc
000000c0: d07e ac3b ad3a 40ba 9cb1 e83a 948c 05bc
000000d0: c088 82bb 8587 243c d6db d9bb 3ff7 04bc
000000e0: ec46 20bc 6be3 fc3b b1b1 733c 67a0 ad3a
000000f0: 2fcf e7bb ba82 47bc a7eb b3bb 2ac2 193b
00000100: 9d14 b23c 9053 50bb 1881 d0bb 5e73 513c
00000110: 8803 eebb 7a17 de3b 26d6 5dbc f099 0bbb
00000120: ea83 3dbb 09ca d13b 741e d33a
0.0037592314 0.008680568 0.004781206 0.005610153 0.002926863 0.0023504698 0.0008065497 0.00021356349
0.002031362 0.004917991 -0.0018656121 -0.00023142753 0.00498254 0.003340656 0.0054913885 0.011921513
0.01165971 0.014762563 0.0070896577 0.006603208 0.0067870533 0.0040439493 0.004604525 0.0016514286
-0.0020934122 -0.008395317 0.018776618 -0.00045789435 0.008109051 -0.013411405 -0.00040515195 0.011275612
0.004744211 0.0025616912 0.0028763942 -0.009068248 -0.0021979422 -0.0035138715 0.0020789173 0.0029681602
-0.018093115 0.0008205537 -0.0053044274 -0.0047302 -0.006322489 -0.017149646 0.0044913315 -0.010716642
0.0052641407 -0.0007332962 0.0017753127 -0.008151192 -0.003983587 0.010042076 -0.006648521 -0.008115589
-0.009782534 0.00771754 0.014873908 0.0013246656 -0.0070742588 -0.012177164 -0.0054907384 0.0023461678
0.021738345 -0.0031788088 -0.0063630454 0.012783853 -0.0072636046 0.006777701 -0.0135398265 -0.002130147
-0.0028917738 0.0064022583 0.0016107098

first_cons6_filterlist.2.weight f4 [1, 3, 5, 5]
00000000: 7256 4bbb fb15 27bc d2ff aa3a fb90 723a
00000010: 93e4 e43b bfb9 82bb 29de 033c 9c64 d0bb
00000020: 7a2d aa3a 0ddb a83a 874d 903b d38b bf3a
00000030: 6a53 b4ba f30f 19bc 051d cdbb 4cc2 86bb
00000040: 2329 1f3b 9692 1ebc f610 c83b bdd3 203b
00000050: 6c10 fa3a db86 7c3c 120f 3e3a 8387 093c
00000060: a877 bebc 9f24 95bb b8ed 3f3b 63a2 5f3b
00000070: 2227 85bb bdc0 a73b 3429 eabb 9a82 44ba
00000080: 7a42 843b f88b 9e3b 1f3b 1dbc 5641 1d3b
00000090: 1378 403a 3687 70bb b332 c43b 6f9b 2ebc
000000a0: 4608 6ebc a1c5 76bc 22fe 9abb 21d8 213c
000000b0: ebe4 083c 5c36 0bbc 188e 2e3b 87e1 94bb
000000c0: 0755 f8bb 9e16 fcba ed7e c43c 4763 5d3c
000000d0: bb2c 09bc eb41 87bb 1086 07ba a13e 1d3c
000000e0: ad0f 173c 5398 31bc 31b8 2bbb a9ec 45ba
000000f0: f64f cab9 1ce5 80bb 151d 9fbc 3451 923b
00000100: 4f46 9d3b b2df 8cbb 4549 1abb bb20 b9bc
00000110: c490 7c3c 7317 4ebb 5ce4 e0b8 8b78 263c
00000120: b60c a9bc 43c5 4f3c 73a8 433b
-0.0031026867 -0.010198112 0.0013046211 0.0009253171 0.006985256 -0.003989428 0.008048573 -0.00635965
0.0012983524 0.0012882665 0.004403773 0.0014613814 -0.001375777 -0.0093421815 -0.006259563 -0.0041125175
0.0024285994 -0.0096785035 0.0061055375 0.0024540268 0.001907838 0.015413011 0.00072501705 0.008394125
-0.023250416 -0.0045514847 0.0029285979 0.003412389 -0.004063503 0.0051194117 -0.007146025 -0.0007496268
0.004036245 0.004838463 -0.009596615 0.0023995242 0.0007342111 -0.0036701686 0.005987489 -0.010657175
-0.01452834 -0.015061767 -0.004730002 0.009878189 0.00835536 -0.008496847 0.0026634987 -0.0045434865
-0.0075784954 -0.0019232815 0.023986304 0.013512439 -0.008372481 -0.004127731 -0.0005169818 0.009597451
0.009220046 -0.01083954 -0.0026202316 -0.0007550219 -0.00038588018 -0.003933562 -0.019423047 0.0044652466
0.004799641 -0.0042991275 -0.0023542207 -0.022598615 0.015415374 -0.0031447082 -0.000107236876 0.010160576
-0.020635944 0.012681308 0.0029855042

first_cons6_filterlist.3.weight f4 [1, 3, 5, 5]
00000000: 9893 d63b 6194 20bc bbff 633b b90d a63a
00000010: 43b0 adba 0827 c03b d226 2dbc 9680 c7bb
00000020: 2291 62ba 0fc3 a8bb 5b59 213c 9643 dab9
00000030: 64d6 a13b 5a6a 89bc a7b0 22bc 6e14 72bc
00000040: 2440 8c3b 0938 35bc b79d 1d3c 7391 6dbc
00000050: 28fd 1c3a a492 973c 5d6a 81bc 7a44 2b3b
00000060: 85bf 94bb 8801 a53b 2167 35bb 6988 1f3c
00000070: 0a66 60bb b44b 7fbc 3a52 0b3c abb0 0dbc
00000080: 3934 2c3c 3fdd a23b bae2 b3bb c9c5 1fbc
00000090: 72c5 dabc e898 4c3c 8170 1f3c 208d 0f3a
000000a0: cc38 aa3a e11a 04bd ecf4 0cbc 0c7b 90ba
000000b0: c95f 0f3c b87f 073c eac9 9fbc bd0c 8cbc
000000c0: d26c 35bc 6f18 aa3b e5e1 abbb cfd9 1d3c
000000d0: dee3 b43a 0969 523a 5f46 9e3c 2bba 96bb
000000e0: 6581 5eba 51e0 9b3a 92c2 013c e693 2b3a
000000f0: 8ec6 afba 258c 0fbc 87df a13b ab30 58bb
00000100: e0de 7637 7712 913b 55df 54ba 1153 8dba
00000110: f2ca 7b3a 5872 1b3c 75d1 f23a d566 4d3c
00000120: 4adf 18bb 224f 31bc b014 573c
0.0065483563 -0.009801001 0.0034789878 0.0012668885 -0.0013251383 0.005864028 -0.0105683375 -0.0060883267
-0.00086428423 -0.005150206 0.009847964 -0.00041630556 0.0049388874 -0.016774345 -0.0099298125 -0.014775379
0.004280107 -0.011060723 0.009620122 -0.01450001 0.0005988651 0.01850254 -0.015797788 0.0026133345
-0.0045394325 0.005035583 -0.0027679878 0.009737113 -0.0034240508 -0.015582014 0.008503491 -0.008648078
0.010510498 0.0049702222 -0.0054896744 -0.0097517455 -0.026705477 0.012487628 0.009731413 0.00054760464
0.0012986897 -0.032252196 -0.008603316 -0.0011022999 0.008750864 0.008270197 -0.01950546 -0.017095918
-0.011073308 0.005190901 -0.0052454346 0.009634449 0.001380082 0.0008026516 0.019320665 -0.0045998297
-0.0008487909 0.0011892413 0.007919924 0.0006545171 -0.0013410614 -0.00876144 0.0049399766 -0.0032987993
1.4714635e-05 0.00442725 -0.0008120437 -0.0010782202 0.00096051313 0.009487711 0.0018525558 0.012536724
-0.002332645 -0.010822089 0.013127491

first_cons6_filterlist.4.weight f4 [1, 3, 5, 5]
00000000: d75c 24bb 95bf e5bb fb43 4dbc 5092 eebb
00000010: 2e8c a2bb 3e74 2c3b 5831 00bc 67c3 d7ba
00000020: eea8 b8ba 2fb9 c73b c502 4fbb da12 b2bb
00000030: 1c2e 9bbb b34f c0bb ef62 153c b4ef 813c
00000040: daf1 7a3a aae8 05bc 3612 33bb 91ac ddba
00000050: ad7a 20bb fe75 f7bb cb58 23bc 8230 633b
00000060: c5c7 78bc a38d dcbb 1d58 2abc bd4f 84bb
00000070: 8b4e b03b 3c65 c73b 8a85 ba3a 7609 faba
00000080: e346 2e3c 89b5 bebb 701f 3abb 58d6 ae3b
00000090: dbba feba 8e13 1e3b 57f6 3cbc 5fd6 f4bb
000000a0: e12d ab3b ea79 72bb ed2b d1ba 5dda 4cbb
000000b0: e1b2 55ba 83cd 043c 0673 28bc 8345 533b
000000c0: f4e9 f2bb 9f10 323b 5975 35bc 7c98 91bc
000000d0: 9f27 5ebc 305c 8f3b 1f81 103c 7267 f4bb
000000e0: d2c9 00bc 79df 04bc 5d4c b43a 2b74 b1bb
000000f0: 03a4 1dbb 095f a33b 5677 173b 86b7 893b
00000100: 58b5 cdbb 3a9c 723a 1ece 913c d830 d63b
00000110: b875 8dba 3a73 cbbb 14cb 2cbb bf10 283c
00000120: 8e3e e63b 565f c1ba c6f1 093a
-0.002507975 -0.0070113637 -0.012528415 -0.0072806254 -0.0049605584 0.0026314403 -0.0078242645 -0.0016461433
-0.0014088431 0.0060950737 -0.0031587344 -0.005434376 -0.0047357213 -0.005868876 0.009117826 0.01586137
0.0009572782 -0.008173147 -0.0027324087 -0.0016912391 -0.0024487183 -0.0075519076 -0.0099699 0.0034666364
-0.0151843475 -0.0067307516 -0.010396984 -0.004037826 0.005380457 0.006085066 0.0014230472 -0.0019076306
0.010637018 -0.0058199805 -0.0028400086 0.0053356104 -0.0019434349 0.0024120542 -0.011533341 -0.007471844
0.005223975 -0.0036998936 -0.0015958525 -0.0031258084 -0.000815196 0.008105638 -0.01028133 0.0032237477
-0.0074131433 0.0027170551 -0.011075341 -0.017772906 -0.013559251 0.0043750033 0.008819847 -0.0074586207
-0.007860618 -0.008109921 0.0013755668 -0.0054154596 -0.0024054057 0.0049856943 0.0023111901 0.004202786
-0.0062777214 0.0009254847 0.01779848 0.0065365843 -0.0010792529 -0.0062088044 -0.0026366161 0.010257899
0.0070265 -0.0014753144 0.00052621623

first_cons6_filterlist.5.weight f4 [1, 3, 5, 5]
00000000: 1106 fcbb 7e78 db3b 6207 10bc 62c5 e1bb
00000010: 27f7 cb3a dc16 2f3b 5364 b13a 1099 daba
00000020: 8987 19bc d481 0f3c 8fcc 3c3a 4629 babb
00000030: 1be7 25bc a35f ae3b a486 b93b 5454 7c3b
00000040: 0a8c 883b b683 b7bb 5fd4 7cbb f42d 3538
00000050: a209 6bbc 9c10 1fbc 3ab3 a9bb fa28 3d3b
00000060: f800 b2bb c460 6aba 5612 b5ba 284b dfba
00000070: c72d b53b e795 873a 5d36 2bbc 4373 6dbb
00000080: 6ab3 3e3b 5b52 1fbb 4a0d 883a bb75 7bbc
00000090: 219c d7bb 4264 48b9 e8e4 3a3b 2ffd 94bb
000000a0: 355f 85bc 5afb 4fbb 12f1 2abb 0c61 95b9
000000b0: 015a e0bb 5c8f a1bc 27f4 abba add3 923a
000000c0: 769d 52bb c19e 0dbb fb8d d63a 230b f53a
000000d0: bc95 f0bb 020c c93b ac1a a5bb 1580 3ebc
000000e0: fea3 5abc ca77 c03a c778 473c 7363 c9bb
000000f0: ecaa 8e3a 68fe 68bc 86c7 aebb 7fd4 093c
00000100: acb9 c33a 5dfe 06bc 562d 59bc 8eb6 d43a
00000110: fc4b ae3b e6b9 6aba 7a39 ccbb 76ac 83bc
00000120: 5b75 5c3a 2849 ad3a 0d14 b4bb
-0.007691153 0.0066977134 -0.008790823 -0.006889985 0.0015561328 0.0026716506 0.0013533927 -0.0016677696
-0.009370693 0.008758981 0.00072021125 -0.0056811897 -0.010125901 0.0053214594 0.0056618024 0.0038502412
0.0041670846 -0.005600418 -0.0038578731 4.319656e-05 -0.014345558 -0.00970855 -0.005178836 0.0028863535
-0.0054322444 -0.0008940811 -0.0013814669 -0.0017035948 0.0055291387 0.0010344357 -0.010449973 -0.0036232031
0.0029098638 -0.0024310562 0.0010379937 -0.015347893 -0.0065798913 -0.00019110835 0.0028517786 -0.0045467834
-0.01628075 -0.003173551 -0.002608363 -0.000284918 -0.006846667 -0.01972168 -0.0013119028 0.0011202
-0.003213731 -0.0021609517 0.0016369218 0.0018695336 -0.0073420685 0.0061354646 -0.00503858 -0.011627217
-0.013344763 0.0014684137 0.012174792 -0.0061458885 0.0010884679 -0.014220811 -0.0053338436 0.008412479
0.0014932654 -0.008239356 -0.013255438 0.0016228722 0.0053191166 -0.00089540926 -0.0062324377 -0.016073447
0.00084098213 0.0013220655 -0.0054955543

second_cons6_filterlist.0.weight f4 [1, 4, 5, 5]
00000000: 3c8b 31bb 08d1 13ba 3000 58bb 48a1 76ba
00000010: 48c3 7a3b 7c74 283a 278e 2ebb dea3 11bc
00000020: 882a e0bb 80a6 35b9 091c 05bc 728b b0bb
00000030: b54c 8ebb 1a98 07bc a7a8 fbbb 054d cabb
00000040: 79f2 97bb b7eb 64bb 74ec b5bb 2b58 45bc
00000050: 5035 95bb 957d 84bb 4b8a 683b 6e22 033b
00000060: 6df7 8bbb 36f0 dab7 75dc c53a 0156 813b
00000070: 71ec 213b 24d3 0c3a 8a66 41bb bf8a 9c3a
00000080: cad1 8e3a 264a b8b7 00d0 7335 32df 823a
00000090: 2a36 603a 2f90 503b dc3f 09bb 0413 0a3a
000000a0: caed 253b 835a d43a 9912 b13b 4484 473b
000000b0: a7c1 86ba 1526 28b9 de83 353b 67b9 1a3b
000000c0: bb80 f13b 2e11 303b 2ac1 ec3b 0251 1c3c
000000d0: 2703 c9ba 8629 6fbb cbe5 193b 3c65 fa3b
000000e0: 7661 cb39 337f 90bb 149f 81bb 901f 293b
000000f0: 7163 273b 7a1c dc39 73df 92bb 63eb 4c3b
00000100: 08f9 083b 01e2 81b9 e0af a7ba 68b9 13ba
00000110: 9db9 0c3a 687d fb3b 9a43 60b9 fbd7 413b
00000120: aa61 4b39 9872 aaba cb1d 2abc 3df6 c3bb
00000130: 59be b93a c864 a2bb 4429 4eba 5b88 9cbb
00000140: 6e0f b83a cde6 9bbb e439 0e3c de80 94bb
00000150: d150 afbb bbe2 7fba 985e 45bb 29a9 2a3c
00000160: d273 293a 3777 15bb 0306 ca3a 6e5a 78ba
00000170: 1528 4b3b b819 723c c50a db3b 0ba6 d2b9
00000180: 1020 16bb cb1b 5abb 0f07 3f3c 218d 643b
-0.0027091047 -0.0005638753 -0.0032959096 -0.0009408188 0.003826337 0.0006426049 -0.0026635022 -0.008889167
-0.0068410076 -0.00017323531 -0.00812436 -0.005387717 -0.0043426403 -0.00827601 -0.007680017 -0.006173732
-0.0046370593 -0.0034930536 -0.005551869 -0.012044947 -0.0045534745 -0.004043291 0.003548282 0.0020009535
-0.004271439 -2.6099482e-05 0.0015095609 0.00394702 0.002470758 0.00053720386 -0.002951058 0.0011943205
0.0010896262 -2.1969037e-05 9.0827234e-07 0.000998473 0.0008552993 0.0031824221 -0.0020942604 0.0005267116
0.0025318735 0.0016201291 0.0054038283 0.0030443827 -0.0010281102 -0.00016035915 0.0027697007 0.0023609044
0.007370082 0.0026865709 0.0072251754 0.009540798 -0.0015336022 -0.0036493256 0.0023482915 0.0076414626
0.0003879179 -0.0044096946 -0.003955731 0.0025806166 0.002554145 0.00041982887 -0.0044822036 0.003126823
0.0020900387 -0.00024773183 -0.0012793504 -0.00056352327 0.00053682347 0.0076748617 -0.00021387488 0.0029578197
0.00019395971 -0.0013004122 -0.01038308 -0.0059802816 0.0014171108 -0.0049558617 -0.00078644254 -0.004776997
0.0014042684 -0.004757738 0.008680794 -0.0045319637 -0.0053502102 -0.00097612635 -0.0030116197 0.0104163075
0.0006464097 -0.0022806653 0.0015413169 -0.00094739243 0.0030999233 0.01477664 0.0066846334 -0.00040178033
-0.0022907294 -0.0033280726 0.011659398 0.0034874158

second_cons6_filterlist.1.weight f4 [1, 4, 5, 5]
00000000: bbd8 943b 78cf 8eba cf4e 98ba 4ea2 a3bb
00000010: 00db b7bb 55d1 e73b b3d4 ffba a89d cebb
00000020: 020d 20bc e368 03bc 623a 1a3c 3075 f73b
00000030: 2549 23bc 5e61 26bc 09ab 1ebc 2d66 1c3c
00000040: b96d 3f3b 8bd1 d6bb 40e6 96bb e040 fcbb
00000050: d1df 9e3b 4f1f 083b 0821 07bc cbab 20bc
00000060: b2e4 24bc 5f5c 8a3b 77e1 12bb d350 e83a
00000070: 8415 20bc 6842 eb3a 0d3f 8e3b 86ab f6bb
00000080: 8917 0d3b 85d4 09bc 72ca 79bb 5ba2 38bc
00000090: 846b 08bc 4219 6bbc 090a 43bb 865e 9f3b
000000a0: 6f49 a9bb 5f39 37bc da28 753b 9640 47bb
000000b0: f712 083c 631a c0bb 342e 7639 47b5 ecba
000000c0: b1e6 a6bb be33 5a3c abb7 193b 7798 15bb
000000d0: 56be 1439 79ec 12bc c20b 153b cdd9 553b
000000e0: fefd c83b 3279 33bb add6 dd3b 975b e33b
000000f0: a953 9b3b 970c 9fbb 3cec 8dbb fd99 06bc
00000100: 7133 14bc 5cd0 74bc eaa1 d33b d4c8 8dbb
00000110: f377 583b 73bc 42bb cf74 f5bb 887c 3cbb
00000120: 95ac a23a 0188 d43a 505b 1f3b 3a93 28bb
00000130: fbb9 72bb 715d b1bb 7a27 08bc 0e8e 37bc
00000140: 0994 4b3b d74f 9a3b dffe 83bb d708 47bc
00000150: 85fb 4dbc c45f ee3b d166 4c3b 9339 60bb
00000160: 06ce f4bb f2ea 08bc 3295 c13b 89bd a4ba
00000170: dabd 2cbb 645a b6bb 52d5 2bbc aa9a 283c
00000180: 5c6b 8536 9f8b d0bb 3844 dabb df3d 43bc
0.004542438 -0.0010895571 -0.0011620166 -0.0049937135 -0.0056108236 0.007074515 -0.0019518345 -0.006305415
-0.009768726 -0.008020612 0.009413334 0.0075518116 -0.0099661695 -0.01015505 -0.009684333 0.009545845
0.0029209687 -0.006555741 -0.0046050847 -0.0076981634 0.0048484583 0.0020770615 -0.008247621 -0.009806584
-0.010064291 0.0042224373 -0.002241222 0.0017724283 -0.009770755 0.0017948868 0.0043410123 -0.0075277714
0.002152892 -0.008412485 -0.0038115052 -0.011269177 -0.008326415 -0.014349284 -0.002976062 0.004863563
-0.0051662247 -0.011183112 0.0037408383 -0.0030403486 0.008305303 -0.0058625205 0.000234776 -0.0018059396
-0.0050934185 0.013318 0.0023455422 -0.0022826472 0.00014185286 -0.008967512 0.0022742604 0.003263104
0.006133794 -0.002738547 0.006769976 0.0069384086 0.0047401977 -0.0048537957 -0.00433114 -0.008215425
-0.009045468 -0.014942255 0.0064585106 -0.004326919 0.003303048 -0.0029714375 -0.0074907313 -0.002876075
0.0012411053 0.0016214849 0.00243159 -0.002572252 -0.0037037123 -0.0054127504 -0.008310193 -0.011203302
0.0031063578 0.0047092247 -0.0040281857 -0.012148104 -0.012572174 0.0072745997 0.0031189213 -0.0034214004
-0.007470849 -0.008356797 0.005907678 -0.0012568693 -0.0026358278 -0.0055649746 -0.010487871 0.010290781
3.976207e-06 -0.0063643004 -0.0066609643 -0.011916607

second_cons6_filterlist.2.weight f4 [1, 4, 5, 5]
00000000: 5a5a febb 2426 f7bb e5e9 7bbc b5b8 3cbc
00000010: 7cbe 1cbc a575 8ebb 0566 debb a426 9a3b
00000020: de4a 78ba 95cc 02bc fda2 6abb 9015 b5bb
00000030: 16c6 623c 858a 95bb a2ec 853c e937 6e3c
00000040: 3d60 723a 7ed4 e03a 4002 913a bbf2 c73b
00000050: 1c2d c73a 0c1b c63a 757a a73b 9d3a 283c
00000060: 90e7 023b abcf 663b 1148 75ba 86ee 2ebb
00000070: aeac b2ba a089 dfbb 014c 6bbb 4d7a 0abc
00000080: 7851 89bb 1edb 52bb bbf6 6dbb 92ba 49ba
00000090: e850 193a e924 703b 978c a5bb edcd 1f3b
000000a0: 4dd8 5e3c c189 d9bb 541d c7bb 7566 da3b
000000b0: 2d88 7a3c bdd8 333c ccc3 263c bc3f 1abb
000000c0: 4eee 1dbc 730e 3fbc 5708 433c 8bc4 613c
000000d0: dba3 733c 5a91 6a3c a2e4 823b c6fc 6b3b
000000e0: aba3 ab3b 3241 143c c329 493c 4bc3 2a3b
000000f0: 63b4 713b eb3e ba3b 996e 0e3c 1bef 0d3c
00000100: 2594 4d3a 8507 ed3b 68c1 a53b 750a 2a3c
00000110: 78d1 1c3c 2f00 683b a1fd d13b aada ec3a
00000120: 3806 9f3a 8a8f d43b a42f 8cb7 ac03 e0ba
00000130: c88f 6dbb 63b5 f93a e47d c83a e21a f93a
00000140: ca4e 19bb e435 883a 7ae2 5fbb a89a f93a
00000150: 1683 dcba 3bb1 0dbc c8e8 3f3b 3213 97bb
00000160: 8660 bb3a f2e8 f7bb 4467 a5bb 54cb 18b9
00000170: 8770 99bb 2170 09bb ec48 06bc 297c 803b
00000180: 663a 3c3c b4df 7b3b 2c16 fb3a 25c9 1fbc
-0.0077622356 -0.0075423885 -0.015375589 -0.011518647 -0.009566899 -0.0043475204 -0.006787064 0.0047043134
-0.00094716053 -0.0079833465 -0.0035802715 -0.005526252 0.013841173 -0.004563632 0.016348187 0.014539697
0.0009245908 0.0017153171 0.0011063293 0.006101934 0.0015195939 0.0015114262 0.0051110336 0.010267881
0.0019974448 0.0035218995 -0.0009356747 -0.0026692464 -0.0013631785 -0.006821826 -0.0035903456 -0.00845201
-0.00419062 -0.003217406 -0.0036310393 -0.00076953426 0.0005848543 0.0036643094 -0.00505216 0.0024384216
0.013601375 -0.006638736 -0.006076494 0.006665046 0.015291256 0.010976967 0.010178518 -0.0023536524
-0.009639336 -0.01166116 0.011903844 0.01377977 0.014870609 0.014316881 0.0039945403 0.003600882
0.0052380166 0.009048747 0.012278023 0.0026056345 0.00368812 0.00568377 0.008693361 0.008662964
0.00078422046 0.0072335624 0.005058456 0.01037847 0.009571426 0.00354005 0.0064084087 0.0018070538
0.0012132591 0.0064868378 -1.6711485e-05 -0.0017090938 -0.003624903 0.001905125 0.0015296307 0.0019005204
-0.002339291 0.0010392037 -0.003416209 0.0019043284 -0.0016823735 -0.008648212 0.0029283036 -0.0046104426
0.0014295734 -0.007565611 -0.0050477106 -0.00014571595 -0.0046826038 -0.0020971375 -0.008196097 0.003921051
0.011488533 0.0038432898 0.0019156388 -0.009752546

second_cons6_filterlist.3.weight f4 [1, 4, 5, 5]
00000000: ce24 943a a918 143b 47a2 f9ba ce0a 15bc
00000010: 0f0b 8fbc 8948 db3b d4b5 9bbb 8bcd 8bbb
00000020: 5ace 60ba 2a91 2abc 6060 b1bb 445b fdbb
00000030: 0b54 a7bb 47d6 a5bb b450 2cba 7e8a 28b9
00000040: 27e0 e83b 92cd b4ba 9477 1e3c e4b7 0f3c
00000050: 6dbd 9bba 1ea1 223b d83f 29bb db62 9bbb
00000060: d0a1 60bb 333e 70bc cc22 98bc 3383 42bb
00000070: 05cc 5d3a 7c0e 10bc ebcf 093b 8bc5 973b
00000080: 580f 88bb 0d81 90bb f3f7 41bb 39d2 13ba
00000090: 407a d6ba 4c13 29bb 335c dfba 4d15 8cbb
000000a0: bf4e d2bb 35c9 0f3b 29af 1bbc 9b51 5bbc
000000b0: 0b3c a4bc 8271 303b f50b 833a cc9b 913c
000000c0: a6cd 483a d7bf 393c 87e2 863b fca6 60bb
000000d0: 2705 613b 7324 383b 133d 6f3b 99a7 2bbb
000000e0: 7ea8 da3a 3647 e3b9 aea0 60ba 3de2 83bb
000000f0: d67c e9bb be4e d4bc 1268 0abc 9f11 86bc
00000100: 67d1 1ebc 7fac 7c3c 946c 9ebb 8561 003c
00000110: e56f 5fbb 9679 3eb9 b14d 623c 2984 9dbb
00000120: 5480 453c e574 f8bb c903 873b 2537 2e3c
00000130: aaf3 e63a 99c2 433b 0fc5 983b 7e1b 6d3b
00000140: 34e5 7dbb 4b35 683b ac30 6e38 b59b 283c
00000150: 9326 193b 34f6 bebb 6335 87ba 67f6 bebb
00000160: 5f31 81bb fb3b 5abc 1ff1 313a 0e17 28bc
00000170: 42be 0ebc a70e eebb 8192 11bc 3f54 0d3c
00000180: 6d3d ecbb cb1d 0cbb 95ff 263b fcf7 d3b8
0.0011302473 0.0022597706 -0.0019045555 -0.009096814 -0.017461328 0.0066919965 -0.0047519 -0.004266446
-0.00085756707 -0.010410586 -0.0054131 -0.007731827 -0.0051064542 -0.0050609442 -0.0006573305 -0.00016073321
0.007106799 -0.0013794175 0.009672064 0.00877187 -0.0011882015 0.0024815272 -0.0025825407 -0.004742009
-0.0034276135 -0.014663267 -0.01857128 -0.0029680252 0.0008460882 -0.008792516 0.002102847 0.0046317033
-0.0041522197 -0.0044099153 -0.0029597252 -0.00056389306 -0.0016363338 -0.0025798855 -0.0017041027 -0.004275
-0.0064180787 0.0021939997 -0.009502211 -0.0133861555 -0.020048162 0.0026923125 0.000999807 0.017774485
0.00076600385 0.011337242 0.0041163596 -0.0034279218 0.0034335346 0.0028097897 0.003650491 -0.0026192425
0.0016682295 -0.0004334987 -0.0008568865 -0.0040247724 -0.0071254773 -0.025916453 -0.008447664 -0.016365824
-0.00969348 0.015421986 -0.004834721 0.0078357505 -0.0034093794 -0.00018165106 0.013812468 -0.0048070145
0.012054522 -0.0075822943 0.0041203243 0.010633265 0.0017620225 0.0029870628 0.004662163 0.0036179717
-0.0038741352 0.0035432156 5.678895e-05 0.01029103 0.002336894 -0.0058276895 -0.0010315593 -0.0058277133
-0.003942653 -0.0133199645 0.0006787944 -0.010259403 -0.008712353 -0.0072649303 -0.008885027 0.008626043
-0.007209471 -0.0021380063 0.0025481929 -0.00010107455

second_cons6_filterlist.4.weight f4 [1, 4, 5, 5]
00000000: 0fb5 9739 6b50 2fbb 8be0 823b 5cde b8bb
00000010: 4d89 5bbc 6930 863b ffc6 f4b9 3ac4 4eba
00000020: 57fd 8dbb 492b edbb 6a70 23bb 97f4 0cbc
00000030: d74c 13bb c7c7 1fbc ec78 23bc a92d a63a
00000040: ddd8 0cbc 2d4a 1cbc 57c5 faba e016 70bb
00000050: bb4d fa3b 20b7 00bc c423 cabb df5e f0ba
00000060: dcd9 153c 5e60 fc3a e408 a13a efa0 66b9
00000070: bd1a 91bb 9c1e 6eb9 4643 ad3a 0cac cb3a
00000080: 2abc 453b ea13 8f3b 5327 a9ba 098d 22bb
00000090: c0ea c0b8 60ea 713b 282f 473b 1d52 0c3b
000000a0: 5026 47bb 2e8d 6fbb 9948 6a3b e0f4 a53a
000000b0: d83e 7aba 40a8 3436 7102 b4bb 6f0a 8abb
000000c0: 00fe 74b8 3c9c 83bb d7f3 b539 f265 913b
000000d0: aff5 073c 2019 4ebb e75a 91bb e0f7 43bc
000000e0: a793 843b 90dc 283c ae30 993b 64fa 07bb
000000f0: 0fac 40bc 17ca a6bb 6d66 6d3a 4865 023a
00000100: fe8a e339 fb1a 43bc 4932 0fbc f4ef c2bb
00000110: 771d 61bb a57f 37ba 3186 7ebb 662b 4cbc
00000120: 9116 6ebc 7940 efbb f796 473b a84a 093b
00000130: 7a08 94bb f535 b23b c7f3 b83b b812 9e3a
00000140: 0cb9 bcbb 02da 10bb 7cff d338 4642 f83b
00000150: 8f7d 1b3c 5479 2abb 09e7 6cbb 663b 36bb
00000160: 26dd c23a 0e88 fb3b 2d09 79ba fc04 28b9
00000170: 8ebb 9b38 0653 303b aa5b 0aba 54a0 2fbb
00000180: 6c48 003b b487 b1bb 9b41 08bb 7ab9 5ebb
0.00028935864 -0.0026750814 0.0039940528 -0.0056417417 -0.013399434 0.0040951264 -0.0004668757 -0.00078875164
-0.004333179 -0.007237826 -0.002493883 -0.008603237 -0.002247622 -0.0097522205 -0.0099775605 0.0012678403
-0.008596626 -0.009539169 -0.0019132298 -0.0036634728 0.0076386607 -0.00785616 -0.0061688144 -0.0018338821
0.00914618 0.0019254794 0.0012285975 -0.00021994462 -0.0044282363 -0.00022708852 0.0013218902 0.0015538945
0.003017197 0.0043663876 -0.0012905396 -0.0024803302 -9.198999e-05 0.003691338 0.0030393098 0.0021411248
-0.0030387826 -0.0036552656 0.0035748838 0.0012661479 -0.00095461076 2.6920025e-06 -0.005493455 -0.0042126696
-5.841069e-05 -0.0040164273 0.00034704685 0.0044372017 0.008298322 -0.003144808 -0.004435885 -0.0119609535
0.004045922 0.010306492 0.0046749925 -0.002074861 -0.011759772 -0.005090009 0.0009056095 0.00049741985
0.0004340037 -0.011908288 -0.008740016 -0.005949015 -0.0034349838 -0.00069999165 -0.0038837309 -0.012461519
-0.014531747 -0.007301387 0.0030454972 0.002094904 -0.004517612 0.005438561 0.005644295 0.0012060022
-0.005759364 -0.00221026 0.00010108852 0.00757626 0.009490385 -0.0026012259 -0.003614845 -0.00278064
0.0014866933 0.007676131 -0.00094999635 -0.00016023585 7.425911e-05 0.0026904955 -0.0005277941 -0.0026798444
0.0019574417 -0.0054177884 -0.0020791057 -0.0033985064

second_cons6_filterlist.5.weight f4 [1, 4, 5, 5]
00000000: d58e cab7 21e3 973b bdd5 bebb 1a5e 25bc
00000010: 9a67 7fbb 60ed 67bb 12d0 adbb 26ed 28bc
00000020: 908b 3ebb 98f0 18bb 60d1 8dbb 6781 f8bb
00000030: da96 53bc 0784 c9bb e50d d73a 33dd 073b
00000040: 061d b9ba 7a6c d8bb d70b 37bc 0c7f 1bbc
00000050: f2b1 793b 9651 5fbb 69fc f4bb aff1 03bc
00000060: 6d35 05bb 9086 5c3a 044e 883a b562 91ba
00000070: 4b74 65ba b188 6e3b 12e2 3ebb dbfb 843a
00000080: fbb3 a83a ca53 9c39 60b0 c83b 7a03 2dbb
00000090: f79f 543a 904f 52bb c28a 69b9 5be8 cd3b
000000a0: f4e0 eeba c193 013c 4949 7cba 8639 96ba
000000b0: 619b 1c3b 4cfd f63a b477 1b3c 26ad c03b
000000c0: 8e84 e9ba fc66 e8ba 6cdb 90bb f8af 8d3b
000000d0: b5fe 0bbc 2907 5abb 5c40 f4bb 90b5 86bb
000000e0: 895f 08bc f5c3 8fbb c8bc 79bc 4069 67ba
000000f0: 76fb cf3a 3f57 03bb 8e98 5ebc 3d85 41bb
00000100: 5bd9 473b f52d bbbb 71be 58ba 8a68 51bb
00000110: 93be 5bb9 4c24 d73b 0e01 723b 81dd e9bb
00000120: a1d9 12bc 9c09 8eb9 dd76 b93b 52e2 a4bb
00000130: 291d 79b9 504b 393c bbee 08bb adb9 00bc
00000140: 7043 e3ba 2eca f639 93db a53b 9d23 78bb
00000150: 10f7 c9bb 989a b637 50d3 b53a 3921 8d3b
00000160: b368 44bb 540c 45bb ebe3 7dbb a389 fb3b
00000170: 9c67 6b3c 127e 69b9 181f 0bbb 57a8 8f3b
00000180: d57b db3a 7910 783c 2973 8d3b fa06 faba
-2.4146788e-05 0.00463523 -0.0058238194 -0.010093236 -0.0038971663 -0.003538929 -0.005304345 -0.010310447
-0.0029074885 -0.0023336764 -0.004327938 -0.0075837853 -0.012914384 -0.006149772 0.0016407339 0.002073121
-0.001412303 -0.0066047283 -0.011172256 -0.00949074 0.0038100448 -0.0034075729 -0.0074763787 -0.008053227
-0.0020326034 0.00084123854 0.0010399227 -0.0011092039 -0.0008752986 0.0036397392 -0.0029126448 0.001014586
0.0012871021 0.00029817066 0.006124541 -0.0026399777 0.0008110995 -0.003209088 -0.00022272303 0.0062838024
-0.0018225 0.007908762 -0.00096239574 -0.0011461235 0.0023896324 0.0018843799 0.009488989 0.005880016
-0.0017815994 -0.0017730887 -0.0044206884 0.0043239556 -0.008544614 -0.0033268428 -0.0074539613 -0.0041109994
-0.008323559 -0.0043873736 -0.015242763 -0.0008827634 0.0015867788 -0.0020041016 -0.013586177 -0.002952888
0.0030494544 -0.0057122656 -0.0008268124 -0.003195318 -0.00020956462 0.006565606 0.0036926898 -0.007137001
-0.00896302 -0.0002709151 0.0056599216 -0.0050318623 -0.00023757353 0.01130946 -0.0020894248 -0.007856769
-0.0017338824 0.00047071412 0.0050615757 -0.0037863024 -0.0061634853 2.1768079e-05 0.001387218 0.004306939
-0.0029969632 -0.0030067163 -0.0038740586 0.0076763197 0.014367964 -0.00022267576 -0.002122825 0.0043840813
0.0016745279 0.015140646 0.0043167067 -0.0019075566

third_cons3_filterlist.0.weight f4 [1, 4, 5, 5]
00000000: 6147 8ab9 dea7 063b aa47 1ebc beda 1dbc
00000010: 00b2 cb3b 497b c63a e6f4 673b 652e 4bbb
00000020: 8023 21bb 8052 b4bb 4699 ce3b ba19 51ba
00000030: 7b3a e5bb dd11 b3bb efcd 18bc 4ba6 97b9
00000040: 5b5b 0fbc fc9e a0ba 1add 3abc a889 04bb
00000050: d462 20bb ecad 0a3c 2fdc 503b 4600 423c
00000060: d1dd 103b 5d2a ff3b ec9e 153c 4fee 9e3b
00000070: cedc b7bb 9ef4 9abb 5c4d c8ba 00e3 da3a
00000080: 909b 52bb c40a 60bc 3315 6dbc 81cd abbb
00000090: a5d3 a9bb 2dce 55bb 1499 15bc 1e1d 45bc
000000a0: 9730 5fbb 78ab 84ba 076e f03a ba57 c2bb
000000b0: 41a2 c2bb 1fdc 0fbc f0e6 9bbb ae95 41bb
000000c0: a464 75bc b73a 13bc e002 dbbb 3f7e 6e3c
000000d0: 25e6 623b 5828 b2bb e57c 10bb a825 1ebb
000000e0: d933 26bb 15ac 76bc b477 87bb c1d1 43bb
000000f0: 65d3 5bbb c058 91bb 72f6 323c d4d2 85bb
00000100: fed5 08bb 0165 f93b 746d c638 1d22 e8bb
00000110: bedd e33b 8559 433c 8632 433b 6a0d 45bc
00000120: 4bdf 08bc 74d5 44bc 25a2 3bbc 5c70 a33c
00000130: 4ef6 ca3b 36b2 30bc 4c3b 02bc 52ed 7ebc
00000140: f9b4 713c d374 cb3b 1b7f 1bbc 3bde 0abc
00000150: ae34 b6bb 3d06 943c a0f4 22ba 06a4 81bc
00000160: bc68 f0ba 7e91 36bb 31c0 933c b330 643a
00000170: d629 7dbc fcdd 303a 5433 e6bb c256 713c
00000180: 51c8 10bc 1f3a 6fbc 457f 5ebb e597 8ebc
-0.00026374593 0.0020546834 -0.009660641 -0.009634672 0.0062162876 0.0015142943 0.0035393774 -0.0031002995
-0.002458781 -0.005502999 0.0063048927 -0.0007976551 -0.006995497 -0.005464776 -0.009326442 -0.00028924862
-0.008749808 -0.0012254412 -0.011405254 -0.002022365 -0.0024472969 0.008464318 0.003186952 0.0118408855
0.002210487 0.0077870325 0.009132128 0.004850186 -0.0056110388 -0.0047288677 -0.0015281844 0.0016699731
-0.003213618 -0.013674442 -0.014470386 -0.005243004 -0.0051827007 -0.003262411 -0.009130735 -0.012030868
-0.0034056061 -0.0010121902 0.0018343338 -0.005930868 -0.0059397523 -0.008780508 -0.0047577545 -0.002953868
-0.014977608 -0.008986167 -0.0066836923 0.014556467 0.003462204 -0.0054369383 -0.00220471 -0.0024131332
-0.0025360493 -0.015055676 -0.004134143 -0.0029879662 -0.003354275 -0.0044356287 0.010923015 -0.0040839706
-0.0020879502 0.0076109176 9.461763e-05 -0.0070841447 0.006953924 0.011923199 0.0029784753 -0.012027124
-0.008354018 -0.012013782 -0.0114522325 0.019951038 0.0061939126 -0.010784676 -0.007948708 -0.015559511
0.01475262 0.006208995 -0.0094907535 -0.008475835 -0.005560479 0.01806938 -0.00062162615 -0.015825283
-0.001834176 -0.0027857716 0.01803598 0.00087047665 -0.015451869 0.00067469454 -0.0070251618 0.014730157
-0.008836822 -0.0146012595 -0.003395037 -0.017406413

third_cons3_filterlist.1.weight f4 [1, 4, 5, 5]
00000000: 32be c5ba 08d0 ec39 013f 42bb b518 1cbc
00000010: fe5a 21bc 4a8a 82bc 54fa 0fbc 68b3 30bc
00000020: ef74 21bc 4971 c1bb bb47 20bc 850c 85bc
00000030: 0f94 42bc b335 1fbc 2d01 62bc 8b5a 333a
00000040: 64ab 383a cef5 b6bb 8f03 ac39 41f2 95bb
00000050: e79e 183a 5a75 baba d80f 13bc 8453 65ba
00000060: 6a5a 3dbc 0143 73bc ca9d b9bb d218 ecbb
00000070: a38f b73b 4e03 513c c607 d6ba 9312 433c
00000080: 1f55 bf3b 322e 82bb ed67 59bc 32ee d7bb
00000090: 08a0 a4bc e2de 57bc 70f6 53bb 472f cdba
000000a0: 933f c4b9 dcb9 8abb 0834 22bb bd6f 05bc
000000b0: d817 313a 2af5 383c 4dcf 4ebc fdd3 7fba
000000c0: 2404 94b9 fc56 663b a948 c4bb 2ac5 ffbb
000000d0: 5db1 45bc d4cd f5ba 3a9e b03a 00a2 14bc
000000e0: 7262 41bc f6a9 36bc f3f8 ea3a aeb1 e9bb
000000f0: 8729 0a3b d9da 2bbc e650 9dbb cf92 0e3c
00000100: 05a8 133b 220f 973c 15c9 1a3b b736 c73a
00000110: e475 a23c 3553 013c d3f3 933b 0577 003a
00000120: 46b9 bc3b b87e bb3c 15d2 523c a7dd a5bc
00000130: f7a0 113b ab9b 543b 17e5 1bbc 2e85 933c
00000140: c056 1abc 5343 dbba 6ed9 2bbc 73a0 afbb
00000150: afbc a33b 63c1 c0bb 1ccc d53a 5451 0abc
00000160: 8c6f b7bb ea8b 0c3c 477a fabb 0a3c e63b
00000170: 3588 47bc 7a88 973a 5873 5c3c 4a15 2abc
00000180: 11c7 8e3c 8a00 64bc 30c6 0c3c 7e24 f7ba
-0.001508659 0.00045168423 -0.0029639604 -0.009527375 -0.009848354 -0.015935082 -0.00878771 -0.010784961
-0.009854539 -0.005903397 -0.009782727 -0.016241321 -0.01187612 -0.009717393 -0.013794226 0.00068418
0.0007044582 -0.0055835014 0.00032809048 -0.004575998 0.0005822018 -0.0014225647 -0.008975945 -0.00087481015
-0.011557201 -0.014847518 -0.005664562 -0.0072051072 0.0056018396 0.012757136 -0.0016329221 0.011906284
0.0058390046 -0.003972792 -0.013269407 -0.0065896744 -0.02009584 -0.013175698 -0.0032342933 -0.0015654349
-0.000374314 -0.004233582 -0.0024750251 -0.008144316 0.0006755567 0.01128892 -0.012622667 -0.0009759067
-0.00028231845 0.0035147062 -0.005990107 -0.007805486 -0.0120662125 -0.0018753358 0.001347489 -0.009071827
-0.011803256 -0.01114892 0.0017926976 -0.007131777 0.002108188 -0.010489189 -0.0048009036 0.008701994
0.0022530567 0.018439833 0.002361839 0.0015198801 0.019831605 0.007893373 0.00451515 0.0004900548
0.005759391 0.022887573 0.01286747 -0.020247294 0.0022221187 0.0032441418 -0.0095150685 0.018007841
-0.009420097 -0.0016728438 -0.010488851 -0.005359703 0.004996858 -0.0058824285 0.001631144 -0.008442242
-0.005598014 0.00857828 -0.007643971 0.0070262 -0.01217847 0.0011561059 0.0134552345 -0.010381052
0.017428907 -0.013916144 0.008592173 -0.001885548

third_cons3_filterlist.2.weight f4 [1, 4, 5, 5]
00000000: b47b dfb8 5591 853b c6e5 70bb e805 30bc
00000010: 67b1 03bc 36f2 d73b f2f4 bc3c bac0 ff3b
00000020: 2b1f e0b9 f9e9 a63a 6dd4 743b dcc7 06bc
00000030: cfc6 d6bb 8992 2bbc e97c dabb c205 953a
00000040: b289 803b 7878 00bc 5940 f3bb 310e a7ba
00000050: 6178 bb3b 693b 9d3b 1e04 01bc 4aad 9cbb
00000060: b44a 1f3c bbcd 953b c090 103c 1ab0 66bb
00000070: 596b 283b 4560 ccba e97d 83bc d3cc 793c
00000080: 318a 55bb 95f6 96bb 7aa7 6cbc 30f7 bdbb
00000090: a24c 193c 5e86 41bc 2633 83b9 39a4 be3a
000000a0: e720 0b3b d747 713b 4c8c 98bb e944 69bb
000000b0: 6098 18bb bd73 043b 013a ecbb 203c 17bc
000000c0: 75f3 04bc b4c7 d5bb d309 a03b 3f9e 8ebb
000000d0: da4e 13bb 23d1 253c a3d9 bc3b 24b9 11bc
000000e0: b85b ecb9 af0d ebbb 5ff6 1abc f46c 65bb
000000f0: da85 1cbc 68eb 093a 0930 28bb fb56 953b
00000100: ff89 ebbb 9cba 61bb 67eb 48bc 0ec9 0f3a
00000110: fead b4ba 8559 2a3b 9b4d 09bc 2b7b 02bc
00000120: a136 c0ba 0ddb 853a e4ae 1ebc cffd 353b
00000130: 099f f03b e916 d23b 3a1c 9fbb c8f5 803b
00000140: c067 9bb5 6fbf 223c f2bf b03b f0c7 15bc
00000150: 4e26 c0ba eb17 abbb 4423 e53b 4a89 f33a
00000160: db69 f3bb 9c61 e5bb 11c4 c4ba e0cb 583b
00000170: 2345 ee3b 73e5 c0ba cc31 6fbb a9c0 193c
00000180: aa89 0c3c 68f2 a03b d4f0 46bc 207c 04ba
-0.0001065651 0.004076163 -0.003675805 -0.010743596 -0.0080379015 0.006590153 0.023066018 0.007804957
-0.0004274783 0.0012734524 0.003735806 -0.008226361 -0.0065544615 -0.010471948 -0.0066677225 0.0011369514
0.0039226646 -0.007841222 -0.0074234423 -0.0012745318 0.0057211374 0.004798342 -0.007874517 -0.0047814
0.0097224 0.004571644 0.008823574 -0.003520018 0.002569875 -0.0015592655 -0.01605125 0.015246588
-0.003258359 -0.0046070316 -0.014444226 -0.0057972893 0.00935665 -0.011811821 -0.00025024376 0.0014544792
0.0021229328 0.0036816502 -0.0046553966 -0.0035594052 -0.0023284182 0.0020210587 -0.007209063 -0.0092306435
-0.008114685 -0.0065240506 0.0048839836 -0.0043523605 -0.002247742 0.010120663 0.005763249 -0.008894239
-0.00045081764 -0.007173262 -0.0094581535 -0.0035007568 -0.009553397 0.00052612135 -0.0025663397 0.004557488
-0.0071880813 -0.0034443503 -0.012263156 0.00054849766 -0.0013784764 0.00259933 -0.008380319 -0.007963936
-0.0014664718 0.0010212377 -0.009685252 0.002776969 0.007343177 0.0064114225 -0.00485566 0.0039355494
-1.1578595e-06 0.009933337 0.0053939754 -0.009141907 -0.0014659853 -0.005221357 0.0069927294 0.0018580344
-0.0074283904 -0.0070001613 -0.0015012046 0.0033080503 0.0072714253 -0.0014716819 -0.0036498187 0.009384313
0.008577744 0.0049117096 -0.012142379 -0.00050538965

fourth_last1_filterlist.0.weight f4 [1, 6, 5, 5]
00000000: 0421 1abc 496c 32bc c866 1dbc 83c8 d6bb
00000010: ebc4 a5bb 93a8 a03b f0a4 e5b7 90c1 8bba
00000020: 0f52 023b a36b 4c3c 0de5 ba3b 727d 293b
00000030: d86b 08bb a8fe 90bb 7f04 a8b8 7d50 e63b
00000040: 6cf4 b139 9b82 81bb 9d99 1d3c 460f 1b3c
00000050: fb00 0ebc dc46 5cbc e1eb 56bc 6457 08bc
00000060: cbf8 ddbb cb28 bcba 02ac 5c3a 9225 b23a
00000070: e3d9 91ba 4dc6 bbbb f7f9 9b3b f012 b43b
00000080: 1e85 9b3b 9e0d 11bb 8dbe 4b3b bc43 9abb
00000090: 2ff3 0e3a 7bf4 18bb 387c d8bb 158b c8bb
000000a0: 4de9 fcbb 8c47 fbbb 0c91 f5bb 0f70 d0bb
000000b0: 37df b5bb 59a2 d8bb dd0b 58bb fd31 47bb
000000c0: ff01 7f3b 826f a63b e6c7 2b3b 15cb 643b
000000d0: 468e 153b d1b1 76bc a66c 37bc 5721 52bb
000000e0: c5aa 01bc 771d 09bb 5e5b c6bb 456c daba
000000f0: d842 d4bb d99e 08bc 93a5 d6bb f9ba 893b
00000100: 32f3 6f3a bb86 e93b 741a 153c dae0 483a
00000110: 4d12 c23b 7ab5 fc38 b1ee a43b d03b 80bb
00000120: cf0a 02bc 8a96 d53a f8bd cabb 9aeb a53b
00000130: d039 3a3b 07b8 243b a9e9 10bc d99f eabb
00000140: e0f0 813b 11c4 b73b 5bb8 80ba 8a14 a63b
00000150: 7bbf 3d3b 0b01 a93a aac9 e3bb 6892 99bb
00000160: 700a a0b9 1c39 2dbc cf8d 193b 3c71 fe39
00000170: 0c3f 353b 429c f139 f404 493c ce0e e5bb
00000180: e523 b6ba 36f7 74bb 6593 4dbb bb22 173c
00000190: cc84 19bc f213 5cba 1397 b03b dc68 18ba
000001a0: 8b1d 51bb 7e0a 17bc c2d9 f3ba 75a0 e43a
000001b0: 8ddd c9ba 168d cd38 56b4 2bbc de54 50bc
000001c0: 43cf 44bc 8c25 64bc f924 f6bb 4bdd 40b9
000001d0: 859a 4739 e4f8 0abb 0927 9dbb 4a8a 0a3c
000001e0: 1b5e ba3b 310e c53b b640 ecbb 0ee4 27bb
000001f0: a597 203b 8d64 4b3b 6257 86bb 45bd 953b
00000200: e3e3 153b f874 23bb 7801 163b ff20 fabb
00000210: b3d6 073c e663 d53b 76f8 0cbc 600b 7438
00000220: a8fb 22bc 20d9 b03b 6e0b 50bb 08c6 e2bb
00000230: 079b 12bc 73e0 eebb 974d eebb 0617 53bb
00000240: a061 f2bb b087 3bba d2aa 203c cf1c 21bb
00000250: 8250 813b 2c48 10bb
-0.009407286 -0.010890075 -0.0096070245 -0.0065546646 -0.005058875 0.004902908 -2.7375732e-05 -0.0010662545
0.0019885337 0.0124768345 0.0057035745 0.0025862125 -0.0020816233 -0.0044248886 -8.011702e-05 0.007028638
0.0003394218 -0.003952337 0.009619144 0.009464091 -0.008667226 -0.013444629 -0.013117761 -0.008321617
-0.006774043 -0.0014355419 0.0008417965 0.0013591519 -0.0011127557 -0.0057304264 0.0047600227 0.0054954216
0.0047460934 -0.002213336 0.003108892 -0.0047077816 0.00054531073 -0.002333908 -0.006606605 -0.0061200955
-0.0077182413 -0.007668441 -0.0074940976 -0.0063610147 -0.005550291 -0.00661115 -0.0032966055 -0.0030394786
0.0038911102 0.0050792107 0.0026211678 0.0034911085 0.0022820397 -0.015057043 -0.011195337 -0.003206333
-0.00791425 -0.0020922103 -0.0060533723 -0.0016664347 -0.006477695 -0.0083386535 -0.0065504997 0.004203197
0.00091533654 0.007126657 0.009100545 0.00076629 0.005922592 0.00012050099 0.005033337 -0.00391338
-0.007937147 0.0016295474 -0.006187197 0.0050634863 0.0028415807 0.0025134103 -0.008844771 -0.0071601686
0.003965482 0.0056080897 -0.0009820567 0.0050683664 0.0028953243 0.0012893988 -0.0069515305 -0.0046866424
-0.00030525355 -0.010572698 0.0023430472 0.00048531021 0.0027655987 0.00046083523 0.012269247 -0.0069902902
-0.0013896195 -0.0037378795 -0.0031368372 0.009224589 -0.00937004 -0.0008395306 0.005389103 -0.0005813965
-0.0031908478 -0.00921881 -0.0018604326 0.001744284 -0.001540111 9.801441e-05 -0.010480007 -0.012715546
-0.012012306 -0.0139249675 -0.0075117317 -0.00018392985 0.00019035682 -0.002120548 -0.004795913 0.008455822
0.005687488 0.0060136546 -0.0072098626 -0.002561811 0.002450445 0.0031035275 -0.0040997723 0.004569682
0.0022871427 -0.0024941545 0.002288906 -0.007633328 0.008290934 0.006512153 -0.00860416 5.8184727e-05
-0.009947695 0.005396977 -0.0031745094 -0.00692058 -0.008948094 -0.00728994 -0.007272433 -0.0032209768
-0.0073968917 -0.0007153703 0.009806352 -0.0024583822 0.003946365 -0.0022015674

bn2.weight f4 [16]
00000000: 841f 233f f642 233f 4b4a 233f e68e 233f
00000010: 0d27 233f 873f 233f 3c2d 233f 557a 233f
00000020: 6b34 233f 1e4d 233f 4036 233f 876c 233f
00000030: c7a8 233f a175 233f d72d 233f 8e43 233f
0.63719964 0.6377405 0.6378524 0.6388992 0.6373146 0.6376881 0.637409 0.6385854
0.6375186 0.63789546 0.63754654 0.63837475 0.6392941 0.6385136 0.6374182 0.63774955

bn2.bias f4 [16]
00000000: 2631 16bb 0679 38bb d67a 75bb fab5 503b
00000010: a153 a4b9 a95a a8bb d5ad a4bb 803f 053b
00000020: 62b0 9ebb 36ce b0b9 8256 19bb 85fe 19bb
00000030: 7419 323a c116 d6bb 99bb b839 7277 c138
-0.0022917478 -0.0028148307 -0.003745725 0.0031846748 -0.00031342826 -0.0051377607 -0.005025605 0.0020332038
-0.004842804 -0.00033722975 -0.002339751 -0.0023497653 0.0006793954 -0.006533474 0.00035234986 9.2252056e-05

bn2.running_mean f4 [16]
00000000: f07d f0bb d2fe f23c 0bc7 5e3a 6ed2 003b
00000010: 67b0 90bc e51a 0dbd a197 4dbb 9de5 dcbc
00000020: 1dc5 513d 206c 78bc 1a32 d9bc 7b81 38bc
00000030: 75f6 d1bc d123 ffbc 9c0d f5bb 9b40 16bd
-0.0073392317 0.029662523 0.00084982876 0.0019656676 -0.01766224 -0.034449477 -0.0031370895 -0.026964957
0.051213372 -0.015162498 -0.026513148 -0.011261339 -0.025630215 -0.031145008 -0.007478429 -0.036682706

bn2.running_var f4 [16]
00000000: 957f ba3a 5ca1 353a 081c 053a 876a d739
00000010: fc87 e039 8dd1 0c3a ba85 ec3a 96b2 993a
00000020: 40a7 de3a b31c 1d3a 185c 383a eeaa 243b
00000030: 489b 803a dbb7 5b3a 5621 6e3a 134e 8f3a
0.0014228696 0.00069286465 0.00050777243 0.00041087365 0.00042825926 0.00053718017 0.0018045225 0.0011726196
0.00169871 0.0005993351 0.0007032766 0.0025126296 0.0009811902 0.00083815836 0.0009083947 0.0010933302
