models/9.pth (torch_old, 252406 bytes, 36 tensors)

c1.weight f4 [6, 3, 5, 5]
0	0xbd509759	-0.050925586
1	0xbd3fd134	-0.04683037
2	0xbcdad61e	-0.026713427
3	0xbd914b28	-0.07094413
4	0xbdab27aa	-0.08357175
5	0xbcda21c3	-0.026627427
6	0xbbd9c676	-0.006645973
7	0x3db61f2a	0.08892663
8	0xbdafc71c	-0.08582899
9	0xbbd06401	-0.0063595776
10	0xbd983017	-0.074310474
11	0xbd9d23fe	-0.076728806
12	0xbd3ef9b7	-0.046624865
13	0xbd2988fc	-0.041390404
14	0xbd26a64b	-0.040685933
15	0xbd9c56c8	-0.0763374
16	0xbdc34965	-0.09535483
17	0xbc78f2d7	-0.015194616
18	0x3cf1fdac	0.029539905
19	0xbbde00b0	-0.0067749843
20	0x3dcc34e4	0.099710256
21	0x3de1363a	0.10996671
22	0x3e131792	0.1436446
23	0x3d6aa911	0.05729014
24	0xbc6b26bb	-0.014352496
25	0xbdaf938d	-0.08573065
26	0x3d76d7d3	0.06026442
27	0x3e0a1c9b	0.13487475
28	0xbd9d9af3	-0.0769557
29	0x3c6bdc96	0.0143958535
30	0x3ce1e187	0.02757336
31	0x3da73679	0.08164687
32	0x3e1f53f8	0.15559375
33	0x3c8491e2	0.016182844
34	0x3d831e68	0.06402284
35	0xbca578a2	-0.020199124
36	0xbc5aadaa	-0.013347069
37	0xbc5e94d4	-0.013585288
38	0x3c5d90ee	0.013523323
39	0x3db8bafc	0.090200394
40	0xbb86a8f8	-0.004109498
41	0xbd1dd691	-0.038534705
42	0x3de370fe	0.11105536
43	0x3cd45638	0.025920019
44	0x3cf8d0e0	0.030373037
45	0xbd2b471f	-0.041815873
46	0x3b16d436	0.0023014671
47	0xbc9f7fa9	-0.019470053
48	0xba858fd5	-0.001018996
49	0x3e0d2f1f	0.13787507
50	0xbda27fed	-0.07934556
51	0x3d60fa73	0.054926347
52	0xbddfcead	-0.10928092
53	0xbdaba586	-0.083811805
54	0xbc66fa40	-0.01409775
55	0xbe11e148	-0.14246094
56	0x3b91ded6	0.004451613
57	0x3d26899b	0.040658575
58	0xbd804918	-0.062639415
59	0x3ca70d40	0.02039206
60	0xbe188159	-0.14893092
61	0xbe0f453f	-0.13991259
62	0xbe055088	-0.13019001
63	0xbddbeaf9	-0.10738177
64	0xbd894e86	-0.0670443
65	0xbd84f2bd	-0.06491611
66	0xbc6f6e17	-0.01461365
67	0xbd1a5e66	-0.03768768
68	0xbd52dc35	-0.051479537
69	0x3cd5fc4c	0.026121281
70	0xbd3d41da	-0.04620538
71	0xbd619a88	-0.055079013
72	0xbddf5a4e	-0.10905896
73	0x3cdfc78f	0.027316837
74	0xbc907a3f	-0.017636416
75	0x3d531a0d	0.051538516
76	0x3d3e474e	0.04645472
77	0xbcd420f4	-0.02589462
78	0x3cbfb4f0	0.023401707
79	0x3d708fc0	0.05873084
80	0x3d1b91bb	0.037980776
81	0xbc3ed134	-0.011646558
82	0x3d7e8159	0.062135074
83	0x3d370e16	0.044691168
84	0x3d6818e7	0.056664374
85	0xbe012dd0	-0.12615132
86	0x3c308861	0.010774703
87	0x3d1ea60b	0.03873257
88	0xbc3fa4d3	-0.011697012
89	0x3da185e6	0.07886867
90	0x3d8cff6e	0.06884657
91	0x3de55f9f	0.11199879
92	0xbd053ae2	-0.03252686
93	0xbcc1b82a	-0.023647387
94	0xbdb6e17c	-0.089297265
95	0x3d7c856d	0.061650682
96	0x3dd30940	0.10304499
97	0xbd858cfa	-0.0652103
98	0xbd23a24d	-0.039949704
99	0xbd0f6977	-0.03501269
100	0x3b261451	0.00253417
101	0xbd9c81a3	-0.07641914
102	0xbcf1434d	-0.029451037
103	0xbd134580	-0.035954952
104	0xbdec00c3	-0.11523583
105	0x3e2801b2	0.16406897
106	0x3e410e20	0.18853045
107	0xbc27d0d9	-0.010242664
108	0xbd85fdd9	-0.06542558
109	0x3b900e82	0.0043962607
110	0x3e1ad8e2	0.15121797
111	0x3cea5dbc	0.02860915
112	0x3dd859ec	0.10564026
113	0x3ca7855a	0.02044933
114	0x3d994246	0.07483344
115	0x3c844ff0	0.016151398
116	0x3e2e83ea	0.17042509
117	0xbd88f841	-0.06687976
118	0x3d9c6557	0.076365165
119	0x3ddc208a	0.10748394
120	0x3dd9ef3b	0.10641333
121	0xbd374176	-0.044740163
122	0x3de9ed42	0.114222065
123	0xbd9a950c	-0.0754796
124	0xbd179b21	-0.037013177
125	0x3e0b8eb3	0.13628654
126	0xbcfa298e	-0.030537393
127	0x3cd9e337	0.026597602
128	0x3dea7d60	0.11449695
129	0x3cf7972f	0.030223457
130	0x3e4e2de1	0.20134689
131	0x3c315091	0.010822431
132	0x3dcf88f3	0.10133543
133	0x3e1d57e5	0.1536556
134	0x3d7d56dd	0.061850417
135	0x3d0d1661	0.03444517
136	0x3e32f266	0.1747528
137	0xbd0f4259	-0.034975383
138	0x3bc4bba7	0.006003815
139	0x3c3e4643	0.011613431
140	0x3db5dde1	0.08880211
141	0x3e364986	0.17801484
142	0xbc3ac9e9	-0.011400678
143	0xbd696b90	-0.056987345
144	0x3ca8c863	0.020603364
145	0x3df68c38	0.12038463
146	0x3d8a56ca	0.06754835
147	0x3da516dd	0.080610014
148	0x3d12f681	0.035879616
149	0xbc2751b2	-0.010212349
150	0x3cdf938b	0.027292034
151	0xbcd74c72	-0.02628157
152	0xbdd41edd	-0.10357449
153	0xbd8db001	-0.06918336
154	0xbdeae23c	-0.11468932
155	0xbcf382a4	-0.02972538
156	0x3da8c5c2	0.08240844
157	0xbdc9f08e	-0.09860335
158	0xbd195b50	-0.037440598
159	0xbdc1a68e	-0.09455596
160	0x3db7126b	0.0893906
161	0xbd6250aa	-0.05525271
162	0x3e060f5d	0.13091798
163	0xbd8bc999	-0.06825561
164	0x3ddc502d	0.1075748
165	0xbd9d1be0	-0.07671332
166	0x3e125f7a	0.14294234
167	0x3e022a4b	0.12711446
168	0xbda37fbb	-0.07983347
169	0x3dafba59	0.08580465
170	0x3dd67a00	0.104724884
171	0x3dae2c92	0.08504595
172	0xbd8d7819	-0.069076724
173	0xbdac8f40	-0.0842576
174	0x3d25f755	0.040519077
175	0xbc82e138	-0.015976533
176	0x3d3a1003	0.045425426
177	0xbde9e08b	-0.11419781
178	0xbdf4cb31	-0.11952818
179	0x3c9cfe6d	0.019164288
180	0xbd5ac259	-0.053408
181	0x3d686aa5	0.05674233
182	0x3daf3e05	0.08556751
183	0xbb85cf3b	-0.0040835417
184	0x3d3fe139	0.04684565
185	0xbc548319	-0.012970709
186	0x3da444ff	0.080209725
187	0x3ce292b8	0.027657852
188	0x3dd313f9	0.10306544
189	0xbc90ac8b	-0.0176604
190	0xbdb4787b	-0.08812042
191	0x3c719a3d	0.014746246
192	0xbd41fd89	-0.04736093
193	0xbda55c0d	-0.08074198
194	0x3dbb0383	0.09131529
195	0xbdaea7d8	-0.085281074
196	0xbcf9a409	-0.030473726
197	0x3cecf6fd	0.028926367
198	0x3ce96c0f	0.02849391
199	0xbcce51fc	-0.025185578
200	0xbdbc18cc	-0.09184417
201	0x3cdee9c3	0.027211076
202	0x3ca39af2	0.019971345
203	0x3db4d5c6	0.088298365
204	0x3d2cc20e	0.042177252
205	0xbdc4b3c4	-0.096046
206	0x3d706b9b	0.05869637
207	0x3d3c3e24	0.0459577
208	0xbde4087b	-0.1113443
209	0x3d308b15	0.04310139
210	0x3b6b8aed	0.003594096
211	0x3d1969b2	0.037454315
212	0x3df705d6	0.1206166
213	0xbd433b8c	-0.04766421
214	0x3cff128d	0.031136775
215	0x3e015002	0.12628177
216	0xbd22a3a9	-0.03970686
217	0x3cf078f0	0.029354542
218	0x3dc5e2fb	0.09662434
219	0xbb98ec47	-0.0046668383
220	0xbde8dbb4	-0.1137003
221	0xbd8ee19c	-0.06976625
222	0x3c32e4cf	0.01091881
223	0xbdb89f54	-0.090147644
224	0x3d66cfa0	0.05635035
225	0xbdde9623	-0.1086848
226	0xbdc73db5	-0.097285666
227	0xbdccfd3e	-0.100092396
228	0xbdb7011a	-0.08935757
229	0xbdde39aa	-0.10850842
230	0x3c260871	0.0101338485
231	0xbdea505b	-0.11441108
232	0xbd60c004	-0.05487062
233	0x3e0fca3e	0.14041993
234	0x3d4c53d5	0.049884636
235	0x3dae90df	0.08523726
236	0xbe0f049e	-0.13966605
237	0x3caf36f9	0.021388518
238	0xbdb86712	-0.09004034
239	0xbdce227d	-0.10065172
240	0xbcc238b3	-0.023708677
241	0x3d3e1716	0.046408735
242	0xbc0f2b85	-0.008738403
243	0xbd8e8988	-0.06959826
244	0xbba6bd4f	-0.0050884853
245	0xbb654978	-0.0034986418
246	0x3d07a0cd	0.033112336
247	0xbdabdfec	-0.08392319
248	0x3dd69206	0.104770705
249	0xbda8fa18	-0.082508266
250	0xbdc02da3	-0.093837045
251	0xbd4ad01c	-0.049514875
252	0x3dd23e8c	0.10265836
253	0x3bc8672d	0.006115815
254	0x3d0dd5e7	0.03462782
255	0x3db36cfb	0.08761021

c1.bias f4 [6]
0	0xbd35392d	-0.04424398
1	0xbdb55d19	-0.088556476
2	0x3cb2efb2	0.021842811
3	0x3c179b99	0.009253406
4	0x3d3f71bf	0.046739336
5	0x3d2946d0	0.041327298

bn1.weight f4 [6]
0	0x3f836beb	1.0267309
1	0x3f857807	1.0427254
2	0x3f7a113e	0.9768256
3	0x3f70126a	0.937781
4	0x3f798e1d	0.9748247
5	0x3f802ca2	1.0013621

bn1.bias f4 [6]
0	0xbcdc99b3	-0.026928758
1	0x3b1805b2	0.0023196754
2	0xbd8f4d17	-0.069971256
3	0xbd3d17a6	-0.04616513
4	0x3c89ded4	0.016829886
5	0xbc0d2131	-0.0086138705

bn1.running_mean f4 [6]
0	0x3d8c4a13	0.06850066
1	0x3e55ed67	0.20891343
2	0x3e88dc14	0.26730406
3	0x3e59463a	0.21218196
4	0x3e7a37a4	0.24435288
5	0x3df8a872	0.121415034

bn1.running_var f4 [6]
0	0x3f11bc37	0.5692782
1	0x400c2eaf	2.1903493
2	0x3eb06a24	0.3445598
3	0x3fa6d5a8	1.3033953
4	0x3e1c8134	0.15283662
5	0x3e6e983f	0.23300265

first_cons6_filterlist.0.weight f4 [1, 3, 5, 5]
0	0x3d428a38	0.047495097
1	0xbca6cfa4	-0.020362683
2	0xbdd5c87f	-0.10438632
3	0xbd0ffe6d	-0.03515475
4	0x3d93c34f	0.072149865
5	0x3e166ae9	0.1468922
6	0xbd83cf7c	-0.06436059
7	0xbdfb1004	-0.12258914
8	0xbe0addef	-0.13561223
9	0x3cd1220d	0.025528932
10	0x3c5224d5	0.012826164
11	0x3dde52a5	0.10855607
12	0xbd0910e0	-0.03346336
13	0x3bfabe84	0.0076521058
14	0x3d9278d5	0.07151953
15	0xbe0912eb	-0.13386123
16	0xbdd1afe1	-0.10238624
17	0x3d50c3ac	0.050967857
18	0xbdc200f5	-0.09472839
19	0x3d5c420e	0.053773932
20	0xbc6163f1	-0.013756738
21	0x3c9a610c	0.018845104
22	0xbd8fe5fe	-0.070262894
23	0xbd68b624	-0.056814328
24	0x3e0b473e	0.13601395
25	0xbdc04b85	-0.09389404
26	0x3cac6811	0.021045716
27	0xbde9abc7	-0.11409717
28	0xbd2e46a5	-0.04254784
29	0xbdf0853c	-0.117441624
30	0x3d42b35a	0.047534324
31	0xbcb42aaf	-0.02199301
32	0xbda47bc2	-0.080314174
33	0xbdacd05a	-0.084381774
34	0xbd9f0e96	-0.07766454
35	0xbe00c77c	-0.12576097
36	0x3be20781	0.006897867
37	0xbe1433e9	-0.14472927
38	0x3d827929	0.06370766
39	0x3d5ecfcd	0.054397393
40	0xbdc34aa5	-0.09535722
41	0x3c9bc804	0.019016273
42	0xbdb57419	-0.088600345
43	0xbd946e06	-0.07247548
44	0xbd935d74	-0.07195559
45	0x3cf5d443	0.03000844
46	0xbd81068f	-0.06300079
47	0x3c8158df	0.015789447
48	0xbd8cc356	-0.06873195
49	0x3d8477c5	0.06468157
50	0x3de54ceb	0.111963116
51	0x3d302445	0.04300334
52	0x3db3bbdc	0.08776066
53	0xbcafe7a0	-0.021472752
54	0x3d79a92f	0.06095236
55	0x3daa4022	0.083130136
56	0x3d497fa9	0.04919401
57	0x3d9d0fc9	0.076690264
58	0x3d3c5dde	0.045987956
59	0xbd7ea428	-0.06216827
60	0x3dd23f4e	0.10265981
61	0x3c881643	0.016612178
62	0x3d838e69	0.06423647
63	0x3dec93f2	0.11551656
64	0xbdb1374a	-0.08653124
65	0x3db8dcac	0.09026465
66	0xbd9958b4	-0.07487622
67	0xbe0b35fc	-0.13594812
68	0x3d8339c2	0.06407501
69	0xbcbc0aa6	-0.022954296
70	0x3d932c0c	0.07186136
71	0x3dbe13a5	0.09281091
72	0x3c97fee6	0.018554162
73	0x3d9ff868	0.078110516
74	0x3cefbb56	0.029264133

first_cons6_filterlist.1.weight f4 [1, 3, 5, 5]
0	0xbd1773b8	-0.036975592
1	0x3df22214	0.11822906
2	0x3b8b88d0	0.0042582527
3	0xbd9b6109	-0.07586867
4	0x3cd3a55f	0.025835691
5	0xbe0562fb	-0.1302604
6	0x3d175fe4	0.036956683
7	0x3c833ca4	0.016020127
8	0x3ceef7cb	0.029170891
9	0xbdd0558e	-0.10172568
10	0xbcd783ce	-0.026307967
11	0xbd931e0b	-0.071834646
12	0xbdcfd492	-0.101479664
13	0xbda68541	-0.08130885
14	0xbcdf74b8	-0.027277336
15	0xbdecbad0	-0.11559069
16	0x3acbd40e	0.0015550868
17	0x3d7a3956	0.061089836
18	0xbd3bc524	-0.045842305
19	0x3dc50d23	0.09621646
20	0x3e0f2dec	0.13982362
21	0xbb203914	-0.0024448084
22	0x3a4db201	0.0007846654
23	0x3ab061b6	0.0013456855
24	0xbd24e349	-0.04025582
25	0x3db24d40	0.087061405
26	0xbd75a59a	-0.059972383
27	0x3cbe09e9	0.023198085
28	0x3d20de56	0.039274536
29	0xbdc38ff6	-0.09548943
30	0x3b268602	0.0025409465
31	0xbd11b769	-0.035575304
32	0x3df7eb20	0.121053934
33	0xbd4b8160	-0.04968393
34	0xbdd2191a	-0.10258694
35	0x3d1a079b	0.03760491
36	0xbe0b0124	-0.13574654
37	0xbdaa3922	-0.083116785
38	0xbd17bca0	-0.03704512
39	0x3daa46fa	0.08314319
40	0x3cbd35e2	0.023096982
41	0x3d130ecc	0.035902783
42	0xbc66cb80	-0.014086604
43	0x3dc19ea1	0.09454084
44	0x3da45279	0.08023543
45	0x3d319133	0.043351363
46	0xbdfa96a5	-0.122357644
47	0xbd10c170	-0.035340726
48	0xbce28cb5	-0.027654985
49	0x3d047223	0.03233541
50	0x3b81f823	0.003966348
51	0x3d9d1bd0	0.076713204
52	0xbc0c3372	-0.008557187
53	0x3db52f57	0.0884692
54	0x3d300ffe	0.042984
55	0xbdb78d25	-0.08962468
56	0xbd903c29	-0.07042725
57	0xbdbb2037	-0.09137004
58	0xbcbd9dff	-0.023146627
59	0x3c908bad	0.017644728
60	0xbd9bb4f8	-0.076028764
61	0xbdeb3c8b	-0.11486157
62	0x3dccea8e	0.10005675
63	0x3dcd8c60	0.1003654
64	0xbaab1f3d	-0.0013055574
65	0xbcc13d4d	-0.0235888
66	0xbce02f4c	-0.027366303
67	0x3c59d70f	0.013295903
68	0xbbdf9ae2	-0.0068238834
69	0x3e1755e8	0.14778864
70	0x3cce309b	0.025169661
71	0x3ddabb90	0.10680306
72	0xbd585172	-0.052812047
73	0xbdfec748	-0.12440354
74	0x3b15fa3a	0.0022884742

first_cons6_filterlist.2.weight f4 [1, 3, 5, 5]
0	0xbda1a690	-0.078930974
1	0x3cd6fab4	0.026242591
2	0xbe16db3c	-0.14732069
3	0xbd1d5040	-0.03840661
4	0x3cc96cae	0.024587955
5	0x3d3ae3b0	0.045627296
6	0x3dac2647	0.08405738
7	0x3de6eef9	0.11276049
8	0x3d8d074f	0.0688616
9	0x3ded0f5e	0.11575197
10	0xbd65ca62	-0.05610121
11	0x3dacf002	0.08444215
12	0xbcb0aede	-0.021567758
13	0x3d2848fe	0.041085236
14	0x3dd3a981	0.10335065
15	0x3cd67987	0.026180996
16	0xbc14a996	-0.009073636
17	0xbc2d188d	-0.010564935
18	0x3d93a2ce	0.07208787
19	0xbcaaa6e0	-0.020831525
20	0xbd5aeda8	-0.053449303
21	0x3e034d2d	0.12822409
22	0x3d1b32a8	0.037890106
23	0xbda2c653	-0.079479836
24	0xbd1393fe	-0.03602981
25	0xbd0b5529	-0.034016762
26	0x3d3d26b1	0.046179477
27	0x3db3835e	0.08765291
28	0x3c6ba052	0.014381485
29	0xbdd9fdeb	-0.10644134
30	0xbd28b07c	-0.041183934
31	0xbde4ea85	-0.111775436
32	0xbe2225c3	-0.15834717
33	0xbd151d82	-0.036405094
34	0x3df8c91a	0.12147732
35	0xbdfaefc2	-0.122527614
36	0xbdc55bd6	-0.09636657
37	0x3d4651c8	0.048417836
38	0xbd15b727	-0.03655162
39	0x3d4ede65	0.05050506
40	0x3ca5a3a2	0.020219628
41	0x3d8802e1	0.06641174
42	0x3d5fcdbc	0.054639563
43	0x3d47754f	0.04869586
44	0xbdbf274d	-0.09333668
45	0xbddc108a	-0.10745342
46	0x3bfa6e73	0.007642561
47	0xbd3c64b3	-0.04599447
48	0x3cf065c2	0.029345397
49	0xbe11c841	-0.14236547
50	0xbdfecef5	-0.12441818
51	0x3e1010e7	0.14068948
52	0xbc0b5834	-0.008504916
53	0xbd8c249d	-0.06842921
54	0x3cc28d41	0.023748996
55	0xbbe87684	-0.0070942063
56	0xbd4b34e0	-0.049610972
57	0x3bf3ae4d	0.0074365498
58	0xbd87a4fa	-0.06623264
59	0xbd83f71f	-0.06443619
60	0x3da46c33	0.0802845
61	0x3cd1f0fd	0.025627607
62	0x3d25fd8d	0.040525008
63	0xbe0838ba	-0.1330289
64	0xbd478b18	-0.048716635
65	0x3d32011d	0.043458093
66	0x3ca99d94	0.020705022
67	0x3df07546	0.11741118
68	0xbdf9743b	-0.12180372
69	0x3d9e5638	0.07731289
70	0xbd2776d5	-0.04088481
71	0x3c1abb6a	0.009444097
72	0xbd3496f9	-0.04408929
73	0xbdb8d007	-0.09024053
74	0x3cfe2392	0.03102282

first_cons6_filterlist.3.weight f4 [1, 3, 5, 5]
0	0xbccb2fa7	-0.024802996
1	0x3d188d07	0.03724387
2	0xbd846663	-0.06464841
3	0x3cce19b6	0.025158744
4	0xbd7090c9	-0.058731828
5	0x3cfc64e3	0.030809825
6	0x3da2e42c	0.079536766
7	0x3d37b9d8	0.04485497
8	0xbdc40d55	-0.095728554
9	0xbc0ae53d	-0.008477506
10	0x3ca6f1d8	0.020378992
11	0x3dac5394	0.08414379
12	0xbde381a4	-0.11108711
13	0xbaab9b04	-0.0013092463
14	0x3ce99bf2	0.028516743
15	0x3c707f71	0.014678822
16	0x3d9a3165	0.075289525
17	0xbdad6421	-0.08466364
18	0x3d6e946a	0.058247007
19	0xbd949ed3	-0.07256856
20	0xbde06574	-0.10956851
21	0x3db11a5c	0.08647606
22	0xbb3b6acd	-0.0028597594
23	0xbda64e54	-0.08120409
24	0xbd8fb602	-0.07017137
25	0xbdd254ce	-0.102700815
26	0xbc9019e9	-0.01759048
27	0xbdbd8520	-0.09253907
28	0xbdbb73e5	-0.091529645
29	0xbde3e78a	-0.11128147
30	0x3d0df2ac	0.034655258
31	0x3d3b0870	0.045662344
32	0x3c9eee4f	0.019400744
33	0x3d8b074a	0.067885
34	0xbdfcbff2	-0.12341298
35	0x3d6ce3a5	0.057834286
36	0x3d651604	0.0559292
37	0x3d87f07f	0.06637668
38	0xbd5cf206	-0.05394175
39	0xbe1546ee	-0.14577839
40	0x3d4315b9	0.04762814
41	0xbcc8da49	-0.024518149
42	0xbd8732fd	-0.06601522
43	0xbd531230	-0.051531017
44	0xbd9ec19e	-0.07751773
45	0xbda2140f	-0.07913982
46	0x3cbcc088	0.023041025
47	0xbdccb167	-0.09994774
48	0xbd271d90	-0.040799677
49	0xbd551fca	-0.05203227
50	0xbd376f89	-0.044784103
51	0xbe01da16	-0.1268085
52	0x3d9e021c	0.07715246
53	0x3d87fb55	0.06639735
54	0xbd7b1c3a	-0.061306216
55	0x3deff7c6	0.11717181
56	0xbde5904c	-0.11209163
57	0x3d403c55	0.046932537
58	0xbc2d6644	-0.010583464
59	0xbdbba684	-0.0916262
60	0xbce77fc5	-0.028259167
61	0x3c7ec051	0.0155487815
62	0xbd94b1b5	-0.072604574
63	0x3dced117	0.100984745
64	0xbd8199d4	-0.063281685
65	0xbde78f87	-0.113066725
66	0x3d6bdb39	0.057582114
67	0x3de9a4ba	0.11408372
68	0xbd7e6946	-0.062112115
69	0x3d914bd3	0.070945404
70	0x3d87a27a	0.06622787
71	0x3df1c14d	0.11804447
72	0xbcddc125	-0.027069638
73	0x3d9c44ca	0.07630308
74	0x3dce2b57	0.1006686

first_cons6_filterlist.4.weight f4 [1, 3, 5, 5]
0	0xbd20a642	-0.039221056
1	0xbd1c27c4	-0.03812386
2	0x3dd2da21	0.10295511
3	0x3cad40e8	0.021149114
4	0xbc91e0ef	-0.017807452
5	0x3e04fa59	0.12986125
6	0x3c810945	0.01575149
7	0x3d4236af	0.04741543
8	0x3d36a424	0.04459013
9	0x3dce6f14	0.1007978
10	0x3c1a8202	0.00943041
11	0xbd0088be	-0.031380408
12	0xbd94826a	-0.07251437
13	0x3bff6249	0.007793699
14	0x3c2d768c	0.010587346
15	0xbddcf0f5	-0.107881464
16	0xbdfc52ac	-0.12320456
17	0x3cb8c025	0.02255256
18	0x3e16ffc7	0.14746009
19	0xbb7cedc4	-0.0038593868
20	0xbd4a6c36	-0.049419604
21	0xbc3e5469	-0.011616805
22	0xbd697d32	-0.05700416
23	0x3e070310	0.13184762
24	0x3d60efcd	0.05491619
25	0xbd832334	-0.06403199
26	0xbdbb15fe	-0.09135054
27	0x3d8837f2	0.06651296
28	0x3dd385e2	0.103282705
29	0x3bcadc46	0.0061908094
30	0xbc9b4549	-0.018953936
31	0xbd78169b	-0.060568433
32	0x3d11b3fc	0.035572037
33	0xbd9d5cf5	-0.07683746
34	0xbd86118f	-0.06546318
35	0x3daea5e8	0.08527738
36	0x3d8a3005	0.0674744
37	0xbd8ba41a	-0.06818409
38	0x3d708434	0.05871983
39	0x3cbff4ea	0.023432214
40	0xbd9770ad	-0.07394538
41	0x3d888e8d	0.066678144
42	0xbe19227c	-0.14954561
43	0xbdbbbbaf	-0.09166657
44	0xbd921993	-0.07133784
45	0x3cc67928	0.024227694
46	0xbe1dd98d	-0.1541502
47	0x3daf927a	0.0857286
48	0x3c8f7fca	0.01751699
49	0x3d517a9f	0.05114233
50	0x3cfb8133	0.030701255
51	0x3e0b93a6	0.13630542
52	0x3cde00ca	0.027099986
53	0x3dfbf92a	0.12303384
54	0x3ca1227a	0.01966976
55	0x3db8b8f0	0.09019649
56	0xbbf66970	-0.0075198933
57	0x3d968340	0.07349253
58	0xbb88c64b	-0.004174029
59	0xbdb6e324	-0.089300424
60	0x3d574527	0.052556183
61	0x3d4035e3	0.04692639
62	0xbd5dfb5d	-0.054194797
63	0x3b37d445	0.0028050106
64	0x3dc322bb	0.09528109
65	0x3d003337	0.031298842
66	0x3db8c0ce	0.090211496
67	0x3cd548bf	0.026035665
68	0x3df0ed04	0.11763957
69	0x3c3ff76b	0.011716704
70	0xbd4f5beb	-0.05062477
71	0xbe066ad6	-0.13126692
72	0xbc9b8dff	-0.018988607
73	0x3d8a2941	0.0674615
74	0x3d8fa1a2	0.07013251

first_cons6_filterlist.5.weight f4 [1, 3, 5, 5]
0	0x3ddfcd38	0.10927814
1	0x3d923400	0.071388245
2	0xbc825972	-0.015911791
3	0xbd837eab	-0.064206444
4	0x3dacfd5f	0.08446764
5	0x3da4a22a	0.08038743
6	0x3d3193bd	0.043353785
7	0x3dae95c6	0.08524661
8	0xbc33a989	-0.010965713
9	0xbc272df7	-0.01020383
10	0xbd3fdbc3	-0.04684044
11	0xbd2c90b0	-0.042130172
12	0xbd8b15ad	-0.06791244
13	0x3e05c5c5	0.13063724
14	0x3d83e772	0.06440629
15	0x3deb749a	0.11496849
16	0xbd2c4693	-0.042059492
17	0xbdc492d2	-0.09598316
18	0xbbf09ac0	-0.0073426664
19	0xbdaab853	-0.08335938
20	0x3cbc3421	0.022974076
21	0xbe0128d9	-0.12613238
22	0x3de47ab9	0.1115622
23	0xbe104a73	-0.140909
24	0x3b530498	0.0032198783
25	0xbd9ff070	-0.07809532
26	0xbc680a15	-0.01416256
27	0x3d3f57b9	0.04671452
28	0xbd9d1d93	-0.076716565
29	0x3bb6e490	0.005581446
30	0xbde8e994	-0.113726765
31	0xbd3f743d	-0.046741713
32	0xbd22cb54	-0.03974469
33	0xbd5b3f0d	-0.053526927
34	0xbd0c0c82	-0.034191616
35	0xbcf868ef	-0.030323474
36	0x3c73bfe1	0.01487729
37	0xbd1253af	-0.03572434
38	0xbcb264fa	-0.021776665
39	0x3dec15cd	0.11527596
40	0xbc85097c	-0.016239874
41	0x3e023bc7	0.12718116
42	0x3ddc4925	0.10756139
43	0x3dba2b29	0.090902634
44	0x3e071f6b	0.13195579
45	0x3d95ba2a	0.073108986
46	0xbd7b8f49	-0.061415944
47	0x3d393213	0.04521377
48	0xbbee3b65	-0.007270264
49	0x3de77a17	0.11302584
50	0xbdaabe49	-0.08337075
51	0x3db25333	0.08707275
52	0xbdc14eba	-0.09438844
53	0x3c9a6ad5	0.01884977
54	0x3da88545	0.08228544
55	0xbdf24be0	-0.11830878
56	0xbdebebda	-0.115195945
57	0xbdc8f2c4	-0.09811929
58	0xbd2bb5f7	-0.041921582
59	0x3cfb6180	0.03068614
60	0xba82da1c	-0.0009983215
61	0xbc85a38d	-0.016313339
62	0xbe08da90	-0.13364625
63	0x3de84123	0.11340549
64	0xbddce164	-0.10785177
65	0x3caff394	0.021478452
66	0xbc061b81	-0.008185268
67	0x3d6f7bfc	0.05846785
68	0x3d4cae78	0.049971074
69	0xbd965e95	-0.07342259
70	0x3dc91c57	0.098198585
71	0xbc4d4438	-0.012528472
72	0x3d251416	0.04030236
73	0x3da47326	0.08029775
74	0xbd5a1cdd	-0.053250182

second_cons6_filterlist.0.weight f4 [1, 4, 5, 5]
0	0x3d2466d7	0.04013714
1	0xbd06a444	-0.0328715
2	0xbd77c6cb	-0.060492318
3	0x3cf43d84	0.02981449
4	0xbd07f7e0	-0.033195376
5	0xbc51b9e4	-0.012800667
6	0xbd585bb3	-0.052821826
7	0x3cac1e13	0.021010434
8	0x3d1a5a74	0.03768392
9	0xbda40d1c	-0.08010313
10	0xbd90bf2d	-0.07067714
11	0x3d5046d9	0.050848816
12	0xbc68ee5a	-0.014216984
13	0x3df46e4e	0.119351014
14	0x3d4e9418	0.050434202
15	0xbda21ed4	-0.07916036
16	0x3a198c8e	0.0005857431
17	0xbd3ba80c	-0.04581456
18	0x3df814d4	0.12113348
19	0x3e0f7148	0.14008057
20	0xbcc2a97a	-0.023762453
21	0x3da53a0c	0.08067712
22	0x3d9787a1	0.07398916
23	0x3d2e63be	0.04257559
24	0xbd4481bd	-0.04797529
25	0x3db01d65	0.085993566
26	0x3ccb6770	0.024829596
27	0x3dedc422	0.11609675
28	0x3dbb292b	0.091387115
29	0x3dc23089	0.094819136
30	0x3cd36fcb	0.025810143
31	0xbc0e4b9b	-0.008685018
32	0xbd2a7821	-0.04161847
33	0x3dd40456	0.103523895
34	0x3dd779d3	0.10521283
35	0x3dcc4bb1	0.099753745
36	0xbbf6b622	-0.007529036
37	0x3deb0b25	0.11476735
38	0x3c59c07c	0.013290521
39	0x3d5be1af	0.053682026
40	0x3d37dee1	0.04489029
41	0x3dd21a33	0.10258903
42	0xbdad70dd	-0.084687926
43	0x3d40a9a1	0.04703677
44	0x3ddf647c	0.10907838
45	0xbc3c27eb	-0.011484127
46	0xbd93d06b	-0.07217487
47	0x3db3c746	0.08778243
48	0x3d99fc81	0.075188644
49	0x3c7f4a87	0.015581734
50	0xbdc63db2	-0.09679736
51	0x3bcd1ea3	0.0062597557
52	0xbd35cc0b	-0.044384044
53	0x3c111620	0.008855373
54	0xbd7fbe1b	-0.062437158
55	0xbc6e06c5	-0.014527981
56	0x3d0bae64	0.03410186
57	0xbcc2a328	-0.02375944
58	0x3d4edbc6	0.05050256
59	0x3cfbf9ca	0.030758757
60	0xbcc35b05	-0.023847112
61	0xbd428d9d	-0.047498334
62	0xbdd8c979	-0.10585303
63	0x3d1dca6b	0.03852312
64	0x3cc92d04	0.024557598
65	0xbd3e42a0	-0.046450257
66	0xbdb37fa9	-0.087645836
67	0xbced79f7	-0.028988821
68	0x3d11c15b	0.03558479
69	0xbd5277df	-0.05138385
70	0xbd88031a	-0.066412166
71	0x3d9cfa36	0.076649114
72	0x3cec0d82	0.028815035
73	0xbd6c9a91	-0.057764594
74	0x3d713128	0.05888477
75	0xbb7ee4b0	-0.0038893633
76	0xbd15fc1a	-0.036617376
77	0x3db2926f	0.08719336
78	0x3d6fd4a7	0.05855241
79	0xbbced245	-0.006311687
80	0x3cbc81a1	0.02301103
81	0xbd97298b	-0.073809706
82	0xbd3ba58d	-0.04581218
83	0x3d9ff077	0.07809537
84	0x3ca02d36	0.019552808
85	0x3d1d9669	0.03847352
86	0xbdfc42b2	-0.123174086
87	0x3d0deea5	0.034651417
88	0xbb2e19e4	-0.0026565725
89	0x3bd4e084	0.006496491
90	0xbb8bf467	-0.0042710784
91	0x3d2207c1	0.039558176
92	0x3da195e9	0.07889921
93	0xbd9a688f	-0.07539474
94	0x3dcfda68	0.101490796
95	0xbca9792f	-0.020687668
96	0x3ba29f06	0.0049628047
97	0xbd3d0848	-0.046150476
98	0xbd1c6381	-0.03818083
99	0xbc021ea2	-0.007941874

second_cons6_filterlist.1.weight f4 [1, 4, 5, 5]
0	0xbd17b5c2	-0.037038572
1	0xbe3f23ff	-0.18666075
2	0xbcc15bed	-0.023603404
3	0x3dea8913	0.11451926
4	0xbb6899e6	-0.0035492121
5	0x3d8e7e32	0.069576636
6	0xbe21c0c6	-0.15796193
7	0xbc5f8228	-0.0136418715
8	0x3db617d9	0.08891267
9	0x3b0b996c	0.0021301163
10	0xbc656305	-0.014000659
11	0xbd36fc6a	-0.044674315
12	0xbd86865a	-0.06568594
13	0x3ddd06c8	0.10792309
14	0xbcf0e7f3	-0.029407477
15	0xbd81acc3	-0.0633178
16	0x3cdb8d77	0.026800854
17	0x3c2bccfb	0.010485883
18	0xbd0d1d06	-0.034451507
19	0x3d4b80c0	0.049683332
20	0x3d838d79	0.06423468
21	0xbe3e999a	-0.18613282
22	0xb9e5f7c7	-0.00043862892
23	0xbc04bda6	-0.008101856
24	0xbbce647f	-0.006298601
25	0x3d269571	0.040669862
26	0xbd88c423	-0.06678035
27	0x3c4f1210	0.012638584
28	0xbdbf2969	-0.0933407
29	0x3d79217c	0.06082295
30	0xbd9d8238	-0.07690853
31	0xbdad4c34	-0.084618
32	0xbc162a41	-0.009165348
33	0x3db77ad7	0.08958977
34	0x3d8ad608	0.067791045
35	0x3d0ba56f	0.034093317
36	0xbde52e4d	-0.11190472
37	0xbd7c6f7c	-0.061629757
38	0x3dbc737a	0.09201713
39	0xbd0bbb6a	-0.03411428
40	0x3d893f28	0.06701499
41	0xbcab6e05	-0.020926485
42	0x3ce4196d	0.027844155
43	0xbd79af75	-0.060958344
44	0x3d7b1510	0.061299384
45	0xbd65f190	-0.056138575
46	0x3d8abc81	0.067742355
47	0x3d9eaa93	0.07747378
48	0x3b9ea1a4	0.0048410464
49	0xbdfa1b5c	-0.1221225
50	0x3d299fc1	0.04141212
51	0x3d39685f	0.04526555
52	0x3d4ed895	0.050499517
53	0xbcb475c5	-0.022028813
54	0xbcde36ab	-0.027125677
55	0xbcd563d0	-0.02604857
56	0xbd7cdc04	-0.06173326
57	0x3d420767	0.04737034
58	0x3cbe6482	0.023241285
59	0x3d0f0254	0.03491433
60	0x3a8e3414	0.0010849261
61	0x3d9a06a0	0.07520795
62	0x3b59b960	0.0033222064
63	0xbcee727c	-0.029107325
64	0xbc8b7c10	-0.017026931
65	0xbdccc295	-0.09998051
66	0xbcf1c91a	-0.029514838
67	0x3d8f83bc	0.07007548
68	0xbdcd5392	-0.100257054
69	0x3ccc1dff	0.024916647
70	0xbceffc8c	-0.029295228
71	0xbc97a7b4	-0.018512584
72	0xbd7e642a	-0.062107243
73	0xbd7ea3aa	-0.0621678
74	0x3c3afa89	0.011412271
75	0xbdd52c3f	-0.1040883
76	0xbdf03d71	-0.11730469
77	0xbc8d1086	-0.017219793
78	0x3d74158d	0.059590865
79	0x3d1baead	0.03800838
80	0x3d1c2827	0.03812423
81	0xbd2a26a5	-0.04154076
82	0xbe145317	-0.14484821
83	0xbd0f47ea	-0.034980692
84	0xbbc8e331	-0.006130599
85	0x3ce52622	0.027972285
86	0xbdb5c65c	-0.08875725
87	0xbc3a4dd2	-0.011371093
88	0x3d838b14	0.064230114
89	0x3d7dd227	0.061967995
90	0xbde18a64	-0.11012724
91	0x3d51dae5	0.051234145
92	0x3cf0cb64	0.02939386
93	0xbd53c947	-0.051705625
94	0xbd868479	-0.06568236
95	0x3bd0d14f	0.006372608
96	0xbd3799ca	-0.0448244
97	0xbb04991a	-0.0020232857
98	0xbd74b0c8	-0.059738904
99	0x3dca2eba	0.09872194

second_cons6_filterlist.2.weight f4 [1, 4, 5, 5]
0	0xbdd6a01a	-0.10479756
1	0x3dd2d84f	0.10295164
2	0xbd3f0c51	-0.046642605
3	0xbd627cf0	-0.05529493
4	0xbda6b136	-0.08139269
5	0xbdb7f7e4	-0.08982828
6	0xbdc851ed	-0.09781251
7	0xbd15a95f	-0.036538478
8	0x3a7893bc	0.00094824634
9	0xbdfcda7e	-0.123463616
10	0xbd87a785	-0.06623749
11	0xbd84c245	-0.064823665
12	0xbdd088c7	-0.10182338
13	0xbda0bf59	-0.07848997
14	0x3ca9970d	0.02070191
15	0x3dc7178e	0.097212896
16	0x3ae928bb	0.0017788628
17	0xbc216f99	-0.009853267
18	0xbdc8afd1	-0.09799159
19	0x3d3a8faf	0.045547184
20	0x3c62d4fb	0.013844724
21	0x3de5bf39	0.112181135
22	0x3df788ad	0.12086616
23	0xbd9841ab	-0.074344
24	0xbd9fd37b	-0.078040086
25	0x3c46b9de	0.012129275
26	0xbcb895a5	-0.022532294
27	0x3d607e14	0.054807737
28	0xbda474d2	-0.08030094
29	0xbcd7f866	-0.026363563
30	0x3d9ad0cf	0.07559358
31	0x3c2f1c92	0.010687964
32	0xbd9dc765	-0.07704047
33	0xbd8ad9f7	-0.06779855
34	0x3beaa315	0.007160554
35	0xbd1b6668	-0.03793946
36	0x3c669120	0.014072686
37	0x3d614c43	0.05500437
38	0xbd8a93e7	-0.067664914
39	0x3d1f837f	0.038943764
40	0xbc6ed1bd	-0.014576373
41	0xbbe84b48	-0.0070890523
42	0x3d74fac9	0.05980948
43	0xbccfc91e	-0.025364455
44	0x3c9c98eb	0.019115886
45	0x3d2af24d	0.041734982
46	0x3dbc53a8	0.09195644
47	0x3d51e46a	0.051243223
48	0x3d871160	0.06595111
49	0x3d902b83	0.07039549
50	0xbd1161ac	-0.035493538
51	0xbc45229b	-0.012032176
52	0xbd3a5d5b	-0.045499187
53	0x3dda9a6a	0.106739834
54	0x3cf28d23	0.029608315
55	0xbd81b222	-0.06332804
56	0xbd34b881	-0.04412127
57	0x3d927fad	0.071532585
58	0xbda2b1b4	-0.079440504
59	0xbd28d0ae	-0.041214637
60	0xbd4fa8dc	-0.050698146
61	0xba895c01	-0.001047969
62	0x3c874533	0.016512489
63	0xbcaabe7a	-0.02084278
64	0x3d061261	0.03273237
65	0x38b10400	8.440763e-05
66	0xbd2e5659	-0.042562816
67	0x3abc32f6	0.0014358449
68	0xbd7c37db	-0.061576705
69	0x3daf7f7a	0.08569236
70	0x3d276724	0.040869847
71	0x3e0bd868	0.13656771
72	0xbcfb9e61	-0.03071517
73	0xbdc3a749	-0.095533915
74	0xbdb2cb0e	-0.08730136
75	0x3dc4ae96	0.09603612
76	0xbd9fd176	-0.078036234
77	0x3ccb1e27	0.024794651
78	0xbd75e506	-0.060032867
79	0xbccef149	-0.025261538
80	0x3d487364	0.04893817
81	0x3dc4e8f7	0.09614747
82	0xbd67c373	-0.05658288
83	0xbb95d582	-0.0045725713
84	0xbd2fa772	-0.042884298
85	0x3cdce5b4	0.026965
86	0x3d8ccafd	0.068746544
87	0x3db00ea7	0.08596545
88	0x3cf071cb	0.029351136
89	0x3d9f2b83	0.07771971
90	0x3c677b7e	0.014128564
91	0xbc2f3a42	-0.010695042
92	0xbc8e628e	-0.017380979
93	0x3c935f2b	0.017989716
94	0x3cc1ca17	0.023655934
95	0x3d306537	0.043065276
96	0x3c28f1f2	0.0103115905
97	0x3cde74ce	0.027155306
98	0x3d2401cc	0.040040776
99	0x3cab1dd1	0.020888241

second_cons6_filterlist.3.weight f4 [1, 4, 5, 5]
0	0xbc1c29f1	-0.009531484
1	0x3d042671	0.032263223
2	0x3ce74560	0.028231323
3	0xbc441dc9	-0.011969992
4	0xbdeee5b7	-0.116649084
5	0x3c82b6fd	0.015956396
6	0x3dde08fa	0.10841556
7	0xbd56d095	-0.052445013
8	0x3d5e0e69	0.05421296
9	0x3d9c97d4	0.076461464
10	0x3d539ab5	0.051661212
11	0xbda875fb	-0.08225628
12	0x3d569117	0.052384462
13	0x3de64265	0.112431325
14	0xbc517515	-0.012784262
15	0xbe2f318c	-0.17108744
16	0xbda9ca09	-0.08290488
17	0x3ca47bef	0.020078627
18	0x39d43df3	0.00040481947
19	0xbd00d1bd	-0.031450022
20	0x3c9fc738	0.019504175
21	0x3d9b260d	0.07575617
22	0xbb932ed3	-0.004491666
23	0xbdd05781	-0.1017294
24	0xbc3d3ed2	-0.011550622
25	0x3d1909e3	0.037362944
26	0xbca981e0	-0.020691812
27	0x3d2e485d	0.04254948
28	0xbdf7b8b4	-0.12095776
29	0x3c6ffa59	0.01464709
30	0xbdae62f5	-0.08514968
31	0xbac49614	-0.001499834
32	0xbcc28e72	-0.023749564
33	0xbd6ae35a	-0.057345726
34	0x3d86e9a3	0.065875314
35	0xbd9f7295	-0.07785527
36	0xbdbab502	-0.09116556
37	0xbd38eecf	-0.04514962
38	0x3df2572a	0.118330315
39	0x3d87b742	0.066267505
40	0xbd865f7c	-0.06561181
41	0x3c78d3c9	0.015187212
42	0xbdaad33c	-0.08341071
43	0x3dba2d53	0.09090676
44	0xbd84624b	-0.064640604
45	0xbcae1418	-0.021249816
46	0xbae27183	-0.0017276261
47	0x3d8e1a9c	0.06938669
48	0xbe021d05	-0.12706383
49	0xbb8c9229	-0.0042898846
50	0xbd51a1cf	-0.051179703
51	0x3cd0f08c	0.025505327
52	0x3dbbfed5	0.09179465
53	0xbdd55d94	-0.10418239
54	0xbca2d041	-0.019874694
55	0x3ad0bec5	0.0015925994
56	0xbe0fa608	-0.1402818
57	0xbdc66fe3	-0.096893094
58	0xbdd723ba	-0.10504861
59	0x3c98b4d5	0.018640915
60	0xbc109f73	-0.008827078
61	0xbda14c15	-0.078758396
62	0xbd8efba7	-0.069815926
63	0x3d2161ac	0.039399788
64	0x3db867ba	0.09004159
65	0xbd8daca4	-0.06917694
66	0x3d4389ac	0.047738716
67	0x3de5f104	0.11227611
68	0x3c6cad51	0.014445619
69	0x3d14eda7	0.036359455
70	0x3cc635e0	0.024195611
71	0x3e0478d6	0.1293672
72	0xbd880010	-0.06640637
73	0xbcf587e3	-0.029972022
74	0x3d8675e0	0.065654516
75	0x3ba70869	0.005097438
76	0xbbcde241	-0.006283075
77	0xbda69eb2	-0.081357375
78	0x3dac08cd	0.08400116
79	0x3da22d75	0.079188265
80	0x3d83a47a	0.06427856
81	0xbc9eec26	-0.019399714
82	0xbd84f2f3	-0.064916514
83	0x3d0da2ed	0.034579206
84	0x3de39c8d	0.11113844
85	0xbd66bbdd	-0.056331504
86	0xbd5eeb0d	-0.05442338
87	0xbdb316bf	-0.08744573
88	0x3db785b8	0.08961052
89	0xbd834c77	-0.06411069
90	0x3d94a709	0.07258422
91	0x3ccce440	0.025011182
92	0xbd63a080	-0.055572987
93	0xbd50ba82	-0.050959118
94	0x3cfafcc9	0.030638115
95	0xbd5d7c17	-0.05407342
96	0x3d5004ee	0.05078595
97	0x3d68c03b	0.05682395
98	0xbd189060	-0.03724706
99	0xbd664378	-0.056216687

second_cons6_filterlist.4.weight f4 [1, 4, 5, 5]
0	0x3cb63545	0.022242198
1	0xbd86c760	-0.065809965
2	0xbd9352ee	-0.07193552
3	0xbc756d8f	-0.014979734
4	0x3d835e32	0.06414451
5	0xbca8eb80	-0.020620108
6	0xbdc0248e	-0.09381972
7	0xbc90577e	-0.017619845
8	0xbd0fa721	-0.035071496
9	0xbd8c0c1e	-0.06838249
10	0xbd32e9c2	-0.04367996
11	0xbd83e208	-0.064395964
12	0xbd0e05ba	-0.03467343
13	0xbddbb74e	-0.10728322
14	0xbbb4cb2a	-0.005517383
15	0xbd98e30a	-0.07465179
16	0xbba5426b	-0.005043318
17	0x3d8ec87b	0.06971832
18	0xbbfa6059	-0.00764088
19	0xbdef8d56	-0.116968796
20	0x3d834dd0	0.06411326
21	0x3dc74cb2	0.09731425
22	0xbd87f293	-0.06638064
23	0xbcb12445	-0.02162374
24	0xbcbe40db	-0.023224285
25	0xbcc6e7ff	-0.024280546
26	0xbd8492dc	-0.06473324
27	0x3c9bc126	0.019012999
28	0x3b18e73b	0.0023331183
29	0xbd4aa72d	-0.049475837
30	0x3d043303	0.03227521
31	0x3d9998e4	0.07499865
32	0x3d8329d1	0.0640446
33	0xbd759957	-0.05996069
34	0x3d6d2de5	0.057905097
35	0xbda76972	-0.08174409
36	0xbdb8bc22	-0.090202585
37	0x3c4cf320	0.012509137
38	0x3dbb5f11	0.09148992
39	0x3db8094e	0.0898615
40	0xbbae21f0	-0.0053141043
41	0x3cc6092c	0.024174295
42	0x3d564893	0.052315306
43	0xbd87624b	-0.06610545
44	0x3d81f3bf	0.06345319
45	0xbe0555e2	-0.13021043
46	0xbe0a0e57	-0.13482033
47	0xbdfc6156	-0.12323253
48	0xbdd5fe6d	-0.104489185
49	0x3db9f6fb	0.09080311
50	0xbd8a9718	-0.067671
51	0x3d8db23a	0.0691876
52	0x3dad49bc	0.08461329
53	0x3ba8b5c1	0.00514862
54	0xbd550b0a	-0.05201248
55	0x3d1d1c69	0.038357172
56	0x3c3b4a23	0.01143125
57	0x3d48725f	0.048937198
58	0x3cafc298	0.021455094
59	0x3d04dda2	0.032437928
60	0xbd95c434	-0.073128134
61	0xbd898fd6	-0.06716888
62	0x3d7e3b2f	0.06206816
63	0xbd9c5e84	-0.07635215
64	0x3dbb62fe	0.09149741
65	0xbd784872	-0.060615964
66	0xbdc20736	-0.094740316
67	0xbc3bb5dc	-0.011456933
68	0xbd8d5994	-0.06901851
69	0xbc90020e	-0.017579105
70	0x3c8542e3	0.016267246
71	0x3d881f0a	0.06646545
72	0xbbcfdb3c	-0.0063432734
73	0x3cca2bbc	0.024679057
74	0x3c9f866d	0.019473279
75	0x3d807c75	0.06273738
76	0xbd95c8af	-0.07313668
77	0xbdee77b3	-0.116439246
78	0xbd36f4b3	-0.044666957
79	0x3ce7252b	0.028215965
80	0x3b4eab46	0.0031535192
81	0xbe155f36	-0.14587101
82	0x3d2421cb	0.04007129
83	0x3bb41eb0	0.0054968223
84	0xbd4f874a	-0.05066613
85	0x3d3606c1	0.044440035
86	0x3d748198	0.059693903
87	0x3daef88c	0.085435
88	0xbe198e02	-0.14995578
89	0x3d269dbe	0.04067778
90	0x3dcc9c20	0.09990716
91	0xbd3d933a	-0.046282984
92	0x3d65e679	0.056128
93	0xbd9416e6	-0.0723093
94	0xbdac972b	-0.084272705
95	0xbd543ca6	-0.05181565
96	0xbdac6146	-0.08416991
97	0x3d8075bf	0.06272458
98	0x3d18bc4b	0.037288945
99	0xbb8d1f28	-0.0043066926

second_cons6_filterlist.5.weight f4 [1, 4, 5, 5]
0	0xbcc8005c	-0.024414234
1	0x3d52bcb0	0.051449478
2	0xbdcc17b7	-0.09965461
3	0x3cbe382f	0.02322015
4	0xbd4fc053	-0.050720524
5	0x3dd85382	0.10562803
6	0xbd359746	-0.04433372
7	0x3db8520a	0.09000023
8	0xbd9bf340	-0.07614756
9	0xbdb7fc87	-0.08983713
10	0xbd8bd31f	-0.068273775
11	0x3b8c2ee9	0.004278053
12	0xbadbe381	-0.0016776175
13	0xbb5c8b18	-0.0033652242
14	0xbde88793	-0.11353984
15	0xbd8c0fcf	-0.06838953
16	0xbd8c4740	-0.06849527
17	0xbdcaa09a	-0.098939136
18	0xbdbf964d	-0.093548395
19	0xbd5bd893	-0.05367334
20	0xbd6634c1	-0.056202654
21	0x3bce6813	0.0062990277
22	0x3d2628ca	0.040566243
23	0x3d70d02d	0.058792282
24	0xbcfc173a	-0.030772794
25	0x3c9c0c67	0.019048883
26	0x3d488941	0.04895902
27	0xbdb9ce2c	-0.09072527
28	0xbe0c92ac	-0.13727826
29	0xbcbb30c1	-0.022850396
30	0x3d94614b	0.0724512
31	0xbc8fe2b4	-0.017564155
32	0xbd8c8ead	-0.06863151
33	0xbd6a63a9	-0.05722395
34	0xbc2ac2c2	-0.01042241
35	0xbd55857b	-0.05212925
36	0x3c20fd47	0.009826011
37	0xbded8ccd	-0.11599121
38	0xbdf8018d	-0.12109671
39	0x3c752e4b	0.01496465
40	0xbdc59b02	-0.09648706
41	0xbe0e3716	-0.13888201
42	0x3ccb444a	0.024812836
43	0xbe0daec3	-0.13836198
44	0x3cb050f6	0.02152298
45	0x3c405448	0.011738844
46	0x3cbac28e	0.022797849
47	0xbdbc2674	-0.09187022
48	0xbd89a919	-0.06721706
49	0x3d9bae0b	0.076015554
50	0x3d79b8c3	0.060967218
51	0xbcd86ff1	-0.026420565
52	0x3cbf645c	0.023363285
53	0x3cc86a79	0.024464833
54	0x3cde39aa	0.027127106
55	0xbd66ed3e	-0.056378596
56	0xbce2ef16	-0.027701896
57	0x3c9c8cba	0.019110072
58	0x3d9a7975	0.07542697
59	0x3ca6f44f	0.020380167
60	0xbd9fb633	-0.077984236
61	0x3dca04c8	0.09864193
62	0x3a29333b	0.00064544723
63	0x3dbf2f10	0.09335148
64	0xbdec4593	-0.11536708
65	0xbbf64036	-0.0075149788
66	0x3c8d7a6b	0.017270287
67	0x3dcadaca	0.09905012
68	0x3cf651af	0.030068247
69	0xbdf7466a	-0.12073977
70	0xbc2e6306	-0.010643726
71	0xbd58fe00	-0.05297661
72	0xbda607e3	-0.08106973
73	0x3d3a8327	0.045535233
74	0xbdaa3305	-0.083105125
75	0x3d7d6932	0.0618679
76	0xbd3808f7	-0.044930425
77	0xbd3720d1	-0.04470903
78	0x3d2274dc	0.039662227
79	0x3d698461	0.057011012
80	0xbbe447bc	-0.006966559
81	0xbd3fbad2	-0.046809025
82	0x3d5bf0c0	0.053696394
83	0xbc5067d0	-0.012720063
84	0x3d93a0b0	0.07208383
85	0x3cf2fc7e	0.029661413
86	0xbcb09309	-0.021554487
87	0xbd34f62e	-0.044180088
88	0xbd736eb6	-0.059431754
89	0x3d651d64	0.055936232
90	0x3c8bfad0	0.01708737
91	0xbbb7ed68	-0.005613018
92	0xbb5c9441	-0.0033657702
93	0xbcd95260	-0.026528537
94	0xbcdb53ba	-0.026773322
95	0x3d16dc11	0.036830965
96	0xbd79a3e8	-0.06094733
97	0x3d9e98fc	0.07744023
98	0x3cd20590	0.025637418
99	0xbcbbe761	-0.022937478

third_cons3_filterlist.0.weight f4 [1, 4, 5, 5]
0	0x3d1348c8	0.03595808
1	0x3c438d1f	0.011935501
2	0xbd7b3b4b	-0.061335843
3	0x3d87df1f	0.06634354
4	0x3d8b20e5	0.067933835
5	0xbdc50e40	-0.096218586
6	0x3c32e602	0.010919096
7	0x3e0b24f4	0.13588315
8	0x3da0afcc	0.078460306
9	0xbd56faa8	-0.05248514
10	0xbb911ea4	-0.0044287015
11	0xbd2709c1	-0.040780786
12	0x3db1fffe	0.08691405
13	0x3d1999e1	0.037500266
14	0xbcc5f602	-0.024165157
15	0xbd4c0dc1	-0.049817804
16	0xbcd52f66	-0.026023578
17	0xbd820639	-0.06348843
18	0x3d47882b	0.048713844
19	0x3dbce622	0.09223582
20	0x3d674e8f	0.056471404
21	0xbd6c3cec	-0.057675287
22	0x3d307b84	0.043086544
23	0xbc1084e5	-0.008820747
24	0xbb8afb81	-0.0042414074
25	0x3d803fad	0.06262145
26	0x3d0e443f	0.034733053
27	0xbd11861f	-0.0355283
28	0xbbf1095f	-0.0073558534
29	0xbdc4862e	-0.09595905
30	0x3d9ca686	0.07648949
31	0x3d91a3c3	0.07111313
32	0xbd18f161	-0.037339572
33	0xbd18b7f7	-0.037284818
34	0xbcde9123	-0.027168816
35	0xbb972cad	-0.00461348
36	0x3d0e7045	0.034775037
37	0xbd0d010c	-0.034424827
38	0xbdd0683f	-0.10176133
39	0x3df01db2	0.11724414
40	0x3d764fa2	0.060134538
41	0x3c2207cc	0.009889554
42	0xbd222856	-0.03958925
43	0xbda0a6db	-0.07844325
44	0xbbbdd8ed	-0.005793682
45	0xbd91674e	-0.07099782
46	0xbe007eba	-0.12548342
47	0xbd2b3d35	-0.04180642
48	0x3d6a43aa	0.057193436
49	0xbdaa66df	-0.08320402
50	0xbd7e0164	-0.062013045
51	0xbd4279e5	-0.04747953
52	0x3d742906	0.059609435
53	0xbc9dab32	-0.019246671
54	0xbdddfc6f	-0.108391635
55	0xbd840523	-0.06446292
56	0xbdc24f3f	-0.09487771
57	0x3da11474	0.07865229
58	0x3cbeb0fd	0.023277754
59	0xbcf87f8a	-0.030334253
60	0x3d6d775f	0.05797517
61	0x3dcb77c0	0.0993495
62	0x3dd65a74	0.10466471
63	0x3d1837f5	0.03716274
64	0xbdab0a98	-0.0835163
65	0xbc3d89c0	-0.011568487
66	0xbd265117	-0.040604677
67	0xbd3e950f	-0.046528872
68	0x3b1acbe3	0.002362006
69	0x3d22471d	0.0396186
70	0x3ca2b042	0.019859437
71	0xbdb23cc0	-0.087029934
72	0x3d8c91ca	0.068637446
73	0xbbb55502	-0.0055338154
74	0xbca78233	-0.020447826
75	0x3d589922	0.052880414
76	0xbdc991b1	-0.098422416
77	0xbc745768	-0.014913417
78	0x3dc6ede3	0.09713342
79	0x3d8488ba	0.06471391
80	0xbdde7411	-0.10861982
81	0xbbce88c3	-0.0063029244
82	0xbb34622b	-0.0027524333
83	0xbce10d06	-0.02747203
84	0x3d72699f	0.05918276
85	0x3b8b5a7f	0.0042527313
86	0xbd6f4d50	-0.05842334
87	0x3d97f7b4	0.074202925
88	0x3df63fc6	0.120238826
89	0xbb6d0e49	-0.0036171845
90	0x3d412545	0.047154684
91	0x3dca11d0	0.09866679
92	0xbd532fe8	-0.05155936
93	0x3d2861cd	0.041108895
94	0xbddb235e	-0.10700105
95	0xbdd5e7c3	-0.10444596
96	0xbd3b8d5a	-0.0457891
97	0xbc905152	-0.017616902
98	0xbda8fa01	-0.082508095
99	0xbccc136e	-0.024911609

third_cons3_filterlist.1.weight f4 [1, 4, 5, 5]
0	0x3d7a335a	0.06108413
1	0xbd1b2c11	-0.037883822
2	0x3da48928	0.08033973
3	0x3d595d2f	0.053067382
4	0x3d8e7c5a	0.06957312
5	0x3d46ef33	0.048567962
6	0x3c110e6e	0.008853538
7	0x3d93c0c9	0.07214505
8	0x3d1e66fd	0.038672436
9	0xbdb233c2	-0.08701278
10	0xbc33d709	-0.010976561
11	0xbd356aaa	-0.044291176
12	0x3d406912	0.046975203
13	0xbcc1aa3d	-0.023640746
14	0x3db7a480	0.08966923
15	0x3dd9cbc8	0.10634571
16	0xbd2481b1	-0.040162746
17	0xbbc168a9	-0.005902369
18	0xbd9c254a	-0.076243
19	0xbd082d33	-0.03324623
20	0xbd548b42	-0.05189062
21	0xbcbdc4a7	-0.02316506
22	0x3d071688	0.03298047
23	0xbd5d2b28	-0.053996235
24	0xbcef7d0d	-0.029234434
25	0xbdaafc9b	-0.08348962
26	0x3cc417c4	0.023937114
27	0xbdbf6d9c	-0.09347078
28	0xbda6267b	-0.08112808
29	0xbddc81ee	-0.107669696
30	0xbd9494f5	-0.07254974
31	0x3d4a0b4e	0.049327187
32	0x3c0ea355	0.008705934
33	0x3c5f9a2c	0.013647597
34	0x3d599429	0.053119812
35	0x3c7ee174	0.015556682
36	0xbd80e16b	-0.06292995
37	0xbd0f175e	-0.034934394
38	0x3d1f81e2	0.038942225
39	0x3d3d1bf0	0.04616922
40	0xbcc7ddc6	-0.024397742
41	0xbde1fbe6	-0.11034374
42	0xbd36729e	-0.0445429
43	0x3db4e2b6	0.08832304
44	0xbc5cd832	-0.013479279
45	0x3d519899	0.05117092
46	0x3dccb873	0.099961184
47	0xbc149f41	-0.009071172
48	0xbd3b72e1	-0.045763854
49	0xbdc8c06f	-0.09802329
50	0xbd80a4bc	-0.062814206
51	0x3cd25c2c	0.025678717
52	0xbc723d23	-0.014785084
53	0x3d6fb74e	0.058524422
54	0xbcad2ada	-0.021138597
55	0xbd20d0fc	-0.039261803
56	0xbd555eab	-0.052092236
57	0x3d4af6c5	0.049551744
58	0xbde3f0ee	-0.11129938
59	0x3d0120de	0.031525485
60	0x3bdcb38c	0.006735271
61	0xbd8a6d6f	-0.06759154
62	0x3d304998	0.043038934
63	0xbcf572e8	-0.029962018
64	0x3cf58359	0.029969858
65	0x3c9e1c51	0.019300612
66	0xbd390a42	-0.0451758
67	0x3db51042	0.088409916
68	0x3d6b28bb	0.05741189
69	0x3da9da3a	0.082935765
70	0xbca8adc3	-0.020590669
71	0xbdb407b6	-0.08790533
72	0xbda89deb	-0.082332455
73	0x3da66ab4	0.08125821
74	0xbc9dd8eb	-0.019268474
75	0xbd9e7196	-0.077365085
76	0xbd39d5be	-0.045369856
77	0xbd4310ae	-0.04762333
78	0xbd9cbca8	-0.07653171
79	0x3d62835f	0.055301066
80	0x3c07a177	0.008278242
81	0x3dbb1bba	0.09136148
82	0x3b49b061	0.0030775296
83	0xbca05f57	-0.019576712
84	0xbd6cf91b	-0.057854753
85	0x3d2579d3	0.040399384
86	0x3d2e26ff	0.04251766
87	0xbd1c3331	-0.038134757
88	0x3df3b8b7	0.11900466
89	0x3d16e693	0.036840986
90	0x3d8b0f06	0.06789975
91	0x3d9fd8ef	0.07805049
92	0x3e1092b5	0.14118464
93	0x3def1525	0.11673955
94	0x3d136c0e	0.03599172
95	0x3db3ebca	0.087852076
96	0x3de7788e	0.11302291
97	0x3e0372d9	0.1283678
98	0x3de7fe1c	0.113277644
99	0xbcbdf309	-0.023187177

third_cons3_filterlist.2.weight f4 [1, 4, 5, 5]
0	0xbd573098	-0.052536577
1	0x3dd7d9a0	0.105395555
2	0xbd0ab1ac	-0.033860847
3	0x3d554db8	0.05207607
4	0xbd72ad5b	-0.059247356
5	0xbd36103f	-0.044449087
6	0x3d344296	0.044008814
7	0x3cf910ff	0.030403612
8	0xbdd3a78c	-0.103346914
9	0xbda60e5e	-0.08108209
10	0x3dc472e8	0.09592229
11	0xbcfdf2a2	-0.030999485
12	0x3d2a242a	0.041538395
13	0xbd8383e8	-0.064216435
14	0x3db78ce8	0.089624226
15	0x3c3beddd	0.011470285
16	0xbd52241d	-0.05130397
17	0xbd96c7f4	-0.07362357
18	0xbd38fa7c	-0.045160756
19	0x3d849dcf	0.06475412
20	0xbd66308f	-0.056198653
21	0xbd706c95	-0.058697302
22	0xbc9d672e	-0.019214239
23	0x3bc0c8ec	0.0058833268
24	0xbd9cc669	-0.07655031
25	0xbccc4864	-0.024936862
26	0x3dbacd52	0.09121193
27	0xbcb94a43	-0.022618419
28	0x3c86a0c8	0.016434088
29	0x3c56b98d	0.013105762
30	0xbc8a484a	-0.016880173
31	0xbc846359	-0.016160654
32	0xbbdfcf3a	-0.0068301233
33	0xbd7102e3	-0.058840644
34	0xbe10cb3f	-0.14140032
35	0x3d0cc2b4	0.03436537
36	0xbd05f6a1	-0.032705907
37	0xbd10f985	-0.03539421
38	0xbdb0eb04	-0.08638576
39	0x3d04aaca	0.03238944
40	0x3d5d0e61	0.05396879
41	0x3d2f7f61	0.042846087
42	0x3d0f18d5	0.03493579
43	0x3cb735df	0.022364555
44	0xbb8d8588	-0.0043188967
45	0x3c555c7c	0.013022538
46	0x3d03549c	0.03206311
47	0xbc947b16	-0.018125098
48	0x3b20174f	0.0024427956
49	0xbe15680c	-0.14590472
50	0x3e04ee98	0.12981641
51	0xbdad4a47	-0.08461433
52	0x3ce4c969	0.027928071
53	0x3b4ae3ec	0.0030958606
54	0xbdab7567	-0.08372002
55	0x3aa47750	0.0012547765
56	0x3ce81bdf	0.028333602
57	0x3d8936b9	0.06699891
58	0xbdc968fb	-0.098344766
59	0xbdc1110a	-0.09427078
60	0xbd616fa0	-0.055038095
61	0xbc2304d0	-0.009949878
62	0xbd6dea88	-0.058084995
63	0x3d5d516d	0.05403273
64	0xbcb2a42c	-0.021806799
65	0x3d72ca0a	0.05927471
66	0xbd68af52	-0.056807823
67	0xbd71aa7d	-0.05900048
68	0xbdc70a5e	-0.09718774
69	0xbccb0209	-0.024781244
70	0xbd3634db	-0.044484
71	0xbd3ba1cd	-0.045808602
72	0x3d09e38e	0.03366428
73	0x3cb93dfe	0.022612568
74	0x3d09e6a9	0.03366724
75	0xbd9c7669	-0.076397724
76	0xbd06c676	-0.03290411
77	0xbdace181	-0.08441449
78	0xbc08f05f	-0.00835809
79	0x3dcffbc8	0.10155445
80	0xbdf0c9f8	-0.117572725
81	0x3d38b3bd	0.045093287
82	0x3b56b6ee	0.0032762843
83	0x3ae39499	0.0017363011
84	0xbc9a249d	-0.018816287
85	0xbca3cf75	-0.019996384
86	0x3d42dcf1	0.047573987
87	0x3d5dae6a	0.054121412
88	0x3dc0f258	0.094212234
89	0xbcb70c66	-0.02234478
90	0x3daefb58	0.08544034
91	0xbc0e8b5d	-0.008700219
92	0x3b4afae3	0.0030972294
93	0x3d563273	0.052294206
94	0xbc1575e5	-0.0091223465
95	0xbd913794	-0.07090679
96	0xbdbad092	-0.09121813
97	0x3d3c7f62	0.04601992
98	0xbd6044de	-0.054753177
99	0x3d830bea	0.06398757

fourth_last1_filterlist.0.weight f4 [1, 6, 5, 5]
0	0x3d70e162	0.05880869
1	0x3d78107b	0.060562592
2	0x3da8ea33	0.08247795
3	0xbd94bf44	-0.072630435
4	0xbd273ac4	-0.040827528
5	0x3dab72b5	0.08371488
6	0xbd930b77	-0.07179921
7	0x3d1a7353	0.037707638
8	0x3a3a002c	0.00070953625
9	0x3d5b4522	0.053532727
10	0xbdcb5c5d	-0.09929726
11	0xbcfda58e	-0.030962732
12	0xbdb2bdd9	-0.08727617
13	0xbc8167fe	-0.015796658
14	0x3d2456d3	0.040121865
15	0xbdebbc7b	-0.11510559
16	0x3d7a4b0f	0.061106738
17	0xbca8fd22	-0.020628516
18	0x3d6069d3	0.05478842
19	0xb9ef0fb6	-0.00045597338
20	0xbce8c96d	-0.02841636
21	0xbb8af20b	-0.0042402796
22	0x3d97b62b	0.07407793
23	0x3c949d97	0.018141551
24	0x3db07b54	0.08617273
25	0xbda170d4	-0.078828484
26	0xbd2f981e	-0.04286968
27	0x3c03900b	0.008029948
28	0xbcfb192a	-0.030651648
29	0x3d32ee57	0.04368433
30	0x3ca8a134	0.02058468
31	0x3c7c652d	0.015404982
32	0xbcda568e	-0.0266526
33	0xbd277476	-0.04088255
34	0xbce5d3fb	-0.028055182
35	0xbd641188	-0.05568078
36	0xbded1f3b	-0.11578222
37	0x3d3059d7	0.043054428
38	0xbc7e35a4	-0.015515719
39	0xbdc42255	-0.09576861
40	0xbd4953d5	-0.049152214
41	0xbcdb3f12	-0.026763473
42	0x3d8c317e	0.068453774
43	0xbd2dcd7c	-0.042432293
44	0x3d891ba4	0.06694725
45	0x37a6cfcb	1.9885503e-05
46	0xbcb07287	-0.021538986
47	0x3d82a0c0	0.06378317
48	0xbaaadc9e	-0.001303572
49	0xbd01b576	-0.031667195
50	0x3c8a16e6	0.016856622
51	0x3cd54a17	0.026036305
52	0x3c317acd	0.010832501
53	0xbd9a66c8	-0.07539135
54	0xbdb33173	-0.08749666
55	0x3cbf2d04	0.023336895
56	0xbd1c895a	-0.038216926
57	0xbccc3d3e	-0.024931546
58	0x3d844985	0.06459335
59	0xbd59afbe	-0.053146116
60	0xbd2acf69	-0.041701708
61	0xbc3e28ad	-0.011606378
62	0x3d4834df	0.048878547
63	0xbcc7c711	-0.024386914
64	0xbccf684b	-0.025318285
65	0x3a503e30	0.0007943837
66	0xbcbe0565	-0.023195932
67	0xbd74ab3b	-0.05973361
68	0xbd814033	-0.06311073
69	0xbd522e2a	-0.051313557
70	0x3d0f5ed9	0.035002563
71	0xbd43cbab	-0.047801655
72	0x3d929df1	0.07159031
73	0x3d8ee388	0.06976992
74	0x3ce99799	0.02851467
75	0x3cac0b4a	0.021001477
76	0xbd98f2cc	-0.07468185
77	0x3caab18b	0.020836612
78	0xbd2fca0d	-0.0429173
79	0x3c9725a1	0.01845056
80	0x3d2c654b	0.042088788
81	0xbd3f3b25	-0.046687264
82	0xbd39dcd2	-0.045376606
83	0xbdad54da	-0.0846345
84	0xbdb9f5d1	-0.09080089
85	0xbda83ba6	-0.08214502
86	0xbd6707bd	-0.056403864
87	0xbd9a9e43	-0.07549717
88	0xbd01f955	-0.031731922
89	0x3aece48c	0.0018073483
90	0xbd235220	-0.039873242
91	0xbd735e7f	-0.05941629
92	0xbba80665	-0.0051277154
93	0xbd9bb1dc	-0.07602283
94	0xbd1fde37	-0.03903028
95	0xbd1b3d10	-0.03790003
96	0x3cda780c	0.026668571
97	0x3d8c496d	0.06849942
98	0x3d0848f8	0.033272713
99	0x3d9703cf	0.07373773
100	0xbd67e46a	-0.056614317
101	0xbc2e8981	-0.010652901
102	0x3d807e8c	0.06274137
103	0x3ddae9c3	0.10689118
104	0xbd004b54	-0.03132184
105	0x3d055583	0.032552253
106	0xbd08f638	-0.033437937
107	0x3df7f8e7	0.12108021
108	0x3d8c2dbe	0.06844662
109	0xbda14f9f	-0.07876515
110	0x3da0f1b8	0.07858604
111	0x3d13f04b	0.036117833
112	0xbdd6eb22	-0.10494067
113	0xbd6c9db6	-0.057767592
114	0x3ddc382c	0.107529014
115	0x3d772c7b	0.060345154
116	0x3e0931ca	0.133979
117	0x3d2d9bd3	0.042384934
118	0xbc10623c	-0.008812483
119	0x3cdc2803	0.026874548
120	0xbbfbc6e2	-0.007683621
121	0xbd8800f5	-0.066408075
122	0xbd02090e	-0.031746916
123	0xbd944171	-0.072390445
124	0x3d57ad3d	0.052655447
125	0xbd274d29	-0.04084507
126	0xbbbaed5a	-0.005704564
127	0xbc5d974a	-0.01352484
128	0xbb61d797	-0.0034460777
129	0x3d76dbac	0.06026809
130	0x3c9dc34d	0.019258166
131	0xbd18c45a	-0.03729663
132	0xbc13bdc7	-0.009017414
133	0xbd72b50f	-0.059254702
134	0x3da45ecd	0.08025894
135	0x3d233098	0.039841264
136	0xbdd27fe5	-0.102783
137	0x3bd07461	0.0063615297
138	0xbc8bbae3	-0.017056888
139	0xbd1c6dce	-0.038190655
140	0x3d33ca84	0.043894306
141	0xbd93cd1f	-0.07216858
142	0x3da6cff8	0.08145136
143	0xbd0c78f9	-0.034295056
144	0xbd74b8ca	-0.05974654
145	0x3ce1c267	0.027558519
146	0x3dbae805	0.091262855
147	0x3c22cb5f	0.009936183
148	0xbd810439	-0.062996335
149	0xbdbaddb1	-0.091243155

bn2.weight f4 [16]
0	0x3f72abe2	0.9479352
1	0x3f77fedb	0.96873254
2	0x3f892c86	1.0716712
3	0x3f809b19	1.0047332
4	0x3f82b1cb	1.0210508
5	0x3f83dbd7	1.0301465
6	0x3f7e252f	0.9927549
7	0x3f86fae3	1.0545315
8	0x3f730b69	0.94939286
9	0x3f7eb4ea	0.994948
10	0x3f7ed765	0.99547416
11	0x3f8278d1	1.019312
12	0x3f7929b8	0.9732928
13	0x3f7b8f48	0.98265505
14	0x3f7777b7	0.96667045
15	0x3f81315c	1.0093188

bn2.bias f4 [16]
0	0xbd298839	-0.041389678
1	0xbc94340a	-0.01809122
2	0x3c9152a7	0.017739607
3	0xbc4456f7	-0.011983625
4	0xbca1b3b1	-0.019739004
5	0xbcd86fc9	-0.02642049
6	0xbd9463ee	-0.072456226
7	0x3d02632d	0.031832863
8	0xbdb8624f	-0.09003126
9	0xbcd3cfd5	-0.025855938
10	0xbd49b1ba	-0.04924176
11	0x3d384a89	0.044992957
12	0xbd8d05f1	-0.06885899
13	0xbd65732b	-0.056018036
14	0xbd1addd5	-0.03780921
15	0xbd798d87	-0.060925987

bn2.running_mean f4 [16]
0	0x3e4fab25	0.2028013
1	0x3e36fd63	0.17870097
2	0x3c63728b	0.01388229
3	0x3d5d0611	0.053960864
4	0x3f1940d1	0.59864527
5	0x3e911953	0.28339633
6	0x3f2e276c	0.68028903
7	0xbe121124	-0.14264351
8	0x3e0d7daa	0.13817468
9	0x3e24068e	0.16018125
10	0xbbc3b1c0	-0.005972117
11	0xbe811dcb	-0.25218043
12	0x3e3661ef	0.17810796
13	0x3f01d434	0.5071442
14	0xbe619114	-0.22027999
15	0x3d6eadf7	0.058271375

bn2.running_var f4 [16]
0	0x3ee13817	0.43988106
1	0x3dfedc95	0.124444164
2	0x3dc6fa4d	0.0971571
3	0x3e1cf7f2	0.15328959
4	0x3e97c000	0.29638672
5	0x3e26dc25	0.16294916
6	0x3e689dd1	0.22716452
7	0x3da39f72	0.07989396
8	0x3e6ffa8d	0.23435421
9	0x3dfe7c12	0.12426008
10	0x3e329a74	0.17441732
11	0x3e1b746e	0.15181133
12	0x3e1b7921	0.15182926
13	0x3e8a0214	0.2695471
14	0x3e3c38f5	0.18381102
15	0x3e073411	0.13203456
